Zooheim/Assets/ML_test/Test00/RollerBall.onnx (onnx, 198637 bytes, 13 tensors)

network_body.observation_encoder.processors.0.conv_layers.0.weight f4 [16, 2, 8, 8]
00000000: 0714 443e 4d8c 19bd fd0f 57bd 8357 19be
00000010: 2d1f 133d 9ccf 3e3e fc99 323e 5ce4 623d
00000020: 3757 9c3e 4e76 cd3d 13dc 2abd 7a42 dd3b
00000030: 818b b4bd 0528 9b3d 2c65 e93c f12d 0ebd
00000040: a1c4 483e dcf4 983c 38e4 113e 33f6 813d
00000050: 2932 00be 1d0b 3c3d f029 fabc a868 92bd
00000060: b1f9 073e 4bbf 473e b6f3 503c 412b 2abe
00000070: fa11 5abd 1fe6 05be 45a8 bcbd 1bef 48bd
00000080: 9548 9d3d 296f 0c3e ec8e a73b 3b32 91bd
00000090: 55ca 23bd 7a6b 6ebd af4d 07bd be89 0cbc
000000a0: 1fa0 853c 0975 923d 96c4 343e 5feb 48bd
000000b0: fc3c cfbc 3382 3e3d 4a97 783d 50d5 89bd
000000c0: 6c59 563c d584 913e 2e1c cbbb 0d13 cbbd
000000d0: 160d a5bd c5d6 983c b95f 0bbe ab6e fabd
000000e0: 7903 cd3d 3d05 963d 76c9 273e ba49 6f3d
000000f0: 74d8 1ebd a5df ae3d 10a3 c6bc 0ed7 bb3d
00000100: b9a4 e8bd 3b52 103d f714 fdbd dd86 23be
00000110: ff19 25be 5982 4f3d 79fd 72bd 4f58 18be
00000120: f152 2c3d 6534 b33b eda2 17be fa9b fabd
00000130: d40e ffbd 370b 94bd 9a0a debd 9881 06bc
00000140: 456e 8bbc 9cf7 0d3e 4558 51bd f86f 38bd
00000150: 5403 a3bd b6dd e83c 17f7 cbbc db98 2abe
00000160: abcf abbb b12f a7bd 4b9d 36bd 9b83 a73c
00000170: 4ff6 ed3d bd7e 033e 30f8 b33d 743e 0bbd
00000180: 4e29 b6bd bb7e 4cbd 8b1b 763d 804e b73d
00000190: e63f b43d f1f5 b93d b1f0 44bc 9584 c93d
000001a0: 7910 c5bb f06e 503d f92b 3d3d ccc0 a73c
000001b0: eb69 f7ba 171c 9bbd 5045 6b3c 553a 463d
000001c0: baea 27be 28ce 07be 4de5 e93d 0b9b 863d
000001d0: c3d9 b4bd 9903 4e3d 8280 d1bd f199 1dbd
000001e0: 776d 4f3c b4c9 313d 06e0 d4bd 29d4 9a3d
000001f0: 0714 293e 8ce9 b5bb 7542 9c3d ae39 d63c
00000200: 601f 6e3d aac8 f3bc 2b18 d93d 7b79 0e3d
00000210: 6881 e53d d561 93bd a90f ab3d 07ff 07be
00000220: 0a35 4e3d 4d9d e13c 3197 aa3c f7d2 1b3e
00000230: 1f6e 7b3d a2d8 013e f781 6f3d 3be6 c5bd
00000240: e87d 28bd 3370 83bb 9370 273b 88ed a83d
00000250: 6a4f f53d 0b50 e73c 49ef 753b 1b6d 81bd
00000260: c1ad 65be 6db8 c93d c76e 92bd 116a 213c
00000270: efeb d2bd 74ca a0bd 66c7 22bb 79f7 bf3c
00000280: e444 99bc 282b 2a3d 311b c73d b075 23bc
00000290: 6c4f 40be 7fed f33c 2a9d b2bd 94cb c53d
000002a0: 4025 12bd e9f1 dcbd c20a ae3b 43af 2bbc
000002b0: 8896 a53d 1940 873b df56 14be 2a18 773d
000002c0: aa9b 4bbd db3f 1b3d b294 a73c a323 f33b
000002d0: 6053 3c3e 4c09 6f3e 7865 92bc 1cbe bebc
000002e0: ae04 bbbc 355b 963c 3852 bb3c 3ba7 6cbd
000002f0: f123 3b3d e003 ab3d 579d 1c3d 28df 3abe
00000300: fc5b 7abc 0470 563d 8f8b 30be 991c 473c
00000310: 54d7 54bd 0289 013d 0960 c3bd b4e2 b3bd
00000320: 8045 0a3e 76c3 1b3e 3078 1d3d b0ab b4bc
00000330: aa3a 09bd 12e6 d0bc d7d6 84bc ae92 47be
00000340: 7405 d3bd 6004 a13d 4b31 e23c c009 ed3c
00000350: dd60 04be bc97 bc3d 0210 3a3d f928 e8bd
00000360: 35ff c9ba 421d c03c f026 38bd 3095 c33c
00000370: a7f8 36be d610 3cbe ab1b d0bd ee53 3dbd
00000380: 9840 b7bd d896 ad3c bb6a 313e 5bb5 343d
00000390: a323 423d 7623 423e 66fe ecbc 3974 ad3d
000003a0: 76a5 e8bd 7ae3 8bbd 8dca 643d e66f 093b
000003b0: 70af a93c 352c 233e 7fd1 9c3d 4d9b 4cba
000003c0: ad49 c8bd 214d c1bc b2c3 3cbd f3b9 8fbc
000003d0: abf6 42be 809d 5abb 120b febc 27d4 b03c
000003e0: 5977 7d3b 6f30 193e 430b ad3d 01b7 0bbe
000003f0: 559d ebbd 5804 adbd 3ccf abbc cc58 693e
0.19148265 -0.037487317 -0.052505482 -0.1497479 0.035918403 0.18633884 0.17441553 0.05539356
0.3053529 0.100323305 -0.041713785 0.0067523094 -0.08815671 0.075759925 0.028490625 -0.034711782
0.19606258 0.018671446 0.14247215 0.06345787 -0.12519135 0.045909036 -0.030537575 -0.07148868
0.13278843 0.19506566 0.012753418 -0.16618063 -0.0532398 -0.13076065 -0.09211782 -0.049056154
0.076798595 0.13714279 0.005113473 -0.07089659 -0.03998788 -0.058207966 -0.03303307 -0.008577762
0.016311703 0.07151229 0.17653117 -0.049052592 -0.025297634 0.046510886 0.060691155 -0.06730139
0.013082843 0.28421655 -0.0061984276 -0.09915743 -0.080591366 0.018657098 -0.13610734 -0.122281395
0.10010428 0.07325218 0.16385445 0.05841992 -0.038780645 0.085387506 -0.024247676 0.09171878
-0.11359543 0.03523467 -0.12357514 -0.15969415 -0.16123198 0.05066142 -0.05932376 -0.14877437
0.042071287 0.0054688924 -0.14808245 -0.122367814 -0.12454 -0.072287016 -0.10841866 -0.0082096085
-0.017020354 0.13863987 -0.05110957 -0.045028657 -0.07959619 0.028426033 -0.024898095 -0.16659872
-0.005243262 -0.08163393 -0.0445836 0.020448497 0.11619245 0.12841316 0.087875724 -0.033995107
-0.08894597 -0.049925547 0.06008486 0.089505196 0.0880125 0.09080113 -0.012020276 0.09839741
-0.0060139266 0.05088705 0.046184514 0.020477675 -0.001887617 -0.07573717 0.014359787 0.048395474
-0.16398135 -0.13262236 0.11420689 0.06572541 -0.08830597 0.0502964 -0.10229589 -0.038476888
0.012660376 0.04340525 -0.103942916 0.075599976 0.16511546 -0.0055515226 0.07629863 0.02615055
0.05813539 -0.02975877 0.10600313 0.03478382 0.11206323 -0.07196394 0.08352596 -0.13280879
0.05034355 0.027540827 0.020824047 0.15217195 0.061384317 0.12680295 0.058473554 -0.096630536
-0.0411357 -0.004011178 0.0025549277 0.082484305 0.11978038 0.02823641 0.0037526658 -0.06319638
-0.22429563 0.098496296 -0.07150035 0.009851948 -0.10298907 -0.07851115 -0.002483809 0.023433434
-0.018709607 0.041545063 0.09721983 -0.009976789 -0.18780297 0.029776333 -0.08721383 0.0965797
-0.035680056 -0.10788328 0.005311341 -0.010478797 0.08085352 0.004127514 -0.14486264 0.06032578
-0.049709 0.037902694 0.020456646 0.0074200197 0.1839118 0.2334339 -0.01787065 -0.02328401
-0.02282938 0.018354038 0.022866353 -0.05777667 0.045688573 0.083503485 0.03823599 -0.1824919
-0.01528072 0.05235292 -0.17240737 0.012152814 -0.051963165 0.0316248 -0.095398016 -0.087834746
0.13503075 0.15211281 0.038444698 -0.022054523 -0.033503212 -0.025500331 -0.016215725 -0.19489548
-0.103037745 0.078621626 0.027611395 0.028935313 -0.12927575 0.092086285 0.045425422 -0.1133594
-0.0015411141 0.023451451 -0.04495901 0.02387485 -0.17868291 -0.18365797 -0.10161527 -0.04622262
-0.08947867 0.021190092 0.1732587 0.044118267 0.047397267 0.1895884 -0.0289299 0.08469433
-0.11359684 -0.06830497 0.05585723 0.0020971238 0.020713538 0.15934832 0.07657146 -0.0007805124
-0.097796775 -0.023596348 -0.046085067 -0.017544722 -0.19039409 -0.0033358037 -0.031011138 0.021585537
0.0038675873 0.14959882 0.084494136 -0.13644029 -0.11504618 -0.08448094 -0.02097284 0.2278778

network_body.observation_encoder.processors.0.conv_layers.0.bias f4 [16]
00000000: 7390 443b 40ff 0abe c975 1ebd c4f0 94bc
00000010: 205a 15bd 6feb 15bc c588 0dbc 07e4 e4bc
00000020: 100f 373c fbf6 13bb 6c34 d1bc 7e55 46bd
00000030: 3f36 41bd d86d 6a3c edb1 5f3b 253e 213b
0.0029993325 -0.13573933 -0.038686547 -0.018181212 -0.036462903 -0.00915037 -0.008638565 -0.027940763
0.011173025 -0.0022577632 -0.025537692 -0.048421375 -0.047170874 0.014308415 0.0034133152 0.0024603691

network_body.observation_encoder.processors.0.conv_layers.2.weight f4 [32, 16, 4, 4]
00000000: ec6b 173d 4aaa 63bd 140a 93bd 356b 1dbd
00000010: d06c 43bd 43cb 19bc b8cb b03d f074 22bd
00000020: 10e7 a73c eb8a 093a df98 d53c cdb1 46ba
00000030: 6ccf 683d 04c6 293d a79e 373c 18ac 583d
00000040: bf75 db3c d8e1 88bd 5464 483d 6db3 b6bd
00000050: a308 e83c 0a4a b7bc ace3 eebd 90d8 fa3d
00000060: d603 893d 9ad2 d1bd 6250 a13d 5eac 08bd
00000070: b4c3 24bd b95b 18bc 039f bf3c e5e9 92bd
00000080: b935 4b3d 7b3d b7bd af1d b1bb 86ce d23d
00000090: 1104 c13c 5f8b b03d cdc7 abbd 3f65 8dbd
000000a0: d848 133d e287 8c3b 5a44 443d a793 93bd
000000b0: 6bb5 803c 2f70 1c3d 9a8a 0d3d ab3f 4bbd
000000c0: d4e6 f5bc 37ca b7bd 5e4a 39bd 23c9 d53d
000000d0: f9ab 6e3d f9aa ccbc d16d dfbc 7721 133d
000000e0: fa0d 0bbe f4b2 fd3c 3443 b13d ee2b dabc
000000f0: 1659 6bbd ba40 b1bd 5141 e0bc 87f4 cf3c
00000100: e610 973d 62a3 e3bc 4bc2 083e 9768 353d
00000110: fb99 75bd e43c 453d 12ed e13d f6b9 d63d
00000120: e981 46be 8a5a ccbd 19c5 be3d 2cd2 9e3b
00000130: 1aa1 e33d db76 8c3d 215a 65bd 3680 94bc
00000140: a119 a03d 2e55 08bd 0d8f cd3c 4c0e 773d
00000150: d17b 003d 43d5 59bd 5fa0 763d 479a 1e3d
00000160: 1a60 5fbd bfa0 8abd 2640 a83d 9cf5 8d3d
00000170: 6cb7 103d adcb aabb 41b9 2dbe f027 71bc
00000180: 8b8d c4bc d650 9dbb 5eb0 f3bb f780 843d
00000190: 417e 353d 95f1 c0bb 8060 3ebd 2c88 313e
000001a0: 4717 383d 412a a93d e937 063d 0ab9 05be
000001b0: 42bd c3bd d6b4 433d 8494 ef3d b8cb 05bc
000001c0: 1c20 a63c ace3 35bd 72c2 5e3d f945 ad3d
000001d0: f961 fd3a 55d7 a4bd 343b 8abd 422d c53c
000001e0: 53b7 e2bb 7d39 f03d 8067 03be be35 af3d
000001f0: ae08 033d eb27 df3d 9470 bb3d 8711 443c
00000200: 663a 263d b533 31bd 47d0 3fbd 7f4e 17be
00000210: 835e e0bc 22b8 49bb de2f dbbd c3ad d0bd
00000220: 334b fa3d dc16 41bd 2041 15bd c1d3 37be
00000230: 21a0 b13d a85f 2a3d 871c ebbc e15b 153b
00000240: a2b6 36bd 8f52 e63b e6c5 06be 51ae 5dbc
00000250: 35d7 7d3b 18db 95bd 1ca6 a0bd 7585 b4bc
00000260: b03f 4fbd c793 13bb eae9 163e 9d4d 3cbd
00000270: b2a4 b13d 283a 70bd 3d76 d13d 7afe 273d
00000280: 27d6 48ba 9db8 01bd 3e99 a1bd 223b d13d
00000290: cf59 d83c b22c c9ba d974 e6bd bb6a fb3d
000002a0: c3cc 9bbc 7fc0 3abc 791c 8c3d 3741 8abd
000002b0: ff1f ad3d 0b49 763d a222 853d b861 a3bc
000002c0: 99f9 06bd 0ee4 90bd 26c0 203c f300 923d
000002d0: 0b88 af3c 37e1 6d3d c051 283e 97ac 903d
000002e0: 934c 833c e986 f1bd 53a9 993d b93b f63d
000002f0: 8449 d73d 1061 fdbb 96f3 2ebd ef8c 993d
00000300: db91 ec3d 3449 903c af1d e33c effc 293c
00000310: a3c1 9b3d ac24 14bc 30da 4b3d 7782 003e
00000320: 1ce0 13bd a801 423d dd15 53bc 175d 013e
00000330: cf0a dcbc 0b0a febd 189d c83d 3d56 48bd
00000340: 50cf 1ebd 8ef2 8abd 76b7 17be 928c 3fbb
00000350: 4047 b2bc cd40 493d b5cb 3f3a ecfc 20be
00000360: 1267 67bd 4eaf a43c e3e6 483d 4c91 113d
00000370: 436a 2cbd f0b7 943c 390b 28bb 1f76 493d
00000380: 48e8 a3bc 52de 3c3c 42a8 7abd 2dc0 9abd
00000390: 0e78 1b3c 41fe fb3d 6431 8bbd c115 853d
000003a0: 6fb6 57bd ce81 983d fafd ac3d 5ac6 50bc
000003b0: 2f89 853d 54f5 44bd a935 073e cd1c 053e
000003c0: 169d cebd 2846 8ebd 6326 8fbd dee9 e4bd
000003d0: 0d1f fc3d 56c8 1b3c 40bc 49bc cb5a e4bc
000003e0: 32d0 8fbd bcb5 373e f6ea 1a3d 9393 3e3d
000003f0: b2e5 a1bc 0400 e5bd dae8 5e3d 648e adbc
0.036968157 -0.055582322 -0.071796566 -0.03843232 -0.047711194 -0.00938684 0.08632606 -0.0396623
0.020495921 0.00052468356 0.026073871 -0.0007579595 0.056838438 0.041448608 0.011207259 0.052898496
0.026789544 -0.06683701 0.048923805 -0.089209415 0.02832443 -0.022374172 -0.11664519 0.12248337
0.06690185 -0.10245247 0.0787666 -0.033367507 -0.0402257 -0.009299212 0.023391252 -0.07173518
0.04961178 -0.08947273 -0.00540515 0.102932975 0.02356151 0.08620333 -0.08387718 -0.06904077
0.03595814 0.0042886594 0.047916748 -0.07205897 0.015711507 0.038192924 0.03455601 -0.049621265
-0.030017294 -0.08974116 -0.045236938 0.104387544 0.058269475 -0.02498387 -0.027274044 0.035920586
-0.1357955 0.03096912 0.08655396 -0.026632275 -0.057458006 -0.08654924 -0.027374895 0.025385154
0.0737627 -0.027787868 0.13355367 0.044289198 -0.0599613 0.048153773 0.11031546 0.10484688
-0.19385494 -0.099782065 0.09314937 0.004846832 0.11114712 0.068586074 -0.055994157 -0.018127542
0.07817388 -0.03328436 0.025092626 0.06031637 0.03136808 -0.053181898 0.060211536 0.03872135
-0.05453501 -0.06768941 0.0821536 0.06931612 0.035331175 -0.0052122683 -0.169652 -0.0147189945
-0.023993274 -0.004800896 -0.007436796 0.064699106 0.04430986 -0.005888174 -0.04647875 0.17337102
0.044944074 0.082600124 0.032768164 -0.13058868 -0.095575824 0.04777988 0.11698249 -0.008166246
0.020278983 -0.044406578 0.054384656 0.08460612 0.0019331566 -0.08048884 -0.06749573 0.024069432
-0.0069188266 0.11729715 -0.12832451 0.085551724 0.0319907 0.108962856 0.09152332 0.0119670695
0.040583037 -0.043262202 -0.046829488 -0.14776038 -0.027388817 -0.0030779918 -0.10702489 -0.101893924
0.12221374 -0.04714094 -0.03643906 -0.17951871 0.0867312 0.04159513 -0.028700126 0.002279036
-0.044607766 0.0070288847 -0.1316143 -0.01353033 0.003873301 -0.073171794 -0.07844183 -0.022036294
-0.050597847 -0.0022518502 0.14737669 -0.045972455 0.08673991 -0.058649212 0.1022763 0.041014172
-0.0007661306 -0.0316702 -0.07890557 0.10216357 0.026410012 -0.0015348403 -0.11252756 0.122762166
-0.019018536 -0.011398434 0.06841368 -0.0675072 0.084533684 0.060128253 0.06500746 -0.019944057
-0.03295288 -0.07074748 0.009811437 0.07129087 0.021427175 0.05807611 0.16437435 0.07064169
0.016027724 -0.1179331 0.07502999 0.1202311 0.10512069 -0.007732518 -0.04271277 0.07497584
0.11551257 0.017613031 0.027724115 0.0103752455 0.07605293 -0.009041946 0.049768627 0.12549768
-0.0361024 0.04736486 -0.012883631 0.12633167 -0.026860623 -0.12404259 0.09795588 -0.04891037
-0.038771927 -0.06784545 -0.14816079 -0.0029228074 -0.02176249 0.049134064 0.00073164265 -0.15721482
-0.05649478 0.020103123 0.049048316 0.035538957 -0.042093527 0.018154114 -0.0025641455 0.049184915
-0.020008221 0.011527615 -0.06119562 -0.07556186 0.0094890725 0.123043545 -0.0679653 0.0649829
-0.052664217 0.07446633 0.0844688 -0.012742603 0.06520306 -0.048085526 0.13204063 0.12999268
-0.100885555 -0.06946975 -0.069897436 -0.11177419 0.1231061 0.009508213 -0.012312949 -0.027875325
-0.07022132 0.1794042 0.037821732 0.046527456 -0.019762848 -0.111816436 0.054421283 -0.021186061

network_body.observation_encoder.processors.0.conv_layers.2.bias f4 [32]
00000000: 10ef e6ba e81d 573d e47b 9abc f37f 013c
00000010: 10e9 d7bc 33b6 1dbd d60e 393d ee51 083d
00000020: 4f3c 913c bf8e 9b3d e3d5 943c 440f 993d
00000030: ade0 a23d b5a6 343d 0585 f53c b75e be3c
00000040: e355 103d eb8d b4bd 983b 8a3c 17a6 2dbc
00000050: 0bec aa3d 325f 883d 5318 953d 20a8 693d
00000060: 7bd3 853c 1d94 bc3d 187b 0e3d 942a 0a3d
00000070: 0833 db3a 5f42 723d dd02 bb3c d452 523d
-0.0017618854 0.052518755 -0.018857904 0.007904041 -0.02635625 -0.038503837 0.045180164 0.03328126
0.017728953 0.07595586 0.018168395 0.07473615 0.0795301 0.044104297 0.029970655 0.023238523
0.035238158 -0.08816131 0.01687412 -0.010598681 0.08345803 0.06658782 0.0728003 0.057045102
0.016336193 0.09207938 0.03478536 0.033732012 0.0016723583 0.059145328 0.022828514 0.051348522

network_body.observation_encoder.processors.0.dense.0.weight f4 [128, 32]
00000000: af83 efbd 58fc 8fbe 51f5 7d3e 9003 a3bd
00000010: 56df 343d a1ee 0d3e 9e00 2cbe aad2 6e3e
00000020: 98a9 06bf ee05 00bf 28dd 5c3d e58b e63d
00000030: 7dde ef3c f710 e53d b869 b3be 9294 39be
00000040: 89fe 8cbe edff 09bc b17f e53e 3cb5 903e
00000050: 5f28 aa3e 66bf a03e 9061 ecbe c22b 83bc
00000060: 3be6 973d 6ea3 a5bc 6b91 673d 5e76 3d3e
00000070: 905f 053e ccc9 a4be bc11 c9be bfaa 3dbe
00000080: 3bde edbd 6e95 083f 8f40 d63d e4a5 b33e
00000090: 7b7e c3bc dc65 153f 207e 8a3d 6ccc 6fbe
000000a0: 2aba 3f3e b8b4 433e 22c9 9b3e 7dc8 303e
000000b0: db30 603e ccfc a4be 3f17 63be a823 4e3e
000000c0: 22ce 1fbd 427d 453e 89af 08be ae31 46be
000000d0: a0bc bc3d 11c8 16be 97b3 903e 1cd9 86bd
000000e0: af6e ac3e 1843 74bd 9fa9 afbd 434f 36be
000000f0: 93c7 1c3e b4e5 0cbd c637 9bbe d8aa 0ebc
00000100: 9eb5 9dbd a4a2 c9be e1ed 5fbe 5870 90bd
00000110: 7aac 40be eafe 91be 8157 053e 2a66 0a3f
00000120: c5a3 4fbe 5415 81bd 3608 8abe acb6 35bf
00000130: 9c4d 8e3d 0ca2 09bf 3726 c93e 84d1 c9bd
00000140: 5cc2 9cbd 5685 f7bd 716a 8ebd d368 a0bd
00000150: 4b8f 793d b07d 24bf 4982 bfbe b43f f23e
00000160: 7063 0a3f 73cb 223e 6529 9c3e c998 913c
00000170: fdb9 92be 1570 bebe 4055 20be cea6 8f3e
00000180: 3139 7fbd 3876 60bd ef35 423e 9d06 fcbe
00000190: 7fd4 27be 2667 17bf 5997 aebe 3095 26bf
000001a0: a385 b7be 37a7 093e c8ec 9a3d e4c8 7abd
000001b0: 12bc dd3c b54a 823c cca6 19be 2425 053e
000001c0: 2565 e1bd c13f 203c 97cc 5c3d eeec dabe
000001d0: 437a 703e 42aa 3bbe 61ee 09be 4a7e a63e
000001e0: 4735 123d 44eb 4bbd c551 4d3e 463c 53be
000001f0: 4061 c33e c360 42be 3bea b33d d341 033f
00000200: 0074 833e a9b1 843e 8229 3e3e bec7 08be
00000210: 156f 6b3e d1d3 a8bd 0088 0a3e ee00 07bf
00000220: 6c55 d63e a55e b1bd c6bc d0be 52c3 db3e
00000230: b1ba 2e3e 8f40 903b e0e3 6abe ea63 2f3e
00000240: 2eb4 ae3c aba9 b23e 3312 8fbe aa54 67be
00000250: fa2b 9b3e 4ddc 703d 2e93 d43e 558d f1be
00000260: cb97 cabd 86fd 1b3e af0c 7b3d 17aa 71be
00000270: 6f6f 25be 584c a53e 7f7a b1be 1473 a2bd
00000280: 2add cb3d 953b ccbd 8dad 0e3e db96 d13d
00000290: 3f3a 913e 64cc 02be 776d cfbb 3021 e8be
000002a0: 1148 81bc 2141 a13a 1890 9e3d 1f97 9bbc
000002b0: 6f98 af3e 27bf ab3e ba72 93be 5329 513e
000002c0: 1d89 aa3d 8a6f 343d a49e 52bd 7984 06be
000002d0: f756 9c3e 2cac 6c3e 7fdb f1be 1b9f abbe
000002e0: db1c 01bf 0ec1 4cba 1105 e33e 7419 f6bd
000002f0: 7b0b 653e 9aee 0cbe d415 26bc bb52 9b3d
00000300: 2079 083e 5162 d73d 3ade ec3e af43 7bbe
00000310: ded9 1dbf 1a83 803e bed2 c4be 698c cebd
00000320: 4358 c3be 9cfa cc3b fdd5 0cbe 72e6 d23e
00000330: 8973 a13e 7fd3 bdbe ca8f 563e ead2 a53e
00000340: b97f f4bc 2ae3 57be bf70 cc3e 01c5 14be
00000350: 3c08 933e 6d7a 833c 8be4 ad3e 2bd6 a93d
00000360: b399 f33d e97e 2bbe c264 01be 5dec 14be
00000370: 5f6e cfbc 0a16 9e3e 45e7 c0bd 45be 0e3d
00000380: 55f3 9c3d 485b ca3e 1f42 3a3e 8b14 943e
00000390: 2e8b 82bd a0d7 543f da27 d33d 9a9f cf3e
000003a0: 2585 dfbc e048 fbbe 8447 39bd a9c8 fe3d
000003b0: 4eda 143e c9b6 563e ad57 c43e e653 843e
000003c0: 52d3 0ebd 0170 a7be a9ef a03e 1fef cc3c
000003d0: 358a f1be 51e3 bbbd d696 35be 538d 013d
000003e0: dae3 a73e 2443 03bf ab38 88bc 3f10 6ebe
000003f0: 873f dabe 1d3b c23e da0b b3be facd 8cbe
-0.116950385 -0.2812221 0.24800612 -0.07959664 0.044158302 0.13860561 -0.1679711 0.2332255
-0.5260253 -0.5000905 0.05392185 0.112571515 0.029280895 0.111848764 -0.35041595 -0.18123081
-0.27537945 -0.008422834 0.44823983 0.2826327 0.33233926 0.31396025 -0.46168184 -0.016012076
0.0741696 -0.02021953 0.056535166 0.18502185 0.13024735 -0.3218521 -0.39271343 -0.18522166
-0.11614653 0.5335301 0.10461532 0.35087502 -0.023864022 0.5835855 0.06762338 -0.23417825
0.1872336 0.19111907 0.3042689 0.1726398 0.21893637 -0.3222412 -0.22176836 0.2013079
-0.039014943 0.19286063 -0.13348211 -0.19354889 0.09215665 -0.14724757 0.28262016 -0.06584379
0.33678195 -0.059634298 -0.085772745 -0.17803673 0.15310507 -0.03439875 -0.3031599 -0.0087077245
-0.07700656 -0.39381897 -0.21868087 -0.07052678 -0.18815795 -0.28514796 0.13021661 0.5406214
-0.20277317 -0.06302896 -0.2695939 -0.7098186 0.069483966 -0.5376289 0.39286968 -0.09854415
-0.076542586 -0.12085979 -0.06953896 -0.07832494 0.06092767 -0.64254284 -0.37404087 0.47314227
0.5405798 0.15897922 0.30500332 0.017773049 -0.28657523 -0.37194887 -0.1565752 0.2805695
-0.0623104 -0.054800242 0.18965887 -0.49223796 -0.16389655 -0.5914177 -0.34099844 -0.6507139
-0.35844144 0.13442694 0.07564694 -0.06122674 0.027067218 0.015904764 -0.15005034 0.1300245
-0.1100562 0.009780825 0.05390605 -0.42758888 0.23484139 -0.18326667 -0.1346984 0.32518226
0.03569534 -0.049784914 0.20050724 -0.20628461 0.38160133 -0.18982224 0.0878491 0.51272315
0.25674438 0.25916794 0.18570521 -0.13357446 0.22991593 -0.08243526 0.13528442 -0.52735794
0.41862047 -0.0866063 -0.40769023 0.42922455 0.17063405 0.0044022272 -0.2293849 0.17127958
0.02132615 0.3489507 -0.27943572 -0.2259089 0.3030699 0.058803845 0.4151854 -0.4717814
-0.098922335 0.1523343 0.061291393 -0.2360004 -0.1615579 0.32284808 -0.3466377 -0.07932106
0.09954293 -0.09972302 0.13933392 0.102338515 0.2836475 -0.12773281 -0.006330188 -0.4533782
-0.015781434 0.0012302735 0.077423275 -0.018992959 0.34295985 0.33544275 -0.28798467 0.2042592
0.083269335 0.044051684 -0.051420823 -0.13136472 0.305351 0.23112553 -0.47237775 -0.33519825
-0.50434655 -0.000781075 0.44339803 -0.120165735 0.2236766 -0.13762894 -0.01013704 0.07584139
0.13327456 0.10516799 0.46263295 -0.24537538 -0.61660564 0.25100023 -0.38442034 -0.10085375
-0.38153276 0.006255461 -0.13753505 0.4119144 0.3153346 -0.3707542 0.20953289 0.32387477
-0.02984606 -0.2108275 0.39929768 -0.14528276 0.2871722 0.016049588 0.33963427 0.082928024
0.1189455 -0.16747631 -0.12636092 -0.1454329 -0.025321184 0.3087619 -0.09419111 0.034849424
0.076635994 0.39522767 0.18189286 0.28921923 -0.06374203 0.8314152 0.103103355 0.40551454
-0.027285168 -0.49079037 -0.04523422 0.12440617 0.14536402 0.20968165 0.3834814 0.2584526
-0.0348695 -0.3270264 0.31432846 0.025016366 -0.47175756 -0.091742165 -0.1773332 0.031628918
0.32791024 -0.51274323 -0.016628584 -0.23248385 -0.42626593 0.37935725 -0.3496998 -0.27500898

network_body.observation_encoder.processors.0.dense.0.bias f4 [128]
00000000: 59bb 8c3d bde4 33bd 6f2e 713d e5b5 803d
00000010: 1b84 8c3d a522 2c3d a36b a23d cc0f 293d
00000020: 7e32 e0bc 8cba 043d c363 973c 4a0d c93c
00000030: 1b11 433d 251f afbb 5d5c 463d b6d6 e1ba
00000040: cf84 33bd 653c 52bd 410d d6ba 50f7 02bd
00000050: b1df ff3c c8d0 763d 8156 a2bc 1760 dabd
00000060: edfe 0c3c fb60 1dbc 8fbd c53d 618d a73c
00000070: 2d70 d23d d596 083d 865d 97bd b02e c43d
00000080: f976 a23c 6d95 833c 0f64 2539 c679 a33d
00000090: 8931 8c3d 468e debb d632 383b 5606 753d
000000a0: 2b3c 07be 9a4c 55bd 07bf cbbd 0e70 bc3d
000000b0: 46a1 093d b7b7 42bc a2ba 623c b303 c03c
000000c0: 5459 7abd c725 9d3d 9a42 ba3d 8020 843c
000000d0: 9e26 413c 7db4 593d 1fde 8b3d fb81 5b3c
000000e0: 877a a43d f959 99bd b69c ae3d 9431 4d3d
000000f0: 2fcf 883c c36f d0bc 0600 3abc 3bca d33c
00000100: bf3f 843d 9e1f 2d3d b0ac b4bb 5356 563d
00000110: 35a6 05bd 1124 ab3d 6abb 563d 75ac 46bc
00000120: 15ea d73d 1c47 62bb e900 553c 4131 bd3d
00000130: fe43 553d 7b28 1b3d 97d3 1abc a527 793c
00000140: 972f 383d 808b 5b3d 36a9 5a3d 806f 9e3c
00000150: a56e 533c 5a0a a9bc 7efd 963d cf7e 883d
00000160: df88 e33c ec52 233d 0171 063d 9020 bf3c
00000170: 299a 1b3d 84a1 343d d3d4 d23d e3fe 3b3d
00000180: 561d a83c 30c9 a33d ac3e 433d 4e6e bc3d
00000190: ee9c 2b3d 9ee6 bc3d 5a9f 4abc d5bf a93c
000001a0: bbc6 443d aeb2 d83d 4c5b 7abd 0412 323c
000001b0: 0797 9d3d 28a6 af3d a932 a0bb e589 333d
000001c0: da4d 143d d7b8 803d 6d2a 893d 6d91 dabc
000001d0: 6eac bb3c 65ea ef3c 0676 023d 434f f73c
000001e0: 8541 afbb 4584 d0bb e2a4 53bd a0dc cd3d
000001f0: 0dae 8abd 64cf b0bb 900f 30bc 4611 d2bb
0.06871671 -0.043919314 0.058882173 0.06284694 0.068611346 0.042025227 0.07930686 0.04127483
-0.027367827 0.032404467 0.018480187 0.02454247 0.047623735 -0.005344289 0.04842793 -0.0017230127
-0.043827828 -0.051327128 -0.0016330854 -0.031974137 0.031234594 0.060257703 -0.019816639 -0.10662859
0.008605701 -0.0096056415 0.09655296 0.020453157 0.10275302 0.03334697 -0.07390885 0.095792174
0.019832121 0.016062463 0.00015772901 0.07982211 0.068453856 -0.0067918627 0.0028106472 0.059820496
-0.13206546 -0.052075006 -0.09948545 0.0920106 0.033601068 -0.011884621 0.013838442 0.023439264
-0.061120346 0.07673221 0.090947345 0.016128778 0.011788992 0.053150643 0.068294756 0.013397689
0.08031183 -0.07487864 0.08525984 0.05009611 0.016700355 -0.025443917 -0.011352545 0.025853267
0.06457471 0.04226648 -0.00551375 0.05232842 -0.03262921 0.083564885 0.052424826 -0.012126078
0.105426945 -0.0034527248 0.013000705 0.0923791 0.052066796 0.037880402 -0.009449861 0.015207206
0.04496726 0.053599834 0.05338403 0.019340277 0.012904798 -0.020634819 0.073725685 0.06664812
0.027775226 0.039874002 0.032822613 0.023330957 0.037988815 0.044099346 0.10294499 0.045897376
0.020521801 0.07997358 0.04766719 0.092007264 0.041897707 0.09223674 -0.012367094 0.020721355
0.048041087 0.105809554 -0.061122224 0.010868553 0.07694822 0.08576614 -0.0048888517 0.04383268
0.036207058 0.062852554 0.06697545 -0.026680673 0.02290937 0.029286573 0.031850837 0.030189162
-0.0053483867 -0.006363424 -0.051670916 0.100518465 -0.06771479 -0.0053958166 -0.010745898 -0.0064107506

network_body._body_endoder.seq_layers.0.weight f4 [128, 133]
00000000: b738 5fbc fe89 813d 16d0 9d3d fd01 81bd
00000010: 62c0 94bd 7afc 17bc 17df 903d d9cd 833d
00000020: ae8b 47bd f0b1 68bd 6105 51bc 3151 743d
00000030: dc29 3f3e 203a 18be 726b 023e dacf 49be
00000040: bfa1 30be ba49 753d 014b dabd 7cdf 053e
00000050: 2f02 8bbe f070 1ebe d65f 773d a8cd d4bd
00000060: c0cb 0f3d 2885 07be eb4c 79be b505 1a3d
00000070: 508e 55be 757a 6e3d c674 18be c21a 29be
00000080: 8adb 403d 101e 40be afa2 0a3d 793a 9dbd
00000090: 8156 0bbe ef43 32bd 5716 96bd 536e 173d
000000a0: 6dff 15be de2c 953d 1cc5 3fbd ecd0 6cbd
000000b0: 081e 41be 7590 5dbd 1424 ffbd 652b 623e
000000c0: c37c 35be a041 3abd cc92 063e 261e 083d
000000d0: b2c9 183d a72c 8bbe 6d6b abbd 77da 5abd
000000e0: bc18 4abe 8062 78bd 4cdc 03be 237b 54be
000000f0: 984d 833c f066 d63b 3570 c93d 6efc 003e
00000100: 28d3 03be d1a9 dbbc 7dfe 35bd e4db 76bb
00000110: a32f d43d 0901 12be a2c6 a8bd 3c6b 3cbe
00000120: 559a adbd af32 e7bd 6f0d 94bd 25b3 a53d
00000130: ec51 75be aa7b adbe 9a16 493e 3990 d9bd
00000140: ea60 73bb 93ad 59be 54e4 3fbd 2141 66bd
00000150: efe3 253e 2ef4 5c3d 3ff1 78be a285 37be
00000160: 7644 823e c481 05be d089 5fbe 9cc4 a83e
00000170: d17d d2bd f82a ccbd 913c efbc b32a 453e
00000180: 1412 493c 6b48 29be 6a56 f1bd e9ab 2dbe
00000190: 70ee 9e3d 012a f8bd f06a f73d 6fce 8d3e
000001a0: df78 2cbd b4a4 183e 0f7b 2f3d f79c f6bd
000001b0: 1674 ddbd 2c3a 0abe 0437 86bd f23a debd
000001c0: 027c b93d d763 773d bbfa d6bd 38e5 92bd
000001d0: ca56 113e b893 44be 9734 e5bd 29e6 ecbd
000001e0: 05c5 183e f560 5abe 6003 c0bc fbc9 ff3d
000001f0: ed9c d23d b250 5abe 98a2 d4bd a6e9 ecbd
00000200: 5880 b43d 2f09 a2bd 428b 8fbd 92d3 713d
00000210: 4643 2cb9 6699 16be 9dca 2c3d 0b56 1fbb
00000220: 0ebc 44be 8b6e f33d e1c2 9bbe e04b 063e
00000230: 8f1b 763d a788 dd3d 8577 063e 3e01 da3d
00000240: a965 d2bd 3ac5 2b3e 3466 eb3d 9065 04be
00000250: 4fb1 8dbe 30bd 3c3e 03a8 e13d a470 0b3d
00000260: 3330 45be 9e76 573d 601d 82bd 7082 353d
00000270: 0d44 3f3e d2b9 36be 7121 a83d f23d 12be
00000280: 3450 4c3d 580e 64be 5af6 2a3a 3428 7e3d
00000290: ebef ccbe 41d7 5c3e a1e8 e83d be16 4a3e
000002a0: 5f7f cbbd 5bec 2dbd 9df3 e93c c7c2 c03d
000002b0: db13 3fbe b189 e6bd b86b 043e 1985 a4bc
000002c0: 8043 94be dae7 843c 9ac9 8b3e e456 58bd
000002d0: de58 1abe a2e4 533e 623c 433e 9c8b ca3d
000002e0: 578d aabc 60e2 debd b1bf 0a3e ae62 1bbc
000002f0: 9739 dbbc 891f e0bd fb48 363e cbb1 cfbd
00000300: cfbe 8cbe 5048 50be 0395 7dbe 1a61 1fbd
00000310: 1809 68be 9b64 0f3e 4b66 9ebe 4af1 c33d
00000320: 7d96 f33d 0de2 a33c 13fd 9fbd ab03 4b3b
00000330: 92d6 eb3d b928 63bc df83 23bb b82b f53d
00000340: 8cca 183d 0d02 b3bd 2556 543d 0adb 65bc
00000350: f613 ee3d 3545 0b3d cdf6 6d3d 6ec1 023d
00000360: 119b 473e 6f41 2a3e 9edf 2e3e 27e9 603e
00000370: 4995 76be e921 78bd d6cc 6cbe 0a4f ad3c
00000380: 3d9c ccbd 345b 17be 1ac5 ef3d f22a ccbe
00000390: f15e 26be b90d 5b3d 361d 37be d980 1c3e
000003a0: ba86 9c3d 207d 5b3e 9d6e c03c d3dc 06be
000003b0: 4ed2 8dbe 7614 003e e810 3dbe 2d37 4b3d
000003c0: 135b 43be cbd7 8d3e a47a 81be 2d95 663e
000003d0: addc 733e 9d85 58be 33db 5d3d 9a06 803d
000003e0: 2e69 0fbc e33b 1ebd 0ca3 073e 368d 9f3d
000003f0: f68e 443d 8d7d a2be 0ebc 263e 9841 4b3d
-0.013624362 0.06325148 0.07705705 -0.06299207 -0.072632566 -0.009276504 0.07073801 0.06435747
-0.048717193 -0.05681032 -0.01275763 0.059647743 0.18668312 -0.14865923 0.127363 -0.19708195
-0.17249201 0.059884764 -0.10658837 0.13073534 -0.27150103 -0.1547277 0.06039413 -0.10390788
0.03510642 -0.13234389 -0.24345748 0.0376031 -0.20855069 0.058222253 -0.14888296 -0.16514114
0.04708437 -0.18761468 0.033846553 -0.076771684 -0.13607217 -0.043521818 -0.0732848 0.036970448
-0.14648218 0.07283948 -0.046818838 -0.05781643 -0.18859112 -0.054092843 -0.12458053 0.22086866
-0.17723374 -0.04547274 0.13141936 0.033231877 0.037301727 -0.27182505 -0.08370099 -0.053431
-0.19735998 -0.060640812 -0.12877005 -0.20750098 0.01602821 0.006543033 0.09835855 0.12596294
-0.12873518 -0.026814373 -0.044432152 -0.0037667686 0.103606485 -0.14258207 -0.08241011 -0.18400282
-0.08476702 -0.11288964 -0.07229125 0.0809081 -0.23957032 -0.3388341 0.19637528 -0.106232114
-0.0037136623 -0.2125762 -0.04684861 -0.056214456 0.16200231 0.053943805 -0.24310778 -0.1792207
0.25442857 -0.13037783 -0.21829915 0.329625 -0.10277904 -0.09969133 -0.029203685 0.1925457
0.012272377 -0.16531532 -0.1178406 -0.1696011 0.07760322 -0.121173866 0.120809436 0.2769656
-0.04210746 0.1490658 0.042841967 -0.120416574 -0.10813157 -0.13498753 -0.06553462 -0.10851087
0.09056856 0.06039795 -0.10497042 -0.07172626 0.14193264 -0.19196975 -0.11191671 -0.11567337
0.14918907 -0.21326049 -0.02343911 0.124896966 0.102838375 -0.21319845 -0.10382575 -0.115680024
0.08813542 -0.07911908 -0.07008983 0.05903966 -0.0001642826 -0.14706954 0.042185415 -0.002431276
-0.19212362 0.11886319 -0.30422118 0.13114882 0.060084876 0.1081708 0.1313153 0.10644768
-0.102732964 0.16774455 0.11494103 -0.12929368 -0.27674338 0.18431544 0.11018374 0.03404297
-0.19256668 0.052603357 -0.06353259 0.044313848 0.18678303 -0.17844322 0.082095034 -0.14281443
0.049881175 -0.22271097 0.00065216946 0.06205006 -0.40026793 0.21566488 0.113724954 0.19735238
-0.099364035 -0.042461734 0.028558547 0.09412151 -0.18659918 -0.11256731 0.12931716 -0.020082997
-0.28957748 0.016223837 0.27302247 -0.05281724 -0.15072963 0.20692685 0.19066003 0.098899096
-0.02081935 -0.10883021 0.13549687 -0.009483976 -0.02676086 -0.10943515 0.17801277 -0.10141333
-0.27489325 -0.20340085 -0.24763875 -0.038910963 -0.22659719 0.14003222 -0.30937418 0.095675066
0.11893938 0.02000525 -0.07811942 0.0030977528 0.115155354 -0.0138646895 -0.0024950427 0.11971229
0.03730254 -0.087406255 0.051839966 -0.014029274 0.11624901 0.034001548 0.058096696 0.03192275
0.19492747 0.16626523 0.1707749 0.2196394 -0.24080385 -0.060579214 -0.23125014 0.021155853
-0.099907376 -0.14780885 0.11707516 -0.39876515 -0.16247155 0.053479884 -0.17882237 0.15283526
0.076428846 0.2143445 0.023490245 -0.13170175 -0.27699512 0.12507805 -0.1846348 0.049613167
-0.19077711 0.277037 -0.2528888 0.22517844 0.2381465 -0.2114472 0.054164123 0.06251259
-0.008753104 -0.03863133 0.13245791 0.07790606 0.0479879 -0.31736413 0.16282675 0.049623102

network_body._body_endoder.seq_layers.0.bias f4 [128]
00000000: 7f88 48bc 6ef6 2fbd 45e0 2cbd 3266 99bd
00000010: 739c 243d 8d77 823c 3205 593d 85e2 c5bb
00000020: fd36 343d 85ae 8ebd c17c b1bc 4753 243d
00000030: 8137 213d 91ce 9c3c da87 5fbd eb9d 2e3c
00000040: 8d10 eabc c899 babc 2b33 2cbd 24e0 7a3d
00000050: e5f6 d33c 7daa dcbc df86 f63c 3414 723c
00000060: 6a8b b6bc aded a6bc 14de 80bc 0e46 5dbd
00000070: 88a5 18bd 2a39 6ebd de39 263c b3cf c23a
00000080: 5e1b f4bc 3788 c2bd aceb e63c ea6d 68bd
00000090: 7cea 17bd b99f 52bd 377a b2bd 5451 763d
000000a0: 5e7a 04bd 39ec 3c3c 91b8 133d fd6e 21bb
000000b0: d482 f5bb 24ff 503d a9c4 fdbc f17e 253c
000000c0: 05bc 9ebd c59a 0f3d f715 9dbd 25f9 97bd
000000d0: 4401 173d d7e6 4cbd aade b23b 1962 143c
000000e0: 512c e4bd b9b3 4a3d addf 12bd 1104 fd3c
000000f0: e894 dcbc c77d 2ebc 9394 83bd b8b7 bebb
00000100: 03cb 1bbd 9f25 503c 7b8e 663d 5785 4cbc
00000110: f366 91bc 6847 6ebc 88fe f93c cbc1 9c3b
00000120: 04f7 65bd d44b 383d dd48 adbc bb6e 2c3d
00000130: 77fb 9ebc 78cd 8439 25f3 f43c c8e1 4e3b
00000140: 1c02 13bd 886c 943c 3235 b6bb 2241 663d
00000150: 8cdf a8bc 87fb b83c 9d42 823c 8452 5cbd
00000160: 193a 253c bbb9 023d 183e 2fbd 93eb 7d3c
00000170: 5908 78bd 1d93 2cbd 57a9 ddbc 81d2 3dbc
00000180: 1ed9 123d 71d2 f83b 32c0 663d 1a1b 67bd
00000190: cb77 403b f327 e3bc 9683 1f3d 7082 e73b
000001a0: 98ac adbc d703 aebc a51d c63d 2835 34bd
000001b0: 1f60 75bd 6c80 123d 1777 c43c e75b 26bd
000001c0: 1cbe 5cbc c8a8 cb3c 784b d63b 259c 113b
000001d0: 2fc7 1e3d 5fcb 873c 6104 3ebd 1577 043d
000001e0: 4cfa 883b ede5 85bb 2775 4ebc f534 9dbb
000001f0: 1557 f2bb 1424 edbc 687d 6cbc c5a8 98bb
-0.012239574 -0.042959623 -0.042206068 -0.07490195 0.040188264 0.015926147 0.05298347 -0.006038966
0.043997753 -0.06966881 -0.021665933 0.040118482 0.039359573 0.019141467 -0.054572918 0.010657768
-0.028572345 -0.022778407 -0.042040985 0.061248913 0.025874564 -0.026936764 0.030093608 0.014775325
-0.022283275 -0.020377005 -0.015730895 -0.054021887 -0.037267238 -0.058159985 0.010145633 0.0014862925
-0.029798206 -0.09498637 0.028188549 -0.056745447 -0.037088856 -0.051421855 -0.08714717 0.060136154
-0.03234326 0.011530929 0.036064688 -0.0024632805 -0.0074924026 0.05102457 -0.030977564 0.010101066
-0.07750706 0.03505971 -0.07670205 -0.074205674 0.03686644 -0.050024834 0.0054586725 0.009056591
-0.11141265 0.049487803 -0.035857845 0.030885728 -0.026926473 -0.010650105 -0.06424823 -0.005820241
-0.038035404 0.012704282 0.056288224 -0.012482963 -0.017749285 -0.014543392 0.030516878 0.004783844
-0.056143776 0.04499419 -0.021152908 0.04209779 -0.019407017 0.00025330088 0.029901097 0.0031567682
-0.035890684 0.018118158 -0.0055605406 0.05621446 -0.020614408 0.022580875 0.015900904 -0.05378963
0.010084652 0.031915408 -0.042783827 0.01549806 -0.060554836 -0.042132486 -0.027058287 -0.011585833
0.03585159 0.007593446 0.056335635 -0.05642233 0.0029368277 -0.02772901 0.03894385 0.00706511
-0.021200463 -0.021242065 0.09673623 -0.043996006 -0.05990612 0.035767004 0.023982568 -0.04061499
-0.01347306 0.024860755 0.0065397583 0.0022218314 0.038764175 0.016576467 -0.046390895 0.032340128
0.0041802283 -0.004086247 -0.0126011735 -0.0047975727 -0.007395635 -0.028947867 -0.014434196 -0.004658791

network_body._body_endoder.seq_layers.2.weight f4 [128, 128]
00000000: 7666 26be 2f4e 3bbd 00fc 993c 2e66 afba
00000010: ad78 d13c 82d3 d1bd 5fb8 1dbd 6518 18bd
00000020: dac3 4abd 429e d3bc d807 12be 2657 0fbe
00000030: 15ce 5b3b f4c4 f2bd 63c8 4e3d 8814 2b3d
00000040: 8d35 10bd 27d2 923d d871 a9bd 6007 1f3e
00000050: 5819 ac3b d116 833c edb6 073e 0d35 303d
00000060: b500 59bd 0084 223d e9e3 213e 5738 8c3d
00000070: 4570 92bd 9246 3c3e 05ff 27bd 9142 7cbd
00000080: 154c c23c 0d26 e43c 6e87 23bd 01ef b2bb
00000090: 1fd0 563d 1727 ca3c 5b23 4b3e 635f 33be
000000a0: 160f 1e3e 5760 563e d36b b23c 6d33 25bd
000000b0: 92fb cabe 17e0 763e a3f9 0a3e 0d2e 1cbe
000000c0: 1c09 fc3d 938f b8bd 790e 003e 6f70 383d
000000d0: 1c3b 393d 379f 19bd 1c2a 18be 5375 ac3d
000000e0: 2e5c 85bd f880 1f3d 319f c0bd 1082 1b3e
000000f0: c908 a13d e2c4 383b bea1 debd edc3 de3d
00000100: 9fed 8d3d b9a1 29be e690 d1bc e58e 90ba
00000110: fd23 c03b 6274 72be de27 3cbd b403 453d
00000120: 89a1 d93d 75cb 73bc 0a2d 56b9 f949 ddbd
00000130: 4360 1b3e 8280 ed3d a54a c03c d693 803c
00000140: 4dce d4bd 9d6d 633e 1bdb 9dbc e402 323d
00000150: f5ef 9ebc 154e 8bbc eb21 93bd 4898 863d
00000160: 9566 2f3e 99f1 da3d a19a 19be 86bc 8d3d
00000170: 6466 9f3d 70a5 ac3d e0b9 45be 94a4 2a3d
00000180: c688 993d 6c29 e3bb dfa3 66bb 5417 bcbd
00000190: f77b 4dbd 581d 45be a2a5 6f3d d75e d73d
000001a0: e03c c43d 6106 a13d e026 4f3e f401 e53c
000001b0: 6a53 03be 7dd6 3b3d 9f62 a4bd 63e2 33be
000001c0: 77e2 423d 480f fd3d 4c79 773d 8c68 e1bd
000001d0: 49e5 fcbd ac19 a43d a432 0e3e 7c0f ddbc
000001e0: 78d5 48be c5f0 edbc 7837 a43d 58bf 10be
000001f0: a9ef 9f3d ee71 9abd 5ceb 32bd 1b83 1b3d
00000200: 9b74 85bd d4e6 09be 3c38 993c c204 8abc
00000210: eeb8 32be f6c1 6c3d 039c ae3e 030d 33bd
00000220: a4a2 6c3e 022d 68bc 77b9 3c3e df87 53be
00000230: c56d 5fbc ac3c 08be 46fa 12bc 37fe 233e
00000240: cfbd e93d 94f2 cabb b143 ff3d 9b8e 003d
00000250: 4dd9 dfbd 7a30 fcbd 2891 5bbe 37d6 8dbe
00000260: 4a49 8cbd 0724 b6bd 3edf 07be be4f 00be
00000270: 8c3c 243e 8843 02be f93e a0bd 4536 1d3b
00000280: ce11 3d3c 6856 f5bd 7d33 65bd 1384 5b3c
00000290: 68eb c1be 0f61 f5bc 34d7 09be 9686 76be
000002a0: bab4 39bd ed53 b3bd abce 6bbe d4c1 83be
000002b0: 9887 0bbd d185 3ebd c87b 89bc 230f 8e3e
000002c0: 4b94 843d 507e d43d 7107 a6bd 0eed b7bd
000002d0: a1e9 403e 7ba1 95bd 6dfa 843d ec62 17bd
000002e0: 5a13 a7bc d04d 143d 0931 8e3c 926d 603d
000002f0: 443f 32be 9dbf 80bd ad0f d43a 24c2 ce3d
00000300: 7ffe 70bc c857 6cbe 761b 7f3e 6014 903d
00000310: 1aa9 bcbd 9fec c8bc 78bf 11be c3d6 16bd
00000320: 47de c3bb 3c0f c53d cecd 5a3e daff f73d
00000330: 2f76 2f3d f940 3bbd eda7 263c 67f7 653e
00000340: f4cc b83d 049a 513d 6b0a 36bd b18a 04be
00000350: 0874 173e f866 86bd c9c2 f53d 9875 ed3d
00000360: bce2 ef3d ec7a dd3d 55e5 41be 756c 3a3d
00000370: 1fbf 25be 1fc1 dfbd 0721 33bd 8268 eabd
00000380: 893f 1cbe dbc3 01be 45f5 a5bb fc54 1abb
00000390: d357 603e 04e7 13be dfe4 d43d 187e 2dbe
000003a0: bb8d 72bd 4797 18bd 5cc4 b2bc 1e57 fabc
000003b0: e476 113e 74cc 923c e961 8ebe 8d8d d43c
000003c0: c61a 36be 5f4a 733e 0b74 083d 5f22 823d
000003d0: d54b b23d 9a0d 50bd af3c 32bd 5780 17be
000003e0: d1a0 00bd 9cf8 eb3d 2e06 973c 138e 513e
000003f0: f4a4 e43d 8f18 45bd db6e 50bd 236b ca3d
-0.16250023 -0.04572886 0.01879692 -0.0013381892 0.025570238 -0.1024542 -0.038505908 -0.03713264
-0.049503185 -0.0258323 -0.14260805 -0.13998088 0.0033539583 -0.11853972 0.050484072 0.041767627
-0.03520732 0.0716899 -0.08273667 0.15530157 0.0052520446 0.01600209 0.13253374 0.043019343
-0.05297919 0.039676666 0.15809597 0.068466835 -0.0715032 0.18386295 -0.04101469 -0.06158692
0.02371792 0.027850175 -0.039924078 -0.0054606204 0.052444573 0.024676843 0.19837706 -0.17516856
0.15435442 0.20935188 0.02177993 -0.040332247 -0.39645058 0.24108921 0.13571791 -0.15251942
0.12306425 -0.090117596 0.12505521 0.0450291 0.045222387 -0.037505355 -0.14859813 0.08420815
-0.065117225 0.038941354 -0.09405363 0.15186334 0.07863004 0.0028193523 -0.108706936 0.108772136
0.06930088 -0.16565599 -0.025581788 -0.0011028914 0.005863665 -0.23677209 -0.045936458 0.048099235
0.106265135 -0.014880051 -0.00020425409 -0.10805125 0.1517344 0.115967765 0.023473093 0.015695494
-0.10390911 0.22209783 -0.019269517 0.043459788 -0.01940153 -0.017005006 -0.07184204 0.06572014
0.17128976 0.10690612 -0.15000392 0.069207236 0.07783201 0.08429992 -0.19309187 0.04166086
0.074967906 -0.006932428 -0.003519289 -0.09184137 -0.05016705 -0.19249475 0.05850757 0.10516136
0.095819235 0.07862545 0.20229673 0.027955033 -0.12824789 0.04585885 -0.08026623 -0.17566828
0.047579255 0.1235643 0.060418412 -0.11006269 -0.1234842 0.08012709 0.13886505 -0.026984923
-0.19612682 -0.029045472 0.08018392 -0.14135492 0.078093834 -0.075412616 -0.043681487 0.03796683
-0.06516381 -0.1346696 0.018703572 -0.016847972 -0.17453358 0.057802163 0.34103402 -0.04371358
0.23108917 -0.014170887 0.18430124 -0.206573 -0.013637011 -0.13304394 -0.008970803 0.16014944
0.11413156 -0.0061934683 0.12464083 0.031386 -0.10930119 -0.12313934 -0.21442091 -0.27702495
-0.06849916 -0.088935904 -0.13268754 -0.12530419 0.16038722 -0.12721074 -0.07824511 0.0023988646
0.0115398895 -0.11979371 -0.055957306 0.013398188 -0.37874913 -0.029953508 -0.13461 -0.24074778
-0.04533837 -0.08756242 -0.23028056 -0.25733817 -0.03406486 -0.046514336 -0.016782656 0.27745923
0.06473597 0.10375655 -0.08106888 -0.089807615 0.18839122 -0.073061906 0.064930774 -0.036959574
-0.02039497 0.03620702 0.017357366 0.054791994 -0.17406946 -0.06286547 0.0016178988 0.10095623
-0.014709114 -0.23080361 0.2491282 0.07035136 -0.09211941 -0.024526892 -0.14233196 -0.036825906
-0.0059774253 0.09622046 0.21367571 0.12109347 0.042837318 -0.04571626 0.010171873 0.22457658
0.09023467 0.05117227 -0.04444353 -0.12943532 0.14790356 -0.065626085 0.12000043 0.11594695
0.11713168 0.10814461 -0.1893514 0.04551359 -0.16186188 -0.10925507 -0.04373267 -0.114457145
-0.15258612 -0.12672369 -0.005064639 -0.002354919 0.21908502 -0.14443594 0.10395216 -0.16942632
-0.059217196 -0.037253644 -0.021822147 -0.030559119 0.1420551 0.017919756 -0.27809075 0.025946403
-0.17783651 0.23758839 0.033313792 0.06354212 0.0870587 -0.05079422 -0.043514904 -0.14795052
-0.031403366 0.11522028 0.018435564 0.20464353 0.11164275 -0.048119124 -0.05088697 0.09883716

network_body._body_endoder.seq_layers.2.bias f4 [128]
00000000: ca92 62bd 9b79 813d 6ec9 29bd 2e36 a93d
00000010: cbc5 f0bd 0317 eabc 0f6c 98bc 7f14 803d
00000020: 0ede 513d f48d 83bd 7d8b 433d c24b 943d
00000030: c654 36bd a01b 473d 8143 8fbc 7e77 7d3b
00000040: d9ac 93bc 6703 713c 018a b03b 836d 313d
00000050: e550 9abc 245b 633d adb1 7b3d be21 7abd
00000060: 3409 4f3c 56bd 07be 8730 833d 88f0 c3bd
00000070: 1d36 29bd 8beb 35bc b9dc 3abd 526a 84bc
00000080: d8bf c43d fa49 64bd 9b66 a53c 5d97 30bd
00000090: d5ab 693b 9ea8 453c b48e f73c aae0 c23c
000000a0: 3dbe e7bd f526 14bd 7aeb 5a3c bb72 c2bb
000000b0: ae22 983d 8e91 9e3c 3d61 b83d b4f9 d93c
000000c0: 2364 713d 9479 453c 8808 9fbc 2ada 35bc
000000d0: 7095 a33b 8d75 8abd 7a24 143b 8eab 7a3d
000000e0: 67ce d3bb a9d9 0cbd f510 f43c 7aba 803c
000000f0: 6487 803d 0cbe cf3d eed5 39bd 11ea e4bb
00000100: 151c b7bc 19f4 3fbd 3801 7c3d c378 c03c
00000110: e608 a83c 768e f4bb 71e5 363c 5e4d dfbc
00000120: 2ff8 093d 72ce 853c 2ddf 5bbd bfc4 9bbd
00000130: 8f58 3bba db4d 24bd 53e8 d23c ae83 4fbd
00000140: f9c8 44bc 39da 2cbc 3be7 dabd e28d 8f3d
00000150: a843 97bc a61e 9ebc f8d7 503d 64d0 b43d
00000160: 62f4 abbc 7677 2fbb 683b 0cbb 1f3b 7f3d
00000170: ec47 003d 03b8 013d 749b 03bc f947 0fbc
00000180: bb8f 8bbb fb39 2fbd 2847 b03c dcf6 abbd
00000190: 37c4 b43d 0f3c aebd 3d74 e23c 2755 2238
000001a0: 562c 7e3b f480 873d 1240 6fbc fb32 853a
000001b0: 573e 12bd a944 9abd 6de0 02bc 6b20 56bd
000001c0: 0989 a13b ad64 afbc 5e40 4d3d c11e c53d
000001d0: aa25 1ebd 5ffa cabb a95f 7d3d 44fe a63c
000001e0: 1b64 023d fc8c e43d 8fcd 8b3d b7c3 093d
000001f0: fdec d13c 9520 83bc 3934 023d 4971 c13d
-0.05531577 0.063220225 -0.041451864 0.08262287 -0.11756476 -0.028575426 -0.018606214 0.06253909
0.05123716 -0.0642356 0.04774045 0.07241012 -0.04451444 0.04861033 -0.017488243 0.003867596
-0.018026756 0.014710284 0.005387545 0.04331733 -0.018837402 0.05550684 0.06144874 -0.061067335
0.012636472 -0.1325582 0.0640574 -0.09567362 -0.041311372 -0.011103521 -0.045620654 -0.016163979
0.09606904 -0.055734612 0.020190528 -0.0431131 0.0035655398 0.012064127 0.030219413 0.023788769
-0.11315582 -0.036169965 0.013361806 -0.005934087 0.074284896 0.019356515 0.09002922 0.026608326
0.05893339 0.012052912 -0.019413248 -0.011099378 0.0049921796 -0.06760702 0.002260475 0.061198764
-0.006463814 -0.034387264 0.029793242 0.015713919 0.06275824 0.101436704 -0.045370035 -0.0069859107
-0.022352258 -0.04686365 0.0615246 0.023495084 0.020512056 -0.0074632717 0.0111631015 -0.027258571
0.033683952 0.016333792 -0.053679634 -0.07605886 -0.000714668 -0.04011331 0.025745546 -0.05066269
-0.012010806 -0.010550075 -0.10688635 0.07009484 -0.018464878 -0.019301724 0.050987214 0.0882881
-0.020990554 -0.0026774085 -0.0021397714 0.06231224 0.03131859 0.031669628 -0.008032668 -0.008745187
-0.0042590774 -0.042779904 0.021518305 -0.08396694 0.088264875 -0.08507549 0.027643317 3.8703114e-05
0.003878375 0.06616393 -0.014602678 0.0010162288 -0.035703983 -0.07532627 -0.007988078 -0.05227701
0.004929666 -0.02141031 0.050110213 0.096250065 -0.038610138 -0.0061943973 0.061858807 0.020384915
0.03183375 0.11159703 0.068263166 0.033633914 0.0256257 -0.016006747 0.031788085 0.094454356

action_model._continuous_distribution.log_sigma f4 [1, 3]
00000000: ba06 53bf 7fbb 1fbf e160 23bf
-0.8243214 -0.6239547 -0.638197

action_model._continuous_distribution.mu.weight f4 [3, 128]
00000000: 5d7c 4d3c 7c52 61bd 525d fbbc 950b 3bbc
00000010: 4cc6 eebd 2a78 d4bd 4377 253d 6c6b 1abd
00000020: f5b8 f53b 7780 48bd be41 8bbc a0f1 2bbd
00000030: 7e76 733d d0ff b13c 4320 afbd 287e 333d
00000040: 058e 023d 56f7 943c bec7 a3bc c4b6 45bc
00000050: 8ec2 cabc 7bfc 0bbc a3ee f63d 20b5 3c3c
00000060: e983 f1bd 2166 edbc 5e41 363c 55eb dd3c
00000070: dc03 0a3c c580 04be 424a 32bb 0f37 cbbc
00000080: 0a2d d03c 0a67 0abe ca07 1bbe a5db 14be
00000090: 5efd 39bc 8f11 a6bc 8418 453c e479 7a3d
000000a0: a141 37bc ac22 babc 657d 263a b2cc 6d3c
000000b0: b921 97bc 0e4e 34bc e80a 4c3d c0fd 4cbd
000000c0: a194 623d 3a52 643c beb8 cb3b c1d4 98bd
000000d0: b818 953d 10af 3cbd f898 f9bd 2fd7 3a3d
000000e0: e576 97bd 2318 17bd 708f 9e3b 46c5 853d
000000f0: eb90 42bd 9e4c 4bbd ffec 233d 02db c0bd
00000100: 4bc6 a4bc 6b3c 0abe 4c03 8e3c 12ec 8a3d
00000110: 6fb0 dc3c 7142 5d3d 6b98 463d 6bc2 e5bb
00000120: a5d8 823c 00fa 82bd 9d49 d7bb 5472 04b9
00000130: 5613 aa3d 49ef 0fbe 202e 17bc 16db ff3c
00000140: 8473 b3bd b508 f9bd 751f 60bd d29c b23d
00000150: db51 08be eec6 1fbe 680b dcbd def0 58bc
00000160: 0f24 d9bd 2cfb ebbd d750 df3c 7d0a 50bc
00000170: 4ded 9e3c 78b5 653c 1a5f 893d a67c 433d
00000180: ce64 78bd a399 15be bc9a dc3d 573d e2bd
00000190: 20a4 ca3d dc15 abbd 22f9 35bc b2c7 033c
000001a0: 9160 ab3c 826a 19be f8b8 103d 713d c5bd
000001b0: d06f 6dbd 7743 ebbd 6b74 0cbb be1c e3bc
000001c0: da45 a2bd 4e80 d93c 38db da3d 1f76 5d3d
000001d0: 1e0d f03c 449a 92bd 3a99 f8bc ba8b 36be
000001e0: 0ed0 d0bc 6026 32ba d820 e43c 0503 20be
000001f0: 7174 cb3c 09f5 483b 481b 353d cf3b ae3c
00000200: e9e6 14bd 78d0 9e3d 4b2a 69bd 71db d33d
00000210: 6ab1 223d 0943 9f3c eb77 643d de09 783d
00000220: daf7 403d e08f 60bd 6e32 43bc d311 8cbd
00000230: e831 3abd 43a5 7c3d 596f ea3c c7e0 b8bd
00000240: 1d79 ffbc a812 803d 00e9 873d 9f18 a53d
00000250: b05b 9f3c 6c81 053e f996 933c 2fa3 b7bc
00000260: 1118 823d c1e1 4d3d 2df2 58bd 065d b63c
00000270: db9a 1d3d ea6c b63c 5638 003d 6a61 2ebd
00000280: 3ee7 47bd 633d 07bd 352b 3b3d e28f 5e3c
00000290: 3d40 f3bd b3b6 0ebd e18b e93d 5ccd 31bd
000002a0: 7ca2 ddbc d12a 923d 4a12 b1bc 6e13 41bd
000002b0: 7a9f f13c f041 083c 63b6 0e3d ff1a 1abc
000002c0: 56de 7e3d 33ea 733d 1263 3e3d 38d7 b5bc
000002d0: 3151 e53d dbb3 8cbd bdc1 d33d 26b8 df3d
000002e0: 1a0e 18bd cbaa cbbd 5653 b1bd 7bb8 1fbd
000002f0: 660b 643d 75e4 803d 1194 ea3b 6b3c 873c
00000300: a24a 713c ae33 2f3d f4de 96bd 0d4e a8bd
00000310: f724 a63b f443 88bc b877 23bd 71d6 e93c
00000320: e040 93bd f10b e2bd 47c8 f63c c8f2 153d
00000330: 8f47 733d 04f5 073d 58d4 8bbd a9b1 bebc
00000340: ccc1 a9bc c6c9 923c e0dc 8c3b 9fd2 9a39
00000350: 7bfc ed3c 854d 1b3d 257d 003e d2a5 b83d
00000360: 13e0 8e3d dd2d b2bc 2108 033d 2286 45bd
00000370: 84ec ccbc 4c84 06bd 6e9e 90bd 8fdb c9bc
00000380: a98e 623d b1c6 6ebc 3e68 fb3a 36a4 1d3c
00000390: a68d 97b9 4763 5e3d 0194 fbba 3cf2 503d
000003a0: a40f 873d 9adf 7ebd 597a 0a3c d463 fa3c
000003b0: 28e8 12bd 300e 2f3d d384 90bc 0ccf 603d
000003c0: 11bf c93d 2968 2ebd 89d6 da3c c8bb cb3d
000003d0: 3e79 8d3d c2e7 d6b9 8cf6 d3bd 22da 8d3d
000003e0: 9ad6 8e3d ba87 033e 2860 e53c ad30 763b
000003f0: 3904 3a3d 8045 843d 0631 153c 9521 953d
0.012541858 -0.055010304 -0.030684147 -0.011416336 -0.11658916 -0.10374482 0.04039694 -0.0377001
0.0074988552 -0.04895064 -0.016999122 -0.04197848 0.059439175 0.021728426 -0.08551075 0.043821484
0.03187372 0.018184345 -0.019992705 -0.0120675005 -0.024750974 -0.008544083 0.12057235 0.011517793
-0.11792738 -0.028979363 0.011123983 0.027089754 0.008423772 -0.12939747 -0.0027204906 -0.024806527
0.025412101 -0.13515869 -0.1513969 -0.14536913 -0.011351911 -0.020272044 0.012029771 0.0611514
-0.011185081 -0.022721611 0.00063510827 0.014514135 -0.018448697 -0.011004938 0.04981509 -0.050046682
0.055317525 0.01393562 0.0062170913 -0.074624546 0.07280105 -0.04606539 -0.121873796 0.04561537
-0.07395724 -0.036888253 0.0048388764 0.065317675 -0.047501486 -0.049633615 0.04002094 -0.094167724
-0.020114085 -0.1349961 0.017335556 0.06783308 0.026939599 0.05401844 0.0484852 -0.007011702
0.015972445 -0.0639534 -0.0065700547 -0.00012631092 0.08304469 -0.14056124 -0.009227306 0.031232398
-0.08762267 -0.12159864 -0.0547175 0.08721317 -0.13312475 -0.1560323 -0.10744363 -0.013241021
-0.10602581 -0.115225166 0.027260227 -0.012697813 0.019400263 0.014020316 0.06707592 0.047726296
-0.06064301 -0.14609389 0.10771701 -0.11046856 0.098945856 -0.08353779 -0.011106761 0.008043217
0.02092007 -0.14982036 0.03533265 -0.0963086 -0.05796796 -0.11487477 -0.0021431695 -0.027723666
-0.079234794 0.026550438 0.10686344 0.054067727 0.02930313 -0.0715833 -0.030346502 -0.17826739
-0.025489833 -0.00067958795 0.027847692 -0.15626152 0.024835797 0.003066363 0.04421547 0.021268753
-0.036353026 0.07754606 -0.0569251 0.103445895 0.039719976 0.019441145 0.055778425 0.060556285
0.04711137 -0.05482471 -0.011913879 -0.06839337 -0.04545775 0.061681043 0.028617548 -0.09027248
-0.031185681 0.062535584 0.06636238 0.08061337 0.0194529 0.13037652 0.018016325 -0.02241668
0.063522466 0.050264124 -0.05296533 0.022261154 0.03847776 0.022268731 0.031303726 -0.04257337
-0.048804514 -0.033017527 0.045695502 0.013584109 -0.11877487 -0.034842204 0.11403633 -0.043408737
-0.027055018 0.07137073 -0.021615166 -0.04713767 0.02949499 0.008316502 0.034841906 -0.00940585
0.062223755 0.05954952 0.0464812 -0.02219735 0.11197127 -0.06870242 0.10339687 0.109237954
-0.037122823 -0.099446855 -0.08658473 -0.038994294 0.055674933 0.06293575 0.007158764 0.016508302
0.0147272665 0.042773895 -0.07366744 -0.08218012 0.0050703245 -0.016633965 -0.039909095 0.028544636
-0.07190108 -0.11037434 0.030124797 0.036608487 0.059394415 0.03319265 -0.06827611 -0.023278074
-0.020722292 0.017918479 0.0042987913 0.00029530094 0.029051056 0.037915725 0.12547739 0.09016003
0.069763325 -0.021750385 0.031990174 -0.048223622 -0.025015123 -0.032841012 -0.07061468 -0.024640827
0.055311833 -0.014573739 0.0019180847 0.0096216705 -0.000289065 0.054293897 -0.0019193889 0.051012263
0.0659478 -0.06222496 0.0084520215 0.03056518 -0.035865933 0.04273814 -0.01764146 0.054884955
0.09850896 -0.042579804 0.026713626 0.09947926 0.06907891 -0.00040989934 -0.103497595 0.06926371
0.06974526 0.12844744 0.027999952 0.0037565634 0.045414183 0.064585686 0.009105926 0.07281796

action_model._continuous_distribution.mu.bias f4 [3]
00000000: 950c 193d a81f dcbc 6147 013d
0.037365515 -0.026870564 0.031562213
