Zooheim/Assets/Scene/FinalTest/ZooheimTest/Models/Model1/DeerBehavior.onnx (onnx, 156857 bytes, 14 tensors)

discrete_act_size_vector f4 [1, 3]
0	0x40000000	2.0
1	0x40400000	3.0
2	0x3f800000	1.0

network_body.observation_encoder.processors.0.normalizer.running_mean f4 [150]
0	0x3e65fe18	0.2246021
1	0x3e1b55f8	0.15169513
2	0x00000000	0.0
3	0x3d07cb39	0.033152793
4	0x00000000	0.0
5	0x00000000	0.0
6	0x3ca90bc1	0.020635488
7	0x3cc8f9e7	0.024533225
8	0x3f0b9db9	0.5453754
9	0x3f36f8c8	0.7147336
10	0x3ea16ea4	0.31529725
11	0x3dd04386	0.10169129
12	0x00000000	0.0
13	0x3cde22f0	0.027116269
14	0x00000000	0.0
15	0x00000000	0.0
16	0x3c8991c9	0.016793149
17	0x3cc7abb8	0.024373874
18	0x3f03c467	0.5147156
19	0x3f33823d	0.701206
20	0x3e203d78	0.15648448
21	0x3df3e6f6	0.11909287
22	0x00000000	0.0
23	0x3d0f7a92	0.035029
24	0x00000000	0.0
25	0x00000000	0.0
26	0x3cc0262a	0.023455698
27	0x3ce8b63e	0.028407212
28	0x3f2334d4	0.63752484
29	0x3f446a10	0.7672434
30	0x3ec37b83	0.3818017
31	0x3d92b579	0.071635194
32	0x00000000	0.0
33	0x3cce7bb9	0.02520548
34	0x00000000	0.0
35	0x00000000	0.0
36	0x3c8195b5	0.015818456
37	0x3cccff7f	0.025024174
38	0x3ef6058c	0.48051107
39	0x3f2e8e5e	0.68185985
40	0x3df31ded	0.11870942
41	0x3dbc636a	0.09198649
42	0x00000000	0.0
43	0x3d0d2f9a	0.034469225
44	0x00000000	0.0
45	0x00000000	0.0
46	0x3ccf9ec5	0.025344262
47	0x3d030c5e	0.031994216
48	0x3f328f4b	0.697499
49	0x3f4e277a	0.80528986
50	0x3ed753e9	0.42056206
51	0x3d62cb4a	0.055369653
52	0x00000000	0.0
53	0x3cddc5f5	0.027071932
54	0x00000000	0.0
55	0x00000000	0.0
56	0x3c73e916	0.014887115
57	0x3cd1f153	0.025627768
58	0x3ee9b980	0.45649338
59	0x3f2b3193	0.6687252
60	0x3dd0fb5a	0.102041915
61	0x3d871346	0.06595473
62	0x00000000	0.0
63	0x3d0a333e	0.033740275
64	0x00000000	0.0
65	0x00000000	0.0
66	0x3cd53677	0.026026947
67	0x3d099861	0.033592585
68	0x3f3d17c4	0.7386439
69	0x3f567bfc	0.83782935
70	0x3ee054b8	0.43814635
71	0x3d3fbcf3	0.046811055
72	0x00000000	0.0
73	0x3cd36682	0.025805715
74	0x00000000	0.0
75	0x00000000	0.0
76	0x3c71b86e	0.014753444
77	0x3ceb1672	0.028697226
78	0x3ee43e55	0.44578806
79	0x3f2a883d	0.66614133
80	0x3dbed8d7	0.09318703
81	0x3d5f4885	0.05451252
82	0x00000000	0.0
83	0x3d02dca5	0.031948704
84	0x00000000	0.0
85	0x00000000	0.0
86	0x3ce95866	0.028484534
87	0x3d1c5e8d	0.03817611
88	0x3f40f12a	0.7536799
89	0x3f599937	0.8499941
90	0x3edae09b	0.42749485
91	0x3d3f9b2c	0.046778843
92	0x00000000	0.0
93	0x3cc48b72	0.023992274
94	0x00000000	0.0
95	0x00000000	0.0
96	0x3c6b9e9a	0.014381075
97	0x3d05db35	0.032679755
98	0x3ee8cbbf	0.45467946
99	0x3f2ca426	0.6743797
100	0x3dc16311	0.094427235
101	0x3d4b1e0e	0.04958921
102	0x00000000	0.0
103	0x3d0c9fc9	0.03433207
104	0x00000000	0.0
105	0x00000000	0.0
106	0x3cf6a492	0.03010777
107	0x3d263453	0.040577244
108	0x3f403f16	0.7509626
109	0x3f5a1244	0.8518412
110	0x3eca79c8	0.39546037
111	0x3d45b527	0.048268463
112	0x00000000	0.0
113	0x3cd397a9	0.025829153
114	0x00000000	0.0
115	0x00000000	0.0
116	0x3c86f4df	0.016474186
117	0x3d10810b	0.035279315
118	0x3ef51655	0.478686
119	0x3f325845	0.6966594
120	0x3dd7115d	0.10501359
121	0x3d490e60	0.049085975
122	0x00000000	0.0
123	0x3d0c638d	0.034274627
124	0x00000000	0.0
125	0x00000000	0.0
126	0x3cecfa74	0.02892802
127	0x3d45e9ed	0.048318792
128	0x3f3c001e	0.7343768
129	0x3f5855c5	0.84505874
130	0x3eaa889d	0.33307353
131	0x3d317cb4	0.043331817
132	0x00000000	0.0
133	0x3ceb6123	0.028732842
134	0x00000000	0.0
135	0x00000000	0.0
136	0x3c8b8549	0.017031329
137	0x3d2d6387	0.042331245
138	0x3f091605	0.53549224
139	0x3f3ce0f7	0.7378077
140	0x3e093355	0.13398488
141	0x3d2f4106	0.04278662
142	0x00000000	0.0
143	0x3d080d01	0.033215526
144	0x00000000	0.0
145	0x00000000	0.0
146	0x3ce20fd9	0.027595447
147	0x3d53be36	0.05169507
148	0x3f35f1b7	0.7107195
149	0x3f5614fe	0.8362578

network_body.observation_encoder.processors.1.normalizer.running_mean f4 [6]
0	0x428da11a	70.81465
1	0x4209557a	34.333473
2	0x428d9099	70.78242
3	0x4209c766	34.444725
4	0x4289afea	68.84358
5	0x420a9d70	34.653748

network_body._body_endoder.seq_layers.0.weight f4 [128, 156]
0	0x3e55829f	0.20850609
1	0xbdc43580	-0.09580517
2	0xbd711181	-0.058854584
3	0xbd947b4b	-0.07250079
4	0x3d95b74f	0.07310354
5	0xbd9fc7a1	-0.07801748
6	0xbe1535e7	-0.14571343
7	0xbcbe6099	-0.02323942
8	0xbc9e0001	-0.019287111
9	0xbd85b343	-0.06528332
10	0x3cde0a77	0.0271046
11	0x3e08ecb0	0.13371539
12	0x3e104c50	0.14091611
13	0x3dc4cb8f	0.09609138
14	0x3da753f6	0.08170311
15	0x3e0b623a	0.13611689
16	0xbd6f6555	-0.058446247
17	0x3bff4da9	0.0077912402
18	0x3d51d72b	0.05123059
19	0x3b237351	0.002494056
20	0x3dc00b7e	0.09377192
21	0xbe1764e5	-0.14784582
22	0x3b84162b	0.004030963
23	0xbd05a71c	-0.03263007
24	0xbdc9b225	-0.098484315
25	0xbd97a4b5	-0.07404462
26	0xbd8f4a07	-0.069965415
27	0xbcb0ae01	-0.021567347
28	0x3d938296	0.07202642
29	0x3d661887	0.056175735
30	0x3da9f252	0.08298172
31	0x3dda7fb3	0.10668888
32	0x3d976604	0.07392505
33	0x3d5fc44a	0.054630555
34	0xbdacbf55	-0.08434931
35	0xbde2a824	-0.110672265
36	0x3d9139de	0.070911154
37	0xbd4e67c5	-0.05039193
38	0x3de416bc	0.11137149
39	0xbcb4dc61	-0.022077741
40	0xbdb8530b	-0.09000214
41	0xbda3d6c6	-0.07999949
42	0xbd81d1b0	-0.06338823
43	0xbd27695c	-0.040871963
44	0xbe2275fa	-0.15865317
45	0x3c631965	0.013861035
46	0xbd03d4b2	-0.032185264
47	0xbe02a709	-0.12759031
48	0x3cd0ef73	0.025504803
49	0x3d17b26f	0.037035402
50	0xbdccd1ec	-0.10000977
51	0x39771348	0.00023562938
52	0xbdbe788c	-0.09300336
53	0xbdcfbd83	-0.10143568
54	0xbb610276	-0.0034333742
55	0xbd96a5ab	-0.073558174
56	0xbe4e7280	-0.20160866
57	0xbd276d95	-0.04087599
58	0x3c772c9c	0.015086319
59	0xbce7a51b	-0.02827697
60	0x3d5bb4d1	0.053639237
61	0xbd2b6119	-0.041840646
62	0xbd9f1d36	-0.077692434
63	0xbd28e633	-0.04123516
64	0x3d8c68ca	0.068559244
65	0x3e0d0ace	0.13773653
66	0xbdadd210	-0.08487332
67	0x3d8152d1	0.06314624
68	0xbce926f3	-0.028460955
69	0xbe015e87	-0.12633716
70	0xbe1879ba	-0.14890185
71	0xbd697721	-0.056998376
72	0x3e19c302	0.15015796
73	0xbcf1bfb1	-0.02951035
74	0xbe08f65b	-0.13375227
75	0x3dde7f35	0.108641066
76	0xbd55ab7a	-0.052165486
77	0xbdb5818e	-0.08862601
78	0x3d642e78	0.05570838
79	0x3e0baadd	0.13639398
80	0x3dbb87d2	0.09156765
81	0xbd8cf6b9	-0.06882996
82	0xbd374dde	-0.044751994
83	0xbceefffa	-0.029174794
84	0x3dca9bfc	0.09893033
85	0xbcaeb95f	-0.021328626
86	0x3d0f23f6	0.034946404
87	0x3c05860d	0.008149636
88	0xbd8f2963	-0.06990316
89	0xbc128d1b	-0.008944775
90	0xbe806fea	-0.25085384
91	0xbd1f8bb2	-0.038951583
92	0xbcf82dd1	-0.030295284
93	0xbd19be83	-0.0375352
94	0xbe012880	-0.12613106
95	0xbe534439	-0.20631494
96	0xbdc3be51	-0.09557784
97	0xbde4b134	-0.11166611
98	0x3d7acb04	0.061228767
99	0xbce0c5e1	-0.027438106
100	0x3bfa93e6	0.0076470254
101	0x3ccba1e0	0.024857461
102	0xbbbda3e2	-0.0057873586
103	0x3cfa546f	0.03055784
104	0xbd2edc35	-0.042690475
105	0x3bf9042a	0.0075993733
106	0xbb4c17c1	-0.0031142088
107	0xbd763280	-0.060106754
108	0xbd9d8354	-0.076910645
109	0x3e2c2814	0.16812164
110	0x3de2f4ea	0.1108187
111	0x3bf7a3d5	0.007557372
112	0x3d0e3b25	0.034724373
113	0xbdb48e32	-0.08816184
114	0xbdbeb3d8	-0.09311646
115	0xbc317f77	-0.010833613
116	0xbbf78f95	-0.007554958
117	0xbde20ffe	-0.110382065
118	0x3db731e9	0.089450665
119	0x3d6c0a31	0.057626907
120	0x3cb12559	0.021624254
121	0x3d0369e5	0.03208341
122	0x3dc3b3fb	0.09555813
123	0x3d707c7d	0.05871247
124	0xbd7322f1	-0.059359495
125	0xbda9097c	-0.08253762
126	0x3d20c032	0.03924579
127	0xbd72f8ff	-0.059319492
128	0xbaf62ff8	-0.0018782606
129	0xbc0a61c0	-0.008446157
130	0x3d5e4642	0.05426622
131	0x3d2d8746	0.042365335
132	0xbd1861be	-0.03720259
133	0x3ca19137	0.019722564
134	0xbd30df16	-0.0431815
135	0x3d69be8a	0.057066478
136	0x3d8b3338	0.067968786
137	0x3d652ef1	0.05595297
138	0x3b8863ae	0.0041622734
139	0xbc19c805	-0.009386067
140	0x3baf49af	0.00534936
141	0x3d503253	0.050829243
142	0x3d3768a4	0.044777527
143	0xbe41fe4b	-0.18944661
144	0x3d358386	0.044314884
145	0x3e0dc038	0.13842857
146	0xbd898101	-0.06714059
147	0x3dbdb3f1	0.09262837
148	0x3d41e514	0.047337607
149	0x3c79a735	0.015237619
150	0x3d8eb1d2	0.0696751
151	0x3d924a83	0.07143118
152	0xbb3d43b2	-0.002887946
153	0x3ded7e41	0.11596347
154	0x3d205688	0.039145023
155	0xbda53535	-0.08066789
156	0xbdeb3bf5	-0.11486045
157	0xbdba707f	-0.09103488
158	0x3e170175	0.1474665
159	0xbe6ecf41	-0.23321249
160	0xbdcc0eda	-0.0996377
161	0x3d666183	0.05624534
162	0x3dee565b	0.11637565
163	0x3c3b889b	0.0114461435
164	0xbc8f9f4c	-0.017532013
165	0xbda3ec1e	-0.0800402
166	0xbe009228	-0.12555754
167	0x3dd4d226	0.10391645
168	0xbd443bf4	-0.04790874
169	0x3c9409c5	0.018071065
170	0x3d81bd86	0.06334977
171	0x3c981290	0.018563539
172	0x3dd39f48	0.10333115
173	0x3dfa68d3	0.12227025
174	0xbcd32a20	-0.025776923
175	0xbd3e7862	-0.046501525
176	0x3ccb1dbf	0.024794457
177	0xbe2808e7	-0.16409646
178	0xbc40e610	-0.011773601
179	0xbd89bd94	-0.06725612
180	0xbe2008d0	-0.15628362
181	0xbd9876c5	-0.074445285
182	0x3e47b1da	0.19501439
183	0xbe1c6939	-0.15274514
184	0x3dc10236	0.0942425
185	0x3dd85794	0.10563579
186	0xbdb3c9cf	-0.08778726
187	0x3de2bc38	0.11071056
188	0xbc9c6f95	-0.019096175
189	0x3cc22479	0.023699032
190	0x3c03951f	0.008031159
191	0x3cfc68cb	0.030811688
192	0x3cea7e67	0.028624726
193	0x3d0b6e05	0.03404047
194	0x3cfe2ed9	0.031028198
195	0xbe21bd6b	-0.15794913
196	0xbd573a9f	-0.05254614
197	0xbe20a508	-0.15687954
198	0xbdcfc122	-0.10144259
199	0xbdc8aef2	-0.09798993
200	0x3e104bb8	0.14091384
201	0x3c722d89	0.014781364
202	0x3d9f328b	0.07773312
203	0xbd2ab988	-0.041680843
204	0xbdbe31d6	-0.09286849
205	0x3cd670d1	0.026176842
206	0x3cb40d37	0.021978958
207	0x3e027896	0.12741312
208	0xbc9ce07a	-0.019150008
209	0xbe46f543	-0.19429497
210	0x3d37b576	0.04485079
211	0x3d323418	0.04350671
212	0x3bd0d762	0.006373332
213	0x3c05e6ba	0.008172685
214	0x3e1e5d82	0.15465358
215	0x3d6d1bda	0.05788789
216	0x3d1e8fb5	0.03871127
217	0xbe2d6e9b	-0.16936724
218	0x3d0ef9e3	0.03490628
219	0x3dd66aed	0.10469613
220	0x3da6b8f5	0.081407465
221	0x3cc7437c	0.024324171
222	0xbc144fea	-0.009052256
223	0xbcd1ac69	-0.025594907
224	0x3cc6e520	0.024279177
225	0xbd9a4f05	-0.07534603
226	0x3bcdd56f	0.006281547
227	0x3cf18dcd	0.029486561
228	0x3dacc61a	0.084362224
229	0x3cc2fd92	0.023802552
230	0x3c8faefe	0.017539497
231	0xbd565273	-0.052324723
232	0xbd92815d	-0.0715358
233	0xbd8b1ad8	-0.067922294
234	0x3c92cc9a	0.017919827
235	0x3d63f1b1	0.055650417
236	0xbe0d1dfa	-0.13780966
237	0x3db071a8	0.08615428
238	0xbc0dd82d	-0.008657497
239	0x3e1037a3	0.14083724
240	0xbcf2b335	-0.029626468
241	0x3d774736	0.060370646
242	0xbdd4f699	-0.10398597
243	0x3d13ff0b	0.0361319
244	0x3d6b5ad1	0.057459656
245	0x3c407aff	0.011748075
246	0x3c8f4f36	0.017493825
247	0x3dcaa724	0.09895161
248	0x3d8ae50e	0.0678197
249	0xbcbc5ea2	-0.022994343
250	0xbceb7441	-0.028741958
251	0xbc2d6acf	-0.010584547
252	0xbbef933a	-0.007311252
253	0xbc46e44c	-0.012139391
254	0xbe064e31	-0.13115765
255	0xbc21e046	-0.009880131

network_body._body_endoder.seq_layers.0.bias f4 [128]
0	0x3c4d73ee	0.012539847
1	0xbba25ad4	-0.004954675
2	0xbceb9e31	-0.028761955
3	0xbc6c2204	-0.014412407
4	0xbced13ed	-0.028940165
5	0xbd276e2d	-0.040876556
6	0x3cefcde2	0.029272977
7	0x3b46e4cc	0.0030348776
8	0xbd1a9e50	-0.037748635
9	0xbd1ac80f	-0.037788447
10	0x3c35d443	0.01109797
11	0x3c81fdaf	0.015868036
12	0x3cd9f2f1	0.026605101
13	0x3cb6dc1e	0.022321757
14	0xbd21a4f7	-0.039463963
15	0xbc893d2b	-0.0167528
16	0x3c844120	0.016144335
17	0x3d12530a	0.035723723
18	0xbbaadbcf	-0.0052141915
19	0xbbecfc43	-0.0072322204
20	0x3c862596	0.016375344
21	0x3a081e9e	0.00051925506
22	0x3cbfde9b	0.023421576
23	0xbc9d10a4	-0.019172974
24	0xbc3964fd	-0.011315581
25	0x3d5ece88	0.054396182
26	0xbc34a97a	-0.0110267345
27	0x3bbda031	0.0057869186
28	0x3cc4660e	0.023974445
29	0xbc893631	-0.016749473
30	0xbc3c064b	-0.01147611
31	0xbcec6359	-0.028855966
32	0xbcaf8e62	-0.021430198
33	0xbc1d36e9	-0.009595611
34	0xbbfcdd69	-0.007716824
35	0xbca272e7	-0.01983018
36	0xbbc7e553	-0.0061003356
37	0x38b7c1e3	8.762234e-05
38	0x3d0ac0f4	0.03387542
39	0xbca6e9c1	-0.020375134
40	0x3c2016d3	0.009771067
41	0xbcc666e1	-0.024218978
42	0xbc30e8c4	-0.010797683
43	0x3cb41826	0.021984171
44	0x3ceeb802	0.029140476
45	0x3c1f4f57	0.009723506
46	0xbc2e25df	-0.010629146
47	0x3be7c365	0.0070728534
48	0xbd2a09bf	-0.0415132
49	0x3c84d1cc	0.01621332
50	0x3d076089	0.033051047
51	0x3a3c5b47	0.0007185232
52	0xbd20b040	-0.039230585
53	0xbc8da04c	-0.01728835
54	0xb961656d	-0.00021495456
55	0xbcd5fd1e	-0.026121672
56	0x3aa969d1	0.0012925213
57	0x3d81dd9a	0.06341095
58	0xbc64d11a	-0.013965869
59	0x3d27f5f3	0.04100604
60	0x3d4cda37	0.050012793
61	0xbca7aeb6	-0.02046905
62	0x3bb4e6c2	0.0055206725
63	0xbb922779	-0.004460272
64	0x3d89466d	0.06702886
65	0x3a5a3576	0.00083240063
66	0xbd0939cb	-0.03350238
67	0x3d1c16fc	0.038107857
68	0xbba1097b	-0.0049144602
69	0x3c7540a7	0.014969028
70	0xbd82f060	-0.06393504
71	0xbd91b248	-0.071140826
72	0x3d61bfe0	0.055114627
73	0xbbff0330	-0.0077823624
74	0x3ce4e6c1	0.027942063
75	0xbd4ab689	-0.049490485
76	0xbc91d22f	-0.017800419
77	0xbcf34861	-0.029697599
78	0xbd9d0610	-0.07667172
79	0x3b1a955f	0.0023587567
80	0xbcd7711d	-0.026299054
81	0xbd07f7bb	-0.03319524
82	0x3c80b295	0.015710155
83	0x3b27379a	0.002551532
84	0x3d1bed63	0.038068186
85	0xbd82b5e0	-0.06382346
86	0x3d48265b	0.048864704
87	0x3ca36360	0.019944847
88	0xbb86dd87	-0.0041157636
89	0x3bc11e11	0.005893477
90	0x39f3f82b	0.0004653347
91	0xbc6663cc	-0.014061879
92	0x3c919b48	0.01777424
93	0xbcf2c664	-0.029635616
94	0xbb78160e	-0.0037854942
95	0xbbb34e80	-0.0054720044
96	0xbd1039df	-0.03521144
97	0x3d140e86	0.036146663
98	0xbc93ebb9	-0.018056737
99	0xbbd1715f	-0.0063916887
100	0xbc952a17	-0.018208547
101	0x3ce00039	0.027343856
102	0x3acc5f0a	0.0015592289
103	0xbcbd3e5e	-0.023101028
104	0xbcfb1e0d	-0.030653978
105	0x3b0db211	0.0021621028
106	0xbc12c417	-0.008957884
107	0x3c2bfb9b	0.010496999
108	0x3cb98950	0.022648484
109	0x3c4a3290	0.012341157
110	0xbc81e441	-0.01585591
111	0x3d5f89af	0.054574665
112	0xbb9d6fa2	-0.0048045674
113	0xb9fedce1	-0.00048611223
114	0x3cae404b	0.021270892
115	0xbba40a6b	-0.0050061247
116	0xbc20e32d	-0.009819788
117	0xbc888e38	-0.016669378
118	0xbab00e1b	-0.0013431938
119	0x3d960467	0.073250584
120	0x3a9ce906	0.0011971302
121	0xbcaaebf8	-0.020864472
122	0xbcf889d4	-0.03033916
123	0x3c181d95	0.009284397
124	0x3b197bce	0.002341974
125	0xbcfc2354	-0.030778565
126	0xbc80d2e4	-0.01572556
127	0x3d51d960	0.051232696

network_body._body_endoder.seq_layers.2.weight f4 [128, 128]
0	0xbddea365	-0.10871009
1	0xbc6d54f0	-0.014485583
2	0xbdcfaa83	-0.101399444
3	0x3d88e83e	0.06684922
4	0x3dab6eb0	0.08370721
5	0xbd069aab	-0.032862347
6	0xbd2e4251	-0.042543713
7	0x3d9bc0ff	0.076051705
8	0xbd9b9f84	-0.075987846
9	0x3d04a853	0.03238709
10	0x3d06be80	0.03289652
11	0xbb56cc09	-0.0032775423
12	0x3e07a8d7	0.13248001
13	0x3e1388ef	0.14407705
14	0x3c055c09	0.008139619
15	0xbe0b7c26	-0.13621578
16	0x3e22fa99	0.15915908
17	0xbc2d9e5e	-0.01059684
18	0x3dc2b7c2	0.09507705
19	0x3d497968	0.049188048
20	0x3d9e96b8	0.07743591
21	0x3d443ba4	0.04790844
22	0xbd831dd4	-0.06402174
23	0xbdd83eb4	-0.10558835
24	0x3dc747fd	0.097305275
25	0xbc0ed870	-0.008718595
26	0x3e45fc90	0.19334626
27	0x3cf6b55e	0.03011578
28	0x3c6e90d0	0.014560893
29	0xbdb2901f	-0.08718895
30	0xbd3a8012	-0.045532294
31	0xbde49502	-0.111612335
32	0xbc8f78db	-0.017513683
33	0xbd149134	-0.03627129
34	0x3c07fb12	0.008299606
35	0xbe240d73	-0.16020755
36	0x3d64514e	0.0557416
37	0x3e0ce107	0.13757716
38	0xbcf7c499	-0.030245112
39	0x3e055436	0.13020405
40	0x3cdd978e	0.027049806
41	0x3d08de63	0.03341521
42	0xbdc92b35	-0.09822694
43	0x3d8c2e7f	0.06844806
44	0xbca595d1	-0.02021304
45	0xbd70e75b	-0.058814388
46	0xbcc3f494	-0.023920335
47	0xbd9ab60c	-0.07554254
48	0xbe28d31d	-0.16486783
49	0xbe6129ab	-0.21988551
50	0xbd49ae8b	-0.049238723
51	0xbcbeaf91	-0.023277076
52	0xbd9c8a46	-0.07643561
53	0x3ce12829	0.02748497
54	0x3e451b20	0.19248629
55	0x3cd28f37	0.025703056
56	0xbe0e3a53	-0.13889436
57	0x3e7af9e8	0.24509394
58	0xbdb972b8	-0.09055084
59	0xbc2a2925	-0.010385786
60	0x3d30fc93	0.043209624
61	0xbc2f0d8f	-0.010684385
62	0xbd580d89	-0.052747283
63	0xbdc3d494	-0.095620304
64	0x3d670284	0.056398883
65	0xbd6b356c	-0.057423994
66	0x3d3cf173	0.0461287
67	0xbdc073a1	-0.093970545
68	0x3d958c23	0.073021196
69	0x3db73546	0.08945708
70	0xbc36825a	-0.011139477
71	0xbb7def3f	-0.0038747338
72	0x3d9191b3	0.07107868
73	0xbe1442de	-0.14478633
74	0x3d6d3171	0.05790848
75	0x3db0ce30	0.08633077
76	0x3d672e18	0.056440443
77	0x3c12e01b	0.008964564
78	0x3e579d69	0.21056141
79	0xbdfd4196	-0.12366025
80	0x3c8371d9	0.016045498
81	0xbd9d59f5	-0.076831736
82	0xbdabc02f	-0.083862655
83	0x3dd1d622	0.10245921
84	0xbe18b7bd	-0.1491384
85	0xbdcbf429	-0.09958679
86	0xbe26d8b5	-0.16293605
87	0x3d9a9911	0.07548726
88	0x3e10df5a	0.14147702
89	0x3d8f0124	0.069826394
90	0x3dcad656	0.099041626
91	0xbc826630	-0.015917867
92	0xbdcc8a11	-0.099872716
93	0x3bd1ea48	0.0064061023
94	0xbcb9fd80	-0.022703886
95	0x3cab4568	0.020907119
96	0xbca95412	-0.02066997
97	0xbce7e407	-0.028306974
98	0xbd6dc500	-0.058049202
99	0x3d9226a2	0.07136275
100	0x3d8980ef	0.06714045
101	0xbc11ea24	-0.008905921
102	0x3da8545e	0.08219217
103	0x3e222957	0.15836082
104	0xbda31ba5	-0.07964257
105	0x3e1620a1	0.14660884
106	0x3e023c2e	0.12718269
107	0x3de69776	0.11259358
108	0x3d2d61cc	0.042329594
109	0xbd3d93ae	-0.046283416
110	0xbd573890	-0.052544177
111	0x3e5198b6	0.20468411
112	0x3d443311	0.047900263
113	0xbd1bbcd4	-0.038021877
114	0x3da28fbe	0.07937573
115	0x39acea75	0.0003298108
116	0xbc0fbb4f	-0.008772685
117	0xbe0818cf	-0.13290714
118	0xbe057a86	-0.1303502
119	0x3dc5d5a9	0.09659893
120	0xbdaea11b	-0.08526822
121	0x3e042552	0.12904862
122	0xbc751c78	-0.014960401
123	0xbc9b2430	-0.018938154
124	0x3db6caa8	0.08925372
125	0x3dcdc891	0.10048021
126	0xbd015da7	-0.031583454
127	0xbdc1e7dc	-0.09468052
128	0x3dec17c8	0.115279734
129	0x3d84a066	0.06475906
130	0xbcbbb1ea	-0.022911984
131	0x3a468878	0.0007573436
132	0xbd185633	-0.03719158
133	0x3c444015	0.011978169
134	0x3d39ee4c	0.045393273
135	0x3e621b78	0.22080791
136	0xba882494	-0.0010386878
137	0xbe2c1280	-0.16803932
138	0x3d4f357f	0.050588127
139	0x3e418c5c	0.18901199
140	0xbad5b924	-0.0016305787
141	0xbd2c1c98	-0.042019457
142	0x3d12675c	0.035743102
143	0x3de67978	0.11253637
144	0x3cc67010	0.024223357
145	0xbcbf22d0	-0.02333203
146	0xbe07ac3d	-0.13249297
147	0xbdd0a93b	-0.10188528
148	0xbda4a389	-0.08039004
149	0xba083b4e	-0.00051968254
150	0x3d43fd0e	0.047848754
151	0xbe600585	-0.21877106
152	0xbe1cdaba	-0.15317813
153	0x3dd77155	0.10519663
154	0xbd948684	-0.07252219
155	0xbda8c5d3	-0.08240857
156	0xbd91cd6b	-0.071192585
157	0x3d1f178d	0.03884082
158	0xbe1f971c	-0.15584987
159	0xbd2ff177	-0.04295489
160	0xbdb6f618	-0.089336574
161	0xbd992068	-0.07476884
162	0xbd5cd9bc	-0.053918585
163	0xbdb7701f	-0.08956932
164	0x3d8998fa	0.06718631
165	0x3b151382	0.0022747223
166	0xbc6b89f7	-0.014376155
167	0xbdd03a3a	-0.10167356
168	0x3e4f7721	0.20260288
169	0x3d0e3e89	0.034727607
170	0x3dc8ce36	0.098049566
171	0x3d5fd29b	0.05464421
172	0x3c42ea81	0.01189673
173	0xbde63900	-0.11241341
174	0x3c42cafd	0.0118892165
175	0x3d4a3dab	0.049375217
176	0x3d8f012e	0.06982647
177	0x3d6019eb	0.054712217
178	0xbdb33dab	-0.087519966
179	0x3e3a45dd	0.18190713
180	0xbd76e1ce	-0.060273938
181	0xbd18afa2	-0.03727687
182	0x3d1a2109	0.03762916
183	0xbd3ce2cc	-0.046114728
184	0xbda6456d	-0.08118711
185	0x3e5651d6	0.20929655
186	0xbd1ed676	-0.038778745
187	0x3e593475	0.21211417
188	0x3b937bd9	0.004500848
189	0x3dc19d5a	0.094538406
190	0x3c691f1d	0.014228609
191	0xbe6def10	-0.23235726
192	0xbd40f9f9	-0.047113393
193	0x3c6e95d3	0.014562088
194	0x3bbe8c01	0.0058150296
195	0x3cdd6edb	0.0270304
196	0x3d132577	0.0359244
197	0x3cf8b655	0.03036038
198	0xbe1a53d0	-0.15071034
199	0x3bd6e443	0.0065579726
200	0x3e441b65	0.19151075
201	0x3db791db	0.089633666
202	0xbd9a79df	-0.07542776
203	0x3e028851	0.12747313
204	0x3e204534	0.15651399
205	0x3cbb532a	0.022866804
206	0x3d93311f	0.071871035
207	0xbe267ead	-0.1625926
208	0x3d9685f0	0.07349765
209	0xbc9bcaf7	-0.01901768
210	0xbccee92b	-0.025257668
211	0xbd94fd99	-0.072749324
212	0x3c831cf5	0.016005019
213	0x3dac4263	0.084111
214	0xbcf0406c	-0.029327594
215	0x3e4c5ea8	0.19957983
216	0xbe25427a	-0.1613864
217	0xbd003408	-0.03129962
218	0x3d3540d1	0.044251267
219	0x3d6b1fef	0.0574035
220	0xbce19c64	-0.027540393
221	0x3d71ecda	0.05906377
222	0xbd2f9ded	-0.04287522
223	0x3d59e7d0	0.05319959
224	0xbe63721d	-0.222115
225	0xbc260ce1	-0.0101349065
226	0xbcec9c97	-0.028883262
227	0xbba4df4c	-0.005031502
228	0xbd659216	-0.05604752
229	0xbdac13b6	-0.08402197
230	0x3d74bf1e	0.059752576
231	0xba973086	-0.0011534847
232	0xbda3367e	-0.07969378
233	0xbdf8e65c	-0.121533126
234	0xbdc8c382	-0.09802915
235	0xbc35937f	-0.011082529
236	0x3d8d395f	0.06895708
237	0xbe2f906f	-0.17144941
238	0xbe3ac0eb	-0.18237655
239	0x3ca39bdd	0.019971782
240	0x3d466725	0.04843821
241	0xbd9e129b	-0.077183925
242	0xbcb5a554	-0.022173561
243	0x3d0f3c5b	0.03496967
244	0xbc918d60	-0.017767608
245	0xbe1647ad	-0.1467578
246	0x3d11896e	0.035531454
247	0x3c0422b9	0.008064919
248	0x3dee68b2	0.11641063
249	0x3c50a833	0.012735414
250	0x3d2f6d75	0.042828996
251	0xbc75e609	-0.015008458
252	0xbd5735bf	-0.05254149
253	0x3cc195a0	0.023630917
254	0x3d803a45	0.06261114
255	0xbea06034	-0.31323397

network_body._body_endoder.seq_layers.2.bias f4 [128]
0	0x3c33c689	0.010972627
1	0x3ce777a4	0.028255291
2	0xbb82a28b	-0.003986662
3	0x3cb4989f	0.022045432
4	0xbcd24baa	-0.025670845
5	0x3b37e3a2	0.0028059264
6	0x3cd801cf	0.02636805
7	0x3a10af38	0.00055192737
8	0x3c5fa431	0.013649986
9	0x3ca2d0d9	0.019874977
10	0x3ba144de	0.0049215397
11	0xbcd83cd9	-0.026396202
12	0x3cd59f2f	0.026076881
13	0xbc3e8fea	-0.0116309915
14	0x3a9e9290	0.0012098122
15	0xbcf6fa17	-0.030148549
16	0x3d72b503	0.059254657
17	0xbc8474f7	-0.016169054
18	0x3ad04112	0.0015888533
19	0x3cec6f0e	0.028861549
20	0x3c3a4e03	0.0113711385
21	0xbcd3bbeb	-0.025846442
22	0x3c649ca2	0.01395336
23	0xbb7fcbad	-0.0039031312
24	0x3d3f2731	0.046668235
25	0x3d31cdd9	0.043409202
26	0xbbd93c31	-0.00662949
27	0x3c9943ce	0.01870909
28	0xbc556d25	-0.01302651
29	0x3d085220	0.033281446
30	0x3d1e8210	0.038698256
31	0x3c9ab537	0.018885238
32	0x3cfddee3	0.03099007
33	0x3d261e36	0.040556155
34	0x3cf03fb4	0.029327251
35	0x3ba0667f	0.004895031
36	0xbd1da0ae	-0.038483314
37	0x3d095225	0.033525605
38	0xbc991e44	-0.01869119
39	0x3c0dced9	0.008655273
40	0x3c8be40c	0.017076515
41	0x3c39ef5e	0.0113485735
42	0x3b9989ae	0.004685602
43	0x3bbaa467	0.005695868
44	0xbb138378	-0.0022508781
45	0xbc1e6498	-0.009667538
46	0xbbc63bc2	-0.006049604
47	0xbaecf3d9	-0.0018078043
48	0x3c17feca	0.009277055
49	0x3ce93018	0.028465316
50	0x3c211144	0.009830777
51	0xbcf21b0f	-0.029553918
52	0x3bd1592c	0.006388804
53	0x3c6f7fcc	0.0146178715
54	0xbcb41ff3	-0.02198789
55	0x3ba528d6	0.0050402684
56	0x3d09613d	0.03354
57	0xbb69d7b6	-0.0035681552
58	0xbbf0d766	-0.0073498962
59	0x3bf82349	0.0075725657
60	0x3ae9e5f0	0.0017845016
61	0xbc742b66	-0.014902925
62	0x3ca1f157	0.0197684
63	0x3c84383c	0.016140096
64	0xbc09ecdb	-0.008418287
65	0xbd09e812	-0.033668585
66	0xbc317edf	-0.010833471
67	0xbc3cfda2	-0.01153508
68	0x3be3ef6c	0.0069560315
69	0x3c7fa337	0.015602878
70	0xbcd08a07	-0.025456442
71	0xbc9bf2a9	-0.019036608
72	0x3ce9eac2	0.028554324
73	0x3d16a003	0.036773693
74	0xbc62ac40	-0.013835013
75	0xb97337df	-0.000231951
76	0x3caeaf9f	0.021323977
77	0x3d23b35c	0.039965972
78	0xbc5bed23	-0.013423237
79	0xbc0d99ba	-0.008642608
80	0xbafebe42	-0.0019435363
81	0xbc7b03f1	-0.015320764
82	0x3c715b06	0.014731174
83	0xbcdb4bf6	-0.02676962
84	0xbc96bb3f	-0.018399833
85	0xbbdb3caa	-0.0066905813
86	0x3bfe5493	0.007761547
87	0x3cd1f92b	0.025631508
88	0xbc8be4e6	-0.01707692
89	0xbc6f0614	-0.0145888515
90	0x3d0195a1	0.031636838
91	0x3c4d2b59	0.012522542
92	0x3ca574fd	0.020197386
93	0x3d0a2461	0.0337261
94	0x3b4cf7fe	0.0031275745
95	0x3c0eb544	0.008710209
96	0x3c332ca5	0.010935937
97	0x3d0fd250	0.03511268
98	0xbb4a67f2	-0.003088471
99	0x3ceb07ab	0.02869018
100	0x3ca4790a	0.020077247
101	0x3b1771f9	0.0023108704
102	0x3ba103f6	0.0049138023
103	0x3b8b9879	0.0042601195
104	0xbb4ebeea	-0.00315469
105	0xbbb07ef7	-0.005386229
106	0xbc3b3412	-0.011425989
107	0x3d081143	0.033219587
108	0xbc20360b	-0.00977851
109	0x3c3394ec	0.010960799
110	0x3cc7e499	0.024400996
111	0x3d4233b2	0.04741258
112	0x3b5c18c4	0.0033584097
113	0xbc633ae6	-0.013869023
114	0xbc6bd45c	-0.014393892
115	0x3b87742c	0.004133722
116	0x3c6824f1	0.014168964
117	0x3c821c33	0.015882587
118	0x3d69f046	0.05711391
119	0x3c17010c	0.009216558
120	0xbd3c251b	-0.045933824
121	0x3c62fc68	0.013854124
122	0x3c825e30	0.015914053
123	0xbc06cd23	-0.008227619
124	0x3d1e8e28	0.03870979
125	0x3c1254c2	0.008931341
126	0x3c5c6975	0.013452877
127	0xbc2c6538	-0.010522179

action_model._discrete_distribution.branches.0.weight f4 [2, 128]
0	0xbd882e4f	-0.06649458
1	0xbca336b6	-0.01992355
2	0x3d43d79f	0.047813054
3	0x3d723cd7	0.059140053
4	0xbb6f88e4	-0.00365501
5	0xbca5ffa5	-0.020263502
6	0xbd31b46d	-0.043384958
7	0x3cae98b7	0.021313054
8	0xbc75bb1f	-0.014998226
9	0xbca6308e	-0.020286825
10	0xbd78aadd	-0.060709823
11	0xbcb009b3	-0.021489
12	0x3b521d54	0.0032060938
13	0x3c218ec9	0.009860703
14	0x3ccfad1e	0.025351103
15	0xbb9a6f1e	-0.004712953
16	0xbd7bea73	-0.061502885
17	0x3c2a615c	0.010399189
18	0xbc046989	-0.008081802
19	0x3d4a32d7	0.04936489
20	0xbd3731c7	-0.044725206
21	0x3ca0b2a3	0.01961643
22	0xbccc7222	-0.024956767
23	0x3d21b3f9	0.039478276
24	0x3cf7560b	0.030192396
25	0xbca3253e	-0.01991522
26	0xbd38aef6	-0.04508873
27	0xbc8cb3dd	-0.01717561
28	0x3d9747cb	0.0738674
29	0xbc4ebeec	-0.0126187615
30	0xbc81d2fe	-0.01584768
31	0xbd2b25f6	-0.04178425
32	0xbd3055da	-0.043050624
33	0xbb922ee7	-0.0044611576
34	0xbb8615a6	-0.004091936
35	0xbd450595	-0.048101027
36	0x3cce5930	0.025189012
37	0xbb996e8e	-0.0046823686
38	0x3c2b5749	0.010457822
39	0x3c28acf5	0.010295142
40	0x397ac55b	0.00023915379
41	0x3d12a81b	0.03580485
42	0x3d89d161	0.06729389
43	0x3d46ba70	0.048517644
44	0x3bdda288	0.00676376
45	0x3cc7cccd	0.024389649
46	0xbcbb34a3	-0.022852248
47	0xbd0093a5	-0.031390805
48	0x3c89c557	0.016817732
49	0x3d43d95d	0.047814716
50	0x3d66c040	0.056335688
51	0x3c74fad0	0.0149523765
52	0xbb8ba542	-0.0042616436
53	0xbd4d1311	-0.05006701
54	0xbc9f71d1	-0.019463452
55	0xbcf4adc4	-0.029868014
56	0xbd593348	-0.05302742
57	0x3dcbe3f0	0.09955585
58	0x3d2e83a4	0.04260601
59	0x3d7307e9	0.059333716
60	0xbd1b3cf3	-0.037899923
61	0x3d1762b3	0.03695936
62	0xbd5ccffb	-0.053909283
63	0xbd80e8a1	-0.062943704
64	0x3d03b7b5	0.03215762
65	0x3c768599	0.015046501
66	0xbbe857e1	-0.007090554
67	0xbcb686b7	-0.022281034
68	0x3d9a34f1	0.07529629
69	0xbc543d2e	-0.0129540395
70	0xbaefe548	-0.0018302584
71	0x3cd20f60	0.025642097
72	0xbc493e57	-0.012282929
73	0xbcf705d1	-0.03015414
74	0x3ce7fd3a	0.02831899
75	0x3b8069ff	0.0039188857
76	0xbd7a4416	-0.061100088
77	0x3bd7bcbd	0.0065837787
78	0x3c987246	0.018609177
79	0xbc83e10d	-0.016098524
80	0x3c0f7674	0.008756269
81	0x3d3ea550	0.046544373
82	0xbd2f41dd	-0.04278742
83	0x3c364829	0.011125603
84	0x3cc9b027	0.024620129
85	0x3d06541f	0.032795068
86	0x3d65b8a2	0.056084283
87	0xbcc46611	-0.02397445
88	0x3a8bce69	0.0010666373
89	0xbbb7d706	-0.0056103496
90	0xbca99fb6	-0.020706039
91	0x3c937de8	0.018004373
92	0xbcb1cfbb	-0.021705499
93	0xbc1c43c9	-0.009537646
94	0x3cc704be	0.024294253
95	0x3d935381	0.071936615
96	0x3cf24282	0.029572729
97	0x3c5d769f	0.013517051
98	0x3cbce98f	0.023060588
99	0xbd4289c7	-0.047494676
100	0x3cc582af	0.024110166
101	0x3d81b1bc	0.06332728
102	0xbbb4928f	-0.005510635
103	0xbd0aac5b	-0.033855777
104	0xbd488d3b	-0.048962813
105	0x3cc0ea3a	0.023549188
106	0x3d4539af	0.048150714
107	0x3c23f3fe	0.010006903
108	0x3be6a45b	0.0070386357
109	0x3c5e2a3d	0.013559875
110	0xbce445d5	-0.02786533
111	0xbc4cd834	-0.012502719
112	0xbd2d841c	-0.042362317
113	0xbcffcb10	-0.031224757
114	0x3d21c117	0.039490785
115	0x3d80d3b8	0.06290382
116	0x3cb935e7	0.02260871
117	0xbc3a0582	-0.011353852
118	0xbc5812e1	-0.013188095
119	0x3c70b5b6	0.014691761
120	0x3c28f7ce	0.0103129875
121	0x3c9503e0	0.018190324
122	0xbce2bc7c	-0.027677767
123	0xbd3564bd	-0.044285525
124	0xbd2a0fc0	-0.041518927
125	0x3c78f751	0.015195684
126	0xbcc322db	-0.023820331
127	0xbc86a774	-0.01643727
128	0x3d50e1b0	0.050996482
129	0x3d3e3a2d	0.0464422
130	0xbd7e3336	-0.062060557
131	0xbd71caa4	-0.059031144
132	0x3c71bef6	0.014755001
133	0x3c1767d7	0.009241066
134	0x3d38e6e0	0.045142055
135	0xbce5160e	-0.027964618
136	0x3d02b0cd	0.03190689
137	0x3ce5ba42	0.028042916
138	0x3d63e849	0.055641446
139	0x3cdd4ea3	0.027015036
140	0xbcab5638	-0.020915136
141	0x3beba119	0.007190835
142	0xbd0db547	-0.034596708
143	0xbd0b3ba5	-0.03399243
144	0x3d94cf48	0.07266098
145	0xbc0f5cb5	-0.00875013
146	0x3c808234	0.015687086
147	0xbd8b92fa	-0.06815143
148	0x3d409383	0.04701568
149	0xbd0f0754	-0.034919098
150	0x3c9a65be	0.018847343
151	0xbc8bf4d5	-0.017084518
152	0xbce2a935	-0.027668575
153	0x3c6cf82f	0.014463468
154	0x3d0dfcf9	0.03466508
155	0xbac176b2	-0.0014760105
156	0xbd8617bf	-0.06547498
157	0x3a9c67be	0.0011932773
158	0xb97a8637	-0.00023891857
159	0x3d9bde9b	0.07610818
160	0x3d038962	0.03211344
161	0x3bf8be60	0.007591054
162	0xbc1065ed	-0.0088133635
163	0x3d2d7035	0.042343337
164	0xbce90248	-0.02844347
165	0x3c2f4dda	0.010699714
166	0xbc805764	-0.015666671
167	0xbc6c9ad0	-0.014441207
168	0x3b9cee87	0.004789177
169	0xbc389408	-0.011265762
170	0xbd7eb902	-0.062188156
171	0xbd5455bf	-0.051839586
172	0xbcb6f6fa	-0.022334564
173	0xbd50286c	-0.0508198
174	0x3b43647e	0.0029814537
175	0x3d52897a	0.05140064
176	0xbb3f8e42	-0.002922908
177	0xbd25671d	-0.04038154
178	0xbd3f389d	-0.04668485
179	0xbc8fb8ad	-0.017544115
180	0xbc6cdf82	-0.014457585
181	0x3d281b89	0.041041885
182	0x3d0cdf28	0.034392506
183	0x3d446f18	0.04795751
184	0x3d897b4c	0.0671297
185	0xbdc0be3e	-0.09411286
186	0xbd4cdf19	-0.05001745
187	0xbd20d6ff	-0.039267536
188	0x3cfd3cf8	0.030912861
189	0xbd3cef62	-0.04612673
190	0x3d2dc59a	0.042424776
191	0x3d46b207	0.048509624
192	0xbc27b496	-0.010235926
193	0xbbaa6cdf	-0.0052009667
194	0xbb9bf3db	-0.0047592944
195	0x3cfa5d67	0.030562116
196	0xbda4635d	-0.080267645
197	0x3c64feeb	0.013976793
198	0x3c8d2481	0.01722932
199	0xbd12a837	-0.035804953
200	0x3c28a724	0.010293756
201	0x3cf3c72b	0.029758057
202	0xbc879d67	-0.016554547
203	0xbbb5a52f	-0.005543373
204	0x3d347ad8	0.044062465
205	0xbc1365d4	-0.008996446
206	0xbc76ac26	-0.015055692
207	0x3c949766	0.018138599
208	0xbd33cfc9	-0.04389933
209	0xbcbd1608	-0.023081794
210	0x3cdfccc7	0.027319325
211	0xbc8da649	-0.017291205
212	0xbd095847	-0.033531453
213	0xbcb32f00	-0.021872997
214	0xbd5b6f55	-0.05357297
215	0x3c805f35	0.015670398
216	0xb9c34c51	-0.00037250158
217	0x3b2c0712	0.0026249331
218	0x3d3e3f53	0.04644711
219	0xbc5c9c74	-0.013465036
220	0xbb411992	-0.0029464704
221	0x3cea0707	0.028567804
222	0xbc9b46c9	-0.018954651
223	0xbd93ab04	-0.07210353
224	0xbcfe764b	-0.031062266
225	0x3b95d254	0.004572192
226	0xbcca7b08	-0.024716869
227	0x3d9568a2	0.07295348
228	0xbce26701	-0.027637007
229	0xbd5c0d18	-0.053723425
230	0x3be3a25a	0.006946844
231	0x3ce610f2	0.028084252
232	0x3cff3328	0.031152323
233	0xbd384c48	-0.044994622
234	0xbd2c8339	-0.04211733
235	0xbc035e70	-0.008018121
236	0xbcf2c925	-0.029636929
237	0xbcef73c6	-0.02923001
238	0x3ce99e87	0.028517975
239	0x3d0eaa17	0.03483018
240	0x3d5a3452	0.053272553
241	0x3c556c61	0.013026328
242	0xbd0cabbc	-0.034343466
243	0xbd4ee7d6	-0.050514065
244	0xbd18c6d9	-0.03729901
245	0x3ca06f05	0.019584188
246	0x3c88aa07	0.016682638
247	0xbc3a7e4b	-0.01138265
248	0xbb610414	-0.0034334706
249	0xbcbdb2fd	-0.023156637
250	0x3cefe19b	0.029282382
251	0x3d6296e1	0.05531967
252	0x3d511442	0.05104471
253	0xbc0a0fe7	-0.008426643
254	0x3d169487	0.03676274
255	0x3c9cb7fa	0.019130696

action_model._discrete_distribution.branches.0.bias f4 [2]
0	0xbc431abc	-0.011908229
1	0x3c431abe	0.011908231

action_model._discrete_distribution.branches.1.weight f4 [3, 128]
0	0x3c4cfa9b	0.012510921
1	0x3d7cfc23	0.061763894
2	0xbd0b2133	-0.033967208
3	0x3934dbc9	0.00017248014
4	0x3abc85aa	0.0014383097
5	0x3d868b5f	0.06569552
6	0x3d85744a	0.06516321
7	0x3d3b307f	0.045700546
8	0x3d461118	0.048356146
9	0x3c0ba0d6	0.008522233
10	0xbd1d6e8d	-0.038435508
11	0x3c4471cc	0.011990022
12	0x3dab570b	0.083662115
13	0xbc8938e7	-0.016750766
14	0xbca27e35	-0.01983557
15	0xbd2b9550	-0.041890442
16	0x3d350630	0.044195354
17	0xbbba795e	-0.0056907376
18	0xbc02d2e7	-0.007984853
19	0x3d28ce8a	0.041212596
20	0xbcd6b6e3	-0.026210254
21	0xbd053836	-0.03252431
22	0x3d9de5fc	0.07709882
23	0xbd7a2dce	-0.06107884
24	0xbd858499	-0.065194316
25	0x3d27e0a7	0.04098573
26	0xbba63e1d	-0.0050733224
27	0x3ab33b90	0.0013674367
28	0x3ce631c0	0.028099895
29	0x3d3978e7	0.045281317
30	0xbd87adf8	-0.06624979
31	0x3c8461d6	0.016159933
32	0x3ca0a260	0.019608676
33	0xbd46b8c6	-0.048516057
34	0x3d5543f0	0.052066743
35	0xbc3cb325	-0.011517321
36	0x3c6fbd86	0.014632588
37	0x3cf331df	0.029686866
38	0xbc295892	-0.010336058
39	0xbda7a401	-0.08185578
40	0x3d0fc717	0.035101976
41	0x3cbe94d2	0.023264322
42	0xbcd68135	-0.026184658
43	0xbd31a2dd	-0.04336821
44	0xbd456faf	-0.048202213
45	0x3c21763c	0.009854849
46	0xbd07f01e	-0.033187978
47	0xbd94afe7	-0.07260113
48	0xbcba6d26	-0.022757124
49	0xbc446f6d	-0.011989457
50	0x3c8fa395	0.017534057
51	0xbc131992	-0.008978264
52	0x3d546015	0.051849443
53	0xbd8765d5	-0.0661122
54	0x3c9d07ae	0.019168701
55	0xbcfe2064	-0.031021304
56	0xbd2e638a	-0.042575397
57	0x3cd18584	0.02557636
58	0x3b1b1bdd	0.002366773
59	0x3c420f7d	0.011844513
60	0xbd2c6f85	-0.04209854
61	0x3ccd57e3	0.025066322
62	0x3d21f22a	0.039537586
63	0x3d08c01d	0.03338634
64	0xbcd8420b	-0.02639868
65	0xbc10df9c	-0.008842375
66	0xbd4bcd90	-0.049756587
67	0x3c8b22a4	0.016984291
68	0xbc625788	-0.013814814
69	0x3cd230b8	0.025657997
70	0x3d0f767a	0.035025097
71	0xbd1df71a	-0.038565733
72	0xbdd60eb2	-0.10452022
73	0x3d133185	0.035935897
74	0xbd25ac45	-0.040447492
75	0xbd00f7b1	-0.031486217
76	0xbb81bd48	-0.0039593317
77	0x3d0a47f9	0.033760045
78	0xbd2edaa3	-0.042688977
79	0x3d364089	0.04449514
80	0xbd1dc7de	-0.038520686
81	0x3d634184	0.055482402
82	0xbda0d720	-0.07853532
83	0x3c849535	0.016184429
84	0x3cdb683c	0.026783101
85	0x3d7774e9	0.06041423
86	0x3a76c8d2	0.000941408
87	0x3a138572	0.000562749
88	0x3c634085	0.013870363
89	0xbc9daef5	-0.019248465
90	0x3db4c785	0.08827118
91	0x3cec4e96	0.028846066
92	0x3acc0ebb	0.0015568355
93	0xbcdb2c2e	-0.026754465
94	0xbd80f754	-0.06297174
95	0x3c5d0c3e	0.013491688
96	0x3c176cee	0.009242279
97	0xbd4036bc	-0.0469272
98	0xbc866ca5	-0.016409228
99	0x3cb3f4d6	0.021967333
100	0xbd0a4e01	-0.033765797
101	0xbc4547bc	-0.012041029
102	0xbaeefe15	-0.0018233681
103	0x3d0d6a5e	0.034525268
104	0xbd410945	-0.04712798
105	0x3d84244e	0.06452237
106	0xbc2fc337	-0.010727695
107	0xbd7f46e9	-0.062323485
108	0x3c73bda1	0.014876754
109	0xbc70c6c6	-0.014695829
110	0x3a15cb8f	0.00057142315
111	0x3b3bf230	0.002867829
112	0xbc600fb1	-0.013675616
113	0xbd1e4793	-0.038642477
114	0xbc92483b	-0.017856708
115	0x3cd8733e	0.02642214
116	0xbc9e7079	-0.01934074
117	0x3cc10074	0.023559786
118	0x3b5b558d	0.003346774
119	0x3d69a6dc	0.057043895
120	0x3c297d3a	0.010344798
121	0xbcb6fcfb	-0.022337427
122	0x3d8c80a8	0.06860477
123	0xbb7ef462	-0.0038902988
124	0x3cc76e01	0.024344446
125	0xbd038c05	-0.032115955
126	0xbcae83dd	-0.021303112
127	0xba36fca7	-0.0006980397
128	0xbd04940c	-0.03236775
129	0xbcb559b7	-0.022137506
130	0xbcfe39e1	-0.031033458
131	0x3d1c5e59	0.038175914
132	0x3ccdf376	0.025140505
133	0xbd49c004	-0.049255386
134	0xbdbf193e	-0.093309864
135	0xbd69331f	-0.05693352
136	0xbc3d2c63	-0.011546227
137	0x3d0f9d0c	0.03506188
138	0x3b8e1535	0.004336024
139	0xbd577ea0	-0.052610993
140	0xbd213612	-0.039358206
141	0xbd026bf3	-0.03184123
142	0x3d380436	0.04492589
143	0xbb783136	-0.003787113
144	0x3d56edf8	0.05247304
145	0x3c99c75f	0.018771825
146	0xbd5197d1	-0.051170174
147	0x3c4b9165	0.0124248015
148	0xbdb66d40	-0.089075565
149	0xbc38c715	-0.011277934
150	0xbcffecab	-0.031240782
151	0x3bb42e22	0.0054986635
152	0x3db569e0	0.08858085
153	0x3cde464e	0.027133133
154	0xbbcbe06c	-0.0062218215
155	0x3d5f2839	0.05448172
156	0xbcae1846	-0.021251809
157	0xbdca8225	-0.09888104
158	0x3d9e5ac9	0.0773216
159	0xbd3020f8	-0.04300019
160	0xbdba75c8	-0.09104496
161	0x3da15cf7	0.0787906
162	0xbd953a1a	-0.072864726
163	0x3a534d7a	0.0008060556
164	0xbd07f9bc	-0.03319715
165	0x3d0e73f6	0.034778558
166	0x3ce4da3a	0.02793609
167	0xbc5ed6bc	-0.013601001
168	0x3b6d73de	0.0036232392
169	0x3d38d58b	0.045125525
170	0xbc618b33	-0.013766098
171	0xba6211ae	-0.00086238503
172	0xbd50b1b2	-0.050950713
173	0x3c26b6ec	0.010175448
174	0x3d3b41d0	0.04571706
175	0x3c826264	0.015916057
176	0x3da6365e	0.081158385
177	0xbdb5ba4f	-0.08873426
178	0x3bd3dcdd	0.006465538
179	0x3d1c542f	0.03816622
180	0xbd897ddf	-0.06713461
181	0x391a51e3	0.0001471709
182	0xbd18f9cd	-0.037347604
183	0xbd32b67d	-0.043631066
184	0x3d19310f	0.0374003
185	0xbd8816a8	-0.06644946
186	0xbd589b1a	-0.05288229
187	0x3d1a4ea8	0.03767267
188	0x3a32e91d	0.0006824898
189	0xbd442486	-0.047886394
190	0xbd990be2	-0.074729696
191	0xbcc03230	-0.023461431
192	0xbd5b3812	-0.05352027
193	0xbc31764a	-0.010831425
194	0xbce07d3e	-0.02740347
195	0xbc200ee2	-0.009769173
196	0xbb7abc64	-0.0038259262
197	0xbd90ac3c	-0.07064101
198	0xbce8fdf7	-0.028441412
199	0xbb136416	-0.0022490076
200	0x3d7b6e99	0.06138477
201	0x3d20d324	0.03926386
202	0x3d1211c0	0.03566146
203	0x3cfb433a	0.030671705
204	0x3cf87d94	0.030333318
205	0x3d3ebc9c	0.04656659
206	0xbd44d620	-0.048055768
207	0xbc0ede54	-0.008719999
208	0xbcdd242c	-0.026994787
209	0xbd2478d4	-0.040154293
210	0x3d1da563	0.038487803
211	0xbd08f4c4	-0.03343655
212	0xbb864bda	-0.0040983977
213	0xbd944919	-0.07240505
214	0xbc3dc0fa	-0.011581654
215	0x3c53f3b0	0.012936518
216	0xbca17468	-0.019708827
217	0xbcbf2218	-0.023331687
218	0xbd125f0f	-0.035735186
219	0xbc5247f7	-0.012834541
220	0x3d3dadfe	0.04630851
221	0x3d8faf39	0.07015843
222	0x3ccb9922	0.024853293
223	0x3b7fda84	0.0039040158
224	0x3bcce8b7	0.0062533277
225	0x3dc675c9	0.096904345
226	0x3d0cdb4f	0.034388836
227	0x3ce36a1e	0.027760562
228	0x3d5aaae1	0.05338562
229	0xba553096	-0.0008132545
230	0x3cebe235	0.028794387
231	0xbd1bb999	-0.038018797
232	0x3c665bf7	0.014060012
233	0xbd3001e9	-0.04297057
234	0xbd803302	-0.06259729
235	0x3dc7cd55	0.09755961
236	0xbd8642f9	-0.06555743
237	0x3d60e923	0.054909837
238	0x3d2c0afc	0.042002663
239	0x3d4b07c8	0.049567968
240	0x3d1883ed	0.03723519
241	0xbb730138	-0.0037079584
242	0x3ca03469	0.019556241
243	0x3c3fc1bb	0.011703904
244	0x3c6d340e	0.014477743
245	0x3ca7c0b4	0.02047763
246	0x3d99cdff	0.07509994
247	0xbdb1adcd	-0.08675728
248	0xbb9bfd46	-0.004760417
249	0x3d1c4659	0.038153026
250	0xbcd771e7	-0.02629943
251	0xbcba1fd0	-0.022720248
252	0x3cba4e0a	0.02274229
253	0x3d9312d3	0.07181325
254	0x3d069722	0.032858975
255	0x39b6f74d	0.00034898

action_model._discrete_distribution.branches.1.bias f4 [3]
0	0x3a1793a9	0.0005782196
1	0x3cba148d	0.022714878
2	0xbcb634a0	-0.02224189

action_model._discrete_distribution.branches.2.weight f4 [1, 128]
0	0x3b945bfe	0.004527568
1	0xbc8d824a	-0.01727404
2	0xba003055	-0.00048900145
3	0x3c30daee	0.010794384
4	0xbc074bff	-0.008257865
5	0xbbcb45a7	-0.0062033716
6	0x3b34f7c7	0.0027613507
7	0xbb1467fc	-0.0022644987
8	0xbc1adc94	-0.009452004
9	0xbc41036e	-0.011780603
10	0xbba2f6c7	-0.004973266
11	0x3b52dc22	0.0032174666
12	0xbc312b21	-0.010813505
13	0xbc11c09f	-0.008896022
14	0x3c0d4d1f	0.008624344
15	0xbb41d3a4	-0.002957561
16	0x3b332ba5	0.0027339247
17	0x3be199aa	0.0068847733
18	0x3b1e7c5f	0.0024183018
19	0x3aba4311	0.0014210661
20	0x3bf3b928	0.007437844
21	0x3c05bcf2	0.008162724
22	0x3ad1f67a	0.001601889
23	0xba6ae7d5	-0.0008960937
24	0x3ab99c74	0.0014161007
25	0xbc4374e5	-0.011929725
26	0x3c2643cc	0.010148
27	0x3c4ea663	0.012612912
28	0x3c1ec21c	0.009689834
29	0x3baf92df	0.0053580846
30	0x3c7d913f	0.015476524
31	0xbb830708	-0.003998641
32	0x3c04d951	0.008108453
33	0x3c9a8295	0.018861094
34	0xbbd86c2f	-0.0066046934
35	0x3c3480b4	0.011017013
36	0x3c896f34	0.016776659
37	0x3b498a6f	0.003075268
38	0xbbae3328	-0.005316157
39	0x3c1f28ca	0.009714315
40	0xbc7cdf93	-0.015434164
41	0x3bbb91f8	0.005724188
42	0x3a864298	0.0010243235
43	0xbb944a0e	-0.0045254296
44	0x3c07b70f	0.008283391
45	0x3b98ef60	0.0046672076
46	0x3bb91347	0.00564805
47	0xbbd77b4a	-0.0065759765
48	0x3c2302ec	0.009949427
49	0x3b4e94ff	0.0031521914
50	0xbc728fff	-0.014804839
51	0x3c1b4c10	0.009478584
52	0xbae166b5	-0.0017196747
53	0x3bdcc1e5	0.006736981
54	0x3c1723f3	0.00922488
55	0x3a162909	0.00057281606
56	0x3c97dd20	0.018538058
57	0xbc1c5d96	-0.009543797
58	0xbc07f00b	-0.008296977
59	0xbad05228	-0.0015893625
60	0xbc2d3867	-0.010572529
61	0x3c523f7f	0.012832521
62	0x3bb052e7	0.0053809765
63	0x3ace452a	0.0015737165
64	0x3bacfdc7	0.005279276
65	0xbc12db43	-0.008963409
66	0xbc4b3692	-0.012403147
67	0x3bcbb82f	0.0062170248
68	0xbbfbbe93	-0.0076826303
69	0xbbe877d3	-0.0070943623
70	0x3ab03bfb	0.001344561
71	0xba298781	-0.000646703
72	0xbae6ad58	-0.0017599268
73	0xbcb527f7	-0.022113783
74	0x3cd75e63	0.026290124
75	0xbc5516d3	-0.01300593
76	0xbb0d0e30	-0.002152335
77	0xbc21074b	-0.009828399
78	0x3c71e163	0.014763209
79	0x3bee5f32	0.0072745318
80	0x3bbde61b	0.005795253
81	0xbb732a98	-0.0037104245
82	0xbbf87d23	-0.007583277
83	0xbb3c997f	-0.0028778014
84	0x3bfaa727	0.0076493206
85	0xbb1e67ce	-0.002417076
86	0x3c666e12	0.014064329
87	0xbbfcbf13	-0.0077132075
88	0x3b55b372	0.0032608178
89	0x3bb51283	0.0055258884
90	0x3c755e7d	0.014976141
91	0xbc1e5ca9	-0.009665647
92	0x3ab41c77	0.0013741393
93	0x3c31c10f	0.010849251
94	0xbbe73845	-0.0070562684
95	0x3b9bcd95	0.004754732
96	0x3c7fe683	0.015618923
97	0x3c887f1b	0.016662171
98	0x39849bac	0.00025292987
99	0x3b72b467	0.0037033798
100	0x3b9a8b37	0.0047163027
101	0x3bf9e140	0.007625729
102	0x3ac1cfff	0.0014786719
103	0xbc5a441f	-0.013321905
104	0x3c1e04d6	0.009644708
105	0xbc07f8b9	-0.008299046
106	0x3c2325f7	0.009957782
107	0xba5f99bf	-0.0008529685
108	0xbc4a78e8	-0.012357928
109	0x3be6ea00	0.007046938
110	0xbaade432	-0.001326686
111	0x3c24b13d	0.0100520225
112	0x3951b4df	0.00019999173
113	0xbc00c76f	-0.007860049
114	0x3c344413	0.011002558
115	0xbc11a633	-0.008889723
116	0xbc070dfa	-0.008243078
117	0xbc88b02a	-0.016685564
118	0x3c60946b	0.013707261
119	0xbacab22f	-0.001546448
120	0xbc116a71	-0.008875475
121	0x3c482756	0.01221641
122	0xbaf0a645	-0.0018360099
123	0x3cd51638	0.026011571
124	0xbc099e4c	-0.008399557
125	0xb946768b	-0.00018926912
126	0xbc2aa236	-0.010414651
127	0x3b51f38a	0.003203603

onnx::Div_94 f4 [150]
0	0x3ed5aa29	0.41731384
1	0x3eb7aabe	0.35872453
2	0x3ace7f86	0.0015754558
3	0x3e3753d1	0.17903067
4	0x3ace7f86	0.0015754558
5	0x3ace7f86	0.0015754558
6	0x3e119708	0.1421777
7	0x3e1e6d47	0.15471373
8	0x3efef087	0.49792883
9	0x3ec1355d	0.37736025
10	0x3eede521	0.46463874
11	0x3e9ac0d9	0.30225256
12	0x3ace7f86	0.0015754558
13	0x3e265625	0.16243799
14	0x3ace7f86	0.0015754558
15	0x3ace7f86	0.0015754558
16	0x3e03994d	0.12851448
17	0x3e1debe8	0.15422022
18	0x3effe395	0.4997832
19	0x3ebff757	0.37493393
20	0x3eba03d9	0.3633106
21	0x3ea5d683	0.32390222
22	0x3ace7f86	0.0015754558
23	0x3e3c4416	0.18385348
24	0x3ace7f86	0.0015754558
25	0x3ace7f86	0.0015754558
26	0x3e1afe42	0.15136054
27	0x3e2a222a	0.16614595
28	0x3ef6201e	0.48071378
29	0x3ebb5673	0.36589393
30	0x3ef8be85	0.48582855
31	0x3e840d4d	0.25791398
32	0x3ace7f86	0.0015754558
33	0x3e20884e	0.15676996
34	0x3ace7f86	0.0015754558
35	0x3ace7f86	0.0015754558
36	0x3dff88f0	0.12477291
37	0x3e1ff5eb	0.15621154
38	0x3effcdee	0.499618
39	0x3ebe7e57	0.37205765
40	0x3ea59e0b	0.3234714
41	0x3e93f9a6	0.28901404
42	0x3ace7f86	0.0015754558
43	0x3e3acecf	0.18242954
44	0x3ace7f86	0.0015754558
45	0x3ace7f86	0.0015754558
46	0x3e20f4a6	0.15718326
47	0x3e3435f5	0.17598708
48	0x3eeb30ab	0.45935568
49	0x3eb179e6	0.34663314
50	0x3efcbf38	0.49364638
51	0x3e6a3831	0.22872998
52	0x3ace7f86	0.0015754558
53	0x3e263494	0.16230994
54	0x3ace7f86	0.0015754558
55	0x3ace7f86	0.0015754558
56	0x3df8064d	0.12110577
57	0x3e21d34c	0.1580326
58	0x3eff0729	0.4981015
59	0x3ebca656	0.36845654
60	0x3e9afcc3	0.30270967
61	0x3e7e2532	0.24818876
62	0x3ace7f86	0.0015754558
63	0x3e38e277	0.1805514
64	0x3ace7f86	0.0015754558
65	0x3ace7f86	0.0015754558
66	0x3e230d0b	0.15922944
67	0x3e388133	0.18018036
68	0x3ee0f7e8	0.43939137
69	0x3ea3da84	0.32002652
70	0x3efe08d9	0.49616125
71	0x3e584eff	0.21123885
72	0x3ace7f86	0.0015754558
73	0x3e2261f6	0.15857682
74	0x3ace7f86	0.0015754558
75	0x3ace7f86	0.0015754558
76	0x3df6ebe2	0.1205671
77	0x3e2afa47	0.16697036
78	0x3efe7dba	0.49705297
79	0x3ebb25b5	0.36552206
80	0x3e94d686	0.29069918
81	0x3e687a6e	0.22702953
82	0x3ace7f86	0.0015754558
83	0x3e3415e2	0.17586473
84	0x3ace7f86	0.0015754558
85	0x3ace7f86	0.0015754558
86	0x3e2a5aeb	0.16636245
87	0x3e443679	0.19161405
88	0x3edc9c1c	0.43087852
89	0x3e9d511c	0.30725944
90	0x3efd4c0f	0.4947209
91	0x3e583cfa	0.2111701
92	0x3ace7f86	0.0015754558
93	0x3e1cb554	0.15303546
94	0x3ace7f86	0.0015754558
95	0x3ace7f86	0.0015754558
96	0x3df3d670	0.11906135
97	0x3e361063	0.17779689
98	0x3efef25e	0.49794286
99	0x3eb98395	0.36233202
100	0x3e95b829	0.29242066
101	0x3e5e50f1	0.21710564
102	0x3ace7f86	0.0015754558
103	0x3e3a6fa9	0.18206657
104	0x3ace7f86	0.0015754558
105	0x3ace7f86	0.0015754558
106	0x3e2efe32	0.17089155
107	0x3e4a1022	0.19732717
108	0x3edd6aaf	0.43245456
109	0x3e9bb613	0.3041235
110	0x3efa5897	0.48895714
111	0x3e5b79f1	0.21433236
112	0x3ace7f86	0.0015754558
113	0x3e2272c1	0.15864088
114	0x3ace7f86	0.0015754558
115	0x3ace7f86	0.0015754558
116	0x3e025c94	0.12730628
117	0x3e3ce938	0.18448341
118	0x3effc3da	0.4995411
119	0x3eb664cd	0.3562378
120	0x3e9cf785	0.30657592
121	0x3e5d38de	0.21603724
122	0x3ace7f86	0.0015754558
123	0x3e3a490b	0.18191926
124	0x3ace7f86	0.0015754558
125	0x3ace7f86	0.0015754558
126	0x3e2ba35f	0.1676154
127	0x3e5b9586	0.21443757
128	0x3ee221db	0.44166455
129	0x3e9d10d6	0.30676907
130	0x3ef1502a	0.47131473
131	0x3e507df6	0.2036055
132	0x3ace7f86	0.0015754558
133	0x3e2b12e8	0.16706431
134	0x3ace7f86	0.0015754558
135	0x3ace7f86	0.0015754558
136	0x3e048387	0.12940799
137	0x3e4e2f9e	0.20135352
138	0x3eff59be	0.49873155
139	0x3eb03a92	0.34419686
140	0x3eae66c1	0.3406277
141	0x3e4f3dd7	0.20238434
142	0x3ace7f86	0.0015754558
143	0x3e377cfc	0.17918772
144	0x3ace7f86	0.0015754558
145	0x3ace7f86	0.0015754558
146	0x3e27c193	0.16382436
147	0x3e62b8c9	0.22140802
148	0x3ee827be	0.4534282
149	0x3e9df3ee	0.30850166

onnx::Div_97 f4 [6]
0	0x4209a006	34.406273
1	0x426c5c13	59.089916
2	0x420a8ced	34.637623
3	0x426c711a	59.11045
4	0x4221ce2e	40.451347
5	0x426c61db	59.095562
