Zooheim/Assets/Scene/FinalTest/ZooheimTest/Models/0606/GiraffeFBehavior.onnx (onnx, 312857 bytes, 14 tensors)

discrete_act_size_vector f4 [1, 3]
2.0 3.0 1.0
00000000: 0000 0040 0000 4040 0000 803f

network_body.observation_encoder.processors.0.normalizer.running_mean f4 [450]
0.05522303 0.10307497 0.0 0.013341019 0.0034268529 0.003599274 0.0032005517 0.0028287694
0.7540963 0.85433733 0.053261675 0.07804717 0.0 0.015447781 0.0038740705 0.0033783596
0.00326521 0.0026671274 0.78338057 0.87893325 0.059781343 0.096388295 0.0 0.012656724
0.0032705974 0.0033137028 0.0036208248 0.0030820128 0.7566177 0.8590916 0.050352134 0.05544929
0.0 0.016638558 0.0036908716 0.003389137 0.003518453 0.002661738 0.8119701 0.899902
0.06868253 0.07489504 0.0 0.01246814 0.0032813752 0.0036316027 0.0038094092 0.0032598209
0.77031463 0.8762227 0.046278678 0.049150556 0.0 0.0169834 0.0035022867 0.0037447533
0.0032975385 0.002812606 0.82282734 0.9097092 0.07623133 0.058218762 0.0 0.0126513345
0.00335142 0.0037663057 0.0032975369 0.0035938858 0.7787472 0.8898854 0.04233457 0.04125156
0.0 0.013939105 0.0036477668 0.0034753485 0.0031951633 0.002877264 0.84001535 0.9203508
0.0769695 0.04688755 0.0 0.011816176 0.0035400048 0.0032113285 0.0034214647 0.0032436566
0.7952831 0.90341526 0.041903526 0.04096059 0.0 0.013421834 0.004359 0.0039495034
0.0033029262 0.0028126051 0.83829105 0.9219962 0.072319545 0.044937037 0.0 0.011255812
0.0037932454 0.002785665 0.0031574457 0.0027910534 0.807245 0.91134155 0.041106068 0.04239923
0.0 0.013324856 0.00459608 0.0039441152 0.0034699591 0.0024677648 0.8349667 0.9204233
0.063709274 0.04342297 0.0 0.010830147 0.0049409196 0.0030119668 0.002909593 0.0026294093
0.81318265 0.9134689 0.042113647 0.039958395 0.0 0.012737548 0.004865485 0.0035777213
0.0035346157 0.0029688631 0.83028984 0.9175187 0.054829646 0.04139705 0.0 0.01299079
0.0050810114 0.0032867624 0.0031789986 0.003254433 0.81593055 0.9123543 0.055282235 0.10310731
0.0 0.013346407 0.0034268529 0.003599274 0.0032113292 0.0028287694 0.75483996 0.8551516
0.053321004 0.0780687 0.0 0.01546933 0.0038740705 0.0033783596 0.0032705974 0.0026671274
0.78410286 0.8797497 0.059846032 0.09640987 0.0 0.012672892 0.0032705974 0.0033137025
0.0036262146 0.0030820128 0.7573453 0.85990447 0.0504006 0.05545467 0.0 0.016665503
0.0036908716 0.003389137 0.00352384 0.002661738 0.81274056 0.90074897 0.06875799 0.07492201
0.0 0.012473529 0.003281375 0.0036316027 0.003814799 0.0032598209 0.7710526 0.8770428
0.04630564 0.049155954 0.0 0.017004948 0.0035022867 0.0037447533 0.003302927 0.002812606
0.82361937 0.9105562 0.07633369 0.05825651 0.0 0.012662113 0.00335142 0.0037663057
0.0032975369 0.0035938858 0.7794478 0.89069587 0.04235073 0.04126232 0.0 0.013944494
0.0036477668 0.0034753485 0.0032005517 0.002877264 0.84081304 0.9212027 0.07706648 0.046903715
0.0 0.011843114 0.0035400048 0.0032113285 0.0034214647 0.0032436566 0.7960108 0.9042471
0.041919705 0.04098216 0.0 0.013427224 0.004359 0.0039495034 0.0033083144 0.0028126056
0.83908325 0.9228362 0.07240572 0.04494782 0.0 0.011271975 0.0037932454 0.002785665
00000000: 8b31 623d f818 d33d 0000 0000 4a94 5a3c
00000010: 0d95 603b cce1 6b3b 59c0 513b e062 393b
00000020: 750c 413f dab5 5a3f ea28 5a3d 32d7 9f3d
00000030: 0000 0000 b118 7d3c 1ee4 7d3b 7867 5d3b
00000040: 22fd 553b f9ca 2e3b a18b 483f c501 613f
00000050: 48dd 743d 3a67 c53d 0000 0000 265e 4f3c
00000060: 8557 563b b52a 593b 5c4b 6d3b 98fb 493b
00000070: b3b1 413f 6ded 5b3f 0a3e 4e3d cb1e 633d
00000080: 0000 0000 964d 883c 8de2 713b 491c 5e3b
00000090: d995 663b 8e70 2e3b 46dd 4f3f fa5f 663f
000000a0: 6da9 8c3d 9262 993d 0000 0000 2b47 4c3c
000000b0: 570c 573b 2f00 6e3b 48a7 793b b8a2 553b
000000c0: 5733 453f 2250 603f b68e 3d3d 1852 493d
000000d0: 0000 0000 c520 8b3c 9f86 653b 896a 753b
000000e0: 841b 583b b353 383b d0a4 523f b4e2 683f
000000f0: 2c1f 9c3d cc76 6e3d 0000 0000 8b47 4f3c
00000100: 7fa3 5b3b 20d4 763b 7d1b 583b 6687 6b3b
00000110: fa5b 473f 88cf 633f 0467 2d3d 65f7 283d
00000120: 0000 0000 d860 643c 5f0f 6f3b acc2 633b
00000130: f265 513b 7b90 3c3b 3f0b 573f 1c9c 6b3f
00000140: 2fa2 9d3d 290d 403d 0000 0000 a298 413c
00000150: 6dff 673b 2775 523b a73a 603b 8793 543b
00000160: ac97 4b3f 3946 673f 08a3 2b3d 4bc6 273d
00000170: 0000 0000 41e7 5b3c f1d5 8e3b d66a 813b
00000180: e875 583b af53 383b 3e9a 563f f107 6c3f
00000190: 451c 943d e60f 383d 0000 0000 4c6a 383c
000001a0: 1998 783b b48f 363b 26ed 4e3b 1bea 363b
000001b0: 9ca7 4e3f ae4d 693f d65e 283d d1aa 2d3d
000001c0: 0000 0000 7f50 5a3c b79a 963b a33d 813b
000001d0: 4168 633b 39ba 213b 61c0 553f dda0 6b3f
000001e0: 027a 823d 49dc 313d 0000 0000 ee70 313c
000001f0: 70e7 a13b 6b64 453b dfae 3e3b 2b52 2c3b
00000200: bd2c 503f 19d9 693f 5c7f 2c3d 6aab 233d
00000210: 0000 0000 26b1 503c a56e 9f3b 3478 6a3b
00000220: 03a5 673b 4291 423b e08d 543f 81e2 6a3f
00000230: 0d95 603d f48f 293d 0000 0000 53d7 543c
00000240: 9d7e a63b b966 573b bf56 503b 5348 553b
00000250: d3e0 503f 0d90 693f a06f 623d ed29 d33d
00000260: 0000 0000 e3aa 5a3c 0d95 603b cce1 6b3b
00000270: 2a75 523b e062 393b 313d 413f 37eb 5a3f
00000280: 2067 5a3d 7ce2 9f3d 0000 0000 1373 7d3c
00000290: 1ee4 7d3b 7867 5d3b 8557 563b f9ca 2e3b
000002a0: f7ba 483f 4737 613f 1d21 753d 8a72 c53d
000002b0: 0000 0000 f6a1 4f3c 8557 563b b42a 593b
000002c0: c9a5 6d3b 98fb 493b 62e1 413f b322 5c3f
000002d0: dc70 4e3d 7024 633d 0000 0000 1886 883c
000002e0: 8de2 713b 491c 5e3b 3af0 663b 8e70 2e3b
000002f0: c40f 503f 7c97 663f fdd0 8c3d b670 993d
00000300: 0000 0000 c65d 4c3c 560c 573b 2f00 6e3b
00000310: b501 7a3b b8a2 553b b463 453f e085 603f
00000320: fcaa 3d3d c157 493d 0000 0000 f64d 8b3c
00000330: 9f86 653b 896a 753b eb75 583b b353 383b
00000340: b8d8 523f 361a 693f d654 9c3d 619e 6e3d
00000350: 0000 0000 c074 4f3c 7fa3 5b3b 20d4 763b
00000360: 7d1b 583b 6687 6b3b e489 473f a504 643f
00000370: f677 2d3d ae02 293d 0000 0000 7277 643c
00000380: 5f0f 6f3b acc2 633b 59c0 513b 7b90 3c3b
00000390: 863f 573f f1d3 6b3f 08d5 9d3d 1c1e 403d
000003a0: 0000 0000 9f09 423c 6dff 673b 2775 523b
000003b0: a73a 603b 8793 543b 5dc7 4b3f bd7c 673f
000003c0: ffb3 2b3d e9dc 273d 0000 0000 dcfd 5b3c
000003d0: f1d5 8e3b d66a 813b 4ed0 583b b153 383b
000003e0: 29ce 563f fe3e 6c3f 7349 943d 351b 383d
000003f0: 0000 0000 17ae 383c 1998 783b b48f 363b

network_body.observation_encoder.processors.1.normalizer.running_mean f4 [6]
415.56985 73.16289 415.87427 73.170784 416.17862 73.17863
00000000: f1c8 cf43 6653 9242 e8ef cf43 7157 9242
00000010: dd16 d043 755b 9242

network_body._body_endoder.seq_layers.0.weight f4 [128, 456]
-0.005329914 -0.05046097 0.0048031965 -0.009685132 0.031119008 -0.02582144 -0.077663615 0.0018297103
-0.013464247 0.085319094 0.04709545 -0.006490764 0.025616286 0.031133138 -0.048027452 0.06552295
0.01979922 0.02257755 0.010781473 0.0005365943 -0.13920254 0.06285999 -0.028007776 -0.02286771
0.04830829 0.04758675 -0.033514097 -0.015857007 -0.00014967793 -0.050402705 -0.00053770095 -0.078488976
0.032531742 0.06249415 -0.011602202 0.045368917 0.05691534 -0.011486643 0.023101067 0.093919985
0.03843406 -0.049463015 -0.009109234 0.011990541 -0.069708906 0.060135916 -0.009577558 -0.027779978
0.007203758 0.013600468 -0.012729034 0.008172661 0.08780446 -0.063632764 -0.009182546 0.106917664
-0.027911687 -0.045558795 -0.10159685 -0.04495945 0.016263535 0.086578175 0.06676849 -0.07231354
0.0001866939 -0.036793437 -0.03456996 0.029432084 0.055491433 -0.033609882 0.050843358 -0.087527886
-0.001100317 0.07845567 -0.05727069 0.062458206 0.00585016 -0.05047508 0.061489623 0.018536568
0.005386148 -0.043137603 0.032382384 0.08246241 -0.14296558 0.038948305 0.06321805 0.09927653
-0.012456783 0.06579375 -0.008414561 0.03515967 -0.09773096 -0.040035028 -0.020663448 -0.019375745
-0.07828946 0.05206277 0.033867814 -0.00778483 -0.09944199 0.0417119 -0.0005782724 0.023535186
-0.035038 -0.060155656 0.009015722 0.09827835 0.081254005 -0.043607134 -0.090891294 -0.020282492
0.03808686 -0.03352683 0.08662549 -0.072846845 0.024551703 0.00084637245 0.096645504 0.008688832
0.004357547 -0.011714565 0.03414807 0.00056437665 -0.016211974 -0.042616986 -0.06185607 0.020902859
-0.024390643 0.1197819 0.03512066 0.031160632 -0.091964126 0.013460132 0.095009826 0.0016581096
0.007390551 -0.11031108 -0.041433953 0.073496036 -0.08648392 0.05372291 0.004981281 0.028046448
0.040675312 0.04251316 0.004605389 -0.007451501 -0.101663865 -0.14509693 0.043225594 -0.016329652
0.004091765 0.017095784 -0.026149705 -0.06727276 -0.05701565 -0.031159582 0.05363061 0.0018967855
-0.013869423 -0.049860626 -0.014809559 0.094685405 0.0032432668 0.027269136 -0.06580419 0.043506246
0.06986927 0.031735294 -0.020704266 -0.07183259 -0.06352968 -0.053725842 -0.0064127888 0.07495446
0.078632675 0.002115616 -0.04813068 -0.048221596 0.018106971 0.0033277022 0.0029874041 0.14931938
-0.009963368 -0.04292076 0.065685615 -0.181488 0.08831248 0.0014550261 -0.054637723 0.011180432
-0.111620635 0.040771663 -0.09108974 0.11215669 0.047351617 -0.06100989 -0.061686832 -0.050649777
-0.04817183 -0.06401043 -0.0012067228 0.05128159 0.014402242 0.043640766 0.108621 -0.026112344
-0.02554546 0.06655357 -0.06334589 0.009336631 0.0068591097 0.06067691 -0.003538167 0.1019879
-0.05788946 -0.038389027 0.0083029885 -0.012822805 0.09299161 -0.012526729 -0.0741645 0.014155266
-0.03871183 -0.04712338 0.02193775 0.0432856 0.06900914 0.059504993 -0.059885345 0.04751994
0.0060300776 0.01023965 0.0021521046 -0.06887005 0.032620862 -0.009415758 -0.031026542 0.055673704
0.034089766 0.004417323 0.03312456 -0.04012439 -0.05549173 0.08935022 0.07234675 0.044261917
-0.04431927 0.058109317 -0.011282558 -0.045386825 0.010898752 -0.03125243 0.13663638 0.069680065
00000000: 8fa6 aebb 29b0 4ebd 2264 9d3b 63ae 1ebc
00000010: 4aed fe3c 7c87 d3bc 1a0e 9fbd e4d2 ef3a
00000020: 2599 5cbc c7bb ae3d 29e7 403d 7ab0 d4bb
00000030: 3fd9 d13c ec0a ff3c 6fb8 44bd e530 863d
00000040: f931 a23c 8ef4 b83c c6a4 303c 3caa 0c3a
00000050: 1c8b 0ebe bdbc 803d 9070 e5bc 1055 bbbc
00000060: eade 453d 53ea 423d 1446 09bd 8ee6 81bc
00000070: ddf2 1cb9 1173 4ebd 80f4 0cba d4be a0bd
00000080: 0140 053d def9 7f3d 2a17 3ebc c2d4 393d
00000090: 0f20 693d 7932 3cbc 733e bd3c 1f59 c03d
000000a0: 086d 1d3d bb99 4abd e63e 15bc f973 443c
000000b0: 8bc3 8ebd 1451 763d 31eb 1cbc d692 e3bc
000000c0: 810d ec3b 7fd4 5e3c 708d 50bc a0e6 053c
000000d0: d3d2 b33d e551 82bd 6472 16bc a6f7 da3d
000000e0: 0da7 e4bc dc9b 3abd 0212 d0bd 6627 38bd
000000f0: 1b3b 853c e64f b13d ebbd 883d 1f19 94bd
00000100: 43c3 4339 b7b4 16bd 3b99 0dbd 8e1b f13c
00000110: fc4a 633d 84aa 09bd 2041 503d d241 b3bd
00000120: 8338 90ba 5ead a03d ac94 6abd 2dd4 7f3d
00000130: b3b2 bf3b f5be 4ebd 8bdc 7b3d 00da 973c
00000140: 497e b03b 0eb1 30bd 64a3 043d 0de2 a83d
00000150: 9265 12be 4288 1f3d 7778 813d 7e51 cb3d
00000160: 8917 4cbc e0be 863d 3add 09bc 9603 103d
00000170: 2b27 c8bd c5fb 23bd 6446 a9bc e2b9 9ebc
00000180: 3956 a0bd c53f 553d fab8 0a3d e317 ffbb
00000190: 3ea8 cbbd 19da 2a3d 3497 17ba ddcc c03c
000001a0: 0284 0fbd c765 76bd aeb6 133c 2946 c93d
000001b0: 8068 a63d 659d 32bd 3725 babd 7827 a6bc
000001c0: f800 1c3d 6e53 09bd b468 b13d ba30 95bd
000001d0: a720 c93c 18df 5d3a 14ee c53d 9a5b 0e3c
000001e0: c1c9 8e3b 72ee 3fbc d9de 0b3d adf2 133a
000001f0: f9ce 84bc 268f 2ebd ca5c 7dbd 793c ab3c
00000200: e3ce c7bc 3650 f53d aeda 0f3d 9544 ff3c
00000210: b057 bcbd e387 5c3c 8394 c23d ed54 d93a
00000220: 6f2c f23b c7ea e1bd a6b6 29bd 1785 963d
00000230: 7b1e b1bd 8e0c 5c3d 033a a33b aac1 e53c
00000240: 289b 263d 4722 2e3d cee8 963b b92b f4bb
00000250: 2535 d0bd 4a94 14be 520d 313d c3c5 85bc
00000260: 3614 863b 750c 8c3c e837 d6bc 4dc6 89bd
00000270: 3e89 69bd 6142 ffbc c5ab 5b3d 8f9d f83a
00000280: 943c 63bc a83a 4cbd cba3 72bc 6cea c13d
00000290: fd8c 543b 8663 df3c 59c4 86bd 9b33 323d
000002a0: 9f17 8f3d defc 013d fe9b a9bc f71c 93bd
000002b0: d91b 82bd a10f 5cbd 5f22 d2bb b981 993d
000002c0: 2b0a a13d 26a6 0a3b ad24 45bd 0284 45bd
000002d0: 1255 943c 9415 5a3b 53c8 433b 2ee7 183e
000002e0: 653d 23bc aecd 2fbd 2e86 863d fed7 39be
000002f0: 2cdd b43d 93b6 be3a cecb 5fbd 212e 373c
00000300: 5c99 e4bd 3000 273d 428d babd 68b2 e53d
00000310: c5f3 413d 82e5 79bd 55ab 7cbd 2476 4fbd
00000320: d34f 45bd e617 83bd e62a 9eba a50c 523d
00000330: 62f7 6b3c a9c0 323d b074 de3d 8ee9 d5bc
00000340: b644 d1bc 3d4d 883d 7dbb 81bd abf8 183c
00000350: 62c2 e03b 5a88 783d 98e0 67bb 08df d03d
00000360: 801d 6dbd d03d 1dbd 4209 083c be16 52bc
00000370: 6372 be3d e93c 4dbc 8fe3 97bd 7deb 673c
00000380: 4c90 1ebd 7204 41bd ccb6 b33c 3e4c 313d
00000390: aa54 8d3d 82bb 733d 564a 75bd 45a4 423d
000003a0: f597 c53b 34c4 273c 530a 0d3b be0b 8dbd
000003b0: 749d 053d 8d44 1abc 602b febc 1c0a 643d
000003c0: b6a1 0b3d 31bf 903b 9ead 073d 7959 24bd
000003d0: 4c4b 63bd 40fd b63d 882a 943d fc4b 353d
000003e0: 1f88 35bd 0904 6e3d 7ada 38bc 89e7 39bd
000003f0: ae90 323c 8c02 00bd 68ea 0b3e 6cb4 8e3d

network_body._body_endoder.seq_layers.0.bias f4 [128]
-0.011433568 -0.0044096145 -0.0014260118 -0.00094356 -0.031709425 0.016204 0.019571187 -0.007379838
0.014347056 -0.031234153 -0.012826853 -0.021300638 -0.026707767 -0.017661301 -0.0111559965 -0.0036930162
-0.020023389 -0.021942995 0.00913197 -0.018276047 0.014129372 -0.022809656 0.0055934507 -0.007986533
-0.035916917 0.004388485 -0.015019128 -0.012641343 -0.015086982 0.009335536 -0.014083757 -0.023222845
-0.0028960889 0.015918491 -0.045934383 0.0025415858 -0.027672708 0.015364131 0.005326667 -0.034267154
0.0012424054 -0.015544552 -0.006697902 -0.022010889 0.0019566568 -0.0055025863 -0.004618132 -0.011135797
-0.027790679 0.00470072 -0.005630153 0.013047 0.017157154 -0.014375187 0.046608582 0.019919064
0.035104096 0.022871457 0.009831959 -0.0114579415 -0.011542699 -0.015125052 -4.9037746e-05 -0.011341461
0.011259639 -0.00054747186 -0.027102798 -0.008640484 -0.027802642 0.010885926 0.025588538 0.008734464
-0.009934448 -0.031687457 -0.015145949 -0.005014853 -0.009942355 0.02165661 -0.013647956 0.0152814
-0.05139882 0.009534659 -0.01836469 -0.020961542 -0.014911631 -0.0040540947 -0.016752435 -0.017850602
0.009864046 0.01017864 -0.025179699 -0.02320727 -0.00012452046 -0.0078276275 -0.0074791196 0.02509473
0.021304877 -0.0009972968 -0.012346341 -0.039406676 -0.029087674 -0.012510777 0.009820103 -0.01083785
-0.014405147 -0.021048032 -0.022991363 -0.0067545245 -0.0021682435 0.011449145 0.021599334 0.028858483
-0.023426509 -0.01960298 0.0032600253 -0.047460593 -0.030124716 -0.03740037 -0.042077057 -0.011735729
-0.013540945 -0.0025166583 0.021237785 -0.032264262 0.007775803 0.019725554 -0.011413428 0.010978034
00000000: dc53 3bbc 877e 90bb 04e9 baba 3d59 77ba
00000010: bee1 01bd 40be 843c c153 a03c 91d2 f1bb
00000020: ea0f 6b3c c4de ffbc b927 52bc ad7e aebc
00000030: 3fca dabc 6fae 90bc a4c7 36bc 8806 72bb
00000040: 1708 a4bc ccc1 b3bc 429e 153c a6b7 95bc
00000050: e27e 673c 51db babc 4449 b73b f3d9 02bc
00000060: 9e1d 13bd 48cd 8f3b ca12 76bc a31d 4fbc
00000070: 642f 77bc 13f4 183c 8fbf 66bc d63d bebc
00000080: 4fcc 3dbb 7f67 823c b125 3cbd bc90 263b
00000090: e0b1 e2bc d6b9 7b3c 528b ae3b b75b 0cbd
000000a0: 35d8 a23a 94ae 7ebc 137a dbbb 2e50 b4bc
000000b0: 413b 003b 0a4f b4bb b353 97bb eb72 36bc
000000c0: 47a9 e3bc 7f08 9a3b 267d b8bb 16c3 553c
000000d0: 298d 8c3c e885 6bbc a4e8 3e3d 4e2d a33c
000000e0: 50c9 0f3d ec5c bb3c 3a16 213c 17ba 3bbc
000000f0: 971d 3dbc 11cf 77bc e1ad 4db8 89d1 39bc
00000100: 597a 383c 3784 0fba b006 debc d190 0dbc
00000110: 5ec2 e3bc e25a 323c 0e9f d13c ff1a 0f3c
00000120: 18c4 22bc b5ca 01bd b726 78bc a353 a4bb
00000130: 42e5 22bc 3469 b13c ad9b 5fbc d65e 7a3c
00000140: 9287 52bd 4237 1c3c 8c71 96bc 8ab7 abbc
00000150: ea4f 74bc 36d8 84bb 673c 89bc 6d3b 92bc
00000160: cf9c 213c 4fc4 263c a845 cebc 2c1d bebc
00000170: b591 02b9 733f 00bc 6713 f5bb 7793 cd3c
00000180: 9187 ae3c bab7 82ba 4f48 4abc e568 21bd
00000190: 4649 eebc 01fa 4cbc 7fe4 203c 3d91 31bc
000001a0: 9103 6cbc ec6c acbc 6258 bcbc 0f55 ddbb
000001b0: 1719 0ebb 3295 3b3c 16f1 b03c a068 ec3c
000001c0: f3e8 bfbc 6e96 a0bc 26a6 553b 0a66 42bd
000001d0: 1cc8 f6bc 2131 19bd fe58 2cbd 3747 40bc
000001e0: d7da 5dbc 85ee 24bb ddfa ad3c 8827 04bd
000001f0: 2acc fe3b 7c97 a13c 63ff 3abc 36dd 333c

network_body._body_endoder.seq_layers.2.weight f4 [128, 128]
-0.09100596 0.19944832 -0.021799639 0.12605324 0.058382392 -0.093261145 0.034788992 -0.034176126
-0.11511596 0.0005071873 0.080204 -0.17628157 -0.16312943 -0.03744778 0.21655065 0.04025146
-0.09636985 -0.038015652 0.050646912 0.019308556 0.032998297 -0.021721391 -0.087690935 -0.08428548
0.008206583 0.10577348 -0.11933459 0.021050738 -0.10643677 -0.107940786 -0.030710349 0.10799388
0.08483906 0.008865377 -0.113142885 0.054899476 0.046898283 0.14808373 0.047475588 -0.0005145469
0.15319248 0.067550585 -0.0055978885 0.13963448 0.12455289 0.0042918054 -0.06947652 -0.15792537
-0.007647138 -0.0025546711 0.2050676 0.013727855 0.02833072 0.027596349 -0.04015725 -0.091511294
-0.16194995 0.0191325 0.04769465 -0.17329122 0.07970725 -0.07639201 0.15711008 -0.20510216
-0.046673413 0.15732981 0.015775105 0.1644129 -0.07442234 -0.034740325 0.030972762 -0.10010638
0.06465117 -0.041008096 0.2097426 -0.042615432 0.04078564 -0.14392692 0.094422325 -0.041009977
-0.05533676 -0.034733206 -0.0021502809 0.046889022 0.088246405 -0.044254277 0.037445113 -0.061425943
0.027906 0.04855423 -0.14765157 0.047497388 0.022295732 0.04928861 -0.11182717 -0.10200859
-0.039927516 0.07635013 -0.01615374 0.009861703 0.11868943 0.14554402 0.0768881 0.034097802
0.040335033 0.14916727 -0.07842007 -0.11107546 0.08838505 -0.12538467 -0.082432225 -0.11751728
-0.03291851 -0.045777254 -0.014900183 -0.0082442695 -0.090001285 0.114867605 -0.01511762 -0.0042719007
-0.15135115 0.08573762 -0.12153297 0.011763707 0.01903893 0.069422044 -0.13508493 -0.057208247
0.13989252 -0.07027739 -0.073022395 -0.120719664 0.054328118 -0.035600435 -0.07893528 -0.068104215
-0.14453574 -0.093455374 -0.24013586 -0.03081476 -0.05311032 -0.059897415 -0.09139578 0.056104966
0.027084373 -0.092241116 -0.033318333 -0.0068643847 0.055475987 -0.024346692 0.031189412 -0.022881398
-0.06943171 -0.14086993 0.070857204 0.06131384 -0.030958422 -0.15452729 -0.06737337 -0.151442
0.13214687 -0.048893683 -0.0005629717 -0.12183238 -0.12328642 0.08708266 -0.024571532 0.03980666
-0.06605143 -0.22417505 0.18348333 0.025321929 0.30855352 0.028543323 0.089286804 -0.03912369
0.040723436 0.20293872 -0.048587166 0.08695779 0.0005005142 -0.08014753 -0.07100263 0.027393576
-0.10221307 -0.07399097 -0.14502414 0.122848265 -0.1926621 0.08868206 0.12711456 -0.12002815
0.09048245 -0.03388452 -0.15105297 -0.049529564 -0.21665663 -0.055627704 0.1790668 0.090303205
0.10591679 -0.07457392 -0.23850602 -0.06526208 0.012775574 0.10308587 -0.08518592 0.1292894
-0.11510482 0.11583207 0.008790103 -0.06109378 0.07596163 -0.029417986 -0.007619393 0.041403264
-0.018796436 -0.11116076 -0.10188281 0.16269656 -0.06722595 -0.072438866 0.17549121 0.046266176
-0.12683178 0.0027131157 -0.24521396 -0.054219782 -0.10541272 0.010076049 -0.08656595 -0.09440408
0.09626792 -0.10671452 -0.11881851 0.011703048 -0.03823113 -0.035445742 -0.00022587356 0.061822742
0.043826047 -0.044789404 -0.019151619 -0.08907896 -0.00063291774 -0.0276074 -0.1838792 -0.09199792
0.00815491 0.030420111 0.14779815 0.04584406 -0.05165988 0.051256426 -0.07125911 0.0008570272
00000000: 5561 babd 2e3c 4c3e 2895 b2bc 1a14 013e
00000010: 6022 6f3d b3ff bebd e77e 0e3d 44fc 0bbd
00000020: ebc1 ebbd c3f4 043a ff41 a43d 2883 34be
00000030: 670b 27be d862 19bd 74bf 5d3e b7de 243d
00000040: 8e5d c5bd 4db6 1bbd 2373 4f3d fa2c 9e3c
00000050: 3929 073d 0ff1 b1bc 4e97 b3bd de9d acbd
00000060: e774 063c c49f d83d b265 f4bd 9972 ac3c
00000070: 85fb d9bd 0f10 ddbd 4594 fbbc e52b dd3d
00000080: 1ac0 ad3d 1640 113c 75b7 e7bd 46de 603d
00000090: 6a18 403d 43a3 173e c375 423d a8e2 06ba
000000a0: 7dde 1c3e f657 8a3d 7e6e b7bb 57fc 0e3e
000000b0: 9615 ff3d 46a2 8c3b b549 8ebd 30b7 21be
000000c0: d894 fabb 456c 27bb 3efd 513e ccea 603c
000000d0: d315 e83c bd11 e23c ee7b 24bd 466a bbbd
000000e0: 35d6 25be c3bb 9c3c 775b 433d 4173 31be
000000f0: 8e3d a33d 6a73 9cbd 77e1 203e 4d06 52be
00000100: 9f2c 3fbd 111b 213e cb3a 813c db5b 283e
00000110: bd6a 98bd df4b 0ebd 97ba fd3c 9304 cdbd
00000120: d567 843d 1bf8 27bd c4c6 563e 858d 2ebd
00000130: d80e 273d 9461 13be 7e60 c13d 14fa 27bd
00000140: cca8 62bd 6844 0ebd baeb 0cbb b40e 403d
00000150: 88ba b43d f943 35bd 0c60 193d c599 7bbd
00000160: 209b e43c cde0 463d f931 17be 9f8c 423d
00000170: 8aa5 b63c dbe2 493d a505 e5bd e1e9 d0bd
00000180: 098b 23bd 755d 9c3d d954 84bc fb92 213c
00000190: 7213 f33d 7e09 153e 8277 9d3d 23aa 0b3d
000001a0: 5936 253d 4ebf 183e b49a a0bd 887b e3bd
000001b0: 3903 b53d d764 00be 3ad2 a8bd e6ac f0bd
000001c0: 8fd5 06bd ee80 3bbd e61f 74bc f912 07bc
000001d0: 9852 b8bd b53f eb3d e5af 77bc 4dfb 8bbb
000001e0: ccfb 1abe 3597 af3d 47e6 f8bd 90bc 403c
000001f0: 88f7 9b3c 252d 8e3d b453 0abe 3253 6abd
00000200: fc3f 0f3e 98ed 8fbd c48c 95bd df3b f7bd
00000210: 2987 5e3d c3d1 11bd d2a8 a1bd 397a 8bbd
00000220: 2d01 14be 8865 bfbd 2de6 75be 3c6f fcbc
00000230: 358a 59bd fe56 75bd b62d bbbd 52ce 653d
00000240: 0ce0 dd3c e9e8 bcbd ce78 08bd a2ee e0bb
00000250: ca3a 633d b772 c7bc f080 ff3c c571 bbbc
00000260: 3632 8ebd 3540 10be 951d 913d 3924 7b3d
00000270: 849c fdbc 673c 1ebe 0dfb 89bd 9d13 1bbe
00000280: 8251 073e be44 48bd 6494 13ba 4183 f9bd
00000290: 977d fcbd 6558 b23d 3d4a c9bc 4f0c 233d
000002a0: f945 87bd 258e 65be 0ee3 3b3e ef6f cf3c
000002b0: bafa 9d3e b0d3 e93c 00dc b63d 2a40 20bd
000002c0: 9ecd 263d 2bcf 4f3e 5603 47bd ed16 b23d
000002d0: f034 033a 6324 a4bd d469 91bd 7e68 e03c
000002e0: 1655 d1bd 9488 97bd 3581 14be df97 fb3d
000002f0: 3749 45be f19e b53d 522a 023e 52d1 f5bd
00000300: dd4e b93d 7fca 0abd a1ad 1abe 83df 4abd
00000310: 3cdb 5dbe e0d9 63bd 4a5d 373e e3f0 b83d
00000320: e7ea d83d 36ba 98bd ec3a 74be 20a8 85bd
00000330: a450 513c af1e d33d f575 aebd 7164 043e
00000340: 13bc ebbd 5d39 ed3d 5d04 103c 793d 7abd
00000350: c591 9b3d fdfd f0bc 1aac f9bb 7896 293d
00000360: fcfa 99bc 41a8 e3bd efa7 d0bd ed99 263e
00000370: c2ad 89bd d45a 94bd f8b3 333e 9a81 3d3d
00000380: 31e0 01be 87ce 313b 5e19 7bbe 9015 5ebd
00000390: a0e2 d7bd 0316 253c 7d49 b1bd ed56 c1bd
000003a0: 1e28 c53d 248d dabd 1e57 f3bd 24be 3f3c
000003b0: 3f98 1cbd 8e2f 11bd 79d8 6cb9 d839 7d3d
000003c0: f182 333d 1875 37bd dbe3 9cbc 086f b6bd
000003d0: 64ea 25ba ea28 e2bc d44a 3cbe 6869 bcbd
000003e0: 2c9c 053c 9933 f93c 6658 173e fbc6 3b3d
000003f0: 4f99 53bd 42f2 513d 4cf0 91bd 1faa 603a

network_body._body_endoder.seq_layers.2.bias f4 [128]
-0.013677419 0.024416639 -0.0073510795 0.017136652 -0.02019567 -0.027858656 -0.02180806 -0.012166616
0.02159528 -0.012873522 -0.0051251864 -0.01256159 -0.03112912 -0.019967973 0.044195585 -0.030912936
0.025746735 0.0519256 0.012793061 0.012027496 0.032925725 0.011313286 -0.02988775 -0.023564579
-0.012473651 0.0027830866 0.030374523 0.008422281 -0.020178933 0.011024522 0.014979394 -0.000996804
0.013835977 -0.02413795 0.025469994 0.010874012 0.014537023 0.0036535661 -0.0064602843 0.0067333425
0.012863819 0.0056051747 -0.0043995157 0.0042636837 0.01514622 0.009296557 0.019088482 -0.03982563
0.010640271 0.012737733 -0.0012672457 -0.029057924 -0.0076110954 -0.0042172037 -0.003795839 0.013970303
-0.01613284 -0.0061150324 0.0306617 -0.0102840485 0.011974121 0.017235266 -0.027834885 -0.00096222555
0.018480742 0.010393677 -0.012092663 -0.033069268 -0.024102028 -0.0065063 0.025098661 0.01695243
-0.01416202 0.026119543 -0.01921206 -0.007684798 -0.00342845 -0.016449472 0.008541037 0.011230657
-0.0106762545 -0.0023892317 -0.017818332 -0.010866434 -0.016191974 0.024266502 0.016137231 0.03239334
-0.0037137524 0.0033653495 0.048675634 0.025316074 -0.005430233 -0.01897555 -0.019265966 -0.011933923
0.009673516 0.029929148 0.0014559538 -0.009485607 -0.014340895 0.010644883 -0.006926475 -0.013218266
-0.0075450977 -0.0064401566 0.00062318216 -0.004263905 0.041338343 -0.016550953 0.002524495 0.010126884
0.001833505 -0.020958573 -0.021923257 -0.030642195 -0.008008848 0.010678343 -0.019198421 0.0085901795
-0.013042701 -0.024629213 0.020147283 0.01603261 0.0022965893 -0.023796966 -0.024939708 -0.013101235
00000000: 4117 60bc 6705 c83c 53e1 f0bb 2a62 8c3c
00000010: 6471 a5bc d637 e4bc d1a6 b2bc 7c56 47bc
00000020: 96e8 b03c 77eb 52bc 2ef1 a7bb 21cf 4dbc
00000030: 7f02 ffbc e093 a3bc 6e06 353d 203d fdbc
00000040: d1ea d23c f0af 543d fd99 513c f90e 453c
00000050: 20dd 063d 5c5b 393c 28d7 f4bc 810a c1bc
00000060: 495e 4cbc 7264 363b fed3 f83c 9bfd 093c
00000070: 4a4e a5bc 32a0 343c 226c 753c 31a7 82ba
00000080: 4bb0 623c f3bc c5bc 73a6 d03c e928 323c
00000090: b22c 6e3c ab70 6f3b cbb0 d3bb 5fa3 dc3b
000000a0: c4c2 523c 9dab b73b d029 90bb 5fb6 8b3b
000000b0: da27 783c 9650 183c 735f 9c3c 3320 23bd
000000c0: 8854 2e3c edb1 503c b619 a6ba e20a eebc
000000d0: 7f66 f9bb 7830 8abb 9cc3 78bb b3e3 643c
000000e0: 0529 84bc 9c60 c8bb 3f2e fb3c 6d7e 28bc
000000f0: 1b2f 443c f930 8d3c fc05 e4bc dd3d 7cba
00000100: ed64 973c 3e4a 2a3c 4e20 46bc a473 07bd
00000110: 9e71 c5bc cd32 d5bb b59b cd3c d3df 8a3c
00000120: d107 68bc a7f8 d53c 9c62 9dbc c2d0 fbbb
00000130: d9af 60bb 0bc1 86bc b5ef 0b3c ca00 383c
00000140: 75eb 2ebc a894 1cbb c0f7 91bc 2109 32bc
00000150: 08a5 84bc 8bca c63c 3a32 843c e1ae 043d
00000160: 6d62 73bb 328d 5c3b 1a60 473d a863 cf3c
00000170: 19f0 b1bb 9d72 9bbc a9d3 9dbc 8086 43bc
00000180: ab7d 1e3c f92d f53c b4d5 be3a 8569 1bbc
00000190: 13f6 6abc e067 2e3c 7cf7 e2bb 6d91 58bc
000001a0: de3c f7bb f307 d3bb 0c5d 233a 3ab8 8bbb
000001b0: 6552 293d dd95 87bc ff71 253b 3beb 253c
000001c0: 3852 f03a 50b1 abbc 6798 b3bc 5705 fbbc
000001d0: 8b37 03bc 37f4 2e3c 0246 9dbc d3bd 0c3c
000001e0: 0eb1 55bc 34c3 c9bc ea0b a53c d256 833c
000001f0: 6082 163b dbf1 c2bc 5c4e ccbc 90a6 56bc

action_model._discrete_distribution.branches.0.weight f4 [2, 128]
-0.0022866766 0.024319498 -0.029173853 -0.01351358 0.013452592 0.004097518 0.0010728076 0.04195311
-0.021974204 0.008526013 0.004114871 -0.017089887 0.001808274 0.027122818 -0.006176434 0.011577352
0.020318922 -0.05955409 -0.016680993 0.021580104 -0.057156403 -0.033625346 -0.01202108 -0.02295553
0.03365282 -0.026834618 -0.0505562 -0.0003502804 -0.025144937 -0.052711155 -0.014223022 -0.01771852
-0.024135629 0.027791018 -0.015422713 -0.018525265 0.005178346 0.033474844 0.03851953 -0.022559484
0.007361202 0.014885067 0.06113996 -0.010433643 -0.016977692 0.02262716 -0.038612176 0.011838437
-0.013976933 0.0016482983 0.02987398 0.007327168 0.0034052052 0.01304036 -0.021105425 0.008358448
0.011409475 0.0046506794 0.015063475 0.011199723 -0.02930368 -0.021777164 0.003249263 -0.0033099276
-0.019131344 -0.040482562 -0.014115727 0.02996265 0.017898561 0.027745582 -0.024755768 -0.016273357
-0.0079836175 -0.021730766 -0.0015570926 0.024679575 -0.0139238015 0.01010347 0.0410543 -0.012288112
0.014201636 0.039620217 0.008742213 0.043848425 0.056859624 -0.00020667937 0.07211344 -0.06687427
0.043477565 0.034216184 -0.045806557 0.016275313 0.012419011 0.027254406 0.0031008725 0.011851166
0.051631127 -0.027020339 -0.008156056 0.05251376 -0.011200798 -0.023094457 -0.00029527064 0.002175686
0.0058975383 -0.018633647 -0.029031966 0.02438275 -0.024057576 0.03464724 0.0010865987 -0.024653269
-0.0045483587 0.009791039 0.010197208 0.0053849914 -0.011519057 0.018924149 0.04577796 -0.012775219
0.028026044 0.036228858 -0.029679695 -0.037189495 0.049072675 0.00796195 0.030865725 0.008318341
-0.0058101704 -0.0291466 0.0029995397 0.0018675436 -0.0077358484 -0.007802877 -0.018422257 -0.024923462
0.02821488 0.0026409226 -0.003623312 -0.005886226 0.00829999 -0.04041525 0.00084345025 -0.02371925
-0.014489886 0.059973747 0.018341815 -0.008983564 0.047099926 0.01993154 -0.008301455 0.01444303
-0.023080036 0.025869187 0.051776037 0.021308478 0.031140301 0.037668806 0.010219521 0.029768756
0.013260157 -0.039473984 0.009163359 0.004723997 0.014388718 -0.018131599 -0.032747857 0.028632673
-0.008343185 -0.003720179 -0.030736987 0.03630619 0.018227013 -0.0014573226 0.027674332 -0.008679369
0.028008288 -0.0031521083 -0.039098304 0.0027935128 -0.004802552 0.0030813774 0.014692559 -0.00040599407
0.0077193277 -0.006197044 -0.0058030933 0.00058784045 0.041548904 0.0065816888 0.004619911 0.0080860425
0.029036356 0.02032293 0.00239441 -0.013618115 -0.036174092 -0.022649357 0.024752563 0.012763801
-0.0018771712 0.024181256 -0.005553195 -0.016919913 0.042577364 -0.012639386 -0.03656358 0.035964645
-0.019944495 -0.052270938 -0.006328224 -0.052656498 -0.041204482 0.0012559216 -0.06314296 0.040670633
-0.028404675 -0.036820736 0.05139748 0.0061026425 -0.006443588 -0.022103084 -0.0013666606 -0.040183492
-0.04954978 0.032202315 -0.0010170513 -0.04823531 0.009513221 0.016552258 -0.0079752095 0.0038912303
-0.009395427 0.010434221 0.033641808 -0.04311751 0.02084145 -0.0328365 -0.014465223 0.022596883
-0.0043512788 -0.020056099 -0.040924255 -0.004927919 0.00021554815 -0.003927453 -0.027505688 -0.00021702387
-0.03704573 -0.036043424 0.03211901 0.03194415 -0.066813 0.0024690626 -0.018854126 -0.014515512
00000000: 11dc 15bb af39 c73c 01fe eebc 1068 5dbc
00000010: 4368 5c3c 7944 863b 739d 8c3a 06d7 2b3d
00000020: 3f03 b4bc b1b0 0b3c 0ad6 863b 1700 8cbc
00000030: 9b03 ed3a ac30 de3c af63 cabb efae 3d3c
00000040: de73 a63c fdee 73bd 94a6 88bc c2c8 b03c
00000050: d51c 6abd bbba 09bd 10f4 44bc 3c0d bcbc
00000060: 8ad7 093d 46d4 dbbc 0514 4fbd d7a5 b7b9
00000070: c1fc cdbc a7e7 57bd ae07 69bc 6e26 91bc
00000080: 15b8 c5bc fda9 e33c 8caf 7cbc 4cc2 97bc
00000090: 1daf a93b eb1c 093d a8c6 1d3d abce b8bc
000000a0: 3d36 f13b 7fe0 733c e56d 7a3d dff1 2abc
000000b0: cd14 8bbc 985c b93c cd27 1ebd 01f6 413c
000000c0: 82ff 64bc b70b d83a 47ba f43c bd18 f03b
000000d0: dd29 5f3b 3ca7 553c 49e5 acbc dff1 083c
000000e0: ceee 3a3c ba64 983b cbcc 763c 0b7f 373c
000000f0: 450e f0bc 0666 b2bc 96f1 543b 5feb 58bb
00000100: 56b9 9cbc 0bd1 25bd a645 67bc 3b74 f53c
00000110: 01a0 923c b44a e33c 9ccc cabc b44f 85bc
00000120: b8cd 02bc b804 b2bc 5c17 ccba d22c ca3c
00000130: a820 64bc 0689 253c 8e28 283d 1454 49bc
00000140: fbad 683c cf48 223d 803b 0f3c 689a 333d
00000150: a3e5 683d 12b8 58b9 36b0 933d 61f5 88bd
00000160: 8815 323d 4526 0c3d a89f 3bbd ce53 853c
00000170: 1c79 4b3c a244 df3c 0238 4b3b 652b 423c
00000180: 297b 533d c259 ddbc faa0 05bc ab18 573d
00000190: 8d83 37bc 9630 bdbc 8ece 9ab9 f495 0e3b
000001a0: 2340 c13b 97a5 98bc 72d4 edbc 55be c73c
000001b0: 6514 c5bc 44ea 0d3d 346c 8e3a a7f5 c9bc
000001c0: 660a 95bb 986a 203c 3112 273c 9574 b03b
000001d0: 6dba 3cbc d106 9b3c ac81 3b3d 274f 51bc
000001e0: e096 e53c b664 143d d522 f3bc 0354 18bd
000001f0: 6e00 493d d772 023c 1eda fc3c a749 083c
00000200: 3e63 bebb dac4 eebc ed93 443b 5dc8 f43a
00000210: 007d fdbb 47af ffbb 46ea 96bc 4a2c ccbc
00000220: e422 e73c 5413 2d3b 1775 6dbb 3ee1 c0bb
00000230: aefc 073c 768a 25bd fd1a 5d3a df4e c2bc
00000240: fd66 6dbc 08a7 753d 9341 963c cc2f 13bc
00000250: daeb 403d 7847 a33c d302 08bc 75a2 6c3c
00000260: 5812 bdbc 9eeb d33c 1c13 543d 1e8f ae3c
00000270: f219 ff3c 9b4a 1a3d c76f 273c 9bdd f33c
00000280: 2141 593c 79af 21bd ea21 163c c2cb 9a3b
00000290: a8be 6b3c b888 94bc 9e22 06bd 118f ea3c
000002a0: dbb1 08bc 3fce 73bb 22cc fbbc cdb5 143d
000002b0: d150 953c a203 bfba 48b5 e23c ea33 0ebc
000002c0: a371 e53c 9a93 4ebb 8b25 20bd 5e13 373b
000002d0: ba5e 9dbb eff0 493b 0fb9 703c 9adb d4b9
000002e0: 6af2 fc3b 9310 cbbb e027 bebb 4e19 1a3a
000002f0: 2f2f 2a3d 35ab d73b 9f62 973b 527b 043c
00000300: a7dd ed3c 467c a63c 89eb 1c3b 841e 5fbc
00000310: 492b 14bd 258b b9bc e3c5 ca3c 431f 513c
00000320: 6a0b f6ba c517 c63c 93f7 b5bb a19b 8abc
00000330: 9a65 2e3d 6d15 4fbc b1c3 15bd aa4f 133d
00000340: a362 a3bc 0d1a 56bd fe5c cfbb 57ae 57bd
00000350: 08c6 28bd bc9d a43a 1951 81bd 4096 263d
00000360: ecb0 e8bc 57d1 16bd 2a86 523d adf8 c73b
00000370: bc24 d3bb 8711 b5bc 8521 b3ba 7297 24bd
00000380: b6f4 4abd 93e6 033d 944e 85ba 6392 45bd
00000390: 57dd 1b3c 9a98 873c 74aa 02bc 0304 7f3b
000003a0: 47ef 19bc 4bf4 2a3c fecb 093d fc9b 30bd
000003b0: b0bb aa3c 917f 06bd 8bff 6cbc 191d b93c
000003c0: 2c95 8ebb b04c a4bc 31a0 27bd 617a a1bb
000003d0: c404 6239 ddb1 80bb 9c53 e1bc e790 63b9
000003e0: 43bd 17bd 45a2 13bd 398f 033d ded7 023d
000003f0: 41d5 88bd ffcf 213b f873 9abc 78d2 6dbc

action_model._discrete_distribution.branches.0.bias f4 [2]
-0.02001046 0.020010453
00000000: faec a3bc f6ec a33c

action_model._discrete_distribution.branches.1.weight f4 [3, 128]
0.029531233 -0.028476413 0.024360955 0.05948813 -0.047259986 0.03180778 0.023378348 -0.01993592
0.044982623 -0.016156022 -0.021633996 0.023675755 -0.035696313 -0.032475762 0.0026471894 0.0020236971
0.02308131 0.001115814 0.028158333 -0.060504742 -0.037954856 -0.0042992397 0.023054376 -0.0046960036
0.027072992 -0.04533967 0.005557108 0.037706397 -0.00035083853 0.016459895 0.05606786 0.0063815396
0.054791782 -0.0056369347 -0.022761509 0.0051722405 0.052461527 0.044142444 -0.027034342 0.02743451
-0.05961732 0.019531425 -0.009322421 0.004532143 0.06350511 -0.064247355 0.0064840233 -0.01846668
0.020313025 0.028787585 0.01930513 0.004230415 -0.0010880682 -0.03805811 0.012991155 -0.04225008
0.018803233 -0.046543837 0.026619736 0.031215573 -0.024835715 0.04092689 0.008012369 -0.07728016
-0.029686147 -0.016860042 0.033634827 0.007223331 0.0140878055 -0.06228688 0.06411223 -0.005059352
0.028030232 -0.009904982 -0.019557146 0.016932521 0.0046492587 0.0022453603 -0.013578324 -0.027555449
-0.005860202 0.013487133 0.004524008 -0.007885348 0.009194044 -0.025503645 0.040964745 -0.0005732609
0.015230823 -0.026870465 -0.0048694746 0.036617238 0.019451486 -0.023273155 -0.064907834 -0.024089716
0.0018513217 -0.0077195032 0.03754036 0.02993291 -0.026724547 -0.016136048 -0.03525763 -0.014678755
-0.005417737 -0.02368378 -0.007868783 0.046880558 0.03592917 0.026327886 0.012589634 0.01707959
0.0047011063 -0.011185884 -0.020183342 -0.005085048 0.0058495225 -0.025834385 0.031273156 0.020150311
0.0012945326 -0.0047094095 0.049709853 0.029902767 -0.038319483 -0.003647203 -0.0011481908 -0.018852862
0.020355212 -0.04864028 0.012723824 0.0047096787 0.014275967 -0.019053694 0.011709305 0.031349827
-0.033940606 -0.015795013 -0.005901279 0.0060323514 0.024237277 0.03062771 -0.06569731 0.017665626
-0.06792063 -0.023959108 0.014833788 0.013542296 -0.003683838 0.040332217 -8.924722e-05 0.014454578
-0.014546849 0.046941873 -0.005063572 -0.023480853 0.04778158 0.009893205 -0.050371483 0.02821311
0.013812668 -0.0009391435 -0.030474117 0.042601634 -0.009538738 0.017749297 -0.026009593 -0.0011737077
-0.005759653 -0.053984813 0.041533656 -0.02299509 -0.05217526 0.048136964 0.048975073 0.0013967168
0.01574172 -0.04313606 -0.05391529 -0.024856597 -0.020144366 0.012927947 0.018031366 -0.027296113
-0.037853193 0.0059563844 -0.05373249 -0.0031347931 0.039997473 0.008762548 -0.006494024 0.051260468
0.01242946 0.01904145 0.006309939 0.0033491948 0.009177248 0.010290375 -0.0057615335 -0.035708625
0.0073447814 0.08092462 0.028918287 -0.023113739 -0.0079291025 -0.007042902 0.0025655166 -0.011901197
0.03421554 -0.040564727 -0.007267152 0.06517829 0.012317006 -0.062211644 -0.035209995 -0.017215228
0.028662674 -0.013959249 -0.05508492 0.07631868 0.04154227 0.05314546 0.05962242 0.011899646
-0.04494589 -0.041523993 -0.024580682 -0.03125347 0.022937246 0.0479085 0.026277576 0.009178311
-0.023708252 0.04849498 0.0059585054 -0.051112562 -0.08776183 0.02080661 -0.045384794 -0.06865683
-0.04064695 0.014654165 0.04550242 0.027758112 -0.03392469 0.07450813 -0.025834873 -0.055813044
-0.0033150166 0.0119421445 -0.032064475 0.009223384 0.04770845 0.00912674 0.0199591 0.017006177
00000000: 7ceb f13c 5e47 e9bc a090 c73c d3a9 733d
00000010: b093 41bd e048 023d f383 bf3c a850 a3bc
00000020: b33f 383d a259 84bc c739 b1bc a8f3 c13c
00000030: 4c36 12bd 4e05 05bd 787c 2d3b 01a0 043b
00000040: 0415 bd3c 8140 923a 4eac e63c d2d3 77bd
00000050: 8d76 1bbd a3e0 8cbb 88dc bc3c efe0 99bb
00000060: 2ec8 dd3c 17b6 39bd 6718 b63b 0672 1a3d
00000070: c0f0 b7b9 e7d6 863c 6aa7 653d 3c1c d13b
00000080: 596d 603d 09b6 b8bb 5876 babc e67b a93b
00000090: e6e1 563d b5ce 343d 2077 ddbc 56be e03c
000000a0: 4a31 74bd 5e00 a03c 11bd 18bc 5f82 943b
000000b0: f80e 823d 1e94 83bd ee77 d43b 6f47 97bc
000000c0: 8067 a63c f1d3 eb3c cb25 9e3c 4b9f 8a3b
000000d0: 839d 8eba d2e2 1bbd dad8 543c 6b0e 2dbd
000000e0: 3d09 9a3c c0a4 3ebd a211 da3c cdb7 ff3c
000000f0: 4574 cbbc f4a2 273d 5046 033c 0f45 9ebd
00000100: 5d30 f3bc 121e 8abc acc4 093d b1b1 ec3b
00000110: 8ad0 663c 8720 7fbd 464d 833d ecc8 a5bb
00000120: a89f e53c 8148 22bc 4f36 a0bc 12b6 8a3c
00000130: cf58 983b e526 133b 9e77 5ebc f7bb e1bc
00000140: f006 c0bb 23f9 5c3c 213e 943b 8c31 01bc
00000150: 9ea2 163c 05ed d0bc a6ca 273d e346 16ba
00000160: b48a 793c 731f dcbc 1d90 9fbb f5fb 153d
00000170: b958 9f3c 58a7 bebc 66ee 84bd cc57 c5bc
00000180: 0ca8 f23a e3f3 fcbb ecc3 193d dd35 f53c
00000190: 70ed dabc bf2f 84bc 4e6a 10bd 297f 70bc
000001a0: 4687 b1bb 7d04 c2bc 11ec 00bc d405 403d
000001b0: 772a 133d 94ad d73c c144 4e3c 7fea 8b3c
000001c0: bd0b 9a3b ff44 37bc 8957 a5bc 79a0 a6bb
000001d0: 5aad bf3b a2a2 d3bc 4818 003d 4412 a53c
000001e0: 4ead a93a 6451 9abb 8f9c 4b3d a6f6 f43c
000001f0: e4f4 1cbd ea05 6fbb e47e 96ba 5171 9abc
00000200: f9bf a63c 083b 47bd 9677 503c a653 9a3b
00000210: bfe5 693c 7e16 9cbc 63d8 3f3c ad68 003d
00000220: 4e05 0bbd 8b64 81bc 845f c1bb 08ab c53b
00000230: 418d c63c f7e6 fa3c 508c 86bd 81b7 903c
00000240: f919 8bbd e445 c4bc 6b09 733c 82e0 5d3c
00000250: 8c6c 71bb 6533 253d 3d2a bbb8 e5d2 6c3c
00000260: e855 6ebc 1f46 403d 52ec a5bb eb5a c0bc
00000270: 9eb6 433d 1c17 223c 5452 4ebd 2e1f e73c
00000280: 874e 623c da30 76ba dba4 f9bc 0d7f 2e3d
00000290: 5e48 1cbc f966 913c 1212 d5bc 18d7 99ba
000002a0: 79bb bcbb 2e1f 5dbd 321f 2a3d 3360 bcbc
000002b0: bab5 55bd 442b 453d 169a 483d 0a12 b73a
000002c0: c8f4 803c 70af 30bd 47d6 5cbd 10a0 cbbc
000002d0: cc05 a5bc bdcf 533c 84b6 933c 199c dfbc
000002e0: f30b 1bbd c62d c33b 9916 5cbd 1a71 4dbb
000002f0: 64d4 233d ca90 0f3c d2cb d4bb 7ff6 513d
00000300: efa4 4b3c d1fc 9b3c 9bc3 ce3b 2a7e 5b3b
00000310: 2b5c 163c f698 283c 3fcb bcbb 3543 12bd
00000320: 7eac f03b cfbb a53d 0be6 ec3c 0659 bdbc
00000330: 11e9 01bc 25c8 e6bb 3a22 283b 3dfd 42bc
00000340: 9825 0c3d 3327 26bd 4a21 eebb 327c 853d
00000350: 44cd 493c a3d1 7ebd 5b38 10bd f306 8dbc
00000360: fccd ea3c 55b5 64bc baa0 61bd f84c 9c3d
00000370: 3a28 2a3d 0eaf 593d a436 743d bcf6 423c
00000380: 2e19 38bd 1015 2abd 6d5d c9bc a303 00bd
00000390: e4e6 bb3c b43b 443d 1244 d73c a060 163c
000003a0: cf37 c2bc aca2 463d 913f c33b 685b 51bd
000003b0: 79bc b3bd a072 aa3c 68e5 39bd f49b 8cbd
000003c0: 6b7d 26bd 0618 703c bf60 3a3d fb64 e33c
000003d0: 9ef4 0abd b897 983d a8a3 d3bc 389c 64bd
000003e0: c040 59bb fca8 433c 0a56 03bd ad1d 173c
000003f0: f069 433d 5288 153c 4481 a33c 8a50 8b3c

action_model._discrete_distribution.branches.1.bias f4 [3]
0.0022005076 -0.0106360065 0.01035708
00000000: 6436 103b a542 2ebc beb0 293c

action_model._discrete_distribution.branches.2.weight f4 [1, 128]
-0.004577046 -0.0035051375 0.0022300512 0.007573727 0.009341576 0.0055387844 0.014658424 0.00025498073
-0.007651437 0.0027244803 -0.0024766123 0.008685476 0.00024831717 -0.011476039 0.008414343 0.00017297054
0.00072218536 -0.012645117 0.0013487937 0.004831175 0.004437313 0.01581543 -0.010730227 0.00262473
-0.011507487 0.006163204 -0.00930996 -0.0051907036 0.013623098 -0.0048044818 -0.0048144762 0.010362354
-0.012675637 -0.010782178 -0.01500618 -0.018741317 -0.0040652594 0.0031958 -0.0051745423 0.0051813475
-0.00924215 -0.0029920454 0.0020149138 -0.0065608136 -0.002625835 -0.001684977 -0.0012159352 0.020459522
-0.0071467943 -0.003709778 0.0031574485 0.0055504534 0.0046031387 -0.009121517 -0.0018134592 -0.011682355
-0.007853371 0.0013621359 0.0030387917 -0.012263022 -0.017581588 -0.010598935 -0.0056189313 -0.008335711
0.00086262723 -0.00969482 -0.007111025 8.969173e-06 0.0033209224 -0.005659795 -0.00085568364 0.017590035
-0.0063541443 -0.0070646266 -0.0086602075 -0.007826468 -0.0010303449 -0.0048515867 -0.013500317 0.0126455
-0.0006521954 0.008022334 0.0084631955 0.029897487 -0.012677572 0.0060009863 0.0063835504 0.0026455314
-0.020401658 -0.00048712018 -0.0019644115 0.011764622 -0.001895063 0.0051658186 0.0026173454 0.0030513962
0.005306205 0.001822227 -0.0024970972 -0.0102284225 0.011037214 0.0008760115 0.00041793459 -0.0059889765
-0.010136872 0.0046201283 -0.0022906095 0.008368265 -0.007873864 -0.0010216488 -0.0011585072 -0.01273224
0.0058824797 0.0024041284 0.0034122409 0.0015969537 0.00756576 -0.0059358743 0.0032341208 0.00083171856
-0.017583167 0.0035457022 -0.017763568 -0.009314389 0.007884504 0.0065077255 -0.0075488198 0.0015553593
00000000: 0bfb 95bb 73b6 65bb 0d26 123b 072d f83b
00000010: 690d 193c b17e b53b e329 703c efae 8539
00000020: e8b8 fabb 328d 323b a94e 22bb 874d 0e3c
00000030: 9130 8239 ff05 3cbc 50dc 093c 6d5f 3539
00000040: 0a51 3d3a 772d 4fbc 02ca b03a d54e 9e3b
00000050: e166 913b 5c8f 813c d6cd 2fbc aa03 2c3b
00000060: e689 3cbc b4f4 c93b cd88 18bc c716 aabb
00000070: 6a33 5f3c ea6e 9dbb c1c2 9dbb ddc6 293c
00000080: 7aad 4fbc bba7 30bc 7bdc 75bc 6487 99bc
00000090: de35 85bb a070 513b 358f a9bb 4bc8 a93b
000000a0: 636c 17bc 3116 44bb a50c 043b 18fc d6bb
000000b0: 3316 2cbb 72da dcba 0460 9fba ba9a a73c
000000c0: a82f eabb bf1f 73bb 32ed 4e3b 94e0 b53b
000000d0: edd5 963b 6a72 15bc 98b1 edba 5967 3fbc
000000e0: 6dab 00bc b289 b23a 7726 473b d8ea 48bc
000000f0: 4307 90bc 28a7 2dbc 031f b8bb 8292 08bc
00000100: ef21 623a 06d7 1ebc 9a03 e9bb 4e7a 1637
00000110: d5a3 593b cd75 b9bb f54f 60ba fa18 903c
00000120: 6d36 d0bb 627e e7bb 8be3 0dbc 963a 00bc
00000130: a30c 87ba 0ffa 9ebb 6f30 5dbc 122f 4f3c
00000140: 18f8 2aba 1c70 033c 37a9 0a3c 93eb f43c
00000150: 97b5 4fbc eca3 c43b 1a2d d13b a760 2d3b
00000160: 6121 a7bc 2a64 ffb9 5bbd 00bb 67c0 403c
00000170: c363 f8ba 0746 a93b c587 2b3b eff9 473b
00000180: acdf ad3b cbd7 ee3a 57a6 23bb 1d95 27bc
00000190: 6ed5 343c 23a4 653a 3b1e db39 2d3f c4bb
000001a0: 1f15 26bc 7264 973b 0d1e 16bb 0c1b 093c
000001b0: 6101 01bc d8e8 85ba 0dd9 97ba e39a 50bc
000001c0: d1c1 c03b 958e 1d3b e79f 5f3b e050 d13a
000001d0: 32ea f73b b981 c2bb 8bf3 533b b007 5a3a
000001e0: 930a 90bc 035f 683b e784 91bc 619b 18bc
000001f0: 022e 013c c23e d53b 175c f7bb 33dd cb3a

onnx::Div_94 f4 [450]
0.22842678 0.3040657 0.0023212356 0.114753745 0.05848503 0.059930857 0.056530494 0.0531616
0.43062803 0.30105075 0.22456688 0.2682557 0.0023212356 0.12334723 0.062164694 0.058071803
0.05709584 0.05162752 0.4119475 0.2744185 0.23709266 0.29513222 0.0023212356 0.111812
0.057142697 0.057516173 0.06010909 0.05547884 0.4291299 0.29670227 0.21868277 0.2288669
0.0023212356 0.12793396 0.060684744 0.058163896 0.059257578 0.05157559 0.3907427 0.24959767
0.25292417 0.26323214 0.0023212356 0.11098682 0.057236306 0.060198024 0.06164647 0.05704896
0.4206368 0.27700925 0.21010089 0.21619469 0.0023212356 0.12922984 0.059121974 0.061123792
0.057376422 0.053010225 0.38182184 0.2347082 0.265378 0.23416822 0.0023212356 0.11178849
0.057840966 0.061298534 0.05737642 0.05988621 0.4150969 0.25737163 0.20136468 0.19888504
0.0023212356 0.11726123 0.060331166 0.058895294 0.056483123 0.05361318 0.36659896 0.22034238
0.26655313 0.21141067 0.0023212356 0.10808305 0.059437867 0.05662511 0.058439273 0.056908026
0.40350118 0.23998784 0.20038216 0.19821255 0.0023212356 0.115095966 0.065919556 0.062763765
0.057423037 0.053010214 0.36819074 0.21624285 0.25902668 0.2071789 0.0023212356 0.10552019
0.061516225 0.052756928 0.056150377 0.052807685 0.3944691 0.22929193 0.19854915 0.20151156
0.0023212356 0.11468518 0.06767822 0.06272117 0.058849853 0.04966955 0.37121776 0.21764013
0.24424537 0.20382053 0.0023212356 0.103528954 0.07015621 0.054847818 0.05391211 0.051262897
0.38977182 0.2267949 0.20086187 0.19587523 0.0023212356 0.11216368 0.06962184 0.05975207
0.059392832 0.05445581 0.37538508 0.22112796 0.22765924 0.1992202 0.0023212356 0.113258205
0.07113776 0.057283055 0.056340765 0.05700202 0.38754776 0.22791018 0.22854218 0.30410793
0.0023212356 0.114776604 0.05848503 0.059930857 0.056625124 0.0531616 0.43018842 0.3000533
0.22468476 0.26828963 0.0023212356 0.12343185 0.062164694 0.058071803 0.057142705 0.05162752
0.41144985 0.2732354 0.23721264 0.2951616 0.0023212356 0.111882426 0.057142697 0.057516173
0.060153563 0.05547884 0.4286942 0.29567036 0.21878245 0.22887741 0.0023212356 0.12803571
0.060684744 0.058163896 0.059302714 0.05157559 0.39012638 0.24819879 0.25305277 0.26327562
0.0023212356 0.111010484 0.057236306 0.060198024 0.061689816 0.05704896 0.4201616 0.27584216
0.21015899 0.21620597 0.0023212356 0.12931035 0.05912197 0.061123792 0.05742304 0.053010225
0.3811507 0.23318554 0.26554137 0.23423935 0.0023212356 0.11183549 0.057840966 0.06129853
0.05737642 0.05988621 0.41462573 0.2560735 0.20140141 0.19890988 0.0023212356 0.117283575
0.060331166 0.058895294 0.05653049 0.05361318 0.3658578 0.21868135 0.26670697 0.21144533
0.0023212356 0.10820467 0.059437867 0.056625113 0.058439273 0.056908026 0.4029678 0.2385277
0.20041914 0.19826248 0.0023212356 0.11511876 0.065919556 0.062763765 0.05746963 0.053010214
0.3674614 0.21456298 0.25916892 0.20720252 0.0023212356 0.105595015 0.061516225 0.052756928
00000000: b6e8 693e 80ae 9b3e df1f 183b 0304 eb3d
00000010: 008e 6f3d 0f7a 753d 858c 673d fabf 593d
00000020: 477b dc3e 5323 9a3e dcf4 653e d058 893e
00000030: df1f 183b 799d fc3d 68a0 7e3d b3dc 6d3d
00000040: 54dd 693d 6177 533d c8ea d23e 9580 8c3e
00000050: 6bc8 723e 921b 973e df1f 183b b1fd e43d
00000060: 760e 6a3d 1496 6b3d f334 763d c83d 633d
00000070: eab6 db3e 5ce9 973e 60ee 5f3e 165c 6a3e
00000080: df1f 183b 1f01 033e 9190 783d 443d 6e3d
00000090: 13b8 723d ed40 533d 6d0f c83e 8896 7f3e
000000a0: 477f 813e 5dc6 863e df1f 183b 0f4d e33d
000000b0: 9e70 6a3d 3492 763d 0281 7c3d 2cac 693d
000000c0: b55d d73e 28d4 8d3e b024 573e 2462 5d3e
000000d0: df1f 183b d454 043e e229 723d f15c 7a3d
000000e0: 8a03 6b3d 4021 593d 277e c33e 5957 703e
000000f0: a0df 873e cbc9 6f3e df1f 183b 5df1 e43d
00000100: a6ea 6c3d 2c14 7b3d 8903 6b3d 3e4b 753d
00000110: 9587 d43e 37c6 833e 8b32 4e3e 85a8 4b3e
00000120: df1f 183b a826 f03d d01d 773d 313c 713d
00000130: d95a 673d 7e99 5b3d dcb2 bb3e 6fa1 613e
00000140: a779 883e 0a7c 583e df1f 183b a55a dd3d
00000150: 1f75 733d bbef 673d 055e 6f3d 6418 693d
00000160: b597 ce3e 5fbf 753e fb30 4d3e 3bf8 4a3e
00000170: df1f 183b 6fb7 eb3d d500 873d 4a8a 803d
00000180: 6b34 6b3d 3d21 593d 7f83 bc3e c46e 5d3e
00000190: 259f 843e b526 543e df1f 183b f81a d83d
000001a0: 70f8 7b3d a617 583d f0fd 653d df4c 583d
000001b0: dbf7 c93e 81cb 6a3e 7850 4b3e 0c59 4e3e
000001c0: df1f 183b 10e0 ea3d e19a 8a3d f573 803d
000001d0: 8b0c 713d 4c72 4b3d 4110 be3e 0edd 5e3e
000001e0: 751b 7a3e 54b6 503e df1f 183b fd06 d43d
000001f0: 0fae 8f3d 1ba8 603d f2d2 5c3d 0bf9 513d
00000200: 2c90 c73e ec3c 683e bcae 4d3e 8493 483e
00000210: df1f 183b 12b6 e53d e595 8e3d 96be 743d
00000220: e645 733d 0e0d 5f3d 7932 c03e 5e6f 623e
00000230: 811f 693e 6100 4c3e df1f 183b ebf3 e73d
00000240: adb0 913d a3a1 6a3d 93c5 663d f37a 693d
00000250: a96c c63e 4961 693e f606 6a3e 09b4 9b3e
00000260: df1f 183b ff0f eb3d 008e 6f3d 0f7a 753d
00000270: bfef 673d fabf 593d a841 dc3e 96a0 993e
00000280: c313 663e 425d 893e df1f 183b d6c9 fc3d
00000290: 68a0 7e3d b3dc 6d3d 780e 6a3d 6177 533d
000002a0: 8ea9 d23e 83e5 8b3e dfe7 723e 6c1f 973e
000002b0: df1f 183b 9d22 e53d 760e 6a3d 1496 6b3d
000002c0: 9563 763d c83d 633d ce7d db3e 1b62 973e
000002d0: 8208 603e d75e 6a3e df1f 183b cb1b 033e
000002e0: 9190 783d 443d 6e3d 67e7 723d ed40 533d
000002f0: a5be c73e d327 7e3e 2290 813e 10cc 863e
00000300: df1f 183b 7759 e33d 9e70 6a3d 3492 763d
00000310: 76ae 7c3d 2cac 693d 6c1f d73e 2f3b 8d3e
00000320: eb33 573e 1965 5d3e df1f 183b ef69 043e
00000330: e129 723d f15c 7a3d 6c34 6b3d 4021 593d
00000340: 2f26 c33e 31c8 6e3e 0af5 873e 71dc 6f3e
00000350: df1f 183b 010a e53d a6ea 6c3d 2b14 7b3d
00000360: 8903 6b3d 3e4b 753d d349 d43e 111c 833e
00000370: 2c3c 4e3e 08af 4b3e df1f 183b 5f32 f03d
00000380: d01d 773d 313c 713d 848c 673d 7e99 5b3d
00000390: b751 bb3e 01ee 5f3e d18d 883e 2085 583e
000003a0: df1f 183b 699a dd3d 1f75 733d bcef 673d
000003b0: 055e 6f3d 6418 693d cc51 ce3e 9b40 743e
000003c0: ad3a 4d3e 5205 4b3e df1f 183b 62c3 eb3d
000003d0: d500 873d 4a8a 803d 4665 6b3d 3d21 593d
000003e0: e723 bc3e 66b6 5b3e cab1 843e e62c 543e
000003f0: df1f 183b 3342 d83d 70f8 7b3d a617 583d

onnx::Div_97 f4 [6]
103.09974 128.48889 102.435356 128.49344 101.76577 128.49792
00000000: 1133 ce42 287d 0043 e7de cc42 527e 0043
00000010: 1388 cb42 787f 0043
