Zooheim/Assets/Scene/FinalTest/ZooheimTest/Models/0606/LionFBehavior.onnx (onnx, 188057 bytes, 14 tensors)

discrete_act_size_vector f4 [1, 3]
2.0 3.0 1.0
00000000: 0000 0040 0000 4040 0000 803f

network_body.observation_encoder.processors.0.normalizer.running_mean f4 [210]
0.2973447 0.0 0.027358364 0.015616161 0.010045838 0.004980811 0.004559727 0.013318257
0.009696942 0.006905764 0.007519339 0.0052334606 0.5489237 0.66298676 0.29919758 0.0
0.02243771 0.013185913 0.010298486 0.005137213 0.0049447147 0.012921229 0.008734465 0.007735897
0.008277283 0.0050289324 0.55167896 0.6651073 0.29142523 0.0 0.024134072 0.017132062
0.011453459 0.005666577 0.0052575236 0.013294193 0.009805219 0.0071824742 0.0075674625 0.005197368
0.5523285 0.66666275 0.29837945 0.0 0.021559447 0.012367809 0.009492417 0.005895162
0.0052695544 0.012235466 0.008000576 0.0066771763 0.008409628 0.004704096 0.5541816 0.67164785
0.28139186 0.0 0.022413649 0.016939573 0.012644517 0.0054018945 0.005113151 0.013486684
0.010214267 0.007507309 0.0077118343 0.0050409636 0.5603893 0.6772285 0.29102847 0.0
0.016831294 0.012488118 0.009299919 0.005546268 0.005113151 0.010827846 0.008144955 0.0070020077
0.008108856 0.0044755107 0.56855816 0.6871037 0.26579958 0.0 0.020825567 0.015531942
0.01221141 0.0051011187 0.0058109453 0.013113729 0.010839884 0.0071824756 0.0066170185 0.004379264
0.5800957 0.6980668 0.27407697 0.0 0.013727306 0.012764826 0.009456318 0.006039533
0.0050409636 0.010671439 0.0073749707 0.0068576373 0.0070862253 0.004776283 0.58949244 0.7119085
0.24467324 0.0 0.0162538 0.0140280835 0.011321114 0.0058470396 0.005859071 0.012644523
0.010695508 0.007820113 0.0058590677 0.004788317 0.60664827 0.72973233 0.24254371 0.0
0.012993419 0.012042974 0.009107427 0.0055101705 0.005221427 0.010948157 0.0069298204 0.0073268465
0.006352338 0.0055222022 0.62296253 0.7492036 0.20860457 0.0 0.01554398 0.013727308
0.011381273 0.0054139267 0.005558296 0.011790327 0.010815818 0.007880266 0.0051853377 0.0049808095
0.64659107 0.773029 0.20231228 0.0 0.014581504 0.012127191 0.0083494745 0.005907192
0.004944719 0.010274428 0.0065448345 0.006905763 0.005654544 0.005810947 0.6632659 0.78966576
0.16988893 0.0 0.013222008 0.012764834 0.011597834 0.005233461 0.0049928413 0.010081929
0.010503014 0.007856204 0.0047040973 0.0057868836 0.68971 0.8145363 0.17803389 0.0
0.014882276 0.011910635 0.00936007 0.0050890883 0.0047040987 0.009781158 0.0059673474 0.006424526
0.0059192237 0.0056304825 0.6867383 0.81396526 0.14889497 0.0 0.013101706 0.0118625155
0.009696944 0.0048845643 0.0050770584 0.009287888 0.009071331 0.0069899783 0.0046800347 0.0062560895
0.7141089 0.8390789
00000000: 913d 983e 0000 0000 a61e e03c edda 7f3c
00000010: 4c97 243c 1236 a33b c369 953b d234 5a3c
00000020: ecdf 1e3c bf49 e23b ca64 f63b 737d ab3b
00000030: 4386 0c3f 80b9 293f 6d30 993e 0000 0000
00000040: 4acf b73c ba09 583c fbba 283c 1156 a83b
00000050: 4607 a23b 90b3 533c 001b 0f3c 687d fd3b
00000060: 719d 073c bec9 a43b d53a 0d3f 7944 2a3f
00000070: b035 953e 0000 0000 d1b4 c53c 8a58 8c3c
00000080: 4aa7 3b3c b1ae b93b 4e47 ac3b e3cf 593c
00000090: 12a6 203c f65a eb3b 7af8 f73b af4e aa3b
000000a0: 6765 0d3f 69aa 2a3f 31c5 983e 0000 0000
000000b0: 709d b03c 5aa2 4a3c 1586 1b3c 342c c13b
000000c0: 3aac ac3b 4477 483c d914 033c 37cc da3b
000000d0: 89c8 093c d124 9a3b d8de 0d3f 1df1 2b3f
000000e0: 9812 903e 0000 0000 d49c b73c dcc4 8a3c
000000f0: f32a 4f3c 6002 b13b 388c a73b 41f7 5c3c
00000100: be59 273c dfff f53b 8eb3 fc3b ab2e a53b
00000110: ac75 0f3f d95e 2d3f af01 953e 0000 0000
00000120: c8e1 893c f79a 4c3c b05e 183c 78bd b53b
00000130: 388c a73b 4767 313c 6b72 053c 1971 e53b
00000140: 02db 043c 4ea7 923b 078d 113f 07e6 2f3f
00000150: e216 883e 0000 0000 619a aa3c b079 7e3c
00000160: 5e12 483c 4927 a73b be69 be3b f7da 563c
00000170: c599 313c f95a eb3b 93d3 d83b ee7f 8f3b
00000180: 2781 143f 81b4 323f d153 8c3e 0000 0000
00000190: 7fe8 603c 9023 513c acee 1a3c 46e7 c53b
000001a0: ab2e a53b 42d7 2e3c bda9 f13b 08b6 e03b
000001b0: 9133 e83b 5e82 9c3b fae8 163f a33f 363f
000001c0: 9f8b 7a3e 0000 0000 b026 853c 0cd6 653c
000001d0: 327c 393c 8698 bf3b 73fd bf3b f92a 4f3c
000001e0: 363c 2f3c ee1f 003c 6cfd bf3b 50e7 9c3b
000001f0: 4d4d 1b3f bdcf 3a3f 615d 783e 0000 0000
00000200: 59e2 543c e54f 453c 5137 153c a98e b43b
00000210: 8118 ab3b e65f 333c 8c13 e33b 0b16 f03b
00000220: 4627 d03b 97f3 b43b 797a 1f3f cfcb 3f3f
00000230: 709c 553e 0000 0000 2dac 7e3c 81e8 603c
00000240: 8578 3a3c 4f67 b13b 5e22 b63b 372c 413c
00000250: d434 313c 3b1c 013c c4e9 a93b 0f36 a33b
00000260: fe86 253f 3be5 453f f32a 4f3e 0000 0000
00000270: 43e7 6e3c 20b1 463c 3ccc 083c 1e91 c13b
00000280: 4f07 a23b 1356 283c 0d76 d63b bd49 e23b
00000290: c149 b93b c269 be3b cbcb 293f 8927 4a3f
000002a0: 5df7 2d3e 0000 0000 1fa1 583c 9823 513c
000002b0: d704 3e3c 747d ab3b fd9a a33b ad2e 253c
000002c0: d514 2c3c 4fb7 003c d424 9a3b e69f bd3b
000002d0: d690 303f 7385 503f 844e 363e 0000 0000
000002e0: cad4 733c d324 433c fb5a 193c 5ec2 a63b
000002f0: d724 9a3b 2641 203c bd89 c33b d584 d23b
00000300: 0cf6 c13b e97f b83b 15ce 2f3f 0760 503f
00000310: ec77 183e 0000 0000 8aa8 563c ff5a 423c
00000320: eedf 1e3c b20e a03b 745d a63b 3a2c 183c
00000330: eb9f 143c 300c e53b fa5a 993b e2ff cc3b
00000340: d7cf 363f e0cd 563f

network_body.observation_encoder.processors.1.normalizer.running_mean f4 [6]
59.12033 67.81588 59.103874 67.91273 59.083782 68.00855
00000000: 387b 6c42 bba1 8742 5e6a 6c42 51d3 8742
00000010: cb55 6c42 6104 8842

network_body._body_endoder.seq_layers.0.weight f4 [128, 216]
-0.0114129605 0.04593903 -0.008035974 0.017423091 -0.07457296 0.047751755 0.0056151687 -0.06945016
-0.11828357 -0.027775612 0.09456442 -0.018110005 -0.02592853 0.09741182 0.022200942 -0.10759488
0.000116043266 0.0604917 -0.09467016 0.16273496 -0.0034533802 0.053868577 0.028877884 0.018186126
-0.04423629 -0.046611693 -0.2430515 0.049550783 -0.07324643 -0.0010190145 0.0072610597 0.00756566
0.17564929 -0.07152792 0.030010372 -0.05857268 0.09612024 0.019122042 0.07783347 -0.09499174
0.002821193 -0.035988413 -0.0017829044 0.12141174 0.08653219 -0.042868074 0.042069923 0.10771769
0.011448949 -0.031765014 0.059579264 -0.0040182425 0.051674824 -0.008722543 -0.022619406 -0.046693463
-0.06008313 0.043373797 0.13711807 0.17498781 -0.0667203 0.11075419 0.062445052 -0.027017107
0.010984258 0.08833259 0.08260588 0.0052058324 -0.0141329905 -0.025617385 -0.090032004 -0.03428153
-0.026842011 0.005230069 -0.0071231076 -0.06704492 0.017281039 0.08667171 0.083410725 0.13341865
-0.051170986 0.19146408 0.05369141 -0.03170835 0.049834818 -0.09500269 0.11102032 -0.015574479
-0.0687755 -0.08103481 -0.08842025 0.020909669 -0.14192748 -0.06882339 0.018678093 0.038123425
-0.024041587 -0.068131134 0.05599031 0.13818154 -0.047449253 -0.073446274 0.10684577 -0.012600086
0.041907817 0.05675599 0.061604608 -0.060310755 0.061286032 -0.017302083 0.23960319 -0.006081477
0.09805655 0.031652767 0.062934905 0.041825768 0.012745823 -0.021297943 0.0021931843 0.06226565
0.09781162 -0.017269071 0.04012257 0.038956165 -0.024789974 -0.08598482 -0.044096988 -0.010827376
0.1347065 -0.046180714 0.037234996 -0.06395077 -0.1128705 0.055473216 -0.050542448 0.05944072
0.038245585 -0.09641619 0.037442997 0.035538763 -0.14881632 0.066183195 0.11225465 0.062302947
0.00864234 -0.0897898 -0.050486404 -0.063519195 -0.00048158458 -0.047878556 0.14717133 0.05154366
-0.1377944 -0.025113536 -0.0072868615 -0.034438897 0.10330921 0.13170418 -0.1505112 -0.0016036783
-0.111916706 0.07346978 -0.12551554 0.040541466 0.054116905 -0.031253245 -0.07661254 0.019960402
0.019703869 0.048734948 0.13086449 -0.023273913 0.12561037 -0.020692678 0.057060435 0.014811114
-0.07565671 0.012769451 0.023384357 0.105658054 0.05870685 0.07858252 0.05168905 0.13097474
-0.029068477 -0.09540704 0.01949284 -0.09737694 -0.14026245 -0.071636245 -0.049851418 -0.0008637609
-0.056844853 -0.046952184 -0.052602388 -0.14715378 0.14945252 0.029839832 0.10741599 -0.013759498
-0.1135075 0.011429361 -0.005734385 0.02892883 -0.017251588 -0.06799286 0.07624917 -0.077989005
-0.016802248 -0.06265414 0.060761053 0.12898375 0.0039502596 0.060800884 -0.01895049 -0.025441585
-0.06740462 -0.096288525 0.0073925992 0.09605012 0.12736979 0.10098171 0.015681626 0.11398165
0.0056876014 -0.05025484 -0.031684466 0.09007295 -0.100610554 -0.09287755 0.09594057 -0.029092586
-0.031456027 0.10296488 0.013487732 -0.037430037 -0.04220233 -0.07783147 0.08699972 -0.04474879
0.07338146 -0.0004440035 0.042967495 0.007526128 -0.030291576 0.06404339 -0.102334216 -0.025776928
-0.041325163 0.09077896 0.016869482 0.01741041 -0.07641799 0.009143166 -0.120052315 0.06757417
00000000: 6dfd 3abc 902a 3c3d 51a9 03bc dfba 8e3c
00000010: b5b9 98bd 5897 433d 73ff b73b e33b 8ebd
00000020: a83e f2bd ae89 e3bc feaa c13d 6f5b 94bc
00000030: 1268 d4bc d97f c73d c0de b53c b45a dcbd
00000040: 415c f338 25c6 773d 6ee2 c1bd fea3 263e
00000050: 1b52 62bb 4ca5 5c3d 5091 ec3c 12fb 943c
00000060: 1d31 35bd e7eb 3ebd 7ee2 78be c3f5 4a3d
00000070: 3902 96bd 7490 85ba 2fee ed3b 5be9 f73b
00000080: 68dd 333e 3b7d 92bd 50d8 f53c e8e9 6fbd
00000090: b0da c43d d4a5 9c3c 2867 9f3d 088b c2bd
000000a0: c4e3 383b 9668 13bd 58b0 e9ba b8a6 f83d
000000b0: ca37 b13d 6f96 2fbd 8351 2c3d 189b dc3d
000000c0: 5f94 3b3c 081c 02bd 6309 743d 76ab 83bb
000000d0: fba8 533d ffe8 0ebc 554c b9bc a541 3fbd
000000e0: ba19 76bd b9a8 313d ae68 0c3e 0130 333e
000000f0: a7a4 88bd 18d3 e23d 62c6 7f3d fb52 ddbc
00000100: 51f7 333c b8e7 b43d 462d a93d b095 aa3b
00000110: 0f8e 67bc 8ddb d1bc b362 b8bd ca6a 0cbd
00000120: c7e3 dbbc 0061 ab3b f568 e9bb d94e 89bd
00000130: f790 8d3c f080 b13d 3ed3 aa3d e69e 083e
00000140: ab98 51bd 290f 443e 86eb 5b3d 9de0 01bd
00000150: 981f 4c3d c590 c2bd 9f5e e33d 192c 7fbc
00000160: 2bda 8cbd 94f5 a5bd ad15 b5bd c14a ab3c
00000170: 7055 11be 47f3 8cbd cd02 993c 4f27 1c3d
00000180: ddf2 c4bc 5688 8bbd 1856 653d 767f 0d3e
00000190: 265a 42bd 006b 96bd f4d1 da3d 9770 4ebc
000001a0: 88a7 2b3d f878 683d 1d55 7c3d 6908 77bd
000001b0: 1007 7b3d 19bd 8dbc 8a5a 753e 2047 c7bb
000001c0: dfd1 c83d 55a6 013d 04e4 803d 7f51 2b3d
000001d0: dbd3 503c 0679 aebc 87bb 0f3b 440a 7f3d
000001e0: 7551 c83d de77 8dbc 9057 243d 8090 1f3d
000001f0: 5814 cbbc cf18 b0bd 0b9f 34bd 4e65 31bc
00000200: 80f0 093e fd27 3dbd b983 183d 9ff8 82bd
00000210: a628 e7bd e237 633d 9905 4fbd 1d78 733d
00000220: 67a7 1c3d da75 c5bd d45d 193d 1891 113d
00000230: 4e63 18be 0e8b 873d c4e5 e53d 6031 7f3d
00000240: 9a98 0d3c b7e3 b7bd d5ca 4ebd 5a16 82bd
00000250: 307d fcb9 4e1c 44bd 15b4 163e 721f 533d
00000260: fa19 0dbe e7ba cdbc a0c6 eebb cd0f 0dbd
00000270: c793 d33d 76dd 063e 9c1f 1abe 8432 d2ba
00000280: 9634 e5bd 5377 963d 2587 00be cf0e 263d
00000290: b0a9 5d3d 6703 00bd 09e7 9cbd ff83 a33c
000002a0: 026a a13c 4c9e 473d 5701 063e efa8 bebc
000002b0: 01a0 003e b183 a9bc 34b8 693d 51aa 723c
000002c0: e8f1 9abd f636 513c 8d90 bf3c 4063 d83d
000002d0: 9876 703d dfef a03d e6b7 533d 3e1e 063e
000002e0: 0421 eebc c464 c3bd 73af 9f3c 906d c7bd
000002f0: f6a0 0fbe 06b6 92bd 0031 4cbd 036e 62ba
00000300: 26d6 68bd ef50 40bd 9a75 57bd 7baf 16be
00000310: 150a 193e aa72 f43c eafc db3d 846f 61bc
00000320: 9f76 e8bd 3742 3b3c 82e7 bbbb 27fc ec3c
00000330: 3453 8dbc d73f 8bbd 8628 9c3d b3b8 9fbd
00000340: dea4 89bc d050 80bd 95e0 783d 5114 043e
00000350: 2e71 813b 590a 793d 0f3e 9bbc df6a d0bc
00000360: 6f0b 8abd eb32 c5bd 9e3d f23b edb5 c43d
00000370: 3a6d 023e 80cf ce3d c176 803c 366f e93d
00000380: 0f5f ba3b 05d8 4dbd 92c7 01bd 2b78 b83d
00000390: e80c cebd 9636 bebd 7d7c c43d 9353 eebc
000003a0: 09d8 00bd 40df d23d a6fb 5c3c 3d50 19bd
000003b0: 5adc 2cbd 1b66 9fbd e92c b23d 824a 37bd
000003c0: 0549 963d 24c9 e8b9 affe 2f3d bd9d f63b
000003d0: 0a26 f8bc 2e29 833d 9a94 d1bd 232a d3bc
000003e0: 9344 29bd 52ea b93d de31 8a3c 47a0 8e3c
000003f0: 0981 9cbd 38cd 153c fddd f5bd 5464 8a3d

network_body._body_endoder.seq_layers.0.bias f4 [128]
-0.027697593 0.011679492 0.0022718622 0.032154817 -0.004008673 -0.0072242804 -0.02312415 0.013950273
-0.01728844 -0.0017212789 0.005876883 0.019952863 -0.006877343 0.006237201 -0.010593515 -0.006333557
1.1656774e-05 0.02555978 0.0016929597 0.019399077 -0.012899476 -0.018140927 -0.0018978353 0.026989248
0.0040188613 0.0014869953 -0.0191086 0.009272203 -0.00840388 -0.034101427 -0.027990123 0.018303242
-0.011742288 0.002827814 0.010456943 -0.01372348 0.015258847 -0.022530604 0.014988577 -0.0125341555
-0.014113977 -0.01809506 0.006978259 0.014186917 0.03848837 0.024857342 -0.010820965 -0.01286856
-0.028004618 -0.020732224 0.0056957845 -0.009108263 -0.0069516683 -2.0373582e-05 -0.010073466 -0.006765783
0.03928961 0.012956316 -0.02906302 0.03214972 -0.036869813 -0.00041069402 -0.007310135 -0.009274222
0.008724807 0.0110361315 0.007992978 -0.023544677 -0.004421816 0.010617003 -0.027281376 0.028662553
-0.0072731776 0.040618137 -0.00557419 -0.011947205 -0.0015017173 -0.012662681 0.02727302 0.013208339
-0.017090492 0.014837924 -0.021949898 -0.032102443 -0.0039279317 -0.008913937 0.038642418 0.016535016
-0.015175737 -0.024854505 -0.024626747 -0.00973605 -0.007088407 -0.00956151 -0.0118825855 -0.012471606
-0.016125446 0.0048357253 0.026514733 -0.018869665 -0.02303039 -0.009394273 0.009710574 0.016603036
-0.013769995 -0.004280378 -0.008892571 -0.0016339171 -0.022160428 -0.0035164924 -0.023727432 0.008891803
-0.01367387 0.002110527 -0.001849335 0.010118622 -0.029192617 0.003351044 -0.038470745 0.012779296
-0.014215351 0.017275874 -0.0387782 -0.009487974 -0.020721143 0.0017793394 0.013088303 0.014395201
00000000: 10e6 e2bc 575b 3f3c 86e3 143b c5b4 033d
00000010: 305b 83bb a8b9 ecbb db6e bdbc b08f 643c
00000020: 7da0 8dbc 899c e1ba de92 c03b 3074 a33c
00000030: 565b e1bb 6f61 cc3b 6c90 2dbc ba89 cfbb
00000040: 7791 4337 be62 d13c 4de6 dd3a d0ea 9e3c
00000050: 5358 53bc 489c 94bc c9c0 f8ba 8e18 dd3c
00000060: a7b0 833b 48e7 c23a a489 9cbc 70ea 173c
00000070: 6db0 09bc f0ad 0bbd 8b4b e5bc aef0 953c
00000080: ba62 40bc d952 393b 9953 2b3c 72d8 60bc
00000090: 3e00 7a3c 1a92 b8bc a692 753c 0f5c 4dbc
000000a0: 4f3e 67bc 173c 94bc e1a9 e43b 3e70 683c
000000b0: fba5 1d3d a0a1 cb3c 6b4a 31bc a7d6 52bc
000000c0: f169 e5bc a0d6 a9bc b4a3 ba3b d33a 15bc
000000d0: d2ca e3bb efe7 aab7 2e0b 25bc 80b3 ddbb
000000e0: 24ee 203d ba46 543c 9215 eebc 6daf 033d
000000f0: cd04 17bd 6b52 d7b9 db89 efbb e8f2 17bc
00000100: 7ef2 0e3c e4d0 343c fbf4 023c c4e0 c0bc
00000110: e2e4 90bb f0f2 2d3c 317d dfbc bbcd ea3c
00000120: d653 eebb 345f 263d b2a7 b6bb 36be 43bc
00000130: 45d5 c4ba 2277 4fbc ab6b df3c ca67 583c
00000140: 5c01 8cbc c41a 733c 46d0 b3bc da7d 03bd
00000150: e1b5 80bb c30b 12bc 8347 1e3d 7174 873c
00000160: a8a3 78bc ad9b cbbc 08be c9bc f483 1fbc
00000170: de45 e8bb e1a7 1cbc 2daf 42bc b555 4cbc
00000180: 8319 84bc 0175 9e3b 6d35 d93c 8e94 9abc
00000190: 3aaa bcbc 70ea 19bc 1919 1f3c 1703 883c
000001a0: 8c9b 61bc 6a42 8cbb 25b2 11bc 2929 d6ba
000001b0: c989 b5bc f474 66bb 0860 c2bc edae 113c
000001c0: 5e08 60bc c450 0a3b 6365 f2ba 94c8 253c
000001d0: 5b25 efbc 309d 5b3b 8093 1dbd 4160 513c
000001e0: 81e7 68bc 2286 8d3c e4d5 1ebd 7373 1bbc
000001f0: 63bf a9bc b938 e93a 5270 563c d9d9 6b3c

network_body._body_endoder.seq_layers.2.weight f4 [128, 128]
0.0070650326 0.022702862 -0.17549922 0.017252252 0.044979095 0.014265181 0.014538339 0.110598594
0.03022496 0.14756498 -0.21140797 0.027974976 -0.062307846 -0.019156007 -0.049092155 -0.087518476
0.10861588 0.06717323 -0.10386451 -0.031593774 -0.061928395 0.06713809 -0.03858559 0.053931527
-0.017847776 0.03723493 0.12840308 0.0037043574 0.040505107 -0.054356333 0.033896666 0.092279084
0.037691794 0.0024580106 -0.058622353 0.16705512 0.07715899 -0.05721163 0.03623908 -0.17388588
-0.15940943 0.08957132 -0.029568031 -0.16917622 0.033169575 -0.0012901935 -0.13866721 -0.028270653
0.057237316 0.04884735 0.16130115 0.019133512 0.050454922 0.071282394 -0.018998194 0.040491242
0.0395003 0.12066635 0.06905433 0.11943153 -0.027407108 0.013044383 0.09801521 0.02760556
-0.037259646 0.018590895 0.01911697 0.12508884 -0.034740716 0.0390367 0.08386787 0.03796747
0.18445863 -0.14784278 0.095104456 0.04530827 -0.18674397 -0.091442026 0.24258654 0.0375105
-0.004991416 -0.012852154 -0.1364352 -0.039565615 -0.07295174 0.08356164 -0.1406927 0.037350442
0.10278284 -0.023904378 -0.010364386 0.019876273 0.029606339 -0.038340922 -0.10565123 -0.08683334
-0.04790626 -0.043321636 -0.01626047 0.03254653 -0.021537213 0.19415484 -0.11122821 0.01840189
-0.046375785 -0.15828875 0.0672946 -0.061377548 -0.124679565 0.10168461 -0.06776151 -0.11004459
-0.076301545 -0.041779097 -0.15090403 -0.129343 -0.08757753 -0.09611757 -0.05122723 -0.056718048
-0.047167778 -0.09240538 -0.011624587 0.068470344 -0.12307645 -0.006897033 -0.14462882 0.015230736
-0.018578865 -0.020287342 0.0027964467 -0.008131712 -0.078387626 -0.07808494 -0.08977215 -0.01920902
-0.097502515 0.060128335 -0.028909476 0.08243721 0.005212544 -0.1242622 0.012414855 0.07652272
0.104229756 -0.032649573 0.030245462 0.2705854 0.055614013 -0.14502789 0.18318453 -0.015787099
-0.11265014 -0.029467352 -0.045827366 0.030740896 0.073896475 -0.13594097 0.0006113237 -0.044624485
0.051369403 -0.0046242317 0.0031704027 0.1298177 -0.06447249 -0.029385889 -0.12588246 0.123803005
0.020237442 -0.10015974 -0.061679337 0.098860115 0.16519156 0.10394049 -0.09192536 -0.13621835
-0.08187616 -0.11387595 0.080129944 -0.0072918176 0.135647 -0.07061752 0.035728533 0.095215045
-0.014292117 0.020334352 -0.18392268 0.16084252 0.036291167 -0.022420648 -0.13626772 -0.044714056
0.003435107 -0.008877622 -0.101901256 0.028719299 0.08211405 -0.10148002 0.09714237 0.10040899
0.06156605 0.047084574 -0.033963602 0.0030953449 -0.06557149 -0.05152571 0.023489399 -0.0151255075
-0.07408438 0.034839295 -0.10029961 0.062442027 0.03809804 0.003024038 -0.14106984 0.017127078
0.03153095 0.026558587 0.17875277 -0.11070859 -0.002028143 -0.004439088 -0.05302324 0.03828345
0.07761109 -0.049371652 -0.032493252 0.017042898 0.04724915 -0.025354072 -0.124210596 -0.024155
0.084499076 -0.0102370335 0.13613078 0.049621996 0.080723554 0.0184693 -0.0065640593 0.14932941
-0.03434073 -0.028298115 0.053806182 -0.111629024 -0.06204462 0.10339438 0.0064190147 -0.07812901
-0.06627622 0.08754767 -0.053607393 0.04034232 0.0021068368 0.108044535 0.014227777 -0.15015475
00000000: ca81 e73b 5afb b93c 11b6 33be 9854 8d3c
00000010: 003c 383d 81b8 693c 3732 6e3c 8481 e23d
00000020: 569a f73c 461b 173e 557b 58be c72b e53c
00000030: 8336 7fbd 0fed 9cbc db14 49bd e33c b3bd
00000040: 0172 de3d 1e92 893d ebb6 d4bd 7968 01bd
00000050: a1a8 7dbd b27f 893d ec0b 1ebd 4ee7 5c3d
00000060: 8035 92bc a783 183d 197c 033e cec4 723b
00000070: afe8 253d bfa4 5ebd 3bd7 0a3d d1fc bc3d
00000080: b662 1a3d 9316 213b fe1d 70bd 7f10 2b3e
00000090: 8805 9e3d be56 6abd 6e6f 143d 240f 32be
000000a0: 3a3c 23be 2b71 b73d a838 f2bc 883c 2dbe
000000b0: d2dc 073d b61b a9ba c7fe 0dbe db97 e7bc
000000c0: ad71 6a3d 2914 483d 212c 253e e2bd 9c3c
000000d0: d2a9 4e3d 81fc 913d 1aa2 9bbc 25da 253d
000000e0: 11cb 213d eb1f f73d 5b6c 8d3d 8598 f43d
000000f0: df84 e0bc 1cb8 553c 33bc c83d 0e25 e23c
00000100: 929d 18bd ef4b 983c 319b 9c3c 4a17 003e
00000110: 484c 0ebd f2e4 1f3d ebc2 ab3d c783 1b3d
00000120: b9e2 3c3e 1964 17be 20c6 c23d 2a95 393d
00000130: d039 3fbe f545 bbbd 9b68 783e 9ca4 193d
00000140: 088f a3bb d791 52bc abb5 0bbe 8e0f 22bd
00000150: b967 95bd 5d22 ab3d bf11 10be c7fc 183d
00000160: cf7f d23d 1dd3 c3bc 63cf 29bc 91d3 a23c
00000170: fe88 f23c 5f0b 1dbd ac5f d8bd aed5 b1bd
00000180: 5b39 44bd 0772 31bd ad34 85bc 834f 053d
00000190: cf6e b0bc 87d0 463e 9ecb e3bd 8fbf 963c
000001a0: 89f4 3dbd 7216 22be c0d1 893d 0667 7bbd
000001b0: 0058 ffbd 0540 d03d 8cc6 8abd 0f5f e1bd
000001c0: fc43 9cbd 8f20 2bbd 9686 1abe 7e72 04be
000001d0: d95b b3bd 4ad9 c4bd a5d3 51bd 2f51 68bd
000001e0: 0033 41bd 083f bdbd 0d75 3ebc 2e3a 8c3d
000001f0: 810f fcbd 8200 e2bb 9419 14be 568a 793c
00000200: b432 98bc a431 a6bc 9744 373b df3a 05bc
00000210: b189 a0bd ffea 9fbd 76da b7bd 3c5c 9dbc
00000220: 66af c7bd 2149 763d 91d3 ecbc d7d4 a83d
00000230: fdcd aa3b 2e7d febd ad67 4b3c f2b7 9c3d
00000240: 6976 d53d 8fbb 05bd 55c5 f73c 2b8a 8a3e
00000250: 85cb 633d 3182 14be ba94 3b3e f253 81bc
00000260: 1eb5 e6bd 8465 f1bc 7ab5 3bbd 55d4 fb3c
00000270: 0957 973d 1c34 0bbe 3d41 203a 2ac8 36bd
00000280: b968 523d de86 97bb 88c6 4f3b eeee 043e
00000290: 270a 84bd adba f0bc 55e7 00be 6e8c fd3d
000002a0: fec8 a53c 8d20 cdbd 79a3 7cbd 2c77 ca3d
000002b0: fa27 293e c0de d43d 5d43 bcbd d37c 0bbe
000002c0: b0ae a7bd cb37 e9bd 2b1b a43d 33f0 eebb
000002d0: 0ce7 0a3e eb9f 90bd 1558 123d 1b00 c33d
000002e0: 7c29 6abc 3a94 a63c 3a56 3cbe e7b3 243e
000002f0: 0ca6 143d 82ab b7bc c489 0bbe 1626 37bd
00000300: 881f 613b 7273 11bc 9bb1 d0bd bc44 eb3c
00000310: 692b a83d c2d4 cfbd 94f2 c63d 3ba3 cd3d
00000320: af2c 7c3d c1db 403d 6b1d 0bbd 45db 4a3b
00000330: 584a 86bd 9f0c 53bd d76c c03c fad0 77bc
00000340: 8db9 97bd a6b3 0e3d e269 cdbd 36c3 7f3d
00000350: b10c 1c3d f02e 463b 9d74 10be 164e 8c3c
00000360: 9926 013d 6591 d93c f70a 373e 2fbb e2bd
00000370: 98ea 04bb c575 91bb e62e 59bd 1bcf 1c3d
00000380: 90f2 9e3d ee39 4abd a517 05bd 8c9d 8b3c
00000390: 5388 413d 58b3 cfbc 2062 febd b5e0 c5bc
000003a0: da0d ad3d 3bb9 27bc de65 0b3e 6f40 4b3d
000003b0: 6452 a53d ee4c 973c 5217 d7bb cfe9 183e
000003c0: dea8 0cbd 73d1 e7bc df63 5c3d c29d e4bd
000003d0: 8022 7ebd 6fc0 d33d 9956 d23b 1a02 a0bd
000003e0: d4bb 87bd 314c b33d 6d93 5bbd fd3d 253d
000003f0: db12 0a3b 7446 dd3d 9f1b 693c 2bc2 19be

network_body._body_endoder.seq_layers.2.bias f4 [128]
0.022317579 0.01320665 0.030545546 0.039349087 0.006199672 -0.03046927 0.010199931 -0.019956725
-0.011478754 0.0062918398 -0.007950298 0.00462908 -0.011569953 0.003162242 -0.026814528 -0.014860944
-0.021171251 0.0061876797 -0.009824605 -0.0017227881 -0.007752758 -0.021269161 -0.008538861 0.014653239
-0.01122084 0.011935292 -0.03372022 -0.025043514 -0.007337399 -0.00530237 -0.013752427 -0.011959231
0.0036609853 0.012571695 0.0094560655 -0.013793113 0.023483427 0.006615605 -0.0030486158 -0.023641858
0.0058890525 -0.0023116092 0.0021495996 0.017323162 0.023049554 0.013600754 0.02247303 -0.028976986
-0.023397427 0.0016871347 -0.015000564 0.024254043 -0.011229708 0.036568776 -0.0030343174 -0.015352781
0.020256275 -0.01629118 0.0074539403 -0.009596175 0.018034685 -0.0016518376 -0.020369312 -0.019262236
0.03616804 0.011579799 0.006446888 -0.018719645 -0.0027946546 -7.006216e-05 0.025965253 -0.027944472
0.013001404 -0.034448106 -0.017750045 0.030104121 -0.014981508 0.039111704 -0.01428425 0.016676342
0.024955198 0.006853388 -0.0039618644 0.014998744 -0.021353604 -0.011164181 -0.02093682 0.008632261
-0.0160843 -0.00053305126 0.0067918184 0.02034054 -0.01734933 0.00051864854 -0.014394371 -0.025345454
0.020976117 0.0011811403 0.020993399 0.0017919281 0.0024524797 -0.023760367 0.03707523 -0.022377238
0.0041098613 0.01909027 0.010936924 -0.009502067 0.043429825 -0.017362047 0.015480044 0.027015043
-0.010520542 7.110692e-05 0.00013128736 -0.01162223 0.01789123 -0.008563096 -0.005538253 -0.025890885
0.007777085 -0.0049404195 0.0025809768 0.025203736 -0.00703651 -0.025124008 -0.002242178 0.0042463667
00000000: 5bd3 b63c b460 583c a73a fa3c 822c 213d
00000010: 9e26 cb3b b19a f9bc 9d1d 273c 497c a3bc
00000020: 6211 3cbc c72b ce3b f741 02bc 8aaf 973b
00000030: e68f 3dbc 9e3d 4f3b 24aa dbbc 517b 73bc
00000040: 556f adbc 05c2 ca3b 61f7 20bc 2dcf e1ba
00000050: d90a febb aa3c aebc 94e6 0bbc 2414 703c
00000060: 9dd7 37bc 3e8c 433c 371e 0abd 0e28 cdbc
00000070: 906e f0bb 81bf adbb dc51 61bc a7f0 43bc
00000080: 24ed 6f3b 83f9 4d3c 9ded 1a3c 82fc 61bc
00000090: 5160 c03c b8c7 d83b 49cb 47bb 92ac c1bc
000000a0: f4f8 c03b 5e7e 17bb 4ce0 0c3b 4ee9 8d3c
000000b0: 6bd2 bc3c b2d5 5e3c 5c19 b83c 2561 edbc
000000c0: f6ab bfbc d922 dd3a edc4 75bc 6ab0 c63c
000000d0: cffc 37bc 24c9 153d 66db 46bb 3b8a 7bbc
000000e0: 7df0 a53c 1575 85bc 2f40 f43b 4639 1dbc
000000f0: 7abd 933c 7982 d8ba 8bdd a6bc d6cb 9dbc
00000100: f024 143d 32b9 3d3c 6b40 d33b f159 99bc
00000110: 8626 37bb 56ee 92b8 15b5 d43c ceeb e4bc
00000120: d703 553c 7519 0dbd 8b68 91bc eb9c f63c
00000130: 0075 75bc 9833 203d 7d08 6abc d39c 883c
00000140: d86e cc3c 6392 e03b 87d2 81bb 4bbd 753c
00000150: c1ed aebc f8e9 36bc b283 abbc 546e 0d3c
00000160: 39c3 83bc 77bc 0bba e78d de3b 34a1 a63c
00000170: 2f20 8ebc eaf5 073a 5ed6 6bbc 45a1 cfbc
00000180: 1bd6 ab3c 7ed0 9a3a 59fa ab3c 21df ea3a
00000190: c8b9 203b 1aa5 c2bc 32dc 173d 7850 b7bc
000001a0: 04ac 863b 3363 9c3c c930 333c 8fae 1bbc
000001b0: 79e3 313d da3a 8ebc 03a0 7d3c a74e dd3c
000001c0: 5a5e 2cbc 3d1f 9538 2faa 0939 2a6b 3ebc
000001d0: a190 923c 3a4c 0cbc 3c7a b5bb 1f19 d4bc
000001e0: ebd6 fe3b 3ee3 a1bb 9b25 293b 1178 ce3c
000001f0: 8692 e6bb ddd0 cdbc 81f1 12bb 1b25 8b3b

action_model._discrete_distribution.branches.0.weight f4 [2, 128]
0.011522385 0.027505513 -0.016753512 0.020968193 0.0015599204 -0.03183335 0.009031697 -0.021755943
-0.02059047 0.032544114 -0.011221044 -0.0003011628 -0.0063719414 -0.0036110093 -0.018312186 -0.012836115
-0.017480776 0.011248584 0.0030257818 0.0003565789 -0.037550185 -0.0048369453 -0.031042848 -0.0053996793
-0.0069087753 0.036074657 0.00042337514 -0.01753906 0.0057808524 -0.008592506 -0.005091294 -0.027903784
-0.0038013726 -0.03021818 -0.032661796 -0.0028460096 0.017458424 0.007014219 -0.010971839 -0.03157301
0.00057487976 0.0011182039 -0.0145767145 -0.015895966 0.03945802 0.02549427 0.03137696 0.0064295093
-0.007996373 0.023367181 -0.04370444 -0.008037126 -0.0055278437 0.020068137 0.0038566932 -0.031148978
0.025500758 -0.0025352065 0.007995634 -0.013782076 0.0097661 0.008233153 -0.0058052856 -0.010566917
0.06382235 0.008492122 0.020529171 -0.0011591956 -0.050368298 0.010670166 0.04573098 -0.014129079
0.0314921 -0.004138645 -0.0070786113 0.029185563 -0.02058768 0.034812685 -0.030194454 0.015446033
0.002782101 0.0016696753 -0.019403687 -0.024751259 0.0046744454 0.01675329 -0.0110613955 0.040635288
0.020372925 -0.018964905 0.01187238 0.016855229 -0.046900336 0.025400938 -0.00094774476 -0.011982246
0.026727082 -0.0022224816 -0.010955169 0.008568208 -0.036056653 -0.01277503 0.028571956 -0.019900491
0.0049313796 -0.0042122547 -0.0041489713 0.022751894 0.049416527 -0.023020817 -0.021487575 0.013931267
-0.0109126875 -0.011796689 0.006790084 -0.016794771 0.0061444384 -0.012321194 0.030504525 -0.011341236
0.0065661375 0.014047847 -0.039963476 -0.006729868 -0.03898948 -0.019711988 0.0153799085 -0.013737236
-0.0076273093 -0.030399235 0.01937938 -0.03451522 -0.0066412208 0.02560793 0.00564756 0.028713375
0.030557271 -0.022010202 -0.010918793 -0.001013835 -0.010765378 0.009179452 0.018070672 0.0027949512
0.015748786 0.004971655 -0.010271446 0.0010812455 0.03757381 0.017261205 0.023159593 -0.003960869
0.00069177256 -0.015138939 -0.010206573 0.0021892327 -0.031470712 -0.0037817743 -0.00533993 -0.0087991245
0.00652941 0.025183864 0.011415971 -0.017463585 -0.022039097 0.0006264636 0.0087282155 0.009513746
0.013585635 0.0058964733 0.022850016 0.010905209 -0.05040564 -0.029276738 -0.023859015 0.01096927
0.0053362027 -0.007118235 0.036150523 0.03228744 -0.0059906123 -0.031512257 -0.02345947 0.0034795033
-0.04355248 0.011887966 0.008050041 -0.012975573 -0.021809606 -0.01215428 0.007377522 0.0031007496
-0.053107984 -0.008759455 -0.029271642 -0.005123516 0.042742163 0.011255996 -0.033323273 0.011703951
-0.034125816 0.025351133 0.00040619553 -0.0079857465 0.017486919 -0.038013827 0.032907624 -0.016624281
-0.010290657 -0.0143632805 0.038499787 0.02443963 0.012168201 0.01234887 0.023510164 -0.023602901
-0.0024066374 0.014164017 -0.018693155 -0.0383021 0.01632357 -0.008011236 0.0003640315 0.009096051
-0.034277063 0.02012475 0.0022746893 -0.01693786 0.037699763 0.018056147 -0.023378497 0.013466147
-0.017407851 -0.014562408 -0.015283868 -0.019637715 -0.048795078 0.016016167 0.028780447 -0.023064962
0.007756082 0.020067126 0.008642812 0.004705171 0.0020909042 0.012453104 -0.021711504 0.0131580895
0.0026549068 -0.030007746 0.05804412 0.032184307 0.02788021 0.013848539 -0.0023347212 0.025872756
00000000: 63c8 3c3c 3e53 e13c a93e 89bc 7dc5 ab3c
00000010: 3e76 cc3a b063 02bd aff9 133c 8539 b2bc
00000020: 58ad a8bc fa4c 053d 78d8 37bc 63e5 9db9
00000030: b8cb d0bb afa6 6cbb 7003 96bc 924e 52bc
00000040: d833 8fbc fb4b 383c 324c 463b 36f3 ba39
00000050: 39ce 19bd 3d7f 9ebb 924d febc cbef b0bb
00000060: 0263 e2bb 05c3 133d 73f8 dd39 13ae 8fbc
00000070: 4e6d bd3b 95c7 0cbc dfd4 a6bb 7a96 e4bc
00000080: 7320 79bb 1e8c f7bc 60c8 05bd 1e84 3abb
00000090: f804 8f3c 89d7 e53b 3ac3 33bc b352 01bd
000000a0: 87b3 163a b290 923a 2cd3 6ebc 4238 82bc
000000b0: bc9e 213d 5cd9 d03c 2185 003d a2ae d23b
000000c0: 3803 03bc 886c bf3c 6d03 33bd 26ae 03bc
000000d0: ea22 b5bb ef65 a43c 93c0 7c3b 242c ffbc
000000e0: f7e6 d03c b525 26bb 1f00 033c 37ce 61bc
000000f0: fe01 203c 59e4 063c 443a bebb dd20 2dbc
00000100: 4bb5 823d 8b22 0b3c cb2c a83c 26f0 97ba
00000110: fd4e 4ebd ecd1 2e3c 6850 3b3d a77d 67bc
00000120: dcfd 003d 789d 87bb b2f3 e7bb 9016 ef3c
00000130: 7fa7 a8bc bf97 0e3d 5c5a f7bc 5c11 7d3c
00000140: e953 363b 02d9 da3a 7bf4 9ebc 27c3 cabc
00000150: 172c 993b 323e 893c db3a 35bc 3071 263d
00000160: 1fe5 a63c 4a5c 9bbc 5f84 423c fa13 8a3c
00000170: 911a 40bd a115 d03c 1372 78ba 2f51 44bc
00000180: c1f2 da3c 0ea7 11bb 4f7d 33bc ab61 0c3c
00000190: 24b0 13bd 5c4e 51bc bc0f ea3c 5b06 a3bc
000001a0: 6997 a13b f406 8abb 18f4 87bb 2e62 ba3c
000001b0: fc68 4a3d 2796 bcbc b606 b0bc f83f 643c
000001c0: 21cb 32bc e646 41bc 5a7f de3b 3095 89bc
000001d0: 4957 c93b d5de 49bc a0e4 f93c 97d0 39bc
000001e0: c128 d73b f128 663c beb0 23bd 3986 dcbb
000001f0: 6fb3 1fbd 097b a1bc 03fc 7b3c 2512 61bc
00000200: 82ee f9bb d107 f9bc 81c1 9e3c d55f 0dbd
00000210: 999e d9bb b9c7 d13c 2b0f b93b 5038 eb3c
00000220: 3e53 fa3c bd4e b4bc bde4 32bc a8e2 84ba
00000230: 4561 30bc 6a65 163c f208 943c 802b 373b
00000240: 9903 813c 44e9 a23b 9149 28bc 94b8 8d3a
00000250: ffe6 193d 5f67 8d3c 30b9 bd3c 2dca 81bb
00000260: 1258 353a 5009 78bc 7839 27bc 3b79 0f3b
00000270: 6fe7 00bd a5d7 77bb 94fa aebb 342a 10bc
00000280: a9f4 d53b 644e ce3c 0e0a 3b3c cb0f 8fbc
00000290: 568b b4bc 4339 243a ca00 0f3c 8bdf 1b3c
000002a0: 4996 5e3c 3437 c13b f52f bb3c c3ab 323c
000002b0: 2576 4ebd c5d5 efbc fb73 c3bc 74b8 333c
000002c0: 50db ae3b 1540 e9bb 9212 143d d63f 043d
000002d0: e64c c4bb ff12 01bd 132e c0bc 6108 643b
000002e0: 1664 32bd bec5 423c 52e4 033c 7f97 54bc
000002f0: 0faa b2bc bf22 47bc 24bf f13b f235 4b3b
00000300: c287 59bd d183 0fbc 15cb efbc 2be3 a7bb
00000310: 6812 2f3d 126b 383c fc7d 08bd eec1 3f3c
00000320: 83c7 0bbd 2ead cf3c a4f6 d439 a6d6 02bc
00000330: ba40 8f3c 63b4 1bbd 25ca 063d a52f 88bc
00000340: 259a 28bc f753 6bbc f4b1 1d3d 9e35 c83c
00000350: 225d 473c ea52 4a3c 6398 c03c df5a c1bc
00000360: adb8 1dbb 3110 683c 6322 99bc aae2 1cbd
00000370: 02b9 853c 8f41 03bc 7bdb be39 9a07 153c
00000380: 1b66 0cbd a9dc a43c f412 153b 44c1 8abc
00000390: 116b 1a3d 7cea 933c 4384 bfbc 1da1 5c3c
000003a0: e99a 8ebc 2b97 6ebc 3069 7abc 46df a0bc
000003b0: 59dd 47bd 5634 833c f9c4 eb3c bbf2 bcbc
000003c0: bb26 fe3b d063 a43c 959a 0d3c d62d 9a3b
000003d0: 8d07 093b 1b08 4c3c 53dc b1bc 0795 573c
000003e0: f2fd 2d3b ced2 f5bc acbf 6d3d b1d3 033d
000003f0: 0a65 e43c fce4 623c 1f02 19bb 1af3 d33c

action_model._discrete_distribution.branches.0.bias f4 [2]
0.013577237 -0.013577237
00000000: 0f73 5e3c 0f73 5ebc

action_model._discrete_distribution.branches.1.weight f4 [3, 128]
-0.02401315 0.00011737943 -0.055016976 0.0009284719 -0.004241544 0.0030986257 -0.0045962483 0.017459461
0.0032407846 0.04280543 0.013068926 0.010217564 0.027022827 -0.03727064 0.021530604 0.017198991
0.0055129207 -0.02593405 0.029031886 -0.008477841 -0.018533874 0.028673373 -0.01708746 0.057256654
0.04110898 -0.01447613 0.0038778922 0.0054440275 -0.019044677 0.015616168 0.018360166 0.01041637
-0.0022639395 -0.015610273 0.009799334 0.030588787 -0.046233 -0.003685861 -0.0013953034 -0.0049632327
-0.045083474 -0.011049685 -0.034969214 -0.040841706 0.010816163 -0.02923059 0.01668077 0.008008315
0.02760521 -0.01783973 0.013623503 -0.021365182 -0.003004164 0.007439485 0.01680243 0.036655713
-0.0061891396 0.01709651 -0.023867108 -0.007964332 0.008063112 0.033077892 0.047712717 -0.0063225953
-0.018671189 -0.015892245 0.0045724055 -0.0053067617 -0.02868075 0.03495435 -0.01707099 0.0044920594
-0.023098502 0.014518006 0.0122851115 0.01735673 0.0043765283 0.0052805 0.01651068 -0.015145812
-0.044745963 -0.00082618895 0.0062645683 0.011268319 0.018144172 0.017169636 0.040183615 0.03664687
0.015188582 -0.018598594 0.0017737197 -0.006694538 0.019514186 0.012649675 0.010746986 0.0049885055
-0.028631054 0.016726466 -0.0006089642 0.00063435774 -0.01284622 0.023805076 -0.015530264 0.016817745
-0.013202893 -0.015220537 0.01733773 0.022908377 -0.009386853 0.019394571 -0.028964682 -0.004609564
0.009358878 0.005696796 -0.025508966 0.02269624 -0.033830438 -0.025319615 -0.0009553514 0.017962992
-0.046717405 0.0038742723 -0.0037874468 -0.048630048 0.016088363 0.040468846 0.032889165 0.047618154
0.019705882 -0.0022923138 0.010827093 -0.03832566 -0.009820776 0.010272103 0.0032064586 0.009905569
0.031393826 -0.0011149234 0.00095299917 -0.04375196 0.007441352 0.030048769 0.012395973 0.02859685
0.024814295 0.054166574 0.026500715 0.039724316 0.019226093 -0.009707215 0.009555681 -0.06339496
0.021639973 -0.025880815 0.012699767 -0.0038297903 0.020626752 0.012825461 -0.00021681334 -0.02073364
-0.028067667 -0.018094217 -0.052515734 -0.03419433 0.006743331 -0.014975819 -0.001359317 0.027105743
0.06075582 0.016324779 0.032234885 0.0033170653 0.012396684 -0.0071168332 -0.009363262 -0.011239765
0.011674208 -0.008230184 -0.022604827 -0.021813327 0.0068257116 -0.020594979 0.019200658 -0.027822357
0.013623278 0.01559708 0.022514101 0.004916931 -0.05137356 -0.030330826 -0.033506762 0.015563932
0.0022555536 -0.02011357 -0.023384398 0.013621652 -0.0007124409 -0.020097189 -0.018701525 0.003970987
0.019391326 0.00984589 -0.025008194 -0.052707497 -0.016170323 -0.022049064 -0.0367003 -0.019061605
0.036044557 -0.006229956 0.042407956 -0.084670626 -0.027256224 0.028732195 -0.015678495 -0.021309571
0.003038973 0.026553458 -0.045499846 0.016610188 -0.03921716 0.011623325 0.008302933 -0.0038832722
0.03827265 -0.040492833 -0.032186355 0.0224885 0.035661325 0.012290304 -0.03662647 0.0053027626
0.017229524 -0.009985256 -0.016923448 -0.020416126 -0.009486476 -0.030566586 -0.021716017 -0.038285125
0.01600514 -0.030408049 0.016739503 -0.010563525 0.02225725 -0.01346663 0.0053013666 0.011067117
0.034218132 0.002437219 -0.019629449 0.010958771 -0.0022848628 -0.015758242 -0.040913183 -0.0550198
00000000: 3ab7 c4bc 9a29 f638 7b59 61bd b264 733a
00000010: a6fc 8abb 5012 4b3b 209c 96bb 2507 8f3c
00000020: 5863 543b bf54 2f3d 0c1f 563c 9267 273c
00000030: fa5e dd3c 19a9 18bd f360 b03c e6e4 8c3c
00000040: bba5 b43b a573 d4bc 47d4 ed3c a4e6 0abc
00000050: 5ad4 97bc 6ce4 ea3c 00fb 8bbc f485 6a3d
00000060: e461 283d 4a2d 6dbc 3c24 7e3b d063 b23b
00000070: 9503 9cbc f5da 7f3c 0f68 963c 6ca9 2a3c
00000080: 9a5e 14bb 3bc2 7fbc 638d 203c 5695 fa3c
00000090: d05e 3dbd 7c8e 71bb 9de2 b6ba 9da2 a2bb
000000a0: 73a9 38bd bd09 35bc e13b 0fbd a249 27bd
000000b0: 4736 313c fe74 efbc 1ca6 883c 4f35 033c
000000c0: 5224 e23c a024 92bc 1d35 5f3c 0906 afbc
000000d0: 82e1 44bb ecc6 f33b 40a5 893c 4d24 163d
000000e0: 44ce cabb fb0d 8c3c f484 c3bc d47c 02bc
000000f0: 251b 043c af7c 073d 696e 433d c62d cfbb
00000100: 52f4 98bc 7430 82bc 1ed4 953b 58e4 adbb
00000110: e4f3 eabc 4b2c 0f3d 76d8 8bbc 2032 933b
00000120: 1239 bdbc eedc 6d3c 7e47 493c b32f 8e3c
00000130: fb68 8f3b 0b08 ad3b 6841 873c 2426 78bc
00000140: 8b47 37bd 9a94 58ba 0247 cd3b c19e 383c
00000150: 16a3 943c 56a7 8c3c 9397 243d 071b 163d
00000160: 88d9 783c 145c 98bc 287c e83a db5d dbbb
00000170: 37dc 9f3c 9540 4f3c 2014 303c 9e76 a33b
00000180: ac8b eabc f105 893c e5a2 1fba 074b 263a
00000190: f478 52bc dd02 c33c a672 7ebc 5ec5 893c
000001a0: f250 58bc 8f5f 79bc db07 8e3c 59aa bb3c
000001b0: 51cb 19bc 5de1 9e3c 5747 edbc d30b 97bb
000001c0: fb55 193c 30ac ba3b 2ef8 d0bc 77ed b93c
000001d0: c991 0abd 156b cfbc 8c70 7aba 2027 933c
000001e0: c05a 3fbd 81e7 7d3b d036 78bb 4d30 47bd
000001f0: becb 833c a9c2 253d cab6 063d 410b 433d
00000200: 3b6e a13c a53a 16bb 1f64 313c 5efb 1cbd
00000210: 52e7 20bc 534c 283c 7323 523b f84a 223c
00000220: d096 003d 9f22 92ba b1d2 793a 4135 33bd
00000230: 96d6 f33b d628 f63c 7b18 4b3c f143 ea3c
00000240: 5947 cb3c c5dd 5d3d 0718 d93c f7b5 223d
00000250: 0a80 9d3c 030b 1fbc 6e8f 1c3c 37d5 81bd
00000260: 5046 b13c 0104 d4bc af12 503c 38fd 7abb
00000270: 6ff9 a83c e221 523c 6358 63b9 98d9 a9bc
00000280: 2aee e5bc 533a 94bc bd1a 57bd 5b0f 0cbd
00000290: 29f7 dc3b 235d 75bc 1c2b b2ba dd0c de3c
000002a0: 18db 783d 8bbb 853c ba08 043d 1f63 593b
000002b0: 761b 4b3c 5334 e9bb 5e68 19bc fe26 38bc
000002c0: 2d45 3f3c e5d7 06bc c22d b9bc ddb1 b2bc
000002d0: 38aa df3b cdb6 a8bc b34a 9d3c b6eb e3bc
000002e0: 2b34 5f3c e58a 7f3c 7e6f b83c 351e a13b
000002f0: 156d 52bd 5a78 f8bc 633e 09bd ddff 7e3c
00000300: e9d1 133b 37c5 a4bc a390 bfbc 592d 5f3c
00000310: 19c3 3aba dca2 a4bc f133 99bc 0e1f 823b
00000320: 8fda 9e3c a850 213c fcdd ccbc d1e3 57bd
00000330: a077 84bc 3da0 b4bc 0e53 16bd 1527 9cbc
00000340: 75a3 133d a924 ccbb f7b3 2d3d cb67 adbd
00000350: 7248 dfbc c85f eb3c 3070 80bc 6991 aebc
00000360: 8229 473b a386 d93c 0c5e 3abd 1712 883c
00000370: 2ca2 20bd c26f 3e3c 0609 083c 7f7e 7ebb
00000380: c8c3 1c3d d0db 25bd d7d5 03bd ce39 b83c
00000390: 9c11 123d 455d 493c a305 16bd ccc2 ad3b
000003a0: ee24 8d3c 3399 23bc 0ba3 8abc b83f a7bc
000003b0: 2a6d 1bbc c766 fabc cae5 b1bc ddd0 1cbd
000003c0: 361d 833c 4d1a f9bc 4821 893c a312 2dbc
000003d0: d654 b63c 24a3 5cbc 16b7 ad3b da52 353c
000003e0: 5028 0c3d c0b9 1f3b f0cd a0bc 6b8c 333c
000003f0: a3bd 15bb 6e17 81bc 9594 27bd 715c 61bd

action_model._discrete_distribution.branches.1.bias f4 [3]
-0.019009683 5.1566843e-05 0.018070275
00000000: 32ba 9bbc 7a49 5838 1d08 943c

action_model._discrete_distribution.branches.2.weight f4 [1, 128]
0.006613037 -0.01478865 -0.0018643979 -0.021101343 0.0044557513 0.0013979714 -0.008638225 -0.0015415121
0.0021228788 0.009502855 -0.010110705 0.002972751 -0.0049302783 -0.0061750705 0.0039581163 -0.0030363551
0.0040936195 0.0043542315 0.0035113157 -0.0066266507 -0.013821463 -0.011487632 0.00060262036 -0.011485815
-0.0024552357 0.0019420099 0.01366289 0.00033095648 -0.0027360439 0.0025691115 0.017830444 0.00043809225
0.008023731 -0.0029200525 0.0033587837 0.0033944675 -0.0023772737 0.0069136187 -0.009848894 0.006667433
-0.0037610345 0.029249286 0.012865861 -0.006010647 -0.0050324337 -0.009565931 -0.006091192 0.011087131
-0.015182636 0.015518481 0.012168787 -0.00784236 0.012837674 0.008174004 0.0028504578 0.0022984575
0.00088183855 -0.0056606587 -0.004621907 0.011181879 0.0035640788 -0.0022843366 -0.0073285447 -0.00078414613
-0.0046054893 0.006142856 0.009853099 -0.011183593 -0.0011626492 0.01412237 -0.0022732904 -0.009371478
-0.0053034206 0.012139901 -0.014697987 -0.0055703335 0.0034821432 -0.0036584255 -0.010840382 0.0063173743
-0.0035589945 0.0050426996 -0.0031682586 -0.0055823885 -0.0011339452 -0.0031513937 0.007638041 0.0024002446
-0.0066791014 0.012769522 0.0036283252 0.00590083 0.013061772 -0.010542213 -0.0011181538 -0.013035369
-0.01365622 -0.00815674 -0.018503558 0.0023186037 0.01577828 -0.013326913 0.004736965 -0.010679764
-0.005261129 -0.003775108 -0.007829412 -0.024942748 -0.005683255 0.003961163 0.0048334277 0.008138331
0.006760463 0.018600302 0.0064685843 0.0058548343 0.007468027 -0.01907601 0.00032342234 0.0071705836
0.015436581 -0.000314575 0.003652724 0.008494212 0.006524734 0.0008188581 0.0009047187 0.0011302653
00000000: 2db2 d83b 184c 72bc d05e f4ba b9dc acbc
00000010: 8d01 923b 233c b73a 5787 0dbc 900c caba
00000020: ff1f 0b3b ddb1 1b3c 5fa7 25bc 7cd2 423b
00000030: 2c8e a1bb 3f58 cabb 16b3 813b 96fd 46bb
00000040: c523 863b f1ad 8e3b 1a1e 663b 6024 d9bb
00000050: 6b73 62bc 9f36 3cbc 2bf9 1d3a 002f 3cbc
00000060: 05e8 20bb 0a8b fe3a 50da 5f3c 3a84 ad39
00000070: 334f 33bb 8a5e 283b 2711 923c bfaf e539
00000080: f875 033c 5a5e 3fbb 0a1f 5c3b b775 5e3b
00000090: 09cc 1bbb a38b e23b 415d 21bc 7b7a da3b
000000a0: b07b 76bb 339c ef3c 55cb 523c f6f4 c4bb
000000b0: 1de7 a4bb 6cba 1cbc 9f98 c7bb cca6 353c
000000c0: 97c0 78bc 3a41 7e3c 985f 473c 3e7d 00bc
000000d0: 1b55 523c 42ec 053c bfce 3a3b b8a1 163b
000000e0: 2f2b 673a 0c7d b9bb 5e73 97bb 3334 373c
000000f0: 5293 693b cfb4 15bb 4a24 f0bb 288f 4dba
00000100: a5e9 96bb 034a c93b e46e 213c 643b 37bc
00000110: 0964 98ba 8361 673c 7cfb 14bb d48a 19bc
00000120: 51c8 adbb 6fe6 463c d3cf 70bc 5887 b6bb
00000130: ab34 643b 32c2 6fbb dc9b 31bc fa01 cf3b
00000140: 053e 69bb 3b3d a53b 8fa2 4fbb 78ec b6bb
00000150: e3a0 94ba 9d87 4ebb 8848 fa3b 6c4d 1d3b
00000160: 5ddc dabb 4237 513c 32c9 6d3b c05b c13b
00000170: 0b01 563c 3fb9 2cbc 048f 92ba 4d92 55bc
00000180: 57be 5fbc d9a3 05bc c694 97bc b7f3 173b
00000190: 7441 813c 2059 5abc 8b38 9b3b 2dfa 2ebc
000001a0: 8c65 acbb cd67 77bb ef46 00bc bc54 ccbc
000001b0: 993a babb a5cc 813b bb61 9e3b a256 053c
000001c0: e086 dd3b a95f 983c 6bf6 d33b e9d9 bf3b
000001d0: 5ab6 f43b 4b45 9cbc 0391 a939 37f7 ea3b
000001e0: b7e9 7c3c 8bed a4b9 8a62 6f3b 4f2b 0b3c
000001f0: 70cd d53b a3a8 563a a52a 6d3a 6925 943a

onnx::Div_94 f4 [210]
0.45710257 0.003468565 0.16316223 0.124033585 0.0997845 0.070484266 0.06746085 0.114686154
0.09805579 0.08288609 0.08645711 0.07223642 0.49761277 0.42476523 0.45791978 0.003468565
0.14814281 0.11412308 0.101017125 0.07157411 0.07023032 0.11298809 0.093113944 0.08768174
0.09066868 0.07082143 0.49733415 0.42359734 0.45443225 0.003468565 0.1535046 0.12980978
0.10646272 0.07514316 0.072401054 0.11458397 0.09859565 0.084515765 0.086730786 0.071988784
0.49726635 0.4225481 0.45756 0.003468565 0.14528139 0.1105752 0.09702751 0.07663184
0.072483204 0.10998998 0.08915491 0.081514545 0.09138346 0.06851278 0.49706775 0.41967583
0.44969139 0.003468565 0.14806521 0.12909164 0.111788504 0.07338083 0.07140755 0.11539858
0.100608006 0.08638853 0.08754653 0.070905454 0.4963517 0.41651312 0.4542499 0.003468565
0.12868576 0.11110446 0.09604925 0.074347384 0.07140754 0.103550196 0.08994798 0.08345662
0.08975038 0.06683946 0.49528953 0.41174993 0.44177172 0.003468565 0.14284222 0.12370424
0.10988321 0.07132412 0.076086864 0.11381472 0.10360701 0.08451578 0.08114964 0.06612197
0.49355516 0.4061155 0.44606146 0.003468565 0.11640835 0.11231171 0.09684489 0.07755698
0.07090548 0.102808535 0.08563065 0.08259929 0.08395262 0.06903262 0.49193808 0.39699903
0.42990723 0.003468565 0.12649763 0.11765766 0.105853595 0.07632091 0.07639875 0.11178851
0.102923 0.08815323 0.07639875 0.069118865 0.4885061 0.38703087 0.42863548 0.003468565
0.11329883 0.10913283 0.095060535 0.07410698 0.07215397 0.10411691 0.0830291 0.08535334
0.07952368 0.07418718 0.484657 0.37352473 0.40632582 0.003468565 0.12375135 0.11640835
0.10613091 0.073461846 0.07442736 0.10799696 0.1034933 0.08848843 0.07190605 0.07048426
0.47804093 0.35679778 0.40173885 0.003468565 0.11992044 0.109508686 0.0910593 0.07670938
0.07023033 0.10090041 0.08070953 0.082886085 0.07506397 0.07608687 0.4726059 0.34665665
0.37555113 0.003468565 0.11427693 0.11231172 0.10712308 0.07223641 0.07056871 0.09996158
0.10200358 0.08835449 0.06851279 0.0759304 0.46262527 0.32615188 0.38255695 0.003468565
0.12113143 0.10853943 0.096356064 0.07124059 0.068512775 0.09847596 0.07709586 0.079970494
0.07678682 0.07490536 0.46383286 0.32690465 0.3560018 0.003468565 0.11376324 0.10832274
0.09805582 0.069804974 0.071156956 0.09598779 0.09487399 0.08338556 0.068338625 0.07892392
0.45185113 0.30448556
00000000: 5909 ea3e dd50 633b 0014 273e 5205 fe3d
00000010: d15b cc3d 0e5a 903d ea28 8a3d 93e0 ea3d
00000020: 79d1 c83d 2fc0 a93d 6d10 b13d b0f0 933d
00000030: 1ac7 fe3e d47a d93e 7674 ea3e dd50 633b
00000040: c0b2 173e 5db9 e93d 11e2 ce3d 7295 923d
00000050: ead4 8f3d 4d66 e73d 86b2 be3d 7c92 b33d
00000060: 80b0 b93d d30a 913d 95a2 fe3e c0e1 d83e
00000070: 58ab e83e dd50 633b 4f30 1d3e dbec 043e
00000080: 2009 da3d a8e4 993d 0147 943d 00ab ea3d
00000090: 84ec c93d 9a16 ad3d e99f b13d db6e 933d
000000a0: b299 fe3e 3958 d83e 4e45 ea3e dd50 633b
000000b0: a5c4 143e 4075 e23d 5cb6 c63d 27f1 9c3d
000000c0: 1372 943d 6d42 e13d d996 b63d 19f1 a63d
000000d0: 4027 bb3d 6e50 8c3d aa7f fe3e c0df d63e
000000e0: f33d e63e dd50 633b 689e 173e 9930 043e
000000f0: 5ff1 e43d b048 963d 1f3e 923d 1756 ec3d
00000100: 920b ce3d 78ec b03d 984b b33d e136 913d
00000110: cf21 fe3e 3541 d53e 7193 e83e dd50 633b
00000120: 33c6 033e bc8a e33d 78b5 c43d 7143 983d
00000130: 1e3e 923d 2012 d43d a636 b83d 4eeb aa3d
00000140: 0ccf b73d 20e3 883d 9796 fd3e e3d0 d23e
00000150: e72f e23e dd50 633b 3b45 123e a658 fd3d
00000160: 730a e13d 6112 923d 6ed3 9b3d b117 e93d
00000170: e92f d43d 9c16 ad3d c831 a63d f56a 873d
00000180: 43b3 fc3e 5fee cf3e 2b62 e43e dd50 633b
00000190: 8067 ee3d af03 e63d 9d56 c63d 32d6 9e3d
000001a0: e436 913d 488d d23d 1f5f af3d d129 a93d
000001b0: 5aef ab3d f960 8d3d 4fdf fb3e 7543 cb3e
000001c0: cd1c dc3e dd50 633b 9888 013e 80f6 f03d
000001d0: c5c9 d83d 234e 9c3d f376 9c3d 60f1 e43d
000001e0: 4bc9 d23d ae89 b43d f376 9c3d 318e 8d3d
000001f0: 791d fa3e e928 c63e 1c76 db3e dd50 633b
00000200: 3809 e83d 0881 df3d 19af c23d 66c5 973d
00000210: 76c5 933d 3f3b d53d 290b aa3d bbcd ae3d
00000220: 50dd a23d 73ef 973d f624 f83e a23e bf3e
00000230: f009 d03e dd50 633b 5971 fd3d 8067 ee3d
00000240: 2a5b d93d 2a73 963d 5f6d 983d 832d dd3d
00000250: 4cf4 d33d 6c39 b53d 7b43 933d 0d5a 903d
00000260: c8c1 f43e 33ae b63e b7b0 cd3e dd50 633b
00000270: d998 f53d 1746 e03d 4c7d ba3d cf19 9d3d
00000280: ebd4 8f3d e0a4 ce3d 0a4b a53d 2ec0 a93d
00000290: 24bb 993d 6fd3 9b3d 67f9 f13e fb7c b13e
000002a0: 3d48 c03e dd50 633b 060a ea3d b003 e63d
000002b0: 5863 db3d aff0 933d 5486 903d a8b8 cc3d
000002c0: 41e7 d03d 33f3 b43d 6f50 8c3d 6681 9b3d
000002d0: 38dd ec3e 61fd a63e 81de c33e dd50 633b
000002e0: c113 f83d ec49 de3d 5456 c53d 96e6 913d
000002f0: 6d50 8c3d c4ad c93d 6fe4 9d3d 92c7 a33d
00000300: 6942 9d3d fb67 993d 807b ed3e 0c60 a73e
00000310: de45 b63e dd50 633b b4fc e83d 50d8 dd3d
00000320: 7dd1 c83d e9f5 8e3d bdba 913d 3f95 c43d
00000330: 4b4d c23d 0cc6 aa3d 1ff5 8b3d dda2 a13d
00000340: 0859 e73e 88e5 9b3e

onnx::Div_97 f4 [6]
34.706757 96.06517 34.783344 96.08479 34.86759 96.103745
00000000: b8d3 0a42 5e21 c042 2522 0b42 6a2b c042
00000010: 6a78 0b42 1e35 c042
