Assets/Scene/FinalTest/ZooheimTest/Models/0606/DeerBehavior.onnx (onnx, 156857 bytes, 14 tensors)

discrete_act_size_vector f4 [1, 3]
000000 00 00 00 40 00 00 40 40 00 00 80 3f
       2.0 3.0 1.0

network_body.observation_encoder.processors.0.normalizer.running_mean f4 [150]
000000 42 f0 08 3e d9 7f 29 3e 00 00 00 00 23 18 85 3c
       0.13372901 0.16552676 0.0 0.01624686
000010 4a d5 0a 3c 46 5f b3 3b 7b f7 8c 3b d1 4c 9d 3b
       0.008473704 0.005474004 0.004301963 0.004800417
000020 ce 9a 15 3f 51 0e 3d 3f 4a e5 0d 3e f6 9d 0a 3e
       0.5843934 0.7384997 0.13856998 0.1353682
000030 00 00 00 00 34 12 83 3c 93 b4 f4 3b b2 71 c9 3b
       0.0 0.01599989 0.007467815 0.0061475867
000040 8e 6b a1 3b df 06 8f 3b b3 f0 1c 3f 68 9a 43 3f
       0.0049261516 0.004364833 0.6130478 0.7640748
000050 9b d8 04 3e 49 1b 1b 3e 00 00 00 00 30 2f 88 3c
       0.12973253 0.15147127 0.0 0.016624063
000060 d3 9f 1e 3c 6f 33 bc 3b 4c 9e 94 3b e4 77 8f 3b
       0.00968166 0.005743436 0.004535472 0.0043783057
000070 16 ea 18 3f d3 10 40 3f 69 45 13 3e 6a 44 db 3d
       0.59732187 0.7502567 0.14381947 0.10706408
000080 00 00 00 00 74 69 87 3c 63 e0 eb 3b ae a3 e8 3b
       0.0 0.016529776 0.00719838 0.0070995903
000090 e8 31 b2 3b 87 36 9f 3b 86 8f 22 3f 79 fe 49 3f
       0.005438078 0.004858795 0.6350025 0.7890392
0000a0 17 3b fd 3d 9f 11 f7 3d 00 00 00 00 29 ff 8d 3c
       0.12364786 0.12063908 0.0 0.017333584
0000b0 00 8d 1e 3c 11 77 ec 3b e0 ca 90 3b a5 46 a6 3b
       0.009677172 0.0072163423 0.004418716 0.0050743395
0000c0 7b d0 21 3f 95 6c 47 3f b8 38 1b 3e 31 53 ab 3d
       0.6320874 0.7790006 0.15158355 0.08365477
0000d0 00 00 00 00 28 18 85 3c 6b 47 dc 3b ed 66 e5 3b
       0.0 0.01624687 0.006722381 0.007000795
0000e0 63 30 a8 3b da fc af 3b 97 47 27 3f 52 ba 50 3f
       0.0051327213 0.0053707184 0.6534361 0.815343
0000f0 ec 23 f6 3d e1 64 bc 3d 00 00 00 00 05 c3 9a 3c
       0.1201857 0.091989286 0.0 0.01889182
000100 ea 7f 2b 3c 99 7f 10 3c 9e 2f a3 3b d4 fc af 3b
       0.010467509 0.008819484 0.0049800416 0.0053707156
000110 5f d8 27 3f 74 12 4f 3f 7a 51 1b 3e 9c dd ae 3d
       0.6556453 0.8088753 0.151678 0.085383624
000120 00 00 00 00 9a e5 86 3c 1b 95 09 3c e4 4f 00 3c
       0.0 0.016466904 0.008397366 0.007831547
000130 8a e6 b1 3b 9f 11 a4 3b 7a 1d 26 3f b2 d0 51 3f
       0.0054290937 0.0050069834 0.6488873 0.8195907
000140 68 09 e6 3d 12 e1 ac 3d 00 00 00 00 a3 24 99 3c
       0.11232263 0.08441366 0.0 0.018694228
000150 67 e0 3a 3c 02 9c 05 3c 0e 24 ba 3b fe 0c b7 3b
       0.011406041 0.008154871 0.0056805676 0.0055862656
000160 01 9b 2b 3f 44 d1 52 3f 07 14 15 3e a0 a0 a3 3d
       0.6703339 0.82350564 0.14558421 0.07989621
000170 00 00 00 00 c4 a6 9a 3c 16 9f 19 3c 92 66 19 3c
       0.0 0.018878348 0.009376308 0.009362834
000180 f9 16 c7 3b dd 63 a0 3b 1f 11 27 3f 1f 31 53 3f
       0.0060757366 0.004894717 0.652605 0.8249683
000190 4c 5f d5 3d 0b 91 ac 3d 00 00 00 00 08 87 9c 3c
       0.10418567 0.08426102 0.0 0.019107357
0001a0 fd 9b 36 3c 05 a6 15 3c fc 87 c7 3b 4d 41 b4 3b
       0.011145589 0.00913382 0.0060892086 0.0055009485
0001b0 3c b5 2c 3f 52 25 54 3f 61 c2 08 3e 5c 10 a2 3d
       0.6746404 0.82869446 0.133554 0.079132766
0001c0 00 00 00 00 fb 3a 97 3c 64 f4 29 3c d2 56 2d 3c
       0.0 0.018460741 0.010373209 0.010579782
0001d0 09 6a c8 3b 52 19 a5 3b f9 b8 29 3f 65 e5 54 3f
       0.006116156 0.005038419 0.6629787 0.8316253
0001e0 1c 0a c9 3d 66 f4 a9 3d 00 00 00 00 cc 6f a4 3c
       0.09816381 0.082985684 0.0 0.02007284
0001f0 1d 77 3b 3c e7 40 19 3c 2f e1 bf 3b a8 32 b7 3b
       0.011441973 0.009353853 0.0058557014 0.0055907555
000200 cf 89 2f 3f 0d 61 56 3f 82 80 ec 3d 5b 9c a0 3d
       0.68569654 0.8374184 0.115479484 0.078423224
000210 00 00 00 00 de 0b 97 3c c5 a1 12 3c 89 75 31 3c
       0.0 0.018438276 0.008949702 0.010831245
000220 d6 fc af 3b f0 3e a5 3b 66 2f 2f 3f 4d 07 58 3f
       0.0053707166 0.005042903 0.684317 0.8438614
000230 6d e2 c1 3d 4a d4 9f 3d 00 00 00 00 e0 de b0 3c
       0.094670154 0.07804163 0.0 0.02159065
000240 07 60 38 3c 18 d9 23 3c a8 14 b8 3b e5 4f b1 3b
       0.011253363 0.01000049 0.005617697 0.0054111355
000250 55 b3 31 3f c6 78 58 3f
       0.69414264 0.84559286

network_body.observation_encoder.processors.1.normalizer.running_mean f4 [6]
000000 25 f4 71 42 30 ac d0 41 ae f5 71 42 fc e4 d0 41
       60.488422 26.084076 60.48992 26.111809
000010 58 f2 71 42 76 1c d1 41
       60.486664 26.138897

network_body._body_endoder.seq_layers.0.weight f4 [128, 156]
000000 06 e6 8a bd 4f 89 4a bd 83 f5 59 bd f3 1d 20 bd
       -0.06782155 -0.049447354 -0.053212654 -0.03909106
000010 a4 53 80 bd 60 eb b7 bc ac fb 4a be 18 b9 98 3d
       -0.06265953 -0.022451103 -0.19822568 0.07457179
000020 a6 86 69 3d 24 02 29 be 26 41 46 3d 04 90 c3 bd
       0.057013176 -0.16504723 0.048401974 -0.09548953
000030 35 66 a2 3d 90 cc 1f bc c4 d6 3d bd c5 c3 09 be
       0.07929651 -0.009753361 -0.046347395 -0.13453586
000040 2b 26 0d be 85 96 06 bd 32 e9 3f 3d 0d 1b e8 3d
       -0.13784091 -0.03285839 0.04685325 0.113332845
000050 f3 d3 9b 3e 12 12 30 bd 22 d7 1c 3e d8 13 16 be
       0.30435142 -0.042985983 0.15316442 -0.14656007
000060 91 96 59 3d 6b 55 52 be c3 b8 84 be 86 1f c7 bc
       0.053122107 -0.20540397 -0.25922212 -0.024307024
000070 3a c8 80 bd 88 5a 13 bd a1 7c ef 3d 83 5d 1a bd
       -0.0628819 -0.03597501 0.11693693 -0.037686836
000080 3a 77 6a bd 42 8f c7 3d b6 46 85 bd 3f 1f 24 bd
       -0.05724261 0.09744121 -0.06507628 -0.04006886
000090 46 6c 4e 3d 1e 53 5a 3c a9 80 1e 3e 13 b5 8e 37
       0.050396226 0.013325481 0.15478767 1.7012038e-05
0000a0 83 28 5a 3d 84 81 24 3c 76 40 9e 3d 77 4b 25 3d
       0.05326129 0.010040645 0.07727139 0.040355172
0000b0 c7 c7 13 3e 1d e4 7f bd 21 17 e4 bc 5d b5 f9 bc
       0.14431678 -0.062473405 -0.02784306 -0.030481989
0000c0 8b e0 fd bd 75 3c e0 3d 46 03 e0 3d 2d 1a d4 3d
       -0.12396344 0.10949031 0.10938124 0.10356555
0000d0 1d 46 96 3c bd d0 44 bd 23 a0 42 be b3 89 24 bb
       0.01834398 -0.04805063 -0.190064 -0.002510649
0000e0 e9 da f9 3c aa 40 8c 3c 17 66 4e 3d c5 54 07 3d
       0.030499892 0.017120678 0.05039033 0.033039827
0000f0 1e 5a 8f 3c f2 6c 1f be ce 0d 3d 3e a2 50 3d bd
       0.017499026 -0.15568903 0.18462297 -0.046219476
000100 6f 43 03 be e0 ba 80 3d ca 08 eb bd 7d ca 06 be
       -0.12818693 0.062856436 -0.11476286 -0.1316318
000110 21 64 eb 3d 7c 10 53 bc 62 77 65 3d 06 c2 a5 bd
       0.114937074 -0.012882348 0.056022055 -0.08093648
000120 d4 ae 0a 3c 2b cb 04 bd 0e 4f 06 3e ce a1 c3 3c
       0.008464534 -0.03242032 0.13116094 0.023880865
000130 2e 0a 88 3d 9b be 05 be 2e 47 2e 3c e9 fb 6e bd
       0.066425666 -0.13060991 0.010637088 -0.05834571
000140 2f 8c ef 3b 9b be 34 bd 41 83 cb bc 01 dd 83 3d
       0.0073104124 -0.044127088 -0.02484286 0.064386375
000150 62 46 17 3d 93 ca 12 3c 9a 2c 37 bd e6 f9 a0 3d
       0.036932357 0.00895943 -0.04472027 0.07860164
000160 e5 5e 6b bd bc 2e 5c 3e d2 ad ae 3b 7a d4 eb bb
       -0.057463545 0.21502203 0.0053307796 -0.00719696
000170 31 f3 a7 bb a8 2c c1 3d c5 87 38 3e 43 e5 62 3d
       -0.005125426 0.09432346 0.18020542 0.055394422
000180 0b a4 0b be eb b8 30 be 3f ad c7 bd e2 14 f1 3d
       -0.13636796 -0.1725804 -0.09749841 0.11771561
000190 98 b1 87 bd f1 21 e0 3d 4d 36 23 3d 1e 06 2f bb
       -0.0662567 0.10943974 0.039846707 -0.0026706527
0001a0 4e 03 95 bd 93 63 0a 3e 8c 30 a2 3d f3 16 f2 3c
       -0.07276021 0.13514547 0.07919416 0.029551959
0001b0 82 53 c1 3d 56 02 21 bc c2 2e 3b bd a5 55 93 bc
       0.09439756 -0.009827217 -0.04569889 -0.017985174
0001c0 a9 42 16 3c 59 23 01 3e 1a 96 eb 3c 53 0b a1 bb
       0.009171166 0.1261114 0.028758097 -0.00491468
0001d0 ae e5 3e bc ba ec 4e 3e b5 06 03 3d c6 8c 13 3d
       -0.01165144 0.20207492 0.03198882 0.036022924
0001e0 c6 8f 86 3b c1 29 98 bc ae 2e 17 3d 30 c1 3c 3d
       0.0041064946 -0.018574597 0.03690975 0.046082675
0001f0 7b 9b 14 be 03 ac b5 bd f6 ef e8 3d 4f 0a 15 be
       -0.14512436 -0.08870699 0.11373894 -0.14554714
000200 1b 37 b4 3c dd 73 0a be e8 9c 88 bd c8 5a 5a 3e
       0.021998933 -0.13520761 -0.066705525 0.21323693
000210 cf ab 61 3d 80 6b 21 bd e2 d2 b8 bd 1c 40 5e 3d
       0.05509549 -0.03940916 -0.09024598 0.05426036
000220 4f 55 f5 3c 5b 36 f2 bb d8 77 c6 bd 49 ca 77 bd
       0.029947905 -0.0073917336 -0.09690827 -0.06049565
000230 e1 3b 2d 3a 55 84 af 3d d8 12 27 3c 97 36 0e 3e
       0.0006608349 0.08570162 0.010197364 0.13888012
000240 1d 3c a4 bd ed a3 03 3d 8d 25 5b 3d db b9 cc 3d
       -0.08019278 0.032138754 0.053502608 0.099963866
000250 88 ff 8f bd 43 c0 2e bd ea 2f 29 3e bd 8c 5e 3c
       -0.070311606 -0.042663824 0.16522184 0.013583359
000260 05 7f 95 bd 3a c1 d2 bb 2e d3 db bc 99 de 2c bc
       -0.07299618 -0.006431726 -0.026834097 -0.010551118
000270 4f c3 4c 3d 66 fd 1b be 02 bc 18 bd 62 8e d8 3c
       0.04999095 -0.15233383 -0.037288673 0.02643508
000280 27 83 ef 3d 9f ca 64 bd 6b c7 57 3d ba 69 fd 3d
       0.11694937 -0.055857297 0.052680414 0.12373681
000290 ca 90 6f bd 3f 01 a2 bd 28 66 a6 3d df 1e e6 3d
       -0.05848769 -0.07910394 0.081249535 0.11236357
0002a0 2c 63 0b be b3 54 48 3d 21 8c 74 39 fe ea 07 3d
       -0.1361205 0.0489089 0.00023321855 0.03318309
0002b0 e4 5d 01 3c 32 92 d8 3c be 5a 72 bc f1 65 2e be
       0.00789592 0.026436899 -0.014792142 -0.17031075
0002c0 07 7e 66 3d 23 03 c6 bd 03 9b 01 3d 8a 13 f5 3d
       0.056272533 -0.09668567 0.03164197 0.119666174
0002d0 18 77 07 bd 85 d0 cd 3d dc fa 0a 3c f7 4e 6b bd
       -0.03307256 0.100495376 0.008482661 -0.057448354
0002e0 dd 4d cc bd 96 17 10 be 23 34 a2 bd 7e 36 1e 3e
       -0.09975789 -0.14071497 -0.079201005 0.15450475
0002f0 78 c4 a2 bd 52 3e 26 3d d5 5b 7b bd 8d 80 7d bc
       -0.0794763 0.040586777 -0.061366875 -0.015472543
000300 0d 96 c9 3c 40 07 f3 bd 0b 6b 80 3d 8f 78 aa 3d
       0.024607683 -0.11866617 0.06270417 0.08323776
000310 0e 32 4a be f2 ac 04 be af 6e 16 bd d1 e5 2f 3c
       -0.19745657 -0.12956598 -0.03672665 0.010735945
000320 31 5b d9 3c da 97 92 bc f5 b5 d2 bc ad df 82 3d
       0.026532741 -0.017894674 -0.02572153 0.06390319
000330 f0 0b 23 3c 6b 8d 06 bd b9 22 d8 bd 86 80 05 3c
       0.009951577 -0.03284971 -0.10553498 0.008148318
000340 da 5f ca bb 0c 00 fb bd 78 1f e7 bc 0a 2e 5c bd
       -0.006175977 -0.12255868 -0.028213248 -0.053754844
000350 33 5e 99 bd 3b c8 1d be f0 c9 83 bd e0 9f 87 3e
       -0.0748867 -0.15408413 -0.06435001 0.26489162
000360 28 4d 0b 3d 70 d0 2a bd dc d4 c1 3d 40 1d c9 bd
       0.03400913 -0.041702688 0.09464428 -0.09820032
000370 c6 4c c5 bd f4 4e 87 bd 9b 2d be bc 8a 35 3e 3d
       -0.09633784 -0.06606856 -0.023215106 0.046437778
000380 b4 95 7b 3d 93 03 18 3d e9 9b 7a 3d bd 3b 3a be
       0.061422065 0.037112784 0.061183844 -0.18186851
000390 63 ef 03 3d 26 30 97 3d 6b 0b 50 be 60 dc 0f be
       0.03221072 0.073822305 -0.20316856 -0.1404891
0003a0 4c e0 84 bd 49 f3 bb bc 57 ac 10 3c c4 d9 37 3d
       -0.06488094 -0.022943156 0.0088301515 0.04488541
0003b0 6a 6a 39 3b 8d cc c0 bd 25 c1 49 bd 83 c6 04 bd
       0.0028292187 -0.09414015 -0.049256463 -0.032415878
0003c0 63 6b 05 3d a5 e7 25 3a 64 5f 22 3d 03 6e 06 be
       0.032573115 0.0006328768 0.039641753 -0.13127904
0003d0 08 ce 37 be 7e 58 a3 bd 84 d3 32 3d 3e d9 a6 3c
       -0.17949688 -0.07975863 0.04365875 0.020367261
0003e0 b1 9a df bd 4f a6 58 bd ef 6f 35 3d 7a 30 fb bd
       -0.10918177 -0.05289298 0.0442962 -0.122651055
0003f0 8e b3 19 be d9 4a 3b be 78 2f 07 bd dc 90 fe 3d
       -0.15009901 -0.18290271 -0.033004254 0.124299735

network_body._body_endoder.seq_layers.0.bias f4 [128]
000000 44 e6 f1 bb 6c e4 e1 39 41 da e8 bb 4f fb 84 bc
       -0.007382186 0.00043085532 -0.007106096 -0.016233115
000010 30 80 0c 3d 8f 59 ce 3b 42 71 dc 3c 2b 69 4f bc
       0.034301937 0.0062972973 0.026909474 -0.012659351
000020 c7 21 18 bd c3 b5 14 bc 4d de 76 3c 8f cb 0b bc
       -0.037141588 -0.0090765385 0.015067649 -0.008532419
000030 bd 2a dd bb 41 d6 1d 3c 48 bc 8f 3b 01 49 9f 3c
       -0.0067494796 0.009633602 0.0043864585 0.01944399
000040 49 bf ca 3c d9 3e e6 3b 00 61 b5 3c 07 fa 92 bc
       0.024749415 0.007026535 0.02214098 -0.017941488
000050 ef 4e 9e b9 a7 27 10 3c 96 9c 7f 3b d9 23 ed 3a
       -0.00030194919 0.008798516 0.0039003245 0.0018092348
000060 51 59 aa bb 65 98 01 bd 15 39 8e bc 80 3e 66 3a
       -0.0051986356 -0.031639475 -0.017361203 0.0008783117
000070 74 06 af bc f9 da 00 3c ec 3e a5 bb e4 4a c5 bb
       -0.021365382 0.007864707 -0.0050429013 -0.0060208905
000080 d3 72 8d 3b 42 1c c6 bc 03 35 22 3c 17 32 37 3b
       0.0043166666 -0.024183396 0.009900334 0.002795344
000090 57 0c 37 3c 09 43 86 bc e4 cf 1a 3c be f6 96 bb
       0.011172376 -0.016389387 0.009448979 -0.0046070507
0000a0 17 af d3 b9 1e bf 52 bc 2c 0b e8 bc 99 90 67 3c
       -0.00040375508 -0.012862949 -0.02832564 0.014133596
0000b0 6b eb b3 3b 5e db 8b bb 60 f5 39 bb db c7 08 bd
       0.0054907105 -0.004268094 -0.0028375015 -0.033393722
0000c0 3d e4 1a bc f8 b7 02 bd 7b 7c f6 bb 66 67 bb 3c
       -0.00945383 -0.031913728 -0.0075221634 0.022876453
0000d0 9e 4f 1c ba 59 ec 07 3c fd a2 9b 3c 81 06 d8 bb
       -0.00059627916 0.008296096 0.018998617 -0.006592572
0000e0 2f 7c 95 bc 8c 62 5f bc 87 31 c8 bc ea 40 3a 3b
       -0.018247692 -0.013634335 -0.024437679 0.002842004
0000f0 d4 29 0c 3c cf 5b 34 bb c4 95 cf 3c 0a e0 d2 3c
       0.0085548945 -0.0027520542 0.025339969 0.025741596
000100 da 13 0c bd 87 e9 13 bc e9 3f a5 bc eb 79 69 bb
       -0.03419862 -0.009027845 -0.020172076 -0.0035625647
000110 7c 41 a9 3c 8f 5a 8c bc 90 95 1d bc 12 28 13 bc
       0.020661108 -0.017133025 -0.009618178 -0.0089817215
000120 79 c5 80 bc a1 82 a6 3b a2 f2 e7 bb bf 24 ab 3c
       -0.015719162 0.00508149 -0.0070784846 0.020891545
000130 d0 d8 6e 3c e7 ee a6 bc 8f 78 4b 3c 1e db e4 ba
       0.014578059 -0.02037759 0.01241888 -0.0017460322
000140 87 b7 f8 bc 72 a9 08 bd db 3b 04 bd c7 8a bb bc
       -0.03036095 -0.03336472 -0.032283645 -0.022893323
000150 f1 4e a0 38 d4 f9 7e 3c 06 64 f2 bc 11 ff 83 3b
       7.6440985e-05 0.015562493 -0.02958871 0.004028209
000160 dd 4c 2f bc 5d 19 ad bc 66 1e 0d bc 93 54 bd bc
       -0.010699478 -0.021130258 -0.008613205 -0.023111617
000170 b6 88 04 3d aa 9a d9 b9 b5 85 8f bb 01 bb 8a bb
       0.03235694 -0.000415047 -0.004379953 -0.0042337184
000180 86 f2 05 3c 7f 2e 2c bc 0c 21 62 bb 7c 0b a2 bc
       0.008175498 -0.010509132 -0.003450456 -0.019780867
000190 83 9f d4 bc 2f fb 1c bc 4e 91 31 bd 7e 93 18 3d
       -0.025954967 -0.009581371 -0.043351464 0.037250035
0001a0 03 af b5 3b 67 44 2f bc b8 c2 24 bc 1d 55 ea 3b
       0.0055445447 -0.010697461 -0.01005619 0.0071512596
0001b0 cf 9a 61 bc 3c 7d a6 bc 06 7f c1 39 df a3 25 bc
       -0.013769819 -0.020323388 0.00036906468 -0.010109871
0001c0 b0 10 80 bc 7c d5 c4 bb c1 ab fb bc ae 9a 55 3c
       -0.015632957 -0.0060068946 -0.030721547 0.013037367
0001d0 0f 1c 2e 3b ce 77 ae 3c 77 3c 88 bc bf f5 a8 bc
       0.0026567017 0.021297362 -0.016630394 -0.020624993
0001e0 be da 1a bb c2 ad b2 bc 44 1a c5 3b 97 c4 d6 bb
       -0.0023628916 -0.02181137 0.006015094 -0.006554197
0001f0 31 b8 1e bc 2c e0 f1 bc 3b bd 4b bc 4a 18 98 3c
       -0.009687469 -0.029525839 -0.012435253 0.01856627

network_body._body_endoder.seq_layers.2.weight f4 [128, 128]
000000 23 49 6f bd 4f 5e 24 be e4 d8 5a bd bd 54 ef 3d
       -0.058419358 -0.16051601 -0.0534295 0.116860844
000010 19 de 14 be ba 90 a8 bc 3a d4 39 3e 84 c8 1a be
       -0.14537849 -0.020576824 0.18147364 -0.15115553
000020 e8 20 be 3a 09 bc c4 bc 94 1e 25 3e 03 86 36 bd
       0.0014505656 -0.024015443 0.16124946 -0.044561397
000030 6e cc 12 3d 89 69 19 bb ab 15 b5 3d db c4 08 3e
       0.03583949 -0.002340885 0.088420235 0.13356344
000040 cd 6a 13 3e 4a 98 ea 3d 23 cf 6d bd 0a 30 eb bd
       0.1439621 0.11454828 -0.05805887 -0.11483772
000050 19 c6 38 be c2 2c 9e bd 91 84 6b bd 80 43 2a be
       -0.18044318 -0.077233806 -0.057499472 -0.16627312
000060 cf be 63 3e f4 1f c7 bc 0a f6 8e 3b b9 8c 0b bb
       0.22240756 -0.024307229 0.0043628262 -0.0021293594
000070 b2 a7 07 3c 41 1d e3 3d 7a ef 8c bd 1c b5 bf 3c
       0.008279728 0.11089564 -0.06881614 0.02340179
000080 c6 66 d6 bd 5f 47 07 bb 25 d3 be bd 42 b0 1a bd
       -0.10468821 -0.0020641906 -0.093176164 -0.03776575
000090 b1 eb e2 3d 16 86 c3 bd 14 e5 19 be 16 28 e3 3d
       0.11080111 -0.09547059 -0.15028793 0.1109163
0000a0 23 b4 ba bc 98 e5 4e 3e 36 51 48 3e a3 50 9a bd
       -0.022790974 0.2020477 0.1956223 -0.075349115
0000b0 07 59 ab 3d e0 3c bd 3d 90 3d 04 be 51 73 0e be
       0.0836659 0.092401266 -0.12914109 -0.13911177
0000c0 47 fd a7 3d 4d b5 53 bd 61 3e 39 bc a9 6a 15 be
       0.08202606 -0.051686574 -0.011306376 -0.14591469
0000d0 2b d3 f2 bc 52 1f b1 bb 87 b3 0d 3e ff fd 72 3d
       -0.029641708 -0.005405345 0.13838015 0.05932426
0000e0 20 71 43 bd 47 4f f4 3d 2a bd a7 3d e8 8b d4 bd
       -0.047715306 0.119291835 0.08190377 -0.103782475
0000f0 6e 56 a0 bd 6d 8d a5 3c 72 ab d0 bd aa 70 73 bb
       -0.07828985 0.020209039 -0.101889506 -0.003714601
000100 62 c4 0f 3d e5 d7 6b bd eb a0 28 bd bd 76 85 3c
       0.035099395 -0.05757894 -0.04116909 0.01629197
000110 2d a4 cd bd 5f 97 22 3d 33 fc e6 3b bd c5 1e bd
       -0.1004108 0.03969514 0.0070491075 -0.038762797
000120 ac 85 ed bd 40 ad 7d 3d 05 8f 0d 3c 4d 46 a0 3b
       -0.115977615 0.061932802 0.008640056 0.004891193
000130 5c b1 b5 bd d4 98 c7 3d f3 6b 15 be c9 5c 41 bb
       -0.08871719 0.097459465 -0.1459196 -0.0029504767
000140 eb 81 22 bd 13 0e f9 3b 64 3f 98 3d 86 4a 1e bd
       -0.03967468 0.0076005547 0.07433966 -0.03864529
000150 fa ff 18 3e 70 f4 66 be 75 c9 35 bd 24 49 73 bd
       0.14941397 -0.22554183 -0.044381578 -0.059395924
000160 db 7e 9b bd 9c ee 2d 3e 39 c7 8f bb cb f6 3a 3e
       -0.07592555 0.16985554 -0.004387763 0.18258207
000170 9d 80 15 be d5 21 4e 3d 9b c1 85 bd 6c a9 a9 3d
       -0.14599843 0.050325233 -0.06531068 0.08284268
000180 36 87 19 be 87 9d fd bd 66 c0 e2 bd d0 b7 c5 bc
       -0.14992985 -0.123835616 -0.11071853 -0.0241355
000190 92 c5 4a bc 37 6a 0c 3d b2 24 a0 3d 8d c5 b9 3d
       -0.012376206 0.034280982 0.07819499 0.09070883
0001a0 df 7d 0d 3e b4 a6 aa 3d 93 9b 4c bd f2 cc c8 bd
       0.13817547 0.08332577 -0.049953055 -0.09804715
0001b0 91 f8 f5 3c f7 91 dc bb 2e 6d 0f be 24 76 f8 bd
       0.030025752 -0.0067312676 -0.14006492 -0.121319085
0001c0 ce b9 09 be 6f 1e 3a 3d fc b5 b1 bd e8 fd d3 bc
       -0.13449785 0.04543918 -0.08677289 -0.025877908
0001d0 aa 49 62 3d 34 bb 17 3d b5 02 a8 3c 3a 04 11 3e
       0.055246033 0.037043765 0.020509103 0.14161769
0001e0 7a 5f b9 3d 28 55 ed bc 93 ab 6d 3d d0 7d 79 bc
       0.09051414 -0.02897127 0.058024954 -0.01522775
0001f0 2b 0d 2d 3d f9 db 64 3d 52 ed 05 3d ff a7 ef 3d
       0.042248886 0.055873845 0.03269703 0.117019646
000200 ef be 88 bb eb 27 0a 3e 8a 76 d7 bd eb e0 22 be
       -0.0041731517 0.1349179 -0.105206564 -0.15906112
000210 76 ab d8 bc 89 5a 52 3d 1b 8d e6 3d 83 b7 ce 3c
       -0.026448946 0.051355872 0.112573825 0.02523399
000220 97 3c db bd b1 9f 10 be 4f 8a 9c 3d 2d 64 88 3d
       -0.10704916 -0.14123417 0.07643568 0.06659732
000230 9a 8f fd bd df d0 2b 3e ed 5e 34 3d 7c 9d 69 bd
       -0.123809054 0.16778897 0.04403584 -0.057034954
000240 6a 00 20 3c 83 26 61 bb 86 32 de bd 21 81 01 be
       0.009765724 -0.003435523 -0.1084948 -0.12646915
000250 cc ac 91 3d 1b 36 dc bc 7c 40 4a be 13 e4 10 be
       0.071130365 -0.026881268 -0.19751161 -0.14149503
000260 e2 94 13 3e 5c d6 eb bb 53 5c 28 3e 0a 34 59 bd
       0.14412263 -0.0071971845 0.16441469 -0.053028144
000270 d3 ab 6f bd e2 0a 3a bc 2e b2 0a bd d7 45 87 3d
       -0.058513474 -0.011355134 -0.03386133 0.06605118
000280 64 5e c5 3d 07 32 3d 3d ed 78 23 3d 46 04 40 3b
       0.09637144 0.046190288 0.039910246 0.0029299422
000290 52 f9 c0 bc c2 eb 9d bd 02 c5 ca bd 22 30 98 3c
       -0.023556385 -0.07710983 -0.099008575 0.018577639
0002a0 46 f8 f0 3d 04 6d 13 39 f7 64 32 3e 4a ad 4c be
       0.117661044 0.00014059624 0.17421328 -0.1998798
0002b0 23 14 12 3d 59 82 99 bd fe e1 a3 3c 18 a1 4f 3c
       0.035663735 -0.07495565 0.020005222 0.012672685
0002c0 c0 b5 16 be c8 1e 17 3c 4b da 08 3e c9 c1 0b 3e
       -0.1471777 0.009223647 0.13364522 0.13648142
0002d0 f1 56 4a 3d b6 89 15 bc 8a 79 75 bd 87 b7 aa bc
       0.04939932 -0.009127071 -0.05993036 -0.020839466
0002e0 25 fe ec 3d fd 52 22 3d ea f9 fd bd a6 12 bf bb
       0.11571912 0.039629925 -0.12401183 -0.0058310805
0002f0 fb f7 2a 3e b9 13 a3 3c 75 5f b5 3d 3c 62 0f 3e
       0.1669616 0.019906865 0.088560976 0.14002317
000300 ee d2 39 be 79 98 87 bd a6 b4 84 bd 93 a3 52 be
       -0.1814687 -0.06620879 -0.064797685 -0.20570211
000310 94 cb 2e 3c ed 8a 26 3d 7a c7 87 bd f6 c9 c4 bd
       0.010668654 0.040659834 -0.06629844 -0.096088335
000320 7d f8 09 3c ce 2d 17 be 77 d5 14 be 27 b0 4c bd
       0.008421061 -0.14763567 -0.14534555 -0.04997268
000330 09 2e 48 bc c1 b2 5b bd 65 68 ca 3d 08 1c 53 3d
       -0.012218007 -0.05363727 0.09883193 0.051540405
000340 88 ea e4 3d 1b e0 66 be 76 f7 14 bd 52 d9 23 be
       0.11177546 -0.22546427 -0.03636881 -0.1600087
000350 d1 b6 bd 3c b0 6f 11 3d e8 c7 ee 3d a9 43 5d be
       0.023158463 0.035506904 0.11659223 -0.21607842
000360 39 28 8f bd 77 fb 8f ba 82 29 c7 3d 7e e9 0d 3d
       -0.06990094 -0.0010984977 0.09724714 0.034646504
000370 c9 5b dd 3c 65 94 1a 3c fa b3 59 be df a3 85 bd
       0.027021306 0.009434794 -0.21260062 -0.065253966
000380 21 a2 02 3d 64 cb 43 3d 96 22 4b be a0 2a b1 bd
       0.0318929 0.04780139 -0.19837412 -0.08650708
000390 b6 6c cd bd 61 68 ea b9 58 6c fb bc 9b 84 c6 3c
       -0.100305006 -0.00044709726 -0.03069131 0.024233153
0003a0 74 dd 43 3c 72 27 b2 3d 02 6a f3 bc a3 21 2a be
       0.011954654 0.0869893 -0.029713634 -0.16614394
0003b0 41 5c a5 3c e8 fa 86 bd 49 59 89 bd c9 e6 bd bc
       0.020185592 -0.06590825 -0.06706483 -0.023181336
0003c0 e8 be f4 3c ee 6b 53 bc 90 35 1e bb c6 a8 95 bc
       0.029876187 -0.01290415 -0.0024140812 -0.018268954
0003d0 68 db 4e bd 6d 79 33 3c 38 79 8d bd 5a 84 1e 3c
       -0.05050221 0.010954243 -0.06907886 0.00967511
0003e0 3e 3a 25 3d 3a 89 9e 3d 97 33 7a 3d 5c 6e d5 3d
       0.040338747 0.07741018 0.061084356 0.1042144
0003f0 31 14 a7 3d 85 5c f6 bd dc e6 5d bd 47 40 ab bd
       0.08158148 -0.120293655 -0.054175243 -0.08361869

network_body._body_endoder.seq_layers.2.bias f4 [128]
000000 e2 1d 1c bb 18 07 6f 3c ae 9e be 3c 44 26 0a 3d
       -0.0023821522 0.014589094 0.023269024 0.0337279
000010 6f c2 00 3c 97 1a 8a 3c 31 3b 07 bb 67 1a a4 bc
       0.007858857 0.016858382 -0.0020634646 -0.02003212
000020 45 a8 6f bc e6 a3 03 bc 2e ab 1f 3b 33 8f a9 bc
       -0.014627521 -0.008034682 0.0024363506 -0.020698166
000030 82 0e de bc 8a c8 a5 bb e0 40 b8 bc 59 1b 99 3c
       -0.027106527 -0.0050593065 -0.022491872 0.018689798
000040 03 7c f5 b9 9d 30 2d bc cd b4 cf bc a7 de c6 bb
       -0.00046822437 -0.010570672 -0.025354767 -0.0060690227
000050 3d 2b 09 3b 94 ea 6c 3c 32 96 60 3c 81 d0 a8 38
       0.0020930313 0.014460225 0.013707684 8.049701e-05
000060 6c a5 58 b9 09 b8 98 3b c2 dd 78 3a cd 1c a6 3c
       -0.0002066099 0.0046606106 0.00094934937 0.020277405
000070 b8 34 3a 3b 3c 48 fc 3c 41 8d fa bc 9f 56 be bc
       0.002841277 0.030796163 -0.030584933 -0.023234664
000080 67 8c 14 3c aa 61 aa bc 88 a6 e2 bc 0b a1 cc 3b
       0.009066678 -0.020798523 -0.027667299 0.0062447838
000090 d0 7e 33 bc b5 36 47 3c eb 79 29 3c 35 c6 37 3c
       -0.010955527 0.012159039 0.010344009 0.01121669
0000a0 f1 6d fc bc 48 a8 8e bc 89 89 75 3c 03 25 44 3c
       -0.030814143 -0.017414227 0.014986404 0.011971715
0000b0 75 34 82 3c a4 e4 10 bc ec 17 fc 3c 81 21 40 bc
       0.015894154 -0.008843575 0.030773126 -0.011726738
0000c0 c9 df 25 3b 72 40 10 bc 31 fb 47 39 b9 6d 4f bc
       0.0025310388 -0.008804427 0.00019071695 -0.012660437
0000d0 e6 4b 67 3b ea 8c 3a bc d8 97 83 3c 57 a4 bb bc
       0.0035293042 -0.011386136 0.016063616 -0.022905512
0000e0 74 03 95 bc b9 51 aa bc 8d 69 df 3b 4f 23 b0 bb
       -0.018190123 -0.020790922 0.0068180026 -0.005375303
0000f0 6d 57 9d ba 81 46 dc b9 01 0f 9f 3b fa 5d 07 bc
       -0.0012004204 -0.000420142 0.0048540835 -0.008262152
000100 e7 cc ad 3c 84 eb 8c bc 0a 0a c7 bb 3a 82 e9 3b
       0.02121587 -0.017202146 -0.006074195 0.00712612
000110 cb cd 9d 3c 1d d4 21 bc 97 a5 f2 bb 65 6c c1 bc
       0.019263169 -0.009877232 -0.0074049938 -0.023611257
000120 b3 48 32 3c 87 fa 66 3c 0d 23 42 bc f2 e0 0a bd
       0.010881591 0.014097816 -0.011849177 -0.03390593
000130 45 07 b9 3b 05 f9 05 bc 77 af 16 bc 81 57 9c 3c
       0.0056466185 -0.008177047 -0.0091971075 0.019084694
000140 87 78 7a 3c c2 2e ee ba 05 11 05 3d 84 82 a0 3b
       0.015287525 -0.0018171894 0.032486934 0.004898371
000150 7b ab 1c 3c 45 e2 4c 3c a4 db 16 3c 9e 59 15 bb
       0.0095623685 0.012505119 0.00920764 -0.0022789012
000160 e8 5e bb 3b e7 2e 91 bc f3 75 c3 bb ce f6 0d bb
       0.005718101 -0.01772256 -0.0059649884 -0.0021662
000170 ea f8 b1 3c 0f 6d 69 bc 07 9e 3d bc 61 a8 9f ba
       0.021725137 -0.014247193 -0.011573321 -0.0012180918
000180 71 e4 1e bc 82 58 40 3c e2 ae 2b bc ec 12 91 bc
       -0.009698019 0.011739852 -0.010478707 -0.017709218
000190 92 41 97 bc 56 b7 08 bd f9 9a 3e bc 38 8d b7 bb
       -0.018463884 -0.033377968 -0.011633628 -0.0056015514
0001a0 3f 2a 4a bc 56 95 fe 3b 8a c3 b4 bb 9e 13 09 bc
       -0.012339174 0.007769267 -0.005516474 -0.0083664935
0001b0 86 ca 76 3a 05 ca 32 bb 94 df bf b8 70 77 85 bc
       0.00094143336 -0.0027281058 -9.1492344e-05 -0.016292304
0001c0 cf 52 2a bc a4 8b da bc 39 d3 21 3c 40 b4 a3 bb
       -0.01039572 -0.026677914 0.00987702 -0.0049958527
0001d0 21 42 8a 3b ee f5 9f bc 7a 8d 04 bd 92 6f 9e 3c
       0.004219309 -0.019526448 -0.032361485 0.01934031
0001e0 f6 52 93 bb d5 d5 fd ba 4b 71 54 bc fa ac d6 bc
       -0.0044959737 -0.0019366095 -0.012966464 -0.026205529
0001f0 a6 7c d6 bc 4c c5 77 3c 75 7a 6f ba 45 9d 06 3b
       -0.026182484 0.015122723 -0.0009135374 0.0020540517

action_model._discrete_distribution.branches.0.weight f4 [2, 128]
000000 14 35 88 3c 0f de 1c bd da cb d6 bc 80 20 dd bc
       0.016626872 -0.03829771 -0.02622025 -0.026993036
000010 5d 57 86 3d ad 26 15 bc 40 84 ab bc c6 b8 e4 3b
       0.06559632 -0.009103459 -0.020937085 0.0069800345
000020 8b 4d 4e 3c 9d fd 32 3d f8 8a e7 3c 1b 95 fb 3c
       0.01259173 0.043698896 0.028264508 0.030710747
000030 bc 55 f9 3c f0 a1 26 3d 53 6f 26 3c fd d1 39 bd
       0.03043639 0.04068178 0.010158378 -0.045366276
000040 a3 5d 3e bd 8c 48 2d 3c 81 d0 a7 3c 66 4a 45 bb
       -0.046476018 0.010576379 0.020485165 -0.003010416
000050 38 b0 94 3d aa 1a 37 3b 9f 76 10 3d 13 18 1d 3c
       0.072601736 0.0027939477 0.035269376 0.009588259
000060 9d cb 3a 3c a2 8a c0 bc ac 59 9e bc f2 07 48 bc
       0.011401084 -0.023503605 -0.019329868 -0.012208926
000070 c4 48 db bc de 4f 66 bd 4d 77 1c bc 7b 1a e9 3c
       -0.026768096 -0.05622851 -0.009549928 0.02845501
000080 73 7d f7 3c 41 05 2b 3b 34 08 ab 3c 2f 73 08 bd
       0.030211186 0.002609566 0.020877935 -0.033312973
000090 48 e9 82 3c 68 49 de bc e7 03 84 bc ff 2b 03 bd
       0.015980378 -0.027134612 -0.016115142 -0.03202438
0000a0 c6 34 9a 3b 80 29 dc bc b3 82 1e bd 3a 73 2e bd
       0.004705998 -0.026875257 -0.038698863 -0.042590357
0000b0 6e 73 95 bd f5 cf 65 bc 4f 07 06 bd 6f 3d 3c 3c
       -0.07297407 -0.014026632 -0.032721814 0.011489256
0000c0 4a 9f 10 bd eb 1b 60 3d 57 b3 a9 3c ec 2b 5b bc
       -0.03530816 0.054714125 0.020715399 -0.013377171
0000d0 82 13 09 3d 4c e3 e2 3c c3 bf 01 3c a6 66 09 3d
       0.03346587 0.027696274 0.007919255 0.03354516
0000e0 83 f4 f9 3c fe 21 b8 3c dc 56 9b bc 15 18 d2 3c
       0.0305121 0.022477146 -0.018962316 0.025646249
0000f0 b8 6f 82 3c 89 dd c2 b9 62 31 e7 bc e7 d5 31 3c
       0.015922412 -0.0003716762 -0.02822179 0.010854221
000100 89 ab d3 3c ad 04 a4 3c be 27 90 3c 46 aa 0f 3d
       0.02583863 0.02002176 0.017597076 0.035074495
000110 88 30 e5 3c c1 70 1d bc cd 47 87 bb 4b d7 b3 3c
       0.027977243 -0.009609402 -0.0041284324 0.021953246
000120 50 a3 13 bd eb d8 e0 ba 61 20 8d 3c db 24 e9 3c
       -0.03604442 -0.001715449 0.017227354 0.028459957
000130 34 38 27 bd df 6f 1e 3c cf f4 c2 bc e8 41 71 bd
       -0.040825084 0.009670227 -0.023798374 -0.058900744
000140 6e f1 07 bd 7c bd 30 3d d7 0c b9 bc 62 0f 53 3c
       -0.03318923 0.043149456 -0.02258913 0.0128820855
000150 a6 86 22 3d 25 e1 84 bc 20 9c eb 3c bb be 21 38
       0.039679192 -0.016220639 0.02876097 3.8563023e-05
000160 fe c6 2b bd 00 7e 45 bc 6e 9c 37 3d 78 7c 2c 3d
       -0.04193782 -0.0120539665 0.044826917 0.04211089
000170 16 29 5e bd 8a 52 f7 bb a7 03 90 3c ac c9 be 39
       -0.0542384 -0.007547681 0.017579867 0.0003638988
000180 a9 1b 8a 3b 4b 6c 1a bd de 67 1d 3c ae 9c f5 3c
       0.004214723 -0.037700932 0.009607283 0.029981937
000190 69 9d 86 bc 59 e5 ed 3c a3 65 e8 ba d1 a5 8f bc
       -0.01643248 0.029040026 -0.0017730485 -0.017535122
0001a0 03 50 b3 bc db 62 fa bb 38 10 31 bb 6b 84 c5 bc
       -0.021888738 -0.007641179 -0.0027017724 -0.024110993
0001b0 59 82 25 3d 4d 96 93 3d 2f 5e 81 3b 85 08 2a 3c
       0.040407512 0.07206402 0.003947995 0.010378008
0001c0 aa fa 9c bc 35 cf 7c bc 95 5f b2 3a d4 22 ce 3b
       -0.019162495 -0.015430261 0.0013608808 0.006290773
0001d0 ff 82 96 bc 74 e5 c3 3c 03 39 0d 3d a4 a1 94 bb
       -0.01837301 0.023913123 0.0344782 -0.0045358706
0001e0 5c 09 d7 b9 a2 6c 44 3d 07 8f f7 3b fb cc 69 3c
       -0.0004101497 0.047955163 0.007554892 0.014270063
0001f0 e5 39 e8 bb a0 5d 9d bc 27 8d 54 3d 50 e5 e1 39
       -0.0070869797 -0.019209683 0.051892426 0.00043086195
000200 03 1d 30 bd bf e5 ee 3c cd b8 f2 3c 80 4b 13 3d
       -0.042996418 0.029162286 0.029629136 0.035960674
000210 75 25 4e bd 5a 61 b3 ba e2 d9 a1 3c 21 e2 45 bc
       -0.05032869 -0.0013685629 0.019757215 -0.012077839
000220 22 83 81 bb 8a 27 50 bd 86 7b 9d bc b2 94 95 bc
       -0.0039524 -0.050818957 -0.01922394 -0.01825938
000230 65 e9 c4 bc c6 0c af bc 5d 2c 97 3b 6e 72 16 3d
       -0.024037072 -0.021368396 0.004613443 0.036730222
000240 07 7f cb 3c 3d 21 0a 3c 67 3d cd bc 04 6f 9b 3a
       0.024840845 0.008430776 -0.025053693 0.0011858647
000250 2d 0b 65 bd 8f d1 d4 bb 81 4c 61 bd d1 ab a3 bb
       -0.05591886 -0.006494708 -0.0550046 -0.0049948473
000260 ee 71 22 3b b8 d3 a5 3c f9 83 b2 3c 94 80 99 3c
       0.0024787146 0.020242557 0.021791445 0.018738069
000270 80 2e de 3c 8b 63 4e 3d 5e a6 2c 3b 73 d0 d0 bc
       0.027121782 0.0503879 0.002634428 -0.025490021
000280 d3 85 c3 bc 63 42 6a bc 77 bf 73 bc 75 aa cc 3b
       -0.023867523 -0.014298054 -0.014877192 0.006245906
000290 d3 35 10 bb 2f ee 03 3d fc 77 1a 3d 57 6d d9 3c
       -0.0022004738 0.03220957 0.037712082 0.026541395
0002a0 2e a1 88 3c 01 1f dd 3b 1d 70 ef 3c fd 15 48 3d
       0.016678419 0.0067480807 0.029228264 0.048849095
0002b0 35 06 8e 3d 2e 3e 1b 3c 74 42 47 3d 61 fa 62 bc
       0.06934778 0.009475274 0.04864736 -0.01385364
0002c0 e1 cd 34 3d e6 07 55 bd 23 1f 19 3b cd 65 44 3c
       0.044141654 -0.052009486 0.0023364506 0.011987162
0002d0 92 6e 10 bd 98 65 75 bc 03 70 06 3b c4 84 8c bc
       -0.035261698 -0.014977835 0.0020513542 -0.017153151
0002e0 15 d9 07 bd 03 65 ee bc db 59 a3 3c a4 be 14 bd
       -0.03316601 -0.0291009 0.019940307 -0.03631462
0002f0 50 34 03 bd e0 79 63 3c f1 b8 90 3c 40 51 cd bb
       -0.03203231 0.013884038 0.017666312 -0.0062657893
000300 c3 82 2a bc 28 4f d1 bc 0f 4e 33 bc 42 5f 66 bd
       -0.010407153 -0.02555044 -0.010943904 -0.05624319
000310 3e 9b ff bc 6a b2 54 39 c7 8d 5c 3c 13 7c bb 3a
       -0.031201955 0.0002028436 0.013461537 0.0014303945
000320 9d d1 99 3c 89 3b 8f bc 4a f6 cf bc cc c7 4c bc
       0.01877671 -0.017484443 -0.025385994 -0.012498807
000330 b8 f2 27 3d d9 41 97 bb 41 8b 1b 3c ec 49 62 3d
       0.04100296 -0.004616004 0.00949365 0.05524628
000340 09 0b 1f 3d 8a 91 03 bd aa 6a 51 3c 2d 7e 17 bc
       0.038828883 -0.03212122 0.012781778 -0.009246391
000350 ad 11 45 bd 2f 49 8e 3c 7c 74 d5 bc ab 2a 33 bc
       -0.04811256 0.017368881 -0.02605652 -0.010935466
000360 f7 51 c8 3c db d5 71 3c fc 01 ba bc 3b 2e bb bb
       0.024453146 0.01476046 -0.022706024 -0.005712298
000370 b3 c1 5b 3d 2b 21 1a 3b b3 2d 5d bc 48 ba 06 3c
       0.053651523 0.0023518305 -0.013499665 0.008223124
000380 bb c1 f1 39 3e 4f 48 3d cd 34 4c bb 74 6d 20 bd
       0.00046111442 0.048903696 -0.0031159401 -0.039166883
000390 3c a5 88 3b 64 21 81 bc af b4 9d b9 47 d6 0a 3d
       0.004170088 -0.015762992 -0.00030079993 0.033895757
0003a0 39 1d a3 3c d0 8e 48 3c 8e 28 87 3c 22 65 ea 3c
       0.019911395 0.01224108 0.01649883 0.028612677
0003b0 f7 b9 48 bd 90 22 8b bd 4c 43 8d 3c 84 8f f7 3b
       -0.049005475 -0.06793702 0.017244004 0.00755495
0003c0 f6 ed 6b 3c f2 4b d5 3b d7 2d c8 3c 9d cc 8f bb
       0.014399996 0.0065092975 0.02443592 -0.0043884055
0003d0 53 bf ad 3c ba 78 b1 bc 02 69 52 bd 85 b8 aa bc
       0.021209395 -0.021664012 -0.051369675 -0.020839939
0003e0 cf 33 93 bb 87 fd ec bc 65 a6 81 bc 1d ac 9f bb
       -0.00449226 -0.028929485 -0.015826413 -0.0048728124
0003f0 5a ae 92 3b e4 10 1c 3d 16 2b 57 bd ac 00 3f bb
       0.0044763507 0.038102046 -0.052531324 -0.0029144688

action_model._discrete_distribution.branches.0.bias f4 [2]
000000 c4 91 d2 bb bb 91 d2 3b
       -0.006426068 0.006426064

action_model._discrete_distribution.branches.1.weight f4 [3, 128]
000000 00 a7 d5 bc 03 9e 01 bc fe ea 7c bd 50 ba eb 3c
       -0.026080608 -0.007911208 -0.061747544 0.028775364
000010 7a 26 09 bd 46 dc 4a 3d e7 77 81 bd a9 a3 22 bd
       -0.03348396 0.049526475 -0.06321698 -0.03970686
000020 4a 16 60 bd ba 1d a9 3c 3c 63 63 bd 96 cd de bc
       -0.054708757 0.020644058 -0.05551456 -0.02719764
000030 f2 da 94 bb 0b 7d c5 bb c8 4c bd bc c4 2e 63 3c
       -0.004542702 -0.006026869 -0.023107901 0.01386613
000040 e6 71 87 bc 39 2d 98 bc b6 31 82 bc c6 8c df bc
       -0.016533803 -0.018576251 -0.015892845 -0.027288806
000050 fd 12 3e 3d c8 7a d4 3d 01 eb a7 3d a9 b0 0f 3c
       0.046404827 0.10374981 0.0819912 0.008770146
000060 56 de 36 bd c2 47 f6 3b ca c7 3c bd c4 8b 05 bc
       -0.04464563 0.0075158784 -0.04608897 -0.0081509985
000070 c9 d3 0e bd 36 d2 48 3d 1d b6 b6 3b 68 d4 5e bd
       -0.034869943 0.049028598 0.005575909 -0.054401785
000080 6f 94 66 3c d8 ae a4 bc 05 68 a2 bc ba 10 fa bb
       0.014073475 -0.020102903 -0.019824991 -0.0076313885
000090 ec 84 48 bc 45 8b aa 3c dd ab 2d bc a8 6a dd 3c
       -0.012238722 0.020818362 -0.010600057 0.027028397
0000a0 32 bf 46 bd 87 48 97 bb ee 98 2e 3d 0e 8e c0 3c
       -0.04852218 -0.0046168 0.042626314 0.023505237
0000b0 33 c6 12 bc 40 3e 83 3c 6b be b1 3c 84 ae 27 bd
       -0.008958387 0.016020894 0.021697244 -0.040937915
0000c0 92 37 9c bc b6 da 59 bd 4d 0b 1b bd 6d 9e d9 ba
       -0.019069467 -0.053187095 -0.037852574 -0.0016603001
0000d0 88 0a ea 3c 24 b3 9d bc a9 c2 fa bc 2e a6 00 bc
       0.028569475 -0.01925046 -0.0306104 -0.00785212
0000e0 b2 59 f5 3c d8 ea 97 3c 73 43 4c bd 6c cd 8b bc
       0.029949997 0.0185446 -0.049869012 -0.017065726
0000f0 69 ac b1 bc de c7 26 3b c4 43 71 bc 05 b0 31 3b
       -0.021688657 0.002544872 -0.014725629 0.0027112972
000100 90 34 38 3d 67 fb e3 bc a4 6c f4 bb fc 1e 84 3c
       0.044972003 -0.027829839 -0.00745924 0.016128056
000110 1c eb 62 3d ec 5b 5c 3c 09 af 24 bc aa 26 cf bc
       0.0554 0.01344965 -0.010051497 -0.025286991
000120 e1 c6 f6 3c eb 40 ef bc c7 37 37 bd f3 74 ee 3c
       0.03012413 -0.02920576 -0.044730928 0.0291085
000130 d1 96 1c bb 76 5e e3 3c 04 dd d7 3b de fc 6f 3c
       -0.0023893605 0.027755003 0.0065876264 0.014647691
000140 f4 1d b9 3b 93 04 19 bb ea d2 87 3d 66 98 7a bd
       0.0056493226 -0.0023348674 0.066320255 -0.061180495
000150 42 8b 46 3d 02 7b 3a 3d c6 2a df 3b d1 38 05 bd
       0.04847265 0.045527466 0.006810519 -0.032524887
000160 ae 7d 93 3c 7b 08 a8 3c 24 9a 87 bc 0c bb 2d 3d
       0.018004265 0.020511856 -0.016552992 0.04241471
000170 81 f7 1c bd 53 04 55 3c dd bf d6 bc 32 c2 41 bc
       -0.038321976 0.013001519 -0.026214534 -0.011826085
000180 68 e2 b2 bc 65 90 ca 3c 98 2c c0 bc 76 5d ae bb
       -0.021836475 0.024727056 -0.023458764 -0.0053212
000190 fb 1f 0e bd 7c 71 d4 3c ba 1d 46 bd a5 a0 ec 3a
       -0.034698468 0.02593302 -0.048368193 0.0018053247
0001a0 94 1c 61 bc 56 14 54 bc 36 fc 7a bd 64 3b bf bb
       -0.013739724 -0.012944302 -0.061275683 -0.0058359373
0001b0 6b 29 60 3d bd e9 57 bb 5c fe 73 bc 4e 00 62 bc
       0.054727 -0.0032945715 -0.014892187 -0.013794018
0001c0 77 28 0b bd f6 fe 33 bd df e2 07 3d ce 55 16 3c
       -0.033974137 -0.04394432 0.033175346 0.009175731
0001d0 6f 9a 75 bd 14 0f c3 bb ce cd f9 3c 3b d5 3b bc
       -0.059961732 -0.005952725 0.030493643 -0.011464412
0001e0 bb aa 3c 3c 80 c4 f9 3b 3e 7b 9e bc 53 a7 29 3c
       0.011515315 0.0076223016 -0.019345876 0.010354835
0001f0 1d eb a8 bc ab 7b 4b 3c 0a 98 38 bd 97 13 8a bb
       -0.020619923 0.012419621 -0.04506687 -0.004213761
000200 2d c6 00 bc ee 59 1c ba 7b 2f da bc 3e ca eb bc
       -0.007859749 -0.00059643283 -0.026633969 -0.02878296
000210 1a 83 19 3d 5c ad 39 bd 4d 84 d0 3b 9a f2 de 3c
       0.037478544 -0.045331344 0.0063634277 0.02721529
000220 71 43 70 bb f3 ce a2 bc 91 55 a7 ba 88 74 74 3b
       -0.0036661292 -0.019874072 -0.001276659 0.0037300903
000230 59 8f 10 3d d0 4f 1c 3d 89 7c 13 3d 0c bf cc bc
       0.035292957 0.038162053 0.036007438 -0.024993442
000240 6b 54 8d bc a1 8d 37 bd f4 e4 02 3d 06 57 c8 3b
       -0.017252168 -0.044812802 0.031956628 0.0061138896
000250 b2 4d 0c bd ab 17 0c bd 0d b7 40 bd ab 77 b2 3c
       -0.034253784 -0.03420226 -0.04704957 0.021785578
000260 f3 10 51 3d 5b 47 c2 bc d2 11 8f bc 58 4a fb bc
       0.051041555 -0.023715666 -0.017464552 -0.030675098
000270 1e a1 19 bd 4d ec 94 bc 8e 36 3b 3c 2b 1d 19 3b
       -0.03750717 -0.018179083 0.011426581 0.0023363333
000280 ba 19 82 bd 54 0f c5 3c f6 2b 11 bc 09 0a 04 3d
       -0.06352563 0.02405516 -0.008860579 0.032236133
000290 35 57 67 bc e7 8d 2c bc 45 50 8f bc a6 7e 30 bd
       -0.014119913 -0.010531879 -0.01749433 -0.04308953
0002a0 3d 11 d9 3c 88 f8 66 3c 90 12 e6 bb 4a 82 2a bd
       0.026497478 0.01409734 -0.007021256 -0.04162816
0002b0 2e 6e cd 3b fb c4 2b bd 3b 66 80 3a 0d 16 5e 3d
       0.006269238 -0.041935902 0.0009796092 0.054220248
0002c0 e4 ad 1b bd 4b bd 6d 3c 47 ec a8 3c 45 c8 63 3c
       -0.038007632 0.014510463 0.020620478 0.013902728
0002d0 48 22 d5 3c cb 3e a3 3c 15 50 6f 3d 65 66 66 3c
       0.026017323 0.019927403 0.05842598 0.014062499
0002e0 e7 f2 97 bc 60 1f 72 bc 5f 40 2a 3d a4 0e fe bc
       -0.018548442 -0.014777988 0.041565295 -0.03101284
0002f0 b1 dd e8 bc 8f a8 43 bd 11 21 14 bd 95 b2 4d 3d
       -0.028426023 -0.047768172 -0.036164347 0.050219137
000300 15 04 85 bd c6 6e ef 3c ff f2 d6 bc d3 44 35 bc
       -0.06494919 0.029227626 -0.026238916 -0.011063772
000310 ed e1 8e bd 0b 7c c8 bc 7d 3d 5c 3c d4 92 2f 3c
       -0.06976686 -0.02447321 0.013442394 0.010716159
000320 f3 30 86 3c 15 33 d8 bc 04 a4 91 3b be e1 aa bc
       0.016380763 -0.026391545 0.004444601 -0.020859595
000330 f5 bf bc bc 95 a7 9a bc ea b5 25 bb c3 bc f3 3b
       -0.023040751 -0.018878737 -0.0025285431 0.0074382736
000340 bf 72 60 bd 05 5d 56 ba 03 63 3d bd d1 85 79 3d
       -0.05479693 -0.0008177313 -0.046237003 0.060918633
000350 37 50 3a 3c 01 62 3c bd a2 f1 38 3d d4 9c c0 3c
       0.011371664 -0.0459919 0.045152314 0.023512281
000360 26 63 a1 bc 48 cb 25 3c cd 34 6c bc 03 5e fd bb
       -0.019700598 0.010119267 -0.014416886 -0.0077321543
000370 4f 83 89 3d 91 28 29 bc 75 7d 63 bd 78 ce e8 bc
       0.06714498 -0.010324613 -0.055539567 -0.028418764
000380 f3 50 2e bc 11 60 4a 3c 07 0c 1c bb 6f ae 8e 3c
       -0.010639417 0.012352006 -0.002381088 0.01741716
000390 0c 71 90 3b 19 96 74 bc 54 9d 95 3c 72 c8 7e 3c
       0.0044080075 -0.014928364 0.018263496 0.01555072
0003a0 c9 78 1d bd 7e 17 1f 3d f2 c7 85 3d b1 5e f7 bc
       -0.038445268 0.038840763 0.06532277 -0.03019652
0003b0 ca cf bb bc e9 ea c8 3c 71 cf 4e bd 2c be a0 3c
       -0.02292623 0.024526076 -0.0504908 0.019621931
0003c0 66 1b 24 bb 29 71 98 3c 06 73 0d bd 20 5e 59 3c
       -0.0025040745 0.018608646 -0.034533523 0.01326707
0003d0 18 0d da 3c 83 c6 28 bc 98 f2 92 ba fb a7 96 3d
       0.026617572 -0.010301235 -0.0011211215 0.073562585
0003e0 19 70 2d bd ca af 41 bd c7 f3 85 bc 0f ae cc bb
       -0.042343233 -0.047286786 -0.016351594 -0.0062463353
0003f0 32 ed b1 3c 68 07 25 3d d5 7e 5b bc 83 eb 56 3d
       0.021719549 0.040290266 -0.013396938 0.052470695

action_model._discrete_distribution.branches.1.bias f4 [3]
000000 af 61 22 3c 1f 60 b7 bb 88 5e 82 bb
       0.009910985 -0.0055961753 -0.003978554

action_model._discrete_distribution.branches.2.weight f4 [1, 128]
000000 99 1d 90 bc da 24 f8 bb 41 da be bb 0a 33 cf bb
       -0.017592238 -0.0075727524 -0.0058243577 -0.006323223
000010 83 07 58 bc b2 ec 67 3c b8 15 e4 3b 1b 20 7c 3c
       -0.013185385 0.014155554 0.006960597 0.015388514
000020 13 28 53 3c 11 92 8e 3b 20 45 f7 bb 0b 33 34 bc
       0.012887972 0.0043509086 -0.007546082 -0.010998498
000030 b7 81 1b bc d2 e3 58 ba 8f 85 0c ba 24 36 c7 3a
       -0.009491376 -0.0008273694 -0.0005360478 0.001519863
000040 7c af 32 bc ca c2 42 3b dd 99 ff bb 2d 2a 61 bb
       -0.010906097 0.0029718154 -0.0078003244 -0.0034357414
000050 08 14 41 bb 93 35 74 bc 7f 8a 9c 3b 03 47 f5 bb
       -0.0029461402 -0.014905351 0.004777252 -0.007485272
000060 59 ba c8 3c 03 43 0a bc a7 39 7a bc fd c8 6f bb
       0.02450292 -0.008438828 -0.015272534 -0.0036588304
000070 9c 29 88 3b 2d 53 1d 3a f7 e0 5c bc 37 bb 84 3c
       0.004155351 0.0006001469 -0.01348137 0.016202552
000080 99 19 88 bc 27 5a 8f 3b f3 4b 8b bc 0f 88 35 bc
       -0.016613768 0.0043747607 -0.017003989 -0.011079802
000090 3d ab a1 3b b2 75 95 3c 7f 98 39 bc 7b 37 b3 3b
       0.0049337433 0.018244598 -0.011327862 0.0054692603
0000a0 23 53 b8 bb 82 30 6d bc 25 81 52 3c 21 ee 93 bb
       -0.005625145 -0.014476897 0.012848173 -0.004514471
0000b0 20 0e d6 3b ef 9c 95 bc d3 78 36 bb 90 2e 8e bb
       0.0065324455 -0.018263308 -0.0027843013 -0.004339047
0000c0 4d 54 3e 3c de fe 3c bc 43 97 38 bb fd 47 a5 bb
       0.011616779 -0.011535374 -0.002816633 -0.005043982
0000d0 88 5a af 3b 13 dd 9f 3c 79 9b 83 bb af e0 5f 3b
       0.0053513683 0.019514596 -0.0040163365 0.0034161021
0000e0 3f ef 24 bc f7 9c 8e bc 07 c5 c8 3b cb e3 72 bc
       -0.010066806 -0.017408831 0.006127003 -0.014824818
0000f0 fa e9 08 bc ff cb 71 3b f4 56 bc 3b 93 22 af 3b
       -0.008356566 0.0036895273 0.0057476703 0.0053446977
000100 ba 4c da 3b f5 12 97 3b cb 75 4f bb 95 4f 95 3b
       0.0066619786 0.004610414 -0.0031655903 0.004556606
000110 75 b2 ee 3b fb 60 08 3a 48 66 ff bb c3 58 34 3b
       0.0072844573 0.00052024395 -0.0077941753 0.0027518726
000120 a7 5e 46 3c 02 57 ce 3b 74 38 24 3b 9e fc 28 3b
       0.012107528 0.0062969932 0.0025058063 0.0025785337
000130 3c 04 83 bb 3f a2 27 bb 07 c3 23 bc ac c0 10 ba
       -0.0039983075 -0.0025578884 -0.009995229 -0.00055218744
000140 7f 23 ab 3b 3d 82 6a bc f7 29 66 ba d1 04 00 bc
       0.0052227373 -0.014313278 -0.0008780057 -0.007813648
000150 ab b8 16 bc 0a f0 ad 3a 2a 98 9b 3b 1a bd 67 bb
       -0.009199302 0.001327039 0.004748364 -0.0035360516
000160 23 e1 9e 3b d7 75 2c 3c 33 c9 22 3c 6c 0b c0 ba
       0.0048486157 0.010526142 0.009935665 -0.0014651841
000170 11 87 15 bc fc fc 16 3c 68 c8 ba 3b 55 eb 2c 3c
       -0.009126441 0.00921559 0.00570016 0.010554154
000180 ea 3a 50 bc 0c a4 43 3c f6 68 0a 3c 1e f4 a0 3c
       -0.012709359 0.011940967 0.008447876 0.019647654
000190 25 7e 0c bc 72 01 5f bc 6d e5 25 3b 9b be 2a ba
       -0.008574997 -0.013611184 0.002531375 -0.0006513388
0001a0 e2 b6 c1 bb f4 f1 b6 3c 3d d2 82 bb bf f5 94 bb
       -0.005911694 0.02233217 -0.0039923475 -0.004545897
0001b0 35 af 35 3c 56 ca ae 3b a0 ea 59 bc 2f 32 81 b9
       0.011089136 0.005334179 -0.013300568 -0.00024642187
0001c0 cc f1 1e bb 23 78 88 bc ac d7 ab 3c 1a f3 f1 3b
       -0.002425301 -0.016658848 0.020976864 0.0073837163
0001d0 4e 58 21 3c 6f f1 22 ba b5 fd 42 3b 5b 2b 0a bc
       0.009847714 -0.0006215786 0.0029753272 -0.008433188
0001e0 87 1f 43 bb 78 f6 fd ba 75 46 2d bb 2d f7 99 3c
       -0.002977343 -0.0019375822 -0.00264397 0.01879462
0001f0 02 1d 97 39 a2 e4 c1 ba a8 24 fb b8 60 36 09 3c
       0.00028822577 -0.0014792869 -0.000119754404 0.00837478

onnx::Div_94 f4 [150]
000000 ac 44 ae 3e 66 4a be 3e 88 e0 0a 3b cf 79 01 3e
       0.34036767 0.37166137 0.002119096 0.12644123
000010 11 c6 bb 3d dd 2b 97 3d a8 1b 86 3d 11 9f 8d 3d
       0.091686375 0.07381413 0.06548244 0.06915105
000020 56 54 fc 3e 5a ac c0 3e de e5 b0 3e ba 2a af 3e
       0.49283093 0.37631494 0.34550375 0.34212285
000030 88 e0 0a 3b 21 81 00 3e 53 5f b0 3d 20 24 a0 3d
       0.002119096 0.12549259 0.08611932 0.0781939
000040 0a 74 8f 3d 38 14 87 3d 90 5f f9 3e 6f 21 b9 3e
       0.070045546 0.06595653 0.4870572 0.3615832
000050 3e 0a ac 3e 23 8f b7 3e 88 e0 0a 3b dc f1 02 3e
       0.33601564 0.35851392 0.002119096 0.12787575
000060 3d 95 c8 3d bc d2 9a 3d fe ad 89 3d 45 49 87 3d
       0.0979409 0.07559726 0.067226395 0.06605772
000070 29 1b fb 3e 42 7a bd 3e dc aa b3 3e be 4f 9e 3e
       0.4904416 0.37007338 0.35091293 0.30920213
000080 88 e0 0a 3b 4b 94 02 3e d6 2f ad 3d fb 00 ac 3d
       0.002119096 0.12751882 0.084563896 0.083986245
000090 79 ad 96 3d 8c 79 8e 3d 8c 7e f6 3e f4 22 af 3e
       0.07357306 0.06956777 0.48143423 0.34206355
0000a0 13 8b a8 3e 07 c4 a6 3e 88 e0 0a 3b 32 a9 05 3e
       0.32918605 0.32571432 0.002119096 0.13052824
0000b0 75 89 c8 3d ac 66 ad 3d e8 e7 87 3d 00 95 91 3d
       0.09791843 0.08466849 0.066360295 0.071084976
0000c0 6e e8 f6 3e 96 2d b4 3e 76 9d b7 3e e4 c2 8d 3e
       0.48224205 0.3519103 0.3586232 0.27687752
0000d0 88 e0 0a 3b d2 79 01 3e 1b 68 a7 3d db cf aa 3d
       0.002119096 0.12644127 0.081741534 0.083404265
0000e0 7d 69 92 3d 51 bf 95 3d 8b a6 f3 3e 1f e0 a1 3e
       0.071490265 0.07311881 0.47588 0.31616303
0000f0 af 7e a6 3e 40 fa 93 3e 88 e0 0a 3b 65 6d 0b 3e
       0.32518527 0.28901863 0.002119096 0.1361595
000100 6c 7a d0 3d f4 87 bf 3d 2d 3b 90 3d 52 bf 95 3d
       0.101796 0.09352103 0.07042537 0.07311882
000110 78 48 f3 3e df b7 a5 3e 73 a9 b7 3e 5b 15 8f 3e
       0.47516227 0.32366845 0.35871467 0.2794598
000120 88 e0 0a 3b bf 55 02 3e 01 ef ba 3d b9 94 b4 3d
       0.002119096 0.12728022 0.091276176 0.08817429
000130 cc 8d 96 3d 52 9e 90 3d ad 63 f4 3e e7 7e 9d 3e
       0.07351264 0.07061447 0.47732297 0.3076088
000140 9d ac a1 3e 05 58 8e 3e 88 e0 0a 3b de b5 0a 3e
       0.31577006 0.2780153 0.002119096 0.1354594
000150 4c 84 d9 3d 19 3d b8 3d 9e fa 99 3d 37 b4 98 3d
       0.10620937 0.089960285 0.075185046 0.07456248
000160 84 b0 f0 3e 4d 4b 9e 3e 79 94 b4 3e f3 d2 8a 3e
       0.4700967 0.30916825 0.35269526 0.27114066
000170 88 e0 0a 3b eb 60 0b 3e 27 6d c5 3d 33 49 c5 3d
       0.002119096 0.1361119 0.0963996 0.09633102
000180 7b 35 9f 3d 5d ff 8e 3d 93 c9 f3 3e f0 7c 9a 3e
       0.077738725 0.069823004 0.47614726 0.30173445
000190 a1 6b 9c 3e 1a 3a 8e 3e 88 e0 0a 3b 72 34 0c 3e
       0.30550864 0.27778703 0.002119096 0.13691881
0001a0 60 0c d7 3d ba e1 c2 3d 5a 62 9f 3d 6a 8a 97 3d
       0.10500407 0.0951571 0.07782431 0.07399447
0001b0 0e e1 ef 3e 1b 5e 9b 3e f1 2b ae 3e 70 37 8a 3e
       0.4685139 0.30345234 0.340179 0.2699542
0001c0 88 e0 0a 3b a0 db 09 3e 1d 8c cf 3d b6 94 d1 3d
       0.002119096 0.13462687 0.10134146 0.102334425
0001d0 e7 bb 9f 3d ac 11 91 3d 61 05 f2 3e f3 b5 97 3e
       0.077995114 0.07083449 0.4726973 0.29631004
0001e0 a3 57 98 3e ac 3e 8d 3e 88 e0 0a 3b c5 a1 0f 3e
       0.29754362 0.27586877 0.002119096 0.14026554
0001f0 e6 da d9 3d 36 31 c5 3d a4 51 9c 3d d1 c3 98 3d
       0.10637455 0.09628527 0.07632759 0.07459224
000200 39 b1 ed 3e 47 89 97 3e 7b a3 a3 3e 09 a6 89 3e
       0.46424273 0.29596922 0.31960663 0.26884487
000210 88 e0 0a 3b 95 c6 09 3e 2f ed c0 3d 72 07 d4 3d
       0.002119096 0.1345466 0.09420239 0.103529826
000220 56 bf 95 3d 1c 22 91 3d 32 f9 ed 3e 21 e0 92 3e
       0.07311885 0.07086584 0.46479183 0.28686622
000230 80 e5 95 3e 74 57 89 3e 88 e0 0a 3b bd d8 14 3e
       0.29276657 0.26824534 0.002119096 0.14535804
000240 ca 12 d8 3d 15 d3 cb 3d 4c 21 99 3d 67 4e 96 3d
       0.10550459 0.0995237 0.07477054 0.07339173
000250 a0 ea eb 3e 16 35 93 3e
       0.46077442 0.2875144

onnx::Div_97 f4 [6]
000000 c4 29 03 42 bf 63 52 42 70 48 03 42 2b 71 52 42
       32.790787 52.59741 32.82074 52.610516
000010 fe 6d 03 42 31 7e 52 42
       32.857414 52.623234
