Assets/Scene/FinalTest/ZooheimTest/Models/0606/DeerFBehavior.onnx (onnx, 156857 bytes, 14 tensors)

discrete_act_size_vector f4 [1, 3]
00000000: 0000 0040 0000 4040 0000 803f
2.0 3.0 1.0

network_body.observation_encoder.processors.0.normalizer.running_mean f4 [150]
00000000: ed9d cc3d 9f10 053e 0000 0000 1b22 a63c
00000010: b7e1 b33b a4ca 973b 3769 4c3b 4579 223b
00000020: 65b9 2c3f 77a0 493f 77b2 d03d e7a1 e23d
00000030: 0000 0000 3ca3 963c eb84 b63b d721 973b
00000040: 267d 573b 02a4 3d3b d0ad 313f a1e4 4d3f
00000050: 54a8 c33d 0407 da3d 0000 0000 7638 9b3c
00000060: 4e44 bb3b e6a8 973b 2317 333b 6a30 303b
00000070: 26b6 353f cc3d 503f aaac c93d ad3d ac3d
00000080: 0000 0000 2bcd 873c ef95 bc3b 4d70 873b
00000090: 2226 643b db30 483b e3d2 3a3f b0c0 553f
000000a0: 070c bd3d 2798 a03d 0000 0000 7fbc 903c
000000b0: 5b98 a93b 4857 963b 4377 4d3b 59ed 473b
000000c0: 14b2 3e3f 0fbb 573f b3c0 b83d 5953 803d
000000d0: 0000 0000 efdd 813c 40a4 c93b 96e6 8d3b
000000e0: c9bb 7d3b d874 603b 863f 423f 8be1 5c3f
000000f0: 5c5e bd3d d2bc 6c3d 0000 0000 329d 803c
00000100: 01a4 bd3b bb8c 953b 2de0 763b 31ad 643b
00000110: ced2 433f bc56 5e3f 084d a53d 0bf6 563d
00000120: 0000 0000 6f42 6c3c c533 cd3b 3949 953b
00000130: b0e3 883b 4c99 593b 8c61 473f 5af0 613f
00000140: 34ce bd3d 0c51 413d 0000 0000 fa85 6c3c
00000150: 303f d53b ea73 b03b 905f 8d3b 906c 693b
00000160: 8a0d 463f 6e11 623f 125c 8f3d a063 4e3d
00000170: 0000 0000 2fe5 563c 5ded c73b 3858 c63b
00000180: 545f 813b 2f9c 5e3b 9625 4b3f f6a4 643f
00000190: 5359 b83d 7f22 383d 0000 0000 9d2e 673c
000001a0: 35e8 e13b 61f5 b23b 044f 9f3b 7f5e 683b
000001b0: 4e7b 463f cb8c 633f baac 823d 9b02 513d
000001c0: 0000 0000 6e47 4c3c 14f6 d63b e314 d23b
000001d0: 5aeb 723b 076f 563b ba5f 4c3f 379e 653f
000001e0: 39e2 a93d a28d 453d 0000 0000 520f 543c
000001f0: 5e40 003c 8a6e be3b 5500 a33b 643f 613b
00000200: 385d 463f 50d6 633f 83d3 793d d7d3 3e3d
00000210: 0000 0000 ed4f 4f3c 3fb3 fa3b 05a4 bd3b
00000220: 92ab 903b cb77 653b 51b8 4c3f 2a63 663f
00000230: a4b2 923d 7082 463d 0000 0000 653c 563c
00000240: da50 ff3b 67c0 cb3b 4da3 993b b3bd 523b
00000250: fc18 493f 17fc 643f
0.099910595 0.12994622 0.0 0.020279935 0.005489554 0.004632311 0.0031190643 0.002479152
0.6747039 0.78760475 0.101902895 0.11066037 0.0 0.018388383 0.0055700443 0.0046121883
0.003288099 0.0028936868 0.6940584 0.80426985 0.095535904 0.106458694 0.0 0.018947821
0.0057149297 0.0046282886 0.0027327023 0.0026884326 0.7098106 0.81344295 0.09847386 0.08410201
0.0 0.016577324 0.005755178 0.0041332603 0.0034812768 0.0030546698 0.7297804 0.8349714
0.0923081 0.07841521 0.0 0.017668007 0.005175633 0.0045880415 0.0031351603 0.003050646
0.74490476 0.84269804 0.090211295 0.06265897 0.0 0.015852896 0.0061536133 0.0043304665
0.0038716665 0.0034249332 0.7587818 0.8628165 0.09246513 0.05779726 0.0 0.015699957
0.005787373 0.0045638955 0.003767024 0.003489327 0.7649354 0.86851096 0.08071333 0.05248074
0.0 0.014420136 0.006262275 0.004555848 0.004177533 0.0033202944 0.7788322 0.8825737
0.09267846 0.047196433 0.0 0.014436239 0.0065077767 0.005384912 0.0043143705 0.0035617687
0.7736441 0.88307846 0.06999983 0.05038798 0.0 0.013116165 0.006101294 0.006052997
0.0039481316 0.0033967604 0.79354227 0.8931421 0.09001412 0.044954773 0.0 0.014110235
0.0068941363 0.0054613804 0.0048617143 0.0035456715 0.775319 0.8888671 0.06380601 0.051027875
0.0 0.012468202 0.0065600965 0.0064111813 0.003706655 0.0032719986 0.7983357 0.8969454
0.08295102 0.048230775 0.0 0.012943106 0.007827846 0.005811517 0.004974405 0.003437006
0.7748599 0.8899889 0.06099273 0.046588745 0.0 0.012653333 0.0076507623 0.005787375
0.004414984 0.003501403 0.79968745 0.8999506 0.07162979 0.04846424 0.0 0.013075923
0.0077916207 0.0062180045 0.0046886564 0.0032156527 0.7855375 0.8944716

network_body.observation_encoder.processors.1.normalizer.running_mean f4 [6]
00000000: d8fa 7042 c62a bc41 9a00 7142 224d bc41
00000010: e502 7142 906e bc41
60.244965 23.520885 60.250587 23.537663 60.252827 23.553986

network_body._body_endoder.seq_layers.0.weight f4 [128, 156]
00000000: f47c e9bd d447 2bbd 8563 a33d 8c79 1a3e
00000010: 1aeb 273e f0e2 9d3c b14b 3ebe 07bf 163d
00000020: 9895 973d 1d3e 3a3d 35e9 18be d683 2c3d
00000030: e9f3 3e3d da5d fc3d 5e05 ccbd 4378 423d
00000040: 56bb d2bd ccaf 723c af97 d2bd c79b 31be
00000050: 73a0 0b3c e66a 133a 3ea8 e23d 5b6d 873d
00000060: 639c 96bc 36d6 0a3d 5c9c f13c 504d 323c
00000070: 0b43 0dbd 4bba cf3d 14c0 f1bc c850 fabd
00000080: d034 b8bd 4f47 763e 6870 f9bd 8802 143d
00000090: 39ad 9fbc 8b0e 8ebd 114a 9e3d 1020 163e
000000a0: 026e 1b3d 36eb ec3d c29b d93c 720e 523a
000000b0: a545 10bd c093 753b 0d61 87bb 9844 00be
000000c0: 7cb4 2d3e eec5 f93d e72c 6bbd 1d40 03bd
000000d0: 9750 653d 8491 0cbd 6a14 b2bc 9e6f 00be
000000e0: 8d44 983d 26bd b9bc 1fd3 ec3c 0f3c 40bd
000000f0: 9a47 2a3d a67b 54bd 4411 763c bf01 f4bc
00000100: 4b09 1f3c d2db 303d 84f1 29be 8455 ea3d
00000110: 3005 fb3d f1f9 27bd f33d 833d 5636 05bd
00000120: 9579 423d 6a9b 943d 714e 1c3e 4dc4 303d
00000130: ae1a c3bc a774 82be b834 d63c 9dbb 113d
00000140: ec47 133d d4cd 143e 3f35 9bbd f5f6 02bd
00000150: c75f 7cbc 2996 ef3d 8baf aebb ede3 2abe
00000160: fa57 573d 1ba7 6b3e 85c2 603e 6189 773d
00000170: fa8d 12bd d336 043e b1cd bbbc 4b20 08ba
00000180: 287a 193d d687 61bd 3e27 a53c ccd4 8bbd
00000190: e6b9 623d ff73 4bbd 3a9d 42bc 57db 053e
000001a0: 6cee 933d 3197 283e 8c83 42bd d79c d43d
000001b0: ea87 713b 868c 22be 4a9b 793d 2d25 fb3d
000001c0: 22e0 67be 892b 06be e25d b03b 9710 643d
000001d0: f1fc c13b cab7 dbbd e364 f93d 4fce 90bd
000001e0: 4748 95bd 9a4b 40be 66d3 01be a2be 39bd
000001f0: 2d72 4cbd d62b 603c 0f19 fa3c 51d4 243e
00000200: bbac c43d f7f1 cc3d 5258 7a3b fc3d e83d
00000210: 6b74 9abd 8a0c 2b3e f021 293e 0289 6a3e
00000220: 5990 80bd 8ca9 b8bc 9d83 c43c 75fb 053e
00000230: 8608 963d d14d 33be 90b3 863c 912b b53d
00000240: c000 f7bc 7a79 c23c b71b 26bc 9a33 15bc
00000250: b699 083d 9894 363e 4a7e 92bc e6ca fcbc
00000260: 69cc 50bd c0c7 58bc ede6 16be b90d 8dbd
00000270: 1dc6 413d 9176 5c3d 380d 9cbc 293e 4ebd
00000280: 3639 243e d0e0 54bd 2b0e 843c dcd3 4abd
00000290: 4c21 243e 3ac1 0abd 5df9 d33d be80 acbd
000002a0: a974 33bd c52a 2dbd 9ace 13be 8261 e73d
000002b0: ae40 903d dc5d 14be f9a1 033e 0cd9 d43c
000002c0: 795d 4f3e 4b64 ae3d 3329 c0bc 5cf5 8abd
000002d0: 1920 55bc c665 8c3d 61f8 3cbe a3b7 fabd
000002e0: 7baa 2b3d 81e8 1abe e4cd a7bc 7786 d0bd
000002f0: 6ec8 df3c 4f5d 163d 570d a43c 47e4 7abd
00000300: 2d24 6c3d 62d2 f73c e4fa fb3d 1f78 59bd
00000310: 7705 23be afb4 e93d ecc1 96bc 7677 a13d
00000320: 164b d0bd cbe5 4c3d c369 84bd a056 be3c
00000330: 5f7e aa3d b565 4b3d 99cc 4a3d 0c3f 0bbe
00000340: c379 29bd ce85 00be 0d15 aa3d f7ad 2f3d
00000350: bf12 c63d 5557 d2bd 9209 873d d75c 0abe
00000360: 1f9c 2cbc 8f95 5f3e 574b d1bd 19d0 103e
00000370: 465d 373d 4962 16be 8256 b7bd 5347 5d3c
00000380: 78f9 28bd c710 4b3c 4905 adbd e028 b93b
00000390: 112b 3c3d 4d2c 48be 5c6d 1dbd b8c1 d33d
000003a0: 2543 1fbd ffd8 d63c 83ad 1d3a ca82 08bd
000003b0: 7ed0 17bc d8ab efbd fbd4 da3d 497d a73d
000003c0: 22ea dabc e673 8d3d 50a2 0cbe b57f c9bd
000003d0: e25e a13d 3d92 9bbd 55ad cc3d 3594 c9bb
000003e0: de69 52bd 547b a7bd 3421 6abb 7d55 643c
000003f0: 0b50 b83d d080 163d 3378 30bd a197 05bd
-0.11400786 -0.041816548 0.07977966 0.15085429 0.16398278 0.019273251 -0.18583561 0.03680327
0.074015796 0.045469392 -0.14932711 0.042117916 0.04661933 0.12322588 -0.09961961 0.04747797
-0.10289638 0.014812421 -0.102828376 -0.1734458 0.008522141 0.0005623534 0.11067246 0.06612655
-0.018385118 0.033895694 0.029493503 0.010882691 -0.034487765 0.101429544 -0.029510535 -0.12222439
-0.08994448 0.2405064 -0.12179643 0.036135226 -0.019491779 -0.069363676 0.07728971 0.14660668
0.03794671 0.115683004 0.026563529 0.0008013017 -0.03522267 0.00374721 -0.0041314424 -0.12526166
0.1696338 0.12195955 -0.05741587 -0.032043565 0.05598506 -0.034318462 -0.02173825 -0.12542579
0.0743495 -0.0226732 0.028909264 -0.046932276 0.04157219 -0.051875733 0.015018765 -0.029785989
0.009706805 0.043178387 -0.16596037 0.11442092 0.12256849 -0.041009847 0.064083 -0.032522522
0.04747923 0.072562054 0.15264298 0.043155957 -0.023816433 -0.25479624 0.026148185 0.035579313
0.035957262 0.14531642 -0.07578515 -0.031973798 -0.0154036945 0.11698563 -0.005330985 -0.1668851
0.052574135 0.23012964 0.21949203 0.06043375 -0.03577993 0.12911539 -0.02292523 -0.00051928003
0.037470013 -0.055061184 0.020160314 -0.06827697 0.055353068 -0.04967117 -0.011878306 0.13071953
0.0722321 0.16463925 -0.047488734 0.10381477 0.0036854693 -0.15873918 0.06093911 0.1226295
-0.22644094 -0.13102545 0.0053822855 0.055679884 0.0059200455 -0.10728414 0.12177446 -0.070706
-0.072891764 -0.1877884 -0.12678298 -0.045347817 -0.049913574 0.013682326 0.030529527 0.16096617
0.09603258 0.10007089 0.0038199616 0.113399476 -0.07541736 0.16704002 0.16516852 0.22903827
-0.06277532 -0.022541784 0.02398854 0.13084204 0.073258445 -0.17510153 0.016443044 0.088462
-0.030151725 0.023739565 -0.010138444 -0.009106541 0.033349715 0.17830122 -0.017882485 -0.030858468
-0.05097619 -0.013231218 -0.14736529 -0.06887383 0.047308076 0.05382401 -0.019049272 -0.05035225
0.16037449 -0.05197221 0.016120037 -0.04951845 0.16028327 -0.03387568 0.10350297 -0.08422993
-0.043812428 -0.042277116 -0.14434281 0.11297895 0.07043587 -0.1448893 0.12854756 0.025982402
0.202505 0.08515223 -0.023457145 -0.0678508 -0.013008141 0.06855349 -0.18454124 -0.12242057
0.04191063 -0.15127756 -0.020483918 -0.10181897 0.027317252 0.03671008 0.020025892 -0.06125286
0.057651687 0.030251686 0.12303713 -0.053093072 -0.15920053 0.11411416 -0.018403016 0.078841135
-0.101705715 0.050023835 -0.06465485 0.023234665 0.083248846 0.049657542 0.049511526 -0.13598269
-0.041375887 -0.12551042 0.08304796 0.042890515 0.09671544 -0.102705635 0.06593622 -0.13511978
-0.010535269 0.21834396 -0.10219448 0.14141883 0.044766687 -0.1468593 -0.08952047 0.013505775
-0.041253537 0.012394137 -0.08448274 0.0056506246 0.04593951 -0.1954815 -0.03843437 0.10339683
-0.038882393 0.026226519 0.000601493 -0.033327855 -0.009266017 -0.117026985 0.10685154 0.08178193
-0.026722971 0.069068715 -0.13733792 -0.09838811 0.078794256 -0.07596252 0.09993998 -0.006151701
-0.051370494 -0.0817782 -0.0035725357 0.013936398 0.08999642 0.03674394 -0.04308338 -0.032615308

network_body._body_endoder.seq_layers.0.bias f4 [128]
00000000: db20 07bc fbe1 a83c 7f90 133d 7f3c 603c
00000010: 66a4 5e3d fae9 1fbd 4bae 6a3b cf5c 313d
00000020: d04e 853c 83ea 93bc 40fe c63c d520 0f3b
00000030: eb52 4dbc 3ea5 a6bc 5dd4 6cbc 8a2a 7bbc
00000040: 9cf1 303a 4150 bebc 23cb cbbc 63a9 10bd
00000050: e673 753a ad35 ee3b 93b3 b4bb 0e47 f73a
00000060: e1e6 093c c6fc 81bc d000 4b3c b54c 623a
00000070: b6c2 8d3c b96d e83c 214a 20bc b251 173c
00000080: 330e 0d3d fb38 453d 0fbe 823c 6804 563c
00000090: 3446 a83b 9dd9 923c 1653 b039 c407 9bbc
000000a0: af38 1b3d c018 a2b9 9012 b23c a1e9 8cbb
000000b0: a27d fbbc 4287 cbbc 08dc 41bc 9140 b8bc
000000c0: a074 103c 0253 3b3d 4aa6 aa3b 637d c5bc
000000d0: cd44 f8bb 72a9 853c 463a 08bc 6984 abbb
000000e0: 85b5 f2bb d71f 6cbc b045 27bc 7925 d73c
000000f0: f516 e63a 0718 d7ba 5d8a 9a3c 58d5 cebb
00000100: 26a1 b0bc 575c 4dbd 524e 083c b3b2 26bd
00000110: bbf8 a4bc 7261 7ebb ea4c 6abc 61ca 163c
00000120: c8b1 d13c 754d 113c f5f5 42bc 9f2d e2bb
00000130: fa9b b6bc 1d4a cd3c f505 b23c d6ea 40bc
00000140: fd9e 713c 343d c6bc bbe5 483c 5ce4 5bbc
00000150: aa0e 20bc 2439 c3bc 0462 e4bb fda4 993b
00000160: 096f ce3c 86db 85bc 2f1e 433c 3758 1ebd
00000170: 1e34 02bc 34db cb3b decb 1f3c 30ba 5fbc
00000180: 82d6 c9bc 9d15 b1bc 062f 9ebb 76ba 9fbb
00000190: 6b79 a83c 98a5 ef3c 6d7c 833b 0bc7 023d
000001a0: 2480 84bc 4d54 4e3c f75b d6bc 6b2d 003c
000001b0: 8eb5 2abb f1d9 873c bd62 fbba 2b14 51b9
000001c0: 7ed5 5fbc 285f 333c 5dd7 9f3a 558d 213c
000001d0: 17ec 8bbc 3432 ab3b 0a71 bfbc 83f9 e63c
000001e0: 1850 afbb a835 e5bc 2c47 2c3c 3b01 78bc
000001f0: 0045 573c c3d2 9cbb 736d cdbc bb9b a43c
-0.008247579 0.020615568 0.036026474 0.013686298 0.054356 -0.039041497 0.0035809453 0.0433014
0.016272932 -0.01805616 0.024291158 0.0021839638 -0.012531976 -0.020342465 -0.014454928 -0.015329966
0.000674987 -0.023231627 -0.024877137 -0.03531779 0.00093632785 0.0072695822 -0.005514571 0.001886578
0.008416862 -0.015867602 0.01239033 0.0008632646 0.01730476 0.028372632 -0.009783299 0.009235786
0.03443737 0.048150044 0.015959768 0.013062574 0.005135322 0.017926032 0.0003363124 -0.018924601
0.037895855 -0.00030917488 0.021737367 -0.0043003117 -0.030699555 -0.02484477 -0.011832245 -0.022491725
0.008816868 0.04573346 0.0052078115 -0.02410764 -0.007576561 0.01631615 -0.008314675 -0.0052342904
-0.0074068927 -0.014411888 -0.010209486 0.026262986 0.0017554449 -0.0016410359 0.018864805 -0.0063120537
-0.021561217 -0.05013689 0.008319454 -0.040697765 -0.020138135 -0.0038815406 -0.014300564 0.009203524
0.025597468 0.008868565 -0.011899461 -0.006902411 -0.022291172 0.025059754 0.021731356 -0.011774739
0.014747378 -0.024199106 0.012261803 -0.013421144 -0.009769121 -0.023830958 -0.006969692 0.0046888576
0.02519943 -0.016340028 0.011909052 -0.038658347 -0.007946996 0.0062211994 0.009753196 -0.01365523
-0.024638418 -0.021616751 -0.004827383 -0.004874523 0.02056571 0.029253766 0.0040126354 0.031928103
-0.016174383 0.012593341 -0.0261669 0.0078233285 -0.0026048156 0.016583415 -0.0019179207 -0.00019939306
-0.01366174 0.01094798 0.001219492 0.009860356 -0.01708035 0.0052244905 -0.02336933 0.028195148
-0.005350124 -0.027979687 0.010515016 -0.015137012 0.0131390095 -0.004785867 -0.025076604 0.02009379

network_body._body_endoder.seq_layers.2.weight f4 [128, 128]
00000000: f72e febb df0a 2cbd 3996 963d 8208 9bbd
00000010: 5922 77be 5817 5c3c 5c7f 213e 549e fcbd
00000020: 6648 cb3d a2dc d4bd 523d f1bc bf70 3fbd
00000030: cdf9 4f3e 8f0a 9abe 97fc 0fbe 728f 98bd
00000040: 0d69 d33c 4fe5 04be b00a 0bbd 9ad4 45be
00000050: 1a55 8a3d 888e fd3d 619d 9abd 8e59 dabd
00000060: 1937 823d 9094 41be 4726 cfbc 39ca 263c
00000070: ef05 543d 9bc0 793d 66cd 263d 3140 0b3d
00000080: 739e e23d 5193 6a3b 69c6 9d3c 901f 6c3c
00000090: 6f9f 5cbd d8f5 bcbd 41dd 34bd 4f62 313e
000000a0: f519 273d 9479 d5bc c996 ba3d b651 82bd
000000b0: 098a e7bd 7df1 08be a0f5 913d 3a74 7b3d
000000c0: 8613 893d 96a7 4d3d 2209 20bd dc23 eabd
000000d0: f7ab 613d ed15 b4bd 0525 99bd 40b4 66bd
000000e0: 31d2 44bd 6741 033e d30e 26be db45 913d
000000f0: a5df 9c3d 0d5f 0ebe 9d8f 283e 459a 873d
00000100: f3eb 0ebe 044c 173d f4ab d6bc b087 04be
00000110: 0ce7 aebd 75ac 3a3d a5cd 9abd 6854 303e
00000120: c4ac d53d b5c1 b73d fb03 e4bd a60c bbbd
00000130: 3a89 1abd 0808 b93d 24fb 60be 4f56 a43d
00000140: 15d3 71bc 68d3 5abe c16d 8b3b 2d5c e83c
00000150: b8e9 12be 20e8 babd df43 723d caea 863c
00000160: 9768 6abd fb16 783d 6440 6a3e e887 3cbe
00000170: f33c f63b 5732 883c 79ae ac3c b014 74be
00000180: b9d3 c03d 33e5 463d 6826 9ebd 4aab bb3d
00000190: 92bd 003e 7dea 32be b1ec 253c ef89 5dbd
000001a0: 6519 02be de40 943c e020 e93c 2b9d c53d
000001b0: 9e6d a03d 7e9f c9bc d1a0 8cbd 7d1b 31bc
000001c0: b4cd 033d d030 0c3e 5417 59bd 5d97 083d
000001d0: d736 1f3d d2c3 fc3d b854 2fbe e9f7 eb3d
000001e0: 3271 8f3d 3d1f d43d 67b0 01be d92f 26bd
000001f0: 11c4 af3b b8a5 cbbd f461 23be 7b50 bc3b
00000200: 0288 003d 3a9f 53bd 665d b4bd ce68 433e
00000210: 70c8 933d 4682 db3d 5972 173d 5773 05bd
00000220: dc4b 84bd ef2f 033e 1387 813d 4c07 5f3b
00000230: bcb8 273d 7250 9bbd 7397 99bd 7dd1 c73c
00000240: 12e0 15be 89d3 2d3c 5508 083d d18d 1cbe
00000250: 4a59 d3bd 5468 333c 6fee eebd e98e 263c
00000260: 0b5b 593d 156f 873c a795 283d 112f 443d
00000270: 402b 1f3e 5145 04be f73d c43d da78 eabd
00000280: 7b93 ee3d ade1 32be 52c4 c83b ac62 163d
00000290: d0ae db3b 06f1 7dbd f0a2 953d 6559 eabd
000002a0: 4a0b 48bd acb9 b6bd 7fb9 63bd 5fa7 ce3c
000002b0: f3db 21bd e20c c4bc a6c3 23be 3afe 34bd
000002c0: 4c93 30bd 18d1 4b3d 240a 9ebd a794 663d
000002d0: 5ea7 ce3d c8cf 5dbe 2587 b2bd 1809 7e3d
000002e0: 7b21 733d 94b4 fd3d 0a73 953d 00d8 6bbd
000002f0: e053 aebd 4e26 d13d 9cf1 413e 47b4 2f3d
00000300: f710 173e 571a a1bd a546 b33d 8dec fbbc
00000310: da69 8abd d395 6d3d a5dd 71bd 695f 5d3d
00000320: 01e4 253e f3c5 73bd 1c28 813d 257a e0bc
00000330: 40fc bbbc 47cc b83d 9b77 dcbd f47f 03bd
00000340: c11b 3d3d b2e6 91bd fbac e0bd 809f e8bd
00000350: 2f52 33bc f01d f73b 6caa 37bd 2874 13be
00000360: 3fd5 5cbd bc29 de3b a68d 033e 55f1 003e
00000370: cbeb 08bd b344 05be 3b24 4fbd aa9f 5abc
00000380: b5ac 9a3d 0764 9fbd c7b0 303b 773a 3a3d
00000390: 05b5 ba3c fbe4 7dbc 289e 6e3d 5419 51bd
000003a0: baf5 373e e8ba 8fbd 259e 8dbd 7411 d53d
000003b0: bd0f 1ebd 0fbe 53bd 7178 28be 81cd acbc
000003c0: ab81 e33b e68e 693d 19b1 113e 177d c23d
000003d0: b0df ab3e 0c96 95bd 448d 8ebd 319a 2f3c
000003e0: 5cfd a1be 151c 9abc beb5 503b c12c 293e
000003f0: bde2 65bd 4fa9 563d b0b4 0abe e116 bdbb
-0.0077570635 -0.042002555 0.073528714 -0.07569982 -0.24134196 0.0134333 0.1577124 -0.12334886
0.09925918 -0.10393645 -0.029448185 -0.046738382 0.20310135 -0.3008618 -0.14061199 -0.07449235
0.025806928 -0.129781 -0.03394574 -0.19319382 0.06754513 0.12380701 -0.07549549 -0.106616125
0.06358165 -0.18904328 -0.025286807 0.01018005 0.05176347 0.0609747 0.040723227 0.033996765
0.11065378 0.0035793374 0.019259648 0.014411822 -0.053862985 -0.092265785 -0.044156317 0.17322658
0.04079624 -0.02605895 0.09110791 -0.063632414 -0.11305625 -0.1337337 0.071269274 0.06139014
0.06693177 0.05020865 -0.03907121 -0.11432621 0.05509564 -0.087932445 -0.07477764 -0.056324244
-0.048052017 0.12817918 -0.16216592 0.07093402 0.07659844 -0.13903446 0.16461034 0.066212215
-0.13957195 0.03693773 -0.02620504 -0.12942386 -0.085401624 0.045574624 -0.07558755 0.17219698
0.10433343 0.089724936 -0.11133572 -0.09133272 -0.037728526 0.09034735 -0.21970803 0.080242746
-0.0147597985 -0.21369708 0.004255027 0.028364265 -0.14346969 -0.091263056 0.05914676 0.016469378
-0.05722865 0.06056879 0.22876126 -0.18411219 0.00751459 0.016625566 0.021079289 -0.23836017
0.09415383 0.048558425 -0.07722169 0.0916353 0.12572315 -0.17472263 0.010127232 -0.05408662
-0.12705 0.018097337 0.028458059 0.09649118 0.07833408 -0.024612185 -0.06866611 -0.010809776
0.032178596 0.13690495 -0.053000763 0.033347476 0.03887066 0.12342037 -0.17122161 0.115218945
0.07004012 0.10357521 -0.12664948 -0.040572975 0.005363949 -0.09943718 -0.15955335 0.0057468987
0.031379707 -0.051665522 -0.08806877 0.19082949 0.07215965 0.10718207 0.036974285 -0.0325807
-0.064597815 0.12811254 0.063245915 0.003403145 0.04094766 -0.07583703 -0.0749959 0.024391884
-0.14636257 0.010609516 0.03321107 -0.15288474 -0.10319765 0.010950167 -0.11666571 0.010165908
0.05306534 0.01653246 0.041158345 0.04789645 0.15543842 -0.12917067 0.09582131 -0.11448832
0.116492234 -0.17468901 0.006126919 0.036715195 0.006704189 -0.061997436 0.073064685 -0.11442832
-0.04883889 -0.08922133 -0.055596825 0.025226293 -0.0395164 -0.023931924 -0.15992603 -0.04418776
-0.043109223 0.049759954 -0.07716778 0.05629411 0.100905165 -0.21661294 -0.08717183 0.06202039
0.0593581 0.12387958 0.072973326 -0.05757904 -0.08512092 0.10212384 0.18939823 0.042896535
0.14752565 -0.07866352 0.08753709 -0.030752445 -0.06758471 0.05800421 -0.059049267 0.05404607
0.16200258 -0.05951495 0.063064784 -0.027401993 -0.02294743 0.09023338 -0.107650004 -0.032104447
0.046169046 -0.0712408 -0.109704934 -0.11358547 -0.010944887 0.0075414106 -0.04484026 -0.14399779
-0.053914305 0.0067798775 0.12847003 0.12592061 -0.033427995 -0.13014488 -0.05057166 -0.013343731
0.075524725 -0.077827506 0.0026960836 0.045465913 0.022791395 -0.015496488 0.0582563 -0.051049545
0.17964831 -0.070180714 -0.06914929 0.104037195 -0.038589228 -0.051694926 -0.16452195 -0.021094086
0.006942948 0.057021044 0.14227714 0.09496515 0.33569098 -0.0730401 -0.06960538 0.010717914
-0.3163861 -0.018812219 0.0031846608 0.16520979 -0.056124438 0.05240756 -0.1354549 -0.0057705496

network_body._body_endoder.seq_layers.2.bias f4 [128]
00000000: 1eb6 e23c db34 79bb 333d 62bc 5ea2 9e3c
00000010: a066 d63b 8ccf fbbb 586c 2abc 64de 2bbc
00000020: abcc 0bbd 1098 aabc b094 763c c2fe 663c
00000030: 35f9 c03b b6a5 363d d98b 93bc 5cf1 3cbb
00000040: 6716 843c 71a3 28bc e918 59bc 0d2d cc3c
00000050: 5173 89bc 0a7f 7f3b 87e3 57ba 4f83 213c
00000060: b802 2ebc 026a 443b d109 2ebc 37f7 0abd
00000070: 7997 aaba ef3a 853c cad4 11bc 990d a9bc
00000080: 92e0 bdbc 3081 d03c ec77 08bd d844 fbba
00000090: 9253 0abc 62dd 1dbd ab95 43bc 71c2 57bc
000000a0: a903 a0bb 1b57 97bc 376f 433c 0605 c63c
000000b0: fb55 a33c 0d76 f93c 3f53 8d39 6b13 413b
000000c0: 87ac f63c d5bb c6bc 5e25 cf3a 9d2e f0bb
000000d0: 4dc9 7cbc 921d a83c 49a9 9ebc f533 49bc
000000e0: d542 4d3c b73c 1c3b a89e 053c d08a e5bb
000000f0: 303a 2d3c 2903 f8bb 0dbe 4e3b 0162 45bc
00000100: 87a2 aebb cb04 96bc cb0f 103c 624a 9239
00000110: bc43 84bc ac21 843c f8e2 c5bb ab0b 78bc
00000120: b6a1 8139 7e9a 11bc dc6f d43c 655a 87bc
00000130: d35b 0c3c fe1b 2e39 c6ec 03bc 4797 bdbb
00000140: 329e 91bc 5a71 8bbc 8583 76bc cdb3 a63c
00000150: 3eda e03b 0db9 9e3c d668 d13c b187 bfbb
00000160: e17e 15bb 2568 92bc 496a 01bb 0d82 bab9
00000170: 7773 2a3d cc2d 413b 92ca e33b 8020 1fbd
00000180: e070 21bc be8e 3bba 17bf b43c c0cf 28bc
00000190: 3493 a3bc eea2 8cbc 646f 97bc b264 01bc
000001a0: fc45 1e3c 9de9 26bd 5a65 1c3d f3be e239
000001b0: 4185 c33a fca3 79bc cd41 e03c 42c9 44bc
000001c0: e1b1 a7bb 868f a53c 5ea3 e4bc c217 99bc
000001d0: c208 8d3c 4e0e 7d3c d0c2 923b 8ade adbc
000001e0: b50e 8abb 7341 4bbc 67a0 9bbb d79f 303c
000001f0: d06a 2dbc d629 e3bc 2c63 03bd c029 e63b
0.02767473 -0.003802589 -0.013808536 0.019364532 0.0065429956 -0.0076846536 -0.010401808 -0.010490034
-0.034130733 -0.020824462 0.015050098 0.014098825 0.005889083 0.044591628 -0.01801102 -0.0028830385
0.016123964 -0.010292874 -0.013250568 0.024923826 -0.01677862 0.0038985633 -0.00082355033 0.009857967
-0.010620765 0.0029970412 -0.010622458 -0.03392717 -0.0013015113 0.016263453 -0.0089008305 -0.020636367
-0.023178373 0.025452226 -0.03331749 -0.0019170297 -0.008442776 -0.038541205 -0.011937539 -0.013168917
-0.004883249 -0.018474152 0.011928371 0.024172317 0.01993846 0.030451799 0.0002695564 0.0029461037
0.030111564 -0.024259487 0.0015803983 -0.0073297755 -0.015428853 0.020521913 -0.01936783 -0.012280454
0.012528141 0.00238399 0.008155502 -0.007005073 0.010572955 -0.007568736 0.0031546385 -0.012047292
-0.0053294334 -0.018312832 0.008792828 0.0002790271 -0.01614558 0.016129337 -0.0060390197 -0.015139501
0.0002472528 -0.008886931 0.025932245 -0.016522596 0.0085668145 0.00016604361 -0.008052057 -0.005785856
-0.017775629 -0.017021824 -0.015046005 0.020349408 0.006861954 0.019375348 0.025562685 -0.005845033
-0.0022811221 -0.017871926 -0.0019747189 -0.0003557358 0.041614022 0.002947676 0.0069516385 -0.038849354
-0.009853572 -0.0007154754 0.022063775 -0.010303438 -0.019967653 -0.017167535 -0.018485732 -0.007897543
0.00966024 -0.040750135 0.038182594 0.00043248347 0.0014917032 -0.015236851 0.027375126 -0.012010874
-0.0051176404 0.020210039 -0.02790993 -0.018688086 0.01721609 0.015445305 0.00447879 -0.021224279
-0.004213179 -0.012405741 -0.004749346 0.010780296 -0.010584548 -0.02772991 -0.032077 0.00702402

action_model._discrete_distribution.branches.0.weight f4 [2, 128]
00000000: 8a37 093c 93df 283d 3bc8 26bd 75e5 8dbc
00000010: ebcc 2d3d 01df 9fbc e211 933c c548 31bc
00000020: 9cac 40bc 7832 973b 72cf 29bc 9910 dcbc
00000030: b84b 383c 8855 113b a65d 353c b634 333c
00000040: 77b3 303c 3289 4abc 2be5 e6bc 5e3c 6cbd
00000050: 9f47 13bc 3d7d 8f3b afa5 2dbc 2b7f bfbc
00000060: a6ee 07bd 960d 06bd 862d 08bc af86 11bc
00000070: 13db b83b 3f34 993d 0c92 f73c e7dc b9bc
00000080: d4db 69bd f24a 9d3d 5114 85bb f72c 9a3b
00000090: c3c1 15bd 77c7 81bc 9105 38bd 0ad6 10bc
000000a0: 349b 603c 296e e23b 0ff6 fdbb 8e5f 093b
000000b0: b8f6 81bc 9946 653c bf83 3bbc 4622 4dbd
000000c0: 70e1 d83c 30a9 b2b8 fe04 ae3c 5118 ccb8
000000d0: 48f6 80bc 213a 89bc f2a7 dbba b1bc 813c
000000e0: 7d2c 363c b570 5a3b df48 023d 227d 22bc
000000f0: cc45 5c3b 7a64 4abd c95b 0ebd 139b e23c
00000100: d433 c83a c326 41bd 4b6e e5bc dcf3 d9bc
00000110: 5d2f 62bc fa0d 1c3d f060 76bb fa2c aebc
00000120: 068a 51bd f597 793c 02cc 07bd 648b 30bd
00000130: 26b1 943b f838 43bd e332 a5bc 07b4 073d
00000140: 5f87 38bc 07ce 88bc bb6c d938 c844 6dbc
00000150: 8eea 1f3d 6eb4 c7ba b919 0d3d 3958 72bd
00000160: 49c9 573c c8e4 b6bc eea9 0e3c 9c32 1f3c
00000170: 71aa fd3c 1694 f0bb b7f2 d6bb 6761 65bc
00000180: 7166 b33c 7cc8 5e3c 91e1 91bd 11f2 10bc
00000190: d861 27bd ee85 823c bf3f 46bd c9bf 9e3a
000001a0: 6e5e 253c 9b43 ffbb 5888 913b a4d9 7ebd
000001b0: d73a 173c c42b 0abd 86db 003d ad08 58bc
000001c0: c6b1 5c3d 05f2 7f3c a719 173d 0f6d 32bd
000001d0: 61a1 cabc a148 bc3c b752 883c f6ac 8abc
000001e0: f25a 21bc bf2f 663c d2d5 99bc 6a5f b43c
000001f0: 5b47 193b 8e09 5cbc d287 1b3d ca73 af3c
00000200: 89c3 88bc 8385 54bc 5cc7 af3c 4258 ae3c
00000210: 680e 0fbd b4b3 e73c 18d2 52bc 3507 c3bb
00000220: d919 e53c dadd 4f3a 1c99 803b aa4e de3c
00000230: 55b2 96bc 77e9 84bc fe56 17bc ebd7 253c
00000240: dd71 c5bc 57ec da3c 534c 4f3c a8a6 483d
00000250: 469e 3dbc e6b5 9ebc 64e7 9c3c 3ded 013c
00000260: 4ea2 ce3c 0d94 a13c 65ef 4d3b beba 313c
00000270: 3d4d 213c 55bf 91bd b86c 1cbc eb61 273b
00000280: c2d0 693d 9112 88bd 6da8 0bbc adb5 2bbb
00000290: 19a3 213d de8b 263c a023 443d 1bc3 9f3c
000002a0: 9a40 e8ba 395c 17ba 2074 8aba 8f8c 8f3c
000002b0: b42b 5c3b 15c3 26bc a651 f13b 7dc7 4a3d
000002c0: ab00 eebc f126 98bc ed23 1bbd 9561 89bc
000002d0: ffc5 9f3c 9637 fe3c c808 793c 89c7 6fbb
000002e0: 94e1 77bc 5b7d 15bc 9e69 82bc 414b c0bc
000002f0: e7e5 bb3b 8118 543d 4f8a e53c 65a4 19bd
00000300: 86da 17bb a491 553d a276 2a3d 813e 203d
00000310: c598 a63c abce 19bd af0f 4abc 4a89 383d
00000320: 52ba 073d bef7 de3b cbf8 dc3c 17e0 953c
00000330: bcea 163a 410f 103d ee99 373d 42cc 45bd
00000340: 2778 a63b 4564 3d3c 0a12 f3bb 293d aa3c
00000350: ecb1 00bd 3b3d 86bc c9ad e6bc 8c00 203d
00000360: 2abc f0bc 9811 c93c 0704 92bc 61a0 2dbc
00000370: ba64 aabc ce00 963c d4b2 7c3a d603 c23c
00000380: c9f9 0bbd 6766 c83a e56d 723d d5cf 99bc
00000390: 2188 073d 2492 2f3c dfa7 1a3d 59bd 133c
000003a0: 7c91 99bb bb07 053b 425d b73c 2fa7 743d
000003b0: 0691 1abc cfbb fa3c c92a a3bc 7f7d a33b
000003c0: ab3d c1bc a732 f8bb e4be b8bc 5367 6e3d
000003d0: 6eea 023d f3a5 ddbc b958 ecbb c755 8c3c
000003e0: d32f 613c 5784 f9bc 1a80 d53c 14b0 66bc
000003f0: fb92 d7bb 85a2 293c 49d2 90bb 38a8 a3bc
0.008375058 0.041228842 -0.0407183 -0.017321328 0.042431753 -0.019515516 0.017952863 -0.010820572
-0.011759903 0.0046141706 -0.0103644 -0.026863383 0.0112485215 0.0022176225 0.011069691 0.01093786
0.010784975 -0.0123618115 -0.028185448 -0.057674758 -0.008989244 0.0043789432 -0.010598584 -0.023376068
-0.033186577 -0.0327278 -0.008311635 -0.008882209 0.00564135 0.07480668 0.030221008 -0.022688342
-0.05709441 0.0768031 -0.00406126 0.0047050673 -0.03656174 -0.015842183 -0.044927184 -0.008840093
0.013708878 0.006910105 -0.0077502797 0.0020961496 -0.015864715 0.013993883 -0.011444985 -0.050081514
0.026474684 -8.519215e-05 0.021242615 -9.732007e-05 -0.015742436 -0.01675135 -0.0016758426 0.015837045
0.011119005 0.0033331339 0.031807777 -0.009917529 0.0033610938 -0.04941223 -0.034755502 0.027661836
0.0015274235 -0.047156107 -0.028006693 -0.026605539 -0.013805238 0.038099267 -0.00375944 -0.02126168
-0.05115702 0.015233983 -0.03315354 -0.043101683 0.0045377193 -0.04766175 -0.020165866 0.03313067
-0.011262744 -0.016699804 0.00010367619 -0.014481731 0.03904205 -0.0015236267 0.03444836 -0.059166167
0.013170549 -0.022325888 0.008707507 0.009716656 0.030965062 -0.007341872 -0.0065596956 -0.014000273
0.021899434 0.013597604 -0.071231015 -0.008846776 -0.040864795 0.015933003 -0.048400637 0.00121116
0.010093315 -0.0077900416 0.0044413023 -0.062219277 0.009230337 -0.033733144 0.031459354 -0.013185662
0.053880475 0.015621667 0.0368897 -0.043561038 -0.024735155 0.02298385 0.016641004 -0.016928177
-0.009848343 0.0140494695 -0.018778715 0.022018153 0.0023388478 -0.013430012 0.037971325 0.021417517
-0.0166948 -0.012971285 0.021457367 0.021282319 -0.03492585 0.028283931 -0.012867473 -0.005951787
0.027966427 0.0007929482 0.003924502 0.02713712 -0.018395582 -0.016224606 -0.009237049 0.01012228
-0.024102146 0.026724024 0.012652474 0.04898706 -0.01157338 -0.019373845 0.019153304 0.007930097
0.025223877 0.019723916 0.0031423208 0.010847745 0.009845075 -0.07116572 -0.009547405 0.0025540541
0.057083853 -0.06644166 -0.008524043 -0.0026200817 0.039462183 0.010165183 0.047885537 0.019502213
-0.0017719448 -0.0005773935 -0.0010563172 0.017523078 0.0033595385 -0.010178347 0.0073644696 0.049506653
-0.029053053 -0.018573256 -0.03787606 -0.016770164 0.019503592 0.031032365 0.0151998475 -0.0036587438
-0.015129466 -0.009124125 -0.015919503 -0.023473384 0.0057341936 0.05178118 0.028020052 -0.037510294
-0.0023171022 0.052140847 0.041617043 0.03912211 0.020336518 -0.03755061 -0.012332841 0.045052804
0.033136673 0.0068044355 0.026974102 0.01829533 0.0005757024 0.035170797 0.044824533 -0.0482905
0.0050802412 0.011559551 -0.007417922 0.020781117 -0.03141968 -0.016386619 -0.02815904 0.03906302
-0.029386599 0.024544522 -0.017824186 -0.010597319 -0.020799983 0.01831093 0.00096396846 0.02368347
-0.03417376 0.0015289307 0.059186835 -0.01877586 0.033088807 0.010715995 0.03775775 0.009017312
-0.0046865325 0.0020298797 0.022383336 0.05972975 -0.00943399 0.030607132 -0.019917862 0.0049893255
-0.023588976 -0.0075743976 -0.022551961 0.058204006 0.03196185 -0.02705667 -0.007212725 0.017130746
0.013744312 -0.030458612 0.02606206 -0.014080066 -0.0065788007 0.010353689 -0.004419599 -0.019977674

action_model._discrete_distribution.branches.0.bias f4 [2]
00000000: 3917 b53c 3117 b5bc
0.0221058 -0.022105785

action_model._discrete_distribution.branches.1.weight f4 [3, 128]
00000000: efee f1bc 2399 5fbc 9d31 40bc 5f5f 93bd
00000010: 6a15 99bc 4dce 76bd 9a76 5a3c 7fd3 173d
00000020: 4819 523c d52a 53bd 0a87 acbc 4a7e 98bc
00000030: daf5 6839 561c c1bc 4052 41bd 60d1 f23c
00000040: 46d0 8cbd 18e0 843d a232 2abd 9440 093d
00000050: 1fde 27bd 2cbf c43c f00b 353d 6f5c 4e3d
00000060: 032f 4e3d c864 c5bc 8cfe a83c 2601 53bc
00000070: 55c9 0c3d 66ab e7bb eef7 07ba 86f4 84bc
00000080: ba18 df38 1c0a 40bd 914a 353c bb73 9e3b
00000090: c81d 08bd 591d a43c c1eb 74bc a501 f83b
000000a0: f1c5 53bd 4657 abbb 8e43 8139 e239 8e3c
000000b0: 7a34 22bd 2c1e c63c b961 5abc e367 d6bc
000000c0: d482 06bd a3e9 6abc af6f 113c 5041 b0bb
000000d0: 7110 3cbd c439 f53b 6cdc 19bd ab04 57bc
000000e0: bbab e9bc 8e3a f1bc 19fa 113d 7161 b33c
000000f0: d9fd 48bc e53e 9ebc af0d a0bd 21e4 0b3b
00000100: 004b 7fbc a9a1 7cbc 2be4 debc e8d9 283d
00000110: ad13 943c 7919 06bd d178 a0bc 6eca b8bc
00000120: 4ca6 17bd 8f1e 07bd aa80 0bbb 2a0f f73c
00000130: 993f 3cbd 35fc 323d 0698 a2bc 24ea aebc
00000140: a0e4 f23c 038c 203d 99cf 04bd e7ef c7bc
00000150: 8f57 4dbd 5c02 9dbc 4993 41bd cba3 a5bc
00000160: f693 1abd 6f4d 633c 9992 0cbd a1b9 7dbd
00000170: 2dd1 9d3c 971f b13a f693 b6bc c86e 20bb
00000180: 1150 c6ba c97b 043d b2ce 633c 1369 a3bc
00000190: bea5 3c3d cf67 2e3d f9a3 0d3d b235 043d
000001a0: 1fb4 a0bb dcb9 62bc 2f6c 1f39 1e1f 6dbc
000001b0: 9672 913c ae89 52bc 1f1c 19bb c573 4c3c
000001c0: f9b8 b7bc 50df 1d3d 30fe 7abc 0a9f ca3c
000001d0: e3c0 163d ff1b 63bb c435 adbc bb16 a53c
000001e0: 9b5b 973c 944b db3b 2121 50bc f6bf 33bd
000001f0: 3cb1 2ebb f2f8 093c beac 49bc c802 2d3d
00000200: 86a4 5abd c7cc f13b 3cfe dcbc 901f d7bb
00000210: a765 e1ba 479d d83c 6ff9 4f3b ad04 2d3d
00000220: a2b6 853c 2e78 bf3d 8f57 afbc 336f 8abc
00000230: 4328 c1bc 65a3 29bd 9c35 023c ee4f 59bd
00000240: 5173 503c 0c85 71bb f8bf 6a3c 0504 db3c
00000250: 67e2 34bc 6173 a4bc ef67 913c 267b 97bd
00000260: 6b65 d4bc 2b9f efbc fdbd 363d 0b58 663c
00000270: 0af5 eabc b024 953c 6166 7c3c ecfd 373d
00000280: 6456 c53a 3587 2d3c a97d b13c 1960 753d
00000290: edc1 c33b 25df 8d3c 5cf9 10bd 6805 f63c
000002a0: b4a4 603d 1da9 5a3d 7a26 5dbc 9a0a 0b3d
000002b0: ed16 47bd e1a1 a4bd ac77 793b ecbc b83c
000002c0: 9a15 0ebd f8f6 213b 855a cd3b 814e 373d
000002d0: 7299 093d d3c4 34bd 2e0c 1f3d cea0 8c3c
000002e0: e7fd a53d 4be0 0b3d 194f 0a3d cbbf b33a
000002f0: 38dd 173d 2fe7 9e3d e149 383d f244 da3c
00000300: 0114 d43c 0754 453d fc2f 6c3d c2ce 55bd
00000310: 2e5d c43c e072 b13c bae0 d53c edc5 8e3c
00000320: f766 333c 670a 69bc 8a83 d4bc 3923 a4bc
00000330: 5ce7 bbbb f923 5dbc 3ddb e9bc c2ba 003d
00000340: 06df 943b 158e bfbc ce3c 703d 1254 0bbd
00000350: ec1b 853d f992 2abd 2481 afbc 9425 673d
00000360: f7d2 e93c 99c1 073d 2b80 653d 4f37 373d
00000370: 2b19 bfbd 5538 c7bc c4c3 ddbc 606e 1ebc
00000380: 294f 113c 531a 4cbd 3158 22bd 8026 00ba
00000390: ceb2 83bc cae5 68bb fc4b 5c3c 3ba9 9dbc
000003a0: b5f3 60bd 6e6f ad3c f812 60bd 7127 193c
000003b0: 4afd f5bb 2ffa 6bbc 4c80 05bd 11bd 7c3c
000003c0: 6c34 6c3d 14d3 2fbd cc41 053c 79ee 2ebc
000003d0: 7d44 b7bb f21e 26bc 0f86 7c3d 558f 603c
000003e0: ad6d 0e3d a4be 533c b828 613c a36c ff3c
000003f0: 8824 abbb 3920 013d e55b 553b 1246 45bd
-0.029532878 -0.0136473505 -0.011730579 -0.07195925 -0.018686969 -0.060255338 0.013333941 0.037066933
0.01282341 -0.05155452 -0.021060485 -0.018614907 0.00022216831 -0.023573082 -0.04719758 0.029640853
-0.068756625 0.06488055 -0.041552193 0.033508852 -0.040983316 0.02401694 0.044200838 0.05038112
0.050337803 -0.024095908 0.02062919 -0.012878692 0.034371693 -0.007069993 -0.0005186786 -0.01622988
0.00010638074 -0.04688464 0.011065141 0.0048355735 -0.033231527 0.020033525 -0.014948786 0.0075685554
-0.051702444 -0.0052289097 0.0002465513 0.017361585 -0.039600827 0.024184309 -0.013328963 -0.026172584
-0.03283961 -0.01433793 0.008876725 -0.0053788796 -0.045914117 0.007483693 -0.037563726 -0.0131236715
-0.02852427 -0.029446866 0.035638902 0.02189705 -0.012267553 -0.0193171 -0.0781511 0.0021345692
-0.015581846 -0.015419402 -0.027208408 0.041223437 0.018075788 -0.032739136 -0.01958886 -0.022557463
-0.037023827 -0.032988127 -0.0021286407 0.030158598 -0.04595909 0.043697555 -0.019847881 -0.021351881
0.029650033 0.039196026 -0.032424543 -0.024406387 -0.05013233 -0.019166164 -0.047259603 -0.020219704
-0.037738763 0.013873442 -0.034319494 -0.061944608 0.019264782 0.0013513443 -0.02228735 -0.0024480093
-0.0015130063 0.032344613 0.0139042605 -0.019947564 0.0460565 0.04257947 0.034580205 0.03227777
-0.0049042846 -0.013838258 0.00015203723 -0.014472751 0.017754834 -0.012850208 -0.0023362709 0.0124787735
-0.022427069 0.038543046 -0.015319392 0.024734039 0.036805045 -0.0034654138 -0.021143802 0.02015244
0.018476298 0.006692359 -0.012703211 -0.04388424 -0.0026655933 0.00842117 -0.012309251 0.04223898
-0.053379558 0.0073791477 -0.026976697 -0.006565042 -0.0017196432 0.026442183 0.0031734367 0.042240787
0.016322438 0.09349094 -0.021404056 -0.016898727 -0.023578769 -0.04141559 0.007947352 -0.053054743
0.012722806 -0.0036852984 0.0143279955 0.026735315 -0.011040307 -0.020074548 0.017749755 -0.073965356
-0.025927266 -0.029250702 0.04461478 0.014059077 -0.028681297 0.01820597 0.015405268 0.044919893
0.0015055654 0.010591318 0.021666365 0.0599061 0.0059740455 0.017318318 -0.035394058 0.030031875
0.054844573 0.053383935 -0.013497943 0.033945657 -0.048605848 -0.080386885 0.0038065715 0.022551022
-0.03468857 0.0024713855 0.0062668943 0.0447526 0.033593602 -0.04413302 0.038829975 0.017166521
0.08105069 0.03414945 0.03376684 0.0013713775 0.037076205 0.077589385 0.04499233 0.026644204
0.025888445 0.048175838 0.05766295 -0.052199133 0.023970213 0.021661222 0.026108135 0.017428363
0.010949842 -0.0142236715 -0.025941629 -0.020036327 -0.0057343673 -0.013497346 -0.028546924 0.031428106
0.004543188 -0.02338318 0.058651738 -0.034015723 0.06499466 -0.04164407 -0.021423884 0.05643232
0.028542979 0.033143613 0.056030434 0.04473048 -0.09330972 -0.024318853 -0.027070887 -0.00966987
0.008868971 -0.049829792 -0.039634887 -0.00048885494 -0.016076472 -0.0035537356 0.01344585 -0.019245734
-0.054919917 0.021171298 -0.05470559 0.0093477825 -0.007507001 -0.01440291 -0.032593057 0.015425936
0.05766718 -0.04292591 0.008133363 -0.0106769735 -0.0055928812 -0.010139214 0.061651286 0.013706048
0.034772564 0.01292387 0.013742618 0.031179732 -0.0052228607 0.03152487 0.0032555994 -0.048162527

action_model._discrete_distribution.branches.1.bias f4 [3]
00000000: 807c 0d3a 2559 0dbc 1ddd 263c
0.0005397275 -0.008627211 0.010184553

action_model._discrete_distribution.branches.2.weight f4 [1, 128]
00000000: 2390 d73b 13c0 203c 6882 acba 2c58 803a
00000010: 635d 053c b137 9d3a 7166 aa3b bb86 9d3b
00000020: 3400 84bc 87ff f4bb 33d8 84bb 0e0f 3e3c
00000030: c768 05bc 16cc 88ba d786 56bb 46ff 8cbb
00000040: 754a e739 da3e 753b cb59 263c bb93 f2bb
00000050: 2250 663a ffe2 a73b f3c6 b33b 84aa acbb
00000060: ffa4 60bc ad39 333c 7fc0 7a3b be1d 27bc
00000070: 2f37 3c3a 2dea 4b3b f692 293b 451d c93b
00000080: d7c8 ad3b c83a 223c 9be3 043c 8f6a 463b
00000090: 7dd2 dc3a 8463 3a3c f121 baba 6a62 573c
000000a0: c053 07bb 6dba 8dbb 2f36 0cbc 4803 27bc
000000b0: 925e 8e3a f050 6c3b 8106 8b3c d585 373a
000000c0: 7d1a 0c3c dfc7 733b 0b01 043c cf8e 35bb
000000d0: afd3 a0bb c39c 97bb daf2 41bb 16c6 b33b
000000e0: 8f35 983b af72 053c bf08 033b aae0 19bc
000000f0: c333 a13b 40c2 d5ba b8a4 11bb 03fe c6bb
00000100: 9bce a33c 5275 e0bb 1238 943b 57ae 3dbb
00000110: 9af1 bb3b 6da5 7fb9 da0c 7fba ff64 6abc
00000120: 81fb 963c 29f1 8c3b 874c fdbb 1405 b33b
00000130: b1c6 0e3a ff88 3abc 7859 1cbc 7283 87bc
00000140: 67a5 2ebb 5a69 333b b439 9bbb 0bc5 943c
00000150: 938b 8d3b 7691 85bb b79e 443c e33f fb39
00000160: b3fb b33a 607f 09bc b556 063b e081 84bc
00000170: 989b 55bb c565 babc 0729 12bc cb36 b93a
00000180: 27c0 39ba c578 f53b da42 1d3b 6907 133a
00000190: b222 0bbc 4bc7 51bb 7527 8c3b 377e 2a3b
000001a0: 1597 73bc dfab aa3b 2f00 753b 0859 f5ba
000001b0: cb4d 8fbb f564 6ebb ef02 55bb 5088 c83b
000001c0: e5fe f23b fb3d 833c 332a c4bb 5952 483c
000001d0: 7e36 0c3c ba7c 10bb 2a99 c6ba cc1a a3bb
000001e0: ff30 153c 07b1 3b3a 1482 c4bb 9b8c 56bb
000001f0: ab9e 09bc 6f70 9abc 9125 853b 9d5c edbb
0.0065784617 0.009811419 -0.0013161423 0.0009791902 0.008139941 0.0011994747 0.0052002002 0.004807321
-0.016113378 -0.0074767503 -0.0040540933 0.011600269 -0.008142657 -0.0010436799 -0.003273418 -0.004302892
0.00044115228 0.0037421496 0.010153244 -0.0074028648 0.00087857444 0.0051234956 0.005486363 -0.0052693505
-0.013711213 0.010939044 0.003826171 -0.010199962 0.0007179854 0.0031114921 0.002587495 0.0061375224
0.005303483 0.00990171 0.008110906 0.0030275916 0.0016847398 0.011376265 -0.0014200789 0.013146022
-0.0020649284 -0.004325202 -0.00855784 -0.010193653 0.0010861924 0.0036058985 0.016970875 0.00070008385
0.008551237 0.003719799 0.008056889 -0.0027703529 -0.004908047 -0.0046268417 -0.0029594214 0.00548626
0.0046450566 0.0081450185 0.0019994227 -0.009391943 0.0049195006 -0.0016308501 -0.0022223424 -0.006072761
0.019995978 -0.006849923 0.0045232857 -0.0028943026 0.0057355883 -0.00024380321 -0.0009729393 -0.014306306
0.018430473 0.0043012095 -0.00773007 0.005463252 0.00054464774 -0.0113852015 -0.009542815 -0.01654217
-0.002664888 0.0027376027 -0.0047371034 0.018160364 0.004319617 -0.004076178 0.012000731 0.0004792205
0.0013731628 -0.008392185 0.0020498459 -0.01617521 -0.0032593962 -0.022753606 -0.0089209145 0.001413071
-0.0007085823 0.0074912035 0.0023996145 0.0005608709 -0.008492159 -0.0032009657 0.0042771646 0.0026015171
-0.014867564 0.005208477 0.0037384143 -0.001871855 -0.0043732873 -0.0036376093 -0.003250297 0.0061197653
0.0074156397 0.016020766 -0.005986476 0.012226664 0.008557914 -0.0022047 -0.0015151848 -0.0049775597
0.00910592 0.0007159863 -0.005996952 -0.0032737616 -0.008399646 -0.01885244 0.004063316 -0.0072437064

onnx::Div_94 f4 [150]
00000000: d88a 993e fc28 ac3e 7279 033b 935a 103e
00000010: c860 973d 6d20 8b3d e88b 643d 5bdb 4b3d
00000020: e2dd ef3e bdd4 b83e d5e4 9a3e 949f a03e
00000030: 7279 033b 4d97 093e 197a 983d 65d3 8a3d
00000040: 44a1 6a3d b22b 5c3d 3fef eb3e c80e b33e
00000050: 0082 963e 95ea 9d3e 7279 033b c2a0 0b3e
00000060: 456f 9a3d 0411 8b3d f9fb 553d 5740 543d
00000070: 925f e83e 1f18 b03e 5e8e 983e c81a 8e3e
00000080: 7279 033b 05c3 023e 4ff9 9a3d 6675 833d
00000090: 8664 713d 8c2f 623d 295e e33e 1725 a63e
000000a0: 1735 943e 44a4 893e 7279 033b 41eb 063e
000000b0: 3203 933d c176 8a3d 1422 653d 7809 623d
000000c0: c930 df3e 4603 a33e 03af 923e 652c 783e
000000d0: 7279 033b 55d7 ff3d 8536 a03d be8a 863d
000000e0: c680 7e3d a270 6f3d 2e0c db3e 132b 963e
000000f0: 0a52 943e 16f8 6e3e 7279 033b c29f fe3d
00000100: 7367 9b3d de19 8a3d 8f0e 7b3d 8eab 713d
00000110: 501c d93e e3a8 923e 3b78 8b3e 0a5b 643e
00000120: 7279 033b cc2f f43d 8f9c a13d d6fa 893d
00000130: 3f28 843d 4ec5 6b3d e17f d43e 1104 893e
00000140: 5479 943e 6b28 593e 7279 033b 2052 f43d
00000150: fab9 a43d f1ef 953d fd4a 863d 7b27 743d
00000160: 9842 d63e b291 873e a2a3 823e ee00 603e
00000170: 7279 033b c70a e93d f588 9f3d 19e8 9e3d
00000180: ef7e 803d 3075 6e3d be3d cf3e 6c3b 823e
00000190: fe89 923e 1030 543e 7279 033b 5a96 f13d
000001a0: 9482 a93d d3fd 963d b082 8e3d c09a 733d
000001b0: 77b2 d53e 14c0 823e f947 7a3e 6558 613e
000001c0: 7279 033b ff49 e33d f161 a53d 1e82 a33d
000001d0: 050c 793d c60e 6a3d 6570 cd3e e219 7f3e
000001e0: b037 8d3e b467 5b3e 7279 033b 2785 e73d
000001f0: 8188 b43d d1b9 9b3d a524 903d 25dc 6f3d
00000200: 0cda d53e 1a13 813e be11 753e 01d3 573e
00000210: 7279 033b b9f2 e43d 1a7f b23d 6a67 9b3d
00000220: 70d7 873d 0316 723d 23ec cc3e 7d00 793e
00000230: 1309 843e 93e8 5b3e 7279 033b 67b0 e83d
00000240: 581e b43d 0e0b a13d 2df7 8b3d fb0a 683d
00000250: 0727 d23e 8f3d 7d3e
0.29988742 0.3362502 0.00200614 0.14097051 0.073915064 0.06793294 0.055797487 0.04976974
0.4684897 0.36099806 0.3025271 0.31371748 0.00200614 0.13436623 0.07445163 0.067786016
0.0572827 0.05375261 0.46080968 0.34972215 0.29396057 0.30843034 0.00200614 0.13635543
0.07540754 0.06790355 0.052242253 0.05181917 0.45385414 0.34393403 0.29796118 0.27754807
0.00200614 0.12769707 0.07567083 0.06418876 0.058933757 0.055221125 0.44407776 0.32450172
0.28946754 0.26883137 0.00200614 0.1317568 0.07178344 0.06760932 0.055940703 0.05518481
0.43591908 0.31838435 0.28649148 0.24235685 0.00200614 0.12492243 0.07822899 0.06569432
0.062134527 0.058457024 0.4278273 0.29329738 0.2896884 0.23336825 0.00200614 0.12432815
0.07588091 0.06743215 0.06129318 0.059001498 0.42404413 0.28644475 0.27240166 0.22300354
0.00200614 0.11923179 0.07891189 0.06737296 0.06452989 0.05756121 0.41503814 0.26760915
0.28998816 0.21206824 0.00200614 0.119297266 0.08043285 0.07321156 0.06557272 0.059607964
0.41847682 0.26478344 0.25515467 0.21875355 0.00200614 0.11379009 0.07789794 0.07759113
0.06274211 0.058217227 0.40476793 0.2543596 0.28620905 0.2072146 0.00200614 0.117962554
0.08276859 0.07372632 0.069585204 0.059473753 0.4173772 0.2553717 0.24441518 0.22006376
0.00200614 0.11098098 0.080753215 0.07983802 0.06080248 0.057142995 0.40124813 0.24912217
0.2758155 0.21426278 0.00200614 0.11304694 0.088150986 0.07603801 0.070382394 0.058559556
0.4176792 0.25209886 0.2393255 0.21076585 0.00200614 0.11179108 0.08715649 0.07588084
0.06632888 0.059103023 0.40023908 0.24316593 0.25788173 0.21475439 0.00200614 0.11361771
0.0879485 0.07863437 0.068342544 0.056651097 0.410454 0.24730514

onnx::Div_97 f4 [6]
00000000: 03b8 0342 c2e6 4942 8bc5 0342 0df1 4942
00000010: ecd8 0342 e2fa 4942
32.9297 50.47535 32.942913 50.4854 32.961838 50.495003
