Assets/Scene/FinalTest/ZooheimTest/Models/0606/GiraffeBehavior.onnx (onnx, 312857 bytes, 14 tensors)

discrete_act_size_vector f4 [1, 3]
2.0 3.0 1.0
00000000: 0000 0040 0000 4040 0000 803f

network_body.observation_encoder.processors.0.normalizer.running_mean f4 [450]
0.11363064 0.12675174 0.0 0.013287928 0.005099982 0.004852514 0.0029642293 0.0042015687
0.6380303 0.7979983 0.11260847 0.11138187 0.0 0.011071483 0.0049870075 0.004766438
0.0030126479 0.004233846 0.6612115 0.8202745 0.11393726 0.121759415 0.0 0.014891085
0.0059876353 0.0049439715 0.0031632797 0.004266124 0.63409764 0.79759175 0.110026196 0.08816837
0.0 0.012195844 0.004045555 0.0049332106 0.0033946063 0.004502832 0.6921075 0.8472119
0.11699299 0.08871708 0.0 0.015450576 0.005745549 0.005008527 0.003034168 0.0046373243
0.664251 0.8262617 0.105275914 0.071001664 0.0 0.011647113 0.0043522003 0.0048363768
0.0036904945 0.003959482 0.720889 0.86920565 0.12250713 0.0653314 0.0 0.014471467
0.0051645394 0.00471802 0.003916443 0.0050246683 0.6868622 0.8494856 0.099993 0.06723583
0.0 0.012470211 0.005422765 0.004804099 0.0041047325 0.003437647 0.7280334 0.8738055
0.12345401 0.059295367 0.0 0.016472723 0.005379728 0.005428145 0.0048417533 0.0046104304
0.6910531 0.8556877 0.09530185 0.07065194 0.0 0.015923994 0.0046588457 0.0052129566
0.004771819 0.0031310017 0.7233474 0.8702135 0.12172172 0.05687447 0.0 0.015660394
0.0055895387 0.0061813067 0.0051914346 0.0048578926 0.69357055 0.8587168 0.09321456 0.06338937
0.0 0.01677399 0.005686374 0.0047503025 0.0049977684 0.0031740386 0.7287324 0.8730951
0.11002086 0.05713809 0.0 0.015611971 0.0045458684 0.005594918 0.0052828947 0.00471802
0.708666 0.8641629 0.0922355 0.058628313 0.0 0.014326213 0.0054765623 0.0046696034
0.004900933 0.003410748 0.7332299 0.876307 0.09837372 0.059150122 0.0 0.015052483
0.0048578954 0.0051483987 0.00535821 0.003981 0.71848977 0.8671742 0.11370595 0.12678407
0.0 0.013304069 0.0051161204 0.0048525147 0.0029642293 0.0042015687 0.6387301 0.7987997
0.11270535 0.11140877 0.0 0.011076855 0.0049870075 0.004766438 0.0030126479 0.004233846
0.66190034 0.82108676 0.11402873 0.12178629 0.0 0.014891086 0.0059930175 0.0049439715
0.0031632797 0.004266124 0.6347971 0.79839504 0.11013385 0.0881791 0.0 0.012201231
0.004045555 0.0049332106 0.0033946063 0.004502832 0.692785 0.84803057 0.117111295 0.08873862
0.0 0.0154559575 0.005745549 0.005008527 0.003034168 0.0046373243 0.66496116 0.8270922
0.10538345 0.07101242 0.0 0.011668633 0.00435758 0.0048363768 0.0036904945 0.003959482
0.7216099 0.87003255 0.12260939 0.06534219 0.0 0.014487609 0.0051752967 0.00471802
0.003916443 0.0050246683 0.6875669 0.850291 0.10008444 0.067257345 0.0 0.012470212
0.005422765 0.0048040994 0.0041047325 0.003437647 0.72879153 0.8746524 0.123567015 0.059316896
0.0 0.016515769 0.005379728 0.005428145 0.0048417533 0.0046104304 0.6917252 0.8564933
0.095409445 0.07067884 0.0 0.015945511 0.0046588457 0.0052129566 0.004771819 0.0031310017
0.72403604 0.87102824 0.12182928 0.056890626 0.0 0.015692666 0.0055895387 0.0061813076
00000000: 2eb7 e83d 35cb 013e 0000 0000 9cb5 593c
00000010: c01d a73b d601 9f3b 8443 423b 50ad 893b
00000020: f455 233f 9e49 4c3f 459f e63d 2e1c e43d
00000030: 0000 0000 2a65 353c 0d6a a33b c82f 9c3b
00000040: d86f 453b 13bc 8a3b 2845 293f 82fd 513f
00000050: f057 e93d 005d f93d 0000 0000 bdf9 733c
00000060: ed33 c43b 0a01 a23b 074f 4f3b d8ca 8b3b
00000070: 3954 223f f92e 4c3f 6a55 e13d 9e91 b43d
00000080: 0000 0000 14d1 473c 9390 843b c5a6 a13b
00000090: 0b78 5e3b 7e8c 933b f52d 313f e1e2 583f
000000a0: 059a ef3d 4db1 b53d 0000 0000 6a24 7d3c
000000b0: 2945 bc3b 921e a43b e4d8 463b b2f4 973b
000000c0: 5b0c 2a3f e385 533f e69a d73d 5269 913d
000000d0: 0000 0000 88d3 3e3c e79c 8e3b 787a 9e3b
000000e0: 39dc 713b 8bbe 813b 2e8c 383f 4384 5e3f
000000f0: 05e5 fa3d 78cc 853d 0000 0000 bb19 6d3c
00000100: 4c3b a93b 9f99 9a3b 8155 803b f9a5 a43b
00000110: 33d6 2f3f e377 593f 21c9 cc3d f0b2 893d
00000120: 0000 0000 db4f 4c3c 73b1 b13b b46b 9d3b
00000130: fe80 863b 254a 613b 6660 3a3f b8b1 5f3f
00000140: 75d5 fc3d b3df 723d 0000 0000 cef1 863c
00000150: 6e48 b03b 95de b13b 92a7 9e3b 1813 973b
00000160: dbe8 303f 590e 5b3f 9e2d c33d f7b1 903d
00000170: 0000 0000 0973 823c 3ba9 983b 73d1 aa3b
00000180: eb5c 9c3b 7e31 4d3b 4c2d 393f 50c6 5e3f
00000190: 3d49 f93d 34f5 683d 0000 0000 3a4a 803c
000001a0: 7328 b73b 8f8c ca3b e91c aa3b f52e 9f3b
000001b0: d78d 313f ddd4 5b3f 46e7 be3d 49d2 813d
000001c0: 0000 0000 9b69 893c c354 ba3b 6da8 9b3b
000001d0: 52c4 a33b 8803 503b 358e 3a3f 2983 5f3f
000001e0: 9e52 e13d a109 6a3d 0000 0000 5ac9 7f3c
000001f0: 82f5 943b 9355 b73b 221c ad3b 9f99 9a3b
00000200: 236b 353f c839 5d3f f7e5 bc3d 3e24 703d
00000210: 0000 0000 7eb8 6a3c bc74 b33b 7903 993b
00000220: 0198 a03b db86 5f3b f4b4 3b3f a855 603f
00000230: 2978 c93d 6647 723d 0000 0000 b19e 763c
00000240: fb2e 9f3b e6b3 a83b ec93 af3b 0c73 823b
00000250: f2ee 373f 21ff 5d3f aade e83d afd3 013e
00000260: 0000 0000 4ff9 593c 21a5 a73b d801 9f3b
00000270: 8443 423b 50ad 893b d183 233f 237e 4c3f
00000280: 10d2 e63d 482a e43d 0000 0000 b27b 353c
00000290: 0d6a a33b c82f 9c3b d86f 453b 13bc 8a3b
000002a0: 4d72 293f be32 523f e587 e93d 176b f93d
000002b0: 0000 0000 bef9 733c 1361 c43b 0a01 a23b
000002c0: 074f 4f3b d8ca 8b3b 1082 223f 9e63 4c3f
000002d0: db8d e13d 3e97 b43d 0000 0000 ace7 473c
000002e0: 9390 843b c5a6 a13b 0b78 5e3b 7e8c 933b
000002f0: 5c5a 313f 8818 593f 0cd8 ef3d 98bc b53d
00000300: 0000 0000 fc3a 7d3c 2945 bc3b 921e a43b
00000310: e4d8 463b b2f4 973b e53a 2a3f 50bc 533f
00000320: 47d3 d73d f66e 913d 0000 0000 cb2d 3f3c
00000330: 08ca 8e3b 787a 9e3b 39dc 713b 8bbe 813b
00000340: 6dbb 383f 74ba 5e3f a21a fb3d 20d2 853d
00000350: 0000 0000 705d 6d3c 8995 a93b 9f99 9a3b
00000360: 8155 803b f9a5 a43b 6204 303f acac 593f
00000370: 12f9 cc3d 38be 893d 0000 0000 dc4f 4c3c
00000380: 73b1 b13b b56b 9d3b fe80 863b 254a 613b
00000390: 1592 3a3f 38e9 5f3f b410 fd3d 46f6 723d
000003a0: 0000 0000 144c 873c 6e48 b03b 95de b13b
000003b0: 92a7 9e3b 1813 973b e714 313f 2543 5b3f
000003c0: 0766 c33d 11c0 903d 0000 0000 29a0 823c
000003d0: 3ba9 983b 73d1 aa3b eb5c 9c3b 7e31 4d3b
000003e0: 6d5a 393f b5fb 5e3f a181 f93d 2506 693d
000003f0: 0000 0000 e88d 803c 7328 b73b 918c ca3b

network_body.observation_encoder.processors.1.normalizer.running_mean f4 [6]
404.56168 74.58529 404.86356 74.598854 405.16525 74.61228
00000000: e547 ca43 ab2b 9542 896e ca43 9d32 9542
00000010: 2795 ca43 7d39 9542

network_body._body_endoder.seq_layers.0.weight f4 [128, 456]
-0.104856625 0.05762061 -0.0146769155 0.0145112015 0.1266304 -0.090745315 0.08481396 0.0141355265
0.021869015 -0.0016235186 0.015651679 0.084678076 0.07815068 0.025598716 -0.062319353 0.03121575
-0.024945272 -0.027755 0.012079241 -0.03383293 -0.004081907 0.05107955 -0.00085789734 -0.048523735
0.11719441 0.020532124 0.081168935 0.02917645 0.04007689 0.022584125 0.06579367 0.023530971
-0.012420858 0.09692494 -0.0069766142 -0.018204082 0.011048688 0.06462123 0.06382362 0.036755934
-0.042550214 0.02061703 -0.036187984 -0.046479248 -0.023153951 0.03281696 0.17583127 0.056044783
0.053116355 -0.0127073135 0.043141335 -0.044068143 -0.031442616 -0.07012603 0.008848719 0.0127439145
-0.0036947632 -0.16194439 -0.056093168 -0.04452549 0.0008220948 0.07728492 -0.12152794 -0.07419961
0.05064324 -0.032145668 -0.04254902 0.063993774 0.015838424 0.05583699 0.0018960331 -0.026889177
0.049522378 0.12791735 0.054074448 -0.05163452 0.106164485 0.02449902 -0.051874965 0.03335161
0.059465386 -0.0062933317 -0.047780495 -0.017234378 -0.017242875 -0.012410905 -0.080922484 0.06343975
-0.03728832 0.0068090307 0.05934908 0.07436431 0.08345574 0.03291841 0.054226413 0.017813036
0.013530479 -0.0525809 -0.028189529 -0.094200775 -0.0050348025 0.1016816 -0.009129585 -0.097542934
-0.07465087 0.13943999 -0.016190844 -0.04034495 -0.013513399 0.01808801 -0.032331325 0.06584739
-0.004353988 -0.022523092 -0.021291673 -0.041209813 0.010168087 0.05043239 -0.0022177007 0.0042354106
-0.08605779 -0.046413068 -0.062240593 0.08786342 -0.008036324 -0.024660872 0.036145497 0.08319066
-0.033275206 -0.01894353 0.036402363 -0.017983917 -0.0304362 0.0737522 -0.06924509 -0.021419821
-0.03253667 0.1427698 -0.0065680137 -0.09486912 0.053418897 -0.009167159 -0.08217542 0.043811634
0.03251345 0.071475886 0.06273662 0.09906148 -0.03929975 -0.0029844258 0.013973202 0.025660155
0.0015961714 0.012239853 0.052155368 0.061844554 0.08142279 -0.1017352 0.04919001 0.07203252
-0.03451798 0.06884418 0.023817517 -0.13084383 -0.04925017 0.05062385 -0.042614914 0.07857977
0.0034231485 0.08729414 -0.011795219 0.011404664 0.036916357 -0.02308321 0.072121635 -0.029531637
0.11237224 -0.059545908 -0.029421648 -0.015417581 0.073935434 0.029756192 -0.054673344 -0.05192036
-0.036102727 0.036019314 0.021735065 -0.11794248 -0.014068922 0.024734389 0.059934914 0.10332872
-0.07272464 0.031796083 0.07385025 -0.06401617 0.0782932 -0.074706286 -0.008095616 0.010352731
-0.035546757 -0.09252064 0.07221163 0.06275579 0.08283771 -0.011706845 0.0040846374 -0.031227514
-0.025441794 -0.0381535 0.06940511 -0.051725537 -0.066672646 0.013350581 0.04748934 -0.098216385
0.022987312 0.036437158 -0.010231297 0.045253083 -0.0055985544 -0.00072031684 -0.005699193 0.10589918
0.03195518 -0.044757742 -0.018804189 -0.028642084 0.011428465 0.0051719495 0.024550913 0.061575584
0.013494301 -0.06381633 0.017321743 0.019554144 0.05553319 -0.05891723 0.026761258 -0.05617988
-0.0069547086 0.07185189 0.014802101 -0.07552527 -0.060155425 -0.024068885 -0.010233576 -0.099787645
-0.028424777 0.033926908 0.064367086 -0.092269465 0.0035746838 0.04316514 -0.002380498 0.010610529
00000000: 12bf d6bd 9703 6c3d 7277 70bc 64c0 6d3c
00000010: 66ab 013e aed8 b9bd f1b2 ad3d b298 673c
00000020: a626 b33c 3fcc d4ba f337 803c b36b ad3d
00000030: 770d a03d 66b4 d13c 9442 7fbd 2cb8 ff3c
00000040: 075a ccbc 745e e3bc 02e8 453c 6694 0abd
00000050: 85c1 85bb ca38 513d 84e4 60ba d3c0 46bd
00000060: 9f03 f03d fc32 a83c e63b a63d 7303 ef3c
00000070: aa27 243d 5802 b93c d5be 863d 06c4 c03c
00000080: db80 4bbc 9580 c63d 159c e4bb ba20 95bc
00000090: 8e05 353c 2358 843d f5b5 823d 648d 163d
000000a0: 2249 2ebd 0ce5 a83c da39 14bd 0661 3ebd
000000b0: 5bad bdbc 146b 063d 1d0d 343e 378f 653d
000000c0: 8990 593d 5632 50bc f8b4 303d cc80 34bd
000000d0: f9c9 00bd 3c9e 8fbd 38fa 103c dacb 503c
000000e0: d723 72bb c0d4 25be f3c1 65bd 5c60 36bd
000000f0: d981 573a 8e47 9e3d a4e3 f8bd f7f5 97bd
00000100: 496f 4f3d 2dab 03bd e247 2ebd 2b0f 833d
00000110: 95bf 813c 54b5 643d 5084 f83a b146 dcbc
00000120: fad7 4a3d c4fc 023e 2b7d 5d3d b87e 53bd
00000130: c46c d93d 2bb2 c83c d87a 54bd b39b 083d
00000140: fa91 733d 4b38 cebb 7bb5 43bd 1c2f 8dbc
00000150: ee40 8dbc 1c57 4bbc b0ba a5bd b3ec 813d
00000160: a3bb 18bd 4a1e df3b 0518 733d 514c 983d
00000170: d8ea aa3d 74d5 063d 841c 5e3d a5ec 913c
00000180: f1ae 5d3c 125f 57bd baed e6bc 56ec c0bd
00000190: fcfa a4bb 713e d03d 4194 15bc 97c4 c7bd
000001a0: 8ee2 98bd 5bc9 0e3e a9a2 84bc bf40 25bd
000001b0: 4e67 5dbc 4e2d 943c da6d 04bd ffda 863d
000001c0: e6ab 8ebb 5982 b8bc e06b aebc 9fcb 28bd
000001d0: 0c98 263c 3292 4e3d d856 11bb 33c9 8a3b
000001e0: 113f b0bd a11b 3ebd feef 7ebd bdf1 b33d
000001f0: c9aa 03bc 9905 cabc 4d0d 143d dd5f aa3d
00000200: 954b 08bd 762f 9bbc a51a 153d 0253 93bc
00000210: 5655 f9bc 650b 973d 5fd0 8dbd 9f78 afbc
00000220: 2c45 05bd 3f32 123e 7e38 d7bb be4a c2bd
00000230: c6cd 5a3d da31 16bc 964b a8bd d473 333d
00000240: d32c 053d f361 923d 0f7c 803d bfe0 ca3d
00000250: c6f8 20bd 5b96 43bb dbef 643c 3f35 d23c
00000260: a036 d13a aa89 483c dea0 553d b750 7d3d
00000270: fec0 a63d 8b5a d0bd 777b 493d c985 933d
00000280: ba62 0dbd 2dfe 8c3d f41c c33c edfb 05be
00000290: 8cba 49bd f45a 4f3d fa8c 2ebd 6eee a03d
000002a0: e756 603b 45c7 b23d bc40 41bc a1da 3a3c
000002b0: 9b35 173d 0019 bdbc 82b4 933d 55ec f1bc
000002c0: 6b23 e63d 69e6 73bd ab05 f1bc 069a 7cbc
000002d0: 766b 973d 42c3 f33c 28f1 5fbd 72aa 54bd
000002e0: 74e0 13bd fd88 133d bc0d b23c d48b f1bd
000002f0: 5681 66bc c69f ca3c 507e 753d 029e d33d
00000300: a8f0 94bd 9c3c 023d cd3e 973d e91a 83bd
00000310: 2f58 a03d 9cff 98bd 79a3 04bc 809e 293c
00000320: 7a99 11bd 767b bdbd b1e3 933d 1c86 803d
00000330: d1a6 a93d 11ce 3fbc 6cd8 853b d8d0 ffbc
00000340: 4f6b d0bc d846 1cbd 4424 8e3d 28de 53bd
00000350: ab8b 88bd 65bc 5a3c 2f84 423d ac25 c9bd
00000360: e34f bc3c 213f 153d 2ca1 27bc 4c5b 393d
00000370: 1474 b7bb a5d3 3cba 4cc0 babb abe1 d83d
00000380: 6fe3 023d e553 37bd 3e0b 9abc cea2 eabc
00000390: 753e 3b3c 7579 a93b ff1e c93c ae36 7c3d
000003a0: 3317 5d3c 23b2 82bd 54e6 8d3c 0330 a03c
000003b0: c576 633d 3253 71bd 6d3a db3c e01c 66bd
000003c0: 53e4 e3bb 1527 933d 8384 723c feac 9abd
000003d0: 8965 76bd 1c2c c5bc bbaa 27bc 775d ccbd
000003e0: 14db e8bc f1f6 0a3d e4d2 833d c6f7 bcbd
000003f0: 3e45 6a3b eecd 303d 2102 1cbb c9d7 2d3c

network_body._body_endoder.seq_layers.0.bias f4 [128]
0.009465825 -0.020181049 -0.028055739 -0.016242648 -0.003058547 -0.013154511 0.009248664 0.033379406
-0.023700379 0.0022100906 -0.004434998 -0.0076223663 -0.03596243 -0.014390447 -0.0023021812 -0.023833437
0.0030696217 -0.020135526 -0.032540888 -0.0026353658 -0.0025959606 -0.01561609 -0.018683298 0.0071702837
-0.0070794933 0.010548304 -0.018118529 -0.013006259 -0.029591648 -0.05244986 0.0054756063 -0.013476799
-0.013466722 -0.020703005 -0.01878799 -0.02052992 -0.009781106 -0.009666139 -0.0040277936 -0.01783094
-0.030551098 -0.010644318 -0.020881638 -0.041168116 -0.02464952 -0.032418244 -0.0006742512 -0.008024589
-0.007126597 -0.0045328396 -0.03260205 -0.018576404 -0.012499885 -0.00016408296 -0.026874956 -0.015845226
0.020723311 0.009269935 0.011667975 0.029425006 -0.021553788 -0.035448603 0.02836537 -0.017612679
-0.01703743 0.017686462 -0.0017824124 -0.016836952 0.010250789 -0.044166926 -0.011018382 0.008495916
-0.03984925 -0.005128738 0.0037098764 -0.015082798 0.0073812827 0.0051119435 -0.013913007 -0.018678483
0.013132077 -0.03441746 -0.013314786 0.0053073745 0.008622183 0.023991738 -0.025961202 0.0068592504
-0.025442421 0.018033246 0.00788961 0.0051600873 0.00157756 -0.023823854 -0.027064675 0.0048775794
-0.022602607 -0.0050772442 -0.020592859 -0.0101665305 -0.0045667877 -0.007132022 0.0065614725 -0.010145486
0.0045776353 -0.009539395 -0.027662883 -0.017652296 -0.012342143 0.00223154 0.015408183 -0.0115642175
-0.0043191942 0.0058174636 -0.02321363 0.0054936805 -0.020156456 -0.011618201 -0.0071883984 -0.010039308
0.0007699175 -0.02639934 -0.016391413 -0.013204112 0.022583265 -0.012105004 -0.0048697977 -0.022726526
00000000: 8c16 1b3c ba52 a5bc 26d5 e5bc 4d0f 85bc
00000010: e771 48bb 0586 57bc b587 173c d8b8 083d
00000020: 4c27 c2bc 2bd7 103b 7653 91bb 0bc5 f9bb
00000030: 574d 13bd e9c5 6bbc 31e0 16bb 573e c3bc
00000040: b52b 493b 42f3 a4bc 9849 05bd 1ab6 2cbb
00000050: fe20 2abb a1da 7fbc b70d 99bc b3f4 ea3b
00000060: 18fb e7bb cbd2 2c3c 4f6d 94bc 3418 55bc
00000070: 2f6a f2bc aad5 56bd b76c b33b cbcd 5cbc
00000080: 87a3 5cbc 5999 a9bc 45e9 99bc 5d2e a8bc
00000090: ef40 20bc ba5e 1ebc 95fb 83bb 3112 92bc
000000a0: 4c46 fabc 8165 2ebc f80f abbc e69f 28bd
000000b0: caed c9bc fec8 04bd 3bc0 30ba 9179 03bc
000000c0: 3b86 e9bb 3788 94bb ba89 05bd 8b2d 98bc
000000d0: 51cc 4cbc af0d 2cb9 de28 dcbc d9cd 81bc
000000e0: efc3 a93c ede0 173c 092b 3f3c b60c f13c
000000f0: 9291 b0bc 8e32 11bd 7e5e e83c 7748 90bc
00000100: 1592 8bbc 33e3 903c d69f e9ba a6ed 89bc
00000110: edf2 273c 61e8 34bd 7286 34bc 7432 0b3c
00000120: f838 23bd f90e a8bb 6621 733b d71d 77bc
00000130: b0de f13b 1782 a73b 62f3 63bc 9e03 99bc
00000140: ec27 573c 53f9 0cbd 4326 5abc 7ce9 ad3b
00000150: 0f44 0d3c 528a c43c 96ac d4bc 90c3 e03b
00000160: a06c d0bc 75ba 933c 6c43 013c f315 a93b
00000170: 21c6 ce3a 3e2a c3bc bdb6 ddbc 1ad4 9f3b
00000180: 1a29 b9bc 035f a6bb 5bb2 a8bc 8591 26bc
00000190: fea4 95bb bdb3 e9bb 9f01 d73b 4139 26bc
000001a0: fdff 953b 1f4b 1cbc 459d e2bc 8c9b 90bc
000001b0: b336 4abc 073f 123b 9b72 7c3c d877 3dbc
000001c0: 0788 8dbb 6ca0 be3b 832a bebc 5504 b43b
000001d0: 271f a5bc 445a 3ebc a88c ebbb e97b 24bc
000001e0: 4ad4 493a 6e43 d8bc 4947 86bc 0f56 58bc
000001f0: 8a00 b93c 1154 46bc d392 9fbb fb2c babc

network_body._body_endoder.seq_layers.2.weight f4 [128, 128]
0.062381174 -0.17446919 0.05207089 0.087259054 0.06417899 -0.022353813 -0.11066817 0.09474515
0.14369765 -0.09081706 -0.010403716 0.084917344 -0.0064072176 -0.06446176 -0.008616804 0.15969075
0.12786557 -0.21333213 -0.07088245 0.04454903 0.060190372 -0.08592464 -0.032639198 0.019667596
0.018480198 -0.084624745 -0.09343189 -0.048016403 0.043625753 -0.0017793732 0.10065375 0.0027216992
-0.11903622 -0.17065167 -0.015258804 0.0012967128 -0.036788523 0.031577058 0.19177611 -0.07544929
0.06330615 -0.04029825 -0.05899701 0.05406733 0.05757721 0.029175721 -0.118399754 -0.08302683
0.0016060034 -0.15540633 0.058718737 0.14682977 -0.012502208 0.011265745 -0.0727216 -0.093306705
0.06665805 0.007986369 -0.003124848 0.025953958 -0.097022645 -0.078509726 0.17434023 -0.08336031
-0.04239813 0.04190416 -0.04273443 0.072615236 -0.026706776 -0.08087032 -0.017859314 -0.03167972
-0.040067706 0.085216776 -0.107619114 0.032057043 0.04823843 -0.009885092 -0.034193665 -0.03562523
0.097983725 -0.033798076 0.015664138 0.01979281 -0.14930515 0.022680823 0.075876966 -0.07318052
0.09090353 0.086042166 0.06501607 -0.12982367 0.03828403 0.01237894 0.028827136 0.09774208
0.100278676 -0.04921752 -0.01384619 0.018432915 -0.050794464 -0.09898172 -0.18089478 -0.09756459
0.2086464 -0.0997526 -0.108370565 -0.17017287 -0.054190487 -0.07899424 0.026761435 -0.01582559
0.003503039 -0.09620675 -0.070557825 0.09821333 -0.0255319 0.036518227 -0.04132112 0.063985735
-0.019054895 0.029404111 -0.042471223 -0.070713066 -0.11168906 -0.013070738 0.11297155 0.010220841
0.04731331 0.078404576 -0.0023728565 -0.001308166 -0.08567751 0.07479107 0.08911999 0.009257568
0.014193675 -0.06969534 -0.016664896 -0.16920497 0.12196354 -0.06326265 -0.08462597 0.040183477
0.042410288 -0.07628343 -0.09093991 0.01915702 0.051598605 0.051338896 0.01770909 -0.056690395
0.16605973 -0.06134558 0.1233646 0.07018199 0.11433866 0.09585001 0.03229507 -0.0027866182
-0.1831888 0.029209929 -0.051458925 -0.014761793 0.079226285 -0.04613755 -0.061959166 -0.082335904
0.07847229 0.28715536 -0.06178527 0.06593402 -0.11448486 0.08221073 -0.19407748 -0.09577698
-0.16818476 -0.10662392 -0.13702624 0.018571207 -0.06142302 0.12740245 0.0019816167 0.10031383
-0.035399646 -0.14650106 0.011154112 0.13432236 -0.18020967 0.15704447 -0.10207473 0.16027851
0.04606293 -0.124322265 0.023362959 -0.027298676 -0.123601 0.041676443 0.066645764 -0.056702487
-0.034566674 0.11616458 -0.08070006 0.07394321 0.08441141 0.095121585 -0.026524385 0.144677
-0.025081541 0.010635295 -0.020711165 -0.047121868 0.13071719 -0.15756232 -0.05867922 0.06884937
0.1801557 -0.0051820497 -0.029517759 0.017437663 -0.030865263 0.016036531 -0.083633624 -0.17897676
0.19569178 0.004427679 -0.024706388 0.00794625 0.0068173585 0.04714074 -0.043092754 -0.14036593
0.045287106 0.043790273 -0.025275402 -0.04759597 0.006794454 0.066102445 -0.06474296 0.13392904
-0.081879616 -0.16781573 0.09284459 -0.14221951 0.05966951 -0.106260546 0.012565739 -0.07057981
0.064016834 -0.07942579 -0.053574793 -0.13545983 -0.017964646 -0.059548166 0.015124191 -0.10308626
00000000: 6783 7f3d 0da8 32be 4948 553d e0b4 b23d
00000010: 4670 833d 581f b7bc fea5 e2bd bf09 c23d
00000020: 7a25 133e 4bfe b9bd 5974 2abc 25e9 ad3d
00000030: a3f3 d1bb 8704 84bd 7f2d 0dbc f985 233e
00000040: 31ef 023e bd73 5abe d12a 91bd 0b79 363d
00000050: 2e8a 763d 42f9 afbd aeb0 05bd f01d a13c
00000060: c963 973c bd4f adbd 3859 bfbd d9ac 44bd
00000070: ebb0 323d db39 e9ba 8e23 ce3d 895e 323b
00000080: 43c9 f3bd 50bf 2ebe 1000 7abc 76f6 a93a
00000090: 90af 16bd f256 013d f560 443e 2885 9abd
000000a0: a8a6 813d c70f 25bd d9a6 71bd b475 5d3d
000000b0: 15d6 6b3d ec01 ef3c 927b f2bd f809 aabd
000000c0: 8880 d23a d622 1fbe 0f83 703d 8b5a 163e
000000d0: 10d6 4cbc f693 383c 10ef 94bd 9617 bfbd
000000e0: 0484 883d 42d9 023c 40ca 4cbb 659d d43c
000000f0: cfb3 c6bd b5c9 a0bd 3f86 323e cfb8 aabd
00000100: a9a9 2dbd b2a3 2b3d 4c0a 2fbd 4cb7 943d
00000110: 2bc8 dabc 579f a5bd b24d 92bc 98c2 01bd
00000120: 091e 24bd 2286 ae3d 6967 dcbd 3f4e 033d
00000130: a995 453d 15f5 21bc a80e 0cbd c3eb 11bd
00000140: b1ab c83d da6f 0abd 1452 803c 8824 a23c
00000150: 73e3 18be 22cd b93c 6265 9b3d abdf 95bd
00000160: a12b ba3d e036 b03d 2527 853d 7ff0 04be
00000170: b7cf 1c3d 0ad1 4a3c e326 ec3c 002d c83d
00000180: e85e cd3d 4f98 49bd 21db 62bc a000 973c
00000190: db0d 50bd eeb6 cabd 7b3c 39be f2cf c7bd
000001a0: 67a7 553e 174b ccbd 63f1 ddbd cc41 2ebe
000001b0: d8f6 5dbd bbc7 a1bd cc3a db3c aba4 81bc
000001c0: 3e93 653b 0b08 c5bd 9f80 90bd 1224 c93d
000001d0: 4628 d1bc 2394 153d 5640 29bd f40a 833d
000001e0: 0319 9cbc e4e0 f03c 4ef6 2dbd 03d2 90bd
000001f0: 3cbd e4bd a626 56bc a15d e73d 5075 273c
00000200: 9acb 413d 9492 a03d ed81 1bbb c476 abba
00000210: b177 afbd 0f2c 993d 8b84 b63d 0ead 173c
00000220: 968c 683c 6ebc 8ebd d284 88bc 1144 2dbe
00000230: 05c8 f93d d98f 81bd 6150 adbd 6e97 243d
00000240: 69b6 2d3d 7d3a 9cbd b43e babd 2fef 9c3c
00000250: 0f59 533d bc48 523d a712 913c 3034 68bd
00000260: 900b 2a3e 8145 7bbd 94a6 fc3d 93bb 8f3d
00000270: 632a ea3d 034d c43d d647 043d b29f 36bb
00000280: d895 3bbe a949 ef3c 98c6 52bd 73db 71bc
00000290: 6441 a23d bafa 3cbd e5c8 7dbd ba9f a8bd
000002a0: 14b6 a03d 0706 933e 8d12 7dbd 6a08 873d
000002b0: 0a77 eabd 195e a83d 3fbc 46be b926 c4bd
000002c0: a038 2cbe a45d dabd 9b50 0cbe a522 983c
000002d0: b496 7bbd ca75 023e 03de 013b 5671 cd3d
000002e0: 38ff 10bd 6004 16be bdbf 363c cd8b 093e
000002f0: e288 38be 44d0 203e 8e0c d1bd 0d20 243e
00000300: 7cac 3c3d ac9c febd ad63 bf3c 79a1 dfbc
00000310: 8522 fdbd ebb4 2a3d 937d 883d de40 68bd
00000320: c995 0dbd b2e7 ed3d 1346 a5bd 8a6f 973d
00000330: e4df ac3d 1bcf c23d ab49 d9bc 3526 143e
00000340: ce77 cdbc a93f 2e3c 76aa a9bc dc02 41bd
00000350: bada 053e 0458 21be 9f59 70bd e600 8d3d
00000360: bc7a 383e 2fce a9bb 3acf f1bc 6ed9 8e3c
00000370: 26d9 fcbc 0b5f 833c 1b48 abbd af45 37be
00000380: 6d63 483e 1016 913b 0d65 cabc fd30 023c
00000390: 2664 df3b a616 413d 0782 30bd 16bc 0fbe
000003a0: f97e 393d 6e5d 333d 5c0e cfbc fef3 42bd
000003b0: 03a4 de3b b860 873d f597 84bd b224 093e
000003c0: 80b0 a7bd e3d7 2bbe 4e25 be3d fea1 11be
000003d0: 0468 743d 219f d9bd 88e0 4d3c 268c 90bd
000003e0: 421b 833d fda9 a2bd 3e71 5bbd fbb5 0abe
000003f0: 982a 93bc c7e8 73bd 74cb 773c e41e d3bd

network_body._body_endoder.seq_layers.2.bias f4 [128]
-0.00571327 -0.018404026 -0.0019178321 0.017491246 -0.014646074 0.014126337 -0.009267393 0.027104741
0.014180065 0.01705311 0.016821837 -0.007875566 0.029801467 -0.021589313 0.0066242483 -0.013415049
-0.020124884 -0.0116035165 0.00044758676 0.02744372 0.0033931846 -0.00021572878 0.020806877 -0.020055491
-1.4879249e-05 -0.016150843 -0.0055148024 -0.023256106 0.005876661 -0.0090940725 -0.008485927 -0.0121471435
-0.013601689 -0.023469804 0.003691074 -0.028476194 -0.020496868 -0.0005226472 -0.0013032915 0.017366836
-0.013783558 -0.015817415 -0.016737407 0.0026740867 -0.00784589 0.02572307 -0.01723919 -0.008825912
0.011793881 0.005344981 -0.007843109 -0.0035230522 -0.03665755 0.010220571 -0.0034022974 0.0007643052
-0.00045182588 -0.005109097 -0.015337248 -0.00597884 -0.023574749 0.0017781554 -0.018530473 0.014230626
-0.006946612 -0.0033907252 0.012019332 0.010209811 -0.0044283285 -0.017975045 0.0077990694 0.008493155
-0.03336918 0.029640203 -0.011999017 0.008668373 0.009487847 0.032376774 0.028271126 -0.0092281345
-0.0072701885 0.014844357 0.01308587 0.010201227 0.0026722115 0.020885767 0.011358685 -0.0054312297
0.017876057 -0.01120477 -0.006504706 -0.012222112 -0.015652973 0.03069836 0.02243944 -0.007421674
-0.020908464 -0.015907142 -0.035448182 -0.01029422 -0.013127515 -0.009400115 0.008774894 -0.014508845
-0.01640805 -0.020807305 -0.009389289 -0.0058714254 0.022821523 0.014719013 0.003383512 0.0072472766
0.01910916 0.0094066 -0.005868095 -0.0002964566 -0.030012775 -0.0003892637 -0.032395147 0.001056634
-0.005789596 -0.007748786 -0.015668724 -0.015215994 0.0027469455 0.010368815 0.03411375 0.0020972155
00000000: 6236 bbbb 0ac4 96bc c45f fbba cd49 8f3c
00000010: 16f6 6fbc 2772 673c 43d6 17bc c30a de3c
00000020: 8153 683c f7b2 8b3c f3cd 893c 8508 01bc
00000030: 3522 f43c 12dc b0bc 3910 d93b cbca 5bbc
00000040: f1dc a4bc ad1c 3ebc 14aa ea39 a7d1 e03c
00000050: 3160 5e3b 4135 62b9 2f73 aa3c 6a4b a4bc
00000060: e3a1 79b7 c64e 84bc 84b5 b4bb 9783 bebc
00000070: 0191 c03b 4eff 14bc 8f08 0bbc d004 47bc
00000080: 9ed9 5ebc bf43 c0bc f2e5 713b e846 e9bc
00000090: 0ce9 a7bc 4302 09ba 35d3 aaba e544 8e3c
000000a0: 6fd4 61bc 8693 81bc e31c 89bc bb3f 2f3b
000000b0: 0c8c 00bc 30b9 d23c 3439 8dbc 8f9a 10bc
000000c0: 1f3b 413c f324 af3b 6280 00bc 02e3 66bb
000000d0: 3a26 16bd 2f74 273c 14f9 5ebb a75b 483a
000000e0: 0be3 ecb9 366a a7bb 1549 7bbc 25ea c3bb
000000f0: d51f c1bc ff10 e93a 38cd 97bc 9227 693c
00000100: 68a0 e3bb ee36 5ebb bbec 443c 0d47 273c
00000110: 831b 91bb 6740 93bc 568f ff3b e026 0b3c
00000120: 1fae 08bd 03d0 f23c 8697 44bc cb05 0e3c
00000130: ea72 1b3c 829d 043d d998 e73c 9a31 17bc
00000140: c33a eebb bf35 733c 1e66 563c 0c23 273c
00000150: 4520 2f3b a118 ab3c c719 3a3c 75f8 b1bb
00000160: cf70 923c 3694 37bc 6e25 d5bb 413f 48bc
00000170: aa3a 80bc 217b fb3c ebd2 b73c 8431 f3bb
00000180: 3a48 abbc b24f 82bc 1d32 11bd 17a9 28bc
00000190: ca14 57bc f102 1abc 93c4 0f3c 82b6 6dbc
000001a0: 2d6a 86bc 1574 aabc 88d5 19bc 1665 c0bb
000001b0: 34f4 ba3c 0428 713c e9bd 5d3b 907a ed3b
000001c0: d08a 9c3c 241e 1a3c 2649 c0bb bb6d 9bb9
000001d0: 5add f5bc 1716 ccb9 c6b0 04bd c17e 8a3a
000001e0: a7b6 bdbb 87e9 fdbb b25b 80bc 814c 79bc
000001f0: 1906 343b f6e1 293c dcba 0b3d 7071 093b

action_model._discrete_distribution.branches.0.weight f4 [2, 128]
-0.020293672 0.023670988 0.035347305 -0.032325957 0.0010167974 -7.9179874e-05 0.02378138 -0.040653173
-0.0006112019 0.021963634 -0.046402182 0.036087174 -0.0209935 -0.019790217 -0.0016043881 0.006819131
0.02301672 0.025925823 -0.02542784 -0.050643872 -0.019860964 0.012544807 -0.04141773 0.016190097
-0.017899768 0.037617896 -0.0022635695 0.01988329 -0.004428476 -0.0032536243 -0.0033602424 0.014180416
-0.0024440493 0.038846463 0.030714648 0.016084345 0.007840837 -0.018397134 -0.020222135 -0.05271448
0.027815318 0.02573491 -0.0027842587 0.015455816 0.045187455 -0.031343695 -0.011299289 -0.0033387612
0.015316578 -0.023429602 -0.0017156376 0.021801693 -0.003834399 0.016409855 0.02885587 0.060626667
-0.0349021 0.01607301 0.004555827 0.008179922 0.009348197 -0.02148353 0.008534424 -0.022651741
-0.013188342 -0.008201252 -0.01101607 0.002091489 0.014509535 0.0024830634 0.067784645 0.03999424
-0.008074167 -0.06778921 -0.019452954 -0.004628412 0.014190076 -0.064204484 -0.041402493 -0.012891052
-0.007479692 -0.042069595 -0.050952908 -0.024116436 0.01175316 0.002353275 0.004686155 0.05071076
-0.03398986 0.018797193 -0.024159601 0.07920997 0.04355163 0.005564978 -0.025270624 0.011447515
0.025079885 0.008462438 0.004091264 -0.019774884 -0.0035934267 0.04030892 -0.01903472 0.01778563
0.03222436 0.00066462555 0.0405689 -0.021099549 -0.053231474 -0.024729514 -0.014244327 -0.01769296
-0.036741517 0.012011637 0.031134102 -0.016791526 0.0021715465 0.0022770432 0.004664758 0.0077434224
0.077419624 0.040220812 -0.018605938 0.039089773 -0.014942362 -0.007457327 -0.050096437 0.018504763
0.02099434 -0.008492822 -0.04256508 0.043546222 0.013194547 0.002173086 -0.016924031 0.03689996
-0.02376232 -0.020840243 0.04641065 -0.023703855 0.03975683 0.010113002 -0.0025317129 0.005928045
-0.022261422 -0.030432338 0.016694456 0.03883865 0.01704455 -0.0079170205 0.05199557 -0.012782912
0.010769216 -0.051317755 -0.0050767204 -0.02131255 0.004248509 -0.008747293 -0.0072447537 -0.01662802
-0.005566301 -0.03545752 -0.041973736 -0.018375603 -0.020691574 0.021132994 0.03198741 0.043272704
-0.03261572 -0.044105284 0.013194427 0.003579347 -0.029853016 0.022059977 0.0059601483 0.014171908
-0.017830055 0.006913185 -0.01612638 -0.02382823 -0.002757137 0.011489281 -0.015155167 -0.059163995
0.029755536 -0.008012709 0.010681269 -0.00028977246 -0.0064885216 0.020734923 -0.020660464 0.01927947
0.031808164 -0.0071063205 0.025678618 -0.026881604 -0.014695101 -0.008204868 -0.06684763 -0.04508953
0.0039974903 0.060324214 0.00091231486 0.008146696 -0.027010972 0.048472926 0.058788113 -0.003113013
0.012597044 0.065939136 0.04982329 0.025772054 -0.017156085 -0.016770575 0.0069778645 -0.049459152
0.031696405 -0.031313088 0.007548848 -0.0740669 -0.03145634 -0.013743158 0.043970354 0.00046052475
-0.031073675 -0.025747126 0.002523894 0.025665293 0.018097822 -0.016869215 0.009743548 -0.036216237
-0.025037356 0.00069579156 -0.040223394 0.0044418825 0.046953768 0.038578153 0.032943305 -0.0004054178
0.031886026 -0.02436139 -0.03419642 -0.010941845 -0.010003391 0.011107992 -0.028216008 -0.028778212
-0.034154546 -0.032241274 0.013639007 -0.035504628 0.008643154 0.012611819 0.052291688 -0.012011582
00000000: ea3e a6bc a9e9 c13c 56c8 103d 3968 04bd
00000010: 0f46 853a 5f0d a6b8 2bd1 c23c f183 26bd
00000020: 1139 20ba 14ed b33c 3710 3ebd 25d0 133d
00000030: 8ffa abbc 181f a2bc 554a d2ba 0473 df3b
00000040: 8f8d bc3c 6462 d43c 0c4e d0bc f36f 4fbd
00000050: 76b3 a2bc bc88 4d3c a3a5 29bd 18a1 843c
00000060: 89a2 92bc 3915 1a3d 6558 14bb 48e2 a23c
00000070: c01c 91bb c23a 55bb 8337 5cbb fa54 683c
00000080: 582c 20bb 781d 1f3d 499d fb3c 51c3 833c
00000090: db76 003c 96b5 96bc e4a8 a5bc 23eb 57bd
000000a0: f3dc e33c 05d2 d23c 1c78 36bb 643a 7d3c
000000b0: 7b16 393d 3f62 00bd a720 39bc 1ecf 5abb
000000c0: 62f2 7a3c 70ef bfbc 3fdf e0ba 7799 b23c
000000d0: 8a4a 7bbb f66d 863c 2563 ec3c ab53 783d
000000e0: 81f5 0ebd 8cab 833c 0c49 953b 1405 063c
000000f0: 2e29 193c 3afe afbc f8d3 0b3c 2590 b9bc
00000100: ea13 58bc 8b5e 06bc bf7c 34bc 5d11 093b
00000110: 67b9 6d3c e4ba 223b add2 8a3d 00d1 233d
00000120: 8349 04bc 12d5 8abd cd5b 9fbc efa9 97bb
00000130: 7e7d 683c a47d 83bd a995 29bd fe34 53bc
00000140: 3418 f5bb 2b51 2cbd ffb3 50bd d58f c5bc
00000150: 5390 403c 6739 1a3b 518e 993b 16b6 4f3d
00000160: f438 0bbd 92fc 993c 5bea c5bc d638 a23d
00000170: 3263 323d 6b5a b63b 5704 cfbc 5c8e 3b3c
00000180: 5574 cd3c 0aa6 0a3c 0310 863b f0fe a1bc
00000190: b27f 6bbb f71a 253d b3ee 9bbc 2bb3 913c
000001a0: b1fd 033d 443a 2e3a 932b 263d f6d8 acbc
000001b0: 3f09 5abd 8d95 cabc 0a61 69bc d4f0 90bc
000001c0: 467e 16bd 75cc 443c f20c ff3c 628e 89bc
000001d0: 8150 0e3b 723a 153b d4da 983b 89bc fd3b
000001e0: 2e8e 9e3d 94be 243d 7b6b 98bc 991c 203d
000001f0: cfd0 74bc 985c f4bb ec31 4dbd 4d97 973c
00000200: 52fc ab3c 7a25 0bbc b958 2ebd 865d 323d
00000210: f12d 583c 556a 0e3b 44a4 8abc 6a24 173d
00000220: 32a9 c2bc 28b9 aabc 1819 3e3d 962e c2bc
00000230: 0fd8 223d 01b1 253c 18eb 25bb 0c40 c23b
00000240: 965d b6bc 3d4d f9bc d0c2 883c 4715 1f3d
00000250: 03a1 8b3c 64b6 01bc 4ff9 543d 6b6f 51bc
00000260: 5e71 303c 9132 52bd 9e5a a6bb a897 aebc
00000270: 1437 8b3b ce50 0fbc 6665 edbb 7c37 88bc
00000280: 8465 b6bb e83b 11bd a7ec 2bbd 6f88 96bc
00000290: 6081 a9bc 1a1f ad3c 3b05 033d b83e 313d
000002a0: 1098 05bd bea7 34bd 702d 583c 7a93 6a3b
000002b0: 508e f4bc 20b7 b43c 594d c33b 4a31 683c
000002c0: 5610 92bc 0088 e23b 781b 84bc 6c33 c3bc
000002d0: 15b1 34bb 8a3d 3c3c 614d 78bc f255 72bd
000002e0: e2c1 f33c bd47 03bc 7d00 2f3c 9aec 97b9
000002f0: aa9d d4bb 49dc a93c 2240 a9bc fbef 9d3c
00000300: 4749 023d 23dc e8bb f75b d23c cf36 dcbc
00000310: b9c3 70bc b66d 06bc 69e7 88bd cdaf 38bd
00000320: 61fd 823b 8616 773d 6a28 6f3a b879 053c
00000330: 1d46 ddbc 8c8b 463d cecb 703d b103 4cbb
00000340: d563 4e3c 190b 873d 8213 4c3d ea1f d33c
00000350: eb8a 8cbc 7262 89bc 92a6 e43b ae95 4abd
00000360: 17d4 013d 2742 00bd 545c f73b 63b0 97bd
00000370: 5dd8 00bd fc2a 61bc 421a 343d 9672 f139
00000380: 388e febc a3eb d2bc ea67 253b 0540 d23c
00000390: e241 943c 4f31 8abc 67a3 1f3c 7a57 14bd
000003a0: 241b cdbc c865 363a 49c1 24bd 368d 913b
000003b0: 9852 403d 2004 1e3d 8fef 063d 428e d4b9
000003c0: ec9a 023d 8a91 c7bc 8c11 0cbd 6d45 33bc
000003d0: 43e5 23bc 4cfe 353c 4225 e7bc 49c0 ebbc
000003e0: a3e5 0bbd 6d0f 04bd 2476 5f3c 4d6d 11bd
000003f0: 049c 0d3c cea1 4e3c cf2f 563d 3acc 44bc

action_model._discrete_distribution.branches.0.bias f4 [2]
-0.020765193 0.02076519
00000000: c41b aabc c21b aa3c

action_model._discrete_distribution.branches.1.weight f4 [3, 128]
0.011936504 -0.0017626912 0.03485058 0.0051980084 -0.019846726 -0.04341447 0.00468491 0.04504138
0.037940525 -0.028716568 0.02266797 0.045089666 0.049013693 0.01843947 0.05518777 -0.033746157
0.021442827 -0.01999394 -0.015473074 -0.011297695 0.017165298 0.024516344 0.032807693 -0.026787238
-0.0078044776 -0.034778453 -0.022936637 -0.0037097014 -0.03979344 0.03165403 -0.051027436 -0.033669468
-0.03232033 0.008876261 -0.0074218614 -0.009240319 0.013473668 0.013635978 0.006592436 -0.03298524
-0.03765033 -0.01993777 0.04434687 0.05134167 0.011484994 -0.018799068 -0.011664503 0.0069906153
0.012906181 0.023098636 0.027210599 0.013103931 0.015794545 0.023535086 0.03988971 -0.00055646227
0.0053555933 -0.027113857 -0.0029098773 0.01880474 -0.0019699566 -0.03460164 0.010352159 0.021507664
0.001001871 0.004847208 0.023821361 0.053450625 -0.057001915 -0.0074677253 -0.008571745 -0.034121044
-0.0032275198 0.05520981 -0.017738434 -0.021580728 -0.034900628 -0.013409113 0.005104893 0.029272135
0.02816081 -0.01187865 0.011312145 0.003585201 -0.00933566 0.032907695 0.024316354 0.05555196
-0.027327787 -0.02563562 0.014370341 -0.033181604 0.013012713 -0.012287261 0.02869871 0.020638136
0.0035264986 -0.004210987 0.012658641 -0.005810687 -0.0315571 -0.027574435 -0.032299332 -0.056012318
-0.048302118 -0.017296558 0.04817034 0.034639515 -0.029640077 0.05549786 -0.0009902781 -0.014677596
-0.004862785 0.02873836 0.022765208 0.027563643 0.010504803 -0.021329679 -0.0035373394 0.035492744
0.0071592946 -0.011385712 0.0026576587 0.026501272 -0.048063587 0.0003002045 0.0047888365 0.02339337
-0.00036705652 -0.028769538 0.014078039 0.042071402 -0.0035585912 0.059457496 -0.039710183 0.007475898
0.03528483 0.07791472 0.032427765 -0.02949452 -0.05505113 0.008172896 -0.012817704 0.0051800236
-0.014726356 0.011651838 0.019081183 0.010282773 0.034548443 -0.059284903 -0.013800804 0.015206011
0.036163203 -0.006561657 0.02523192 0.020165179 -0.022594014 -0.0024986796 0.031574797 0.028792907
-0.011559972 -0.009159302 0.04549701 -0.011947988 -0.01576528 -0.023156146 -0.010123563 -0.010516114
0.02898203 -0.023191575 -0.034662534 -0.00078261865 0.036045864 0.07221159 0.029877322 -0.0104444
0.028081026 -0.009498859 0.0060142204 -0.060037713 0.0040345676 0.013775857 0.020407876 0.036725976
-0.016751543 0.030938318 0.026129283 -0.060932416 -0.027179137 0.041653804 -0.03322342 -0.004070315
-0.016537072 0.016230395 -0.062330462 -0.057912532 0.051132113 0.022840912 -0.037019562 0.0719742
-0.01005159 -0.041384533 0.0067587015 0.053941656 0.05675683 -0.032806054 0.020544553 -0.047909934
-0.016320746 0.024299743 -0.016097888 0.018583344 -0.06183075 -0.086940646 0.017801965 -0.010721045
0.052502073 0.024140207 -0.04974498 0.007654937 -0.04560244 0.057680044 -0.063128725 0.043742556
-0.016786812 -0.025034482 -0.027037492 -0.0037048676 0.0049999473 0.036108423 -0.041717876 0.018205915
-0.019808693 0.02253774 -0.04159187 -0.067632355 -0.0161708 -0.028231481 0.02161344 0.049623527
0.013244763 -0.08318673 0.0070720227 -0.0042425944 -0.014958876 0.029871581 0.016493874 0.010004622
-0.015069439 0.0090821525 0.0011012927 0.0035952355 -0.023125337 -0.05413834 -0.040998384 -0.0033630833
00000000: 5491 433c 1a0a e7ba 7bbf 0e3d 0e54 aa3b
00000010: 9a95 a2bc 5fd3 31bd e083 993b 4f7d 383d
00000020: 8667 1b3d 023f ebbc 2eb2 b93c f1af 383d
00000030: 95c2 483d 5f0e 973c 920c 623d 6939 0abd
00000040: dea8 af3c 55ca a3bc c782 7dbc f819 39bc
00000050: 3d9e 8c3c 80d6 c83c 5c61 063d e970 dbbc
00000060: b4bc ffbb da73 0ebd 9de5 bbbc 761e 73bb
00000070: 72fe 22bd a8a7 013d 2502 51bd ffe8 09bd
00000080: 5362 04bd bd6d 113c 1633 f3bb b564 17bc
00000090: a9c0 5c3c 7069 5f3c 5d05 d83b 881b 07bd
000000a0: 3c37 1abd 8954 a3bc 10a5 353d a54b 523d
000000b0: 8e2b 3c3c 8100 9abc 791c 3fbc 8811 e53b
000000c0: 7274 533c 5a39 bd3c c3e8 de3c dfb1 563c
000000d0: 9063 813c a7cc c03c 6463 233d 8ddf 11ba
000000e0: f97d af3b e11d debc a4b3 3ebb 660c 9a3c
000000f0: 631a 01bb 73ba 0dbd 1a9c 293c d730 b03c
00000100: 3651 833a 54d5 9e3b 0425 c33c 0bef 5a3d
00000110: d77a 69bd d2b3 f4bb 8170 0cbc 82c2 0bbd
00000120: cc84 53bb af23 623d 3150 91bc 11ca b0bc
00000130: f6f3 0ebd e5b1 5bbc f246 a73b 1ecc ef3c
00000140: 80b1 e63c ab9e 42bc 9356 393c b1f5 6a3b
00000150: 99f4 18bc 38ca 063d 1733 c73c 748a 633d
00000160: 86de dfbc cb01 d2bc 9471 6b3c 6fe9 07bd
00000170: 4633 553c 8250 49bc 8f19 eb3c 4f11 a93c
00000180: d41c 673b 52fc 89bb 3066 4f3c 9367 bebb
00000190: 0542 01bd c8e3 e1bc 4e4c 04bd 2c6d 65bd
000001a0: 71d8 45bd 83b1 8dbc 434e 453d 2ae2 0d3d
000001b0: bfcf f2bc b951 633d 38cc 81ba 4d7a 70bc
000001c0: ff57 9fbb b66c eb3c 1a7e ba3c 26cd e13c
000001d0: 561c 2c3c 94bb aebc b5d2 67bb d760 113d
000001e0: 8498 ea3b 238b 3abc 1d2c 2e3b 3219 d93c
000001f0: 53de 44bd c464 9d39 aceb 9c3b 74a3 bf3c
00000200: 7e71 c0b9 18ae ebbc 93a7 663c 1053 2c3d
00000210: 4137 69bb b489 733d 25a7 22bd 61f8 f43b
00000220: d386 103d c191 9f3d fad2 043d 7e9e f1bc
00000230: 4b7d 61bd 9ce7 053c 5901 52bc 30bd a93b
00000240: d046 71bc 5ae7 3e3c 2450 9c3c 1379 283c
00000250: ab82 0d3d bad4 72bd c41c 62bc a222 793c
00000260: de1f 143d 2b03 d7bb 2cb3 ce3c 7231 a53c
00000270: 1517 b9bc e3c0 23bb 9354 013d 1adf eb3c
00000280: 0966 3dbc e610 16bc 135b 3a3d 7ec1 43bc
00000290: 3026 81bc f5b1 bdbc 4ddd 25bc c74b 2cbc
000002a0: b96b ed3c 42fc bdbc 4dfa 0dbd a628 4dba
000002b0: d4a4 133d ace3 933d 49c1 f43c fd1e 2bbc
000002c0: 2e0a e63c 1aa1 1bbc f012 c53b 1bea 75bd
000002d0: 6834 843b 22b4 613c 6b2e a73c fa6d 163d
000002e0: 883a 89bc 5b72 fd3c 140d d63c 4594 79bd
000002f0: c8a6 debc 2e9d 2a3d 4815 08bd 4760 85bb
00000300: c178 87bc 9bf5 843c 3a4e 7fbd b135 6dbd
00000310: e86f 513d dd1c bb3c d3a1 17bd 3667 933d
00000320: 6daf 24bc d482 29bd 1978 dd3b edf1 5c3d
00000330: da79 683d a45f 06bd 0d4d a83c 353d 44bd
00000340: 16b3 85bc 4110 c73c b8df 83bc 193c 983c
00000350: 3e42 7dbd f00d b2bd 6dd5 913c 52a7 2fbc
00000360: 6a0c 573d afc1 c53c 64c1 4bbd 44d6 fa3b
00000370: a0c9 3abd e941 6c3d a249 81bd 652b 333d
00000380: 7f84 89bc 1d15 cdbc bb7d ddbc 5dcd 72bb
00000390: 99d6 a33b 6de6 133d 5de0 2abd 9224 953c
000003a0: d745 a2bc 11a1 b83c 3d5c 2abd d582 8abd
000003b0: a078 84bc b545 e7bc ab0e b13c 0a42 4b3d
000003c0: 9000 593c ce5d aabd 6dbc e73b 7605 8bbb
000003d0: 1316 75bc 3fb5 f43c 291e 873c 6dea 233c
000003e0: cfe5 76bc 4fcd 143c 4059 903a 0b9e 6b3b
000003f0: 5971 bdbc 2ac0 5dbd eced 27bd 2d67 5cbb

action_model._discrete_distribution.branches.1.bias f4 [3]
0.002034427 0.0040645543 -0.0051373933
00000000: 0554 053b f42f 853b 9457 a8bb

action_model._discrete_distribution.branches.2.weight f4 [1, 128]
-0.010617027 0.009175965 0.008108789 -0.0063792765 -0.00159637 0.0031200435 -0.0002258719 0.00565647
0.02079778 0.009170863 0.002659585 -0.012519692 -0.007091114 0.0042500836 -0.0017494988 -0.001227126
-0.001686416 0.014037681 -0.0051359823 -0.010618381 0.006803232 -0.0061849686 0.008784189 -0.005017734
0.013710277 0.012382395 0.00540731 0.0033479172 -0.0036719 -0.002600895 0.0004751328 -0.0012675805
-0.004395351 0.005119712 -0.0092815 -0.004233379 -0.005726142 0.0061938907 0.0043846024 0.0029583161
-0.010989114 0.0061866194 -0.007681167 -0.001550962 0.0077889073 0.00041994668 -0.0045677847 -0.012265968
0.0012250452 0.0056567197 -0.022852115 0.0068532485 -0.001112901 -0.009643015 -0.0013547632 0.004570376
0.011066707 -0.011762064 -0.0054588877 -0.0015137132 0.0019392682 -0.010997499 -0.0018324377 -0.00082911504
0.0061448417 -0.0053141112 0.002387421 -0.0039971746 -0.007483537 0.0028777386 -0.005101023 0.00035283386
-0.0049507245 0.021684645 -0.013990973 0.0035289477 -0.01867639 0.013794257 -0.010906756 -0.0014741389
-0.01209404 0.0014357512 0.015991664 0.0015576909 0.006631367 -0.008138443 0.028091276 -0.01134172
0.016870718 0.0063678855 0.0034117128 0.0074992627 0.0004860906 -0.0038793392 -0.00481861 -0.0035022076
-0.009127171 -0.008416264 -0.011979054 0.0019415732 -0.013707546 -0.012757065 -0.0018474286 -0.0065048086
-0.012912895 0.022250822 0.002549139 -0.002739111 0.005009375 0.0010660482 -0.0066939294 -0.013642791
0.00080629037 -0.0014371118 0.01599912 0.00050228497 -0.008767448 -0.0027908802 0.010416152 0.0019210918
0.01129122 0.011566215 0.007844333 -0.009933699 -0.002568266 -0.009225795 -0.010670977 -0.01310867
00000000: 0af3 2dbc c956 163c bada 043c 4009 d1bb
00000010: 4a3d d1ba a579 4c3b 07d8 6cb9 e959 b93b
00000020: 1b60 aa3c 6341 163c 6f4c 2e3b 651f 4dbc
00000030: 935c e8bb 4944 8b3b 704f e5ba 84d7 a0ba
00000040: bb0a ddba 4dfe 653c be4b a8bb b8f8 2dbc
00000050: a5ed de3b 47ab cabb 8feb 0f3c ce6b a4bb
00000060: 12a1 603c 87df 4a3c ce2f b13b bb68 5b3b
00000070: 42a4 70bb c773 2abb 3f1b f939 f224 a6ba
00000080: e006 90bb 42c3 a73b 6f11 18bc 28b8 8abb
00000090: 5ca2 bbbb 1ff6 ca3b b6ac 8f3b 4fe0 413b
000000a0: af0b 34bc 20b9 ca3b 4db2 fbbb a649 cbba
000000b0: 173a ff3b 4a2c dc39 5bad 95bb 33f7 48bc
000000c0: b291 a03a 015c b93b 5c34 bbbc 3791 e03b
000000d0: c3de 91ba bdfd 1dbc 4f92 b1ba 18c3 953b
000000e0: 2251 353c acb5 40bc 78e0 b2bb c967 c6ba
000000f0: 0b2f fe3a db2e 34bc 682e f0ba f858 59ba
00000100: ab5a c93b ff21 aebb 4776 1c3b bbfa 82bb
00000110: 7538 f5bb 7198 3c3b 7b26 a7bb 8ffc b839
00000120: b039 a2bb ffa3 b13c 653a 65bc eb45 673b
00000130: 3bff 98bc 4f01 623c 40b2 32bc e537 c1ba
00000140: 1526 46bc d12f bc3a f300 833c 6f2b cc3a
00000150: f04b d93b 1b57 05bc ad1f e63c 9fd2 39bc
00000160: 7634 8a3c b2a9 d03b 0b97 5f3b 60bc f53b
00000170: fad9 fe39 833c 7ebb 6ee5 9dbb 4b85 65bb
00000180: 218a 15bc 5fe4 09bc cb43 44bc 637c fe3a
00000190: 9d95 60bc 0203 51bc 6b25 f2ba 4a26 d5bb
000001a0: 9b90 53bc 5b47 b63c 750f 273b a882 33bb
000001b0: af25 a43b a4ba 8b3a c058 dbbb 0386 5fbc
000001c0: 3b5d 533a 785d bcba 9610 833c c6ab 033a
000001d0: 58a5 0fbc 33e7 36bb 82a8 2a3c 25cd fb3a
000001e0: cffe 383c 3980 3d3c 8485 003c f4c0 22bc
000001f0: 5a50 28bb ca27 17bc 52d5 2ebc bfc5 56bc

onnx::Div_94 f4 [450]
0.31737056 0.33270273 0.0023194242 0.114528336 0.071269594 0.06952948 0.054413456 0.06472475
0.48057562 0.3303038 0.31612208 0.31461298 0.0023194242 0.1046627 0.070480615 0.06891372
0.05485391 0.06497153 0.47330356 0.31105438 0.31774354 0.32701585 0.0023194242 0.121139266
0.07718265 0.070177674 0.056201886 0.065217376 0.4816878 0.3291668 0.31293094 0.28354904
0.0023194242 0.10978382 0.06351826 0.07010173 0.058210522 0.06699207 0.46162772 0.2870557
0.32142022 0.28434452 0.0023194242 0.123358175 0.07561693 0.070631586 0.05504852 0.06797941
0.47225723 0.30571738 0.30691737 0.25683802 0.0023194242 0.107316524 0.06586834 0.06941444
0.060681593 0.062842526 0.44856828 0.26482356 0.32787886 0.24712062 0.0023194242 0.11944632
0.07171644 0.06856487 0.06250187 0.07074461 0.46377578 0.2827748 0.29999962 0.25044072
0.0023194242 0.110995874 0.0734761 0.06918379 0.06397861 0.058576506 0.44497883 0.25905052
0.3289657 0.2361881 0.0023194242 0.12730575 0.07318583 0.07351232 0.06945281 0.06778313
0.46206513 0.27518147 0.2936406 0.25625306 0.0023194242 0.12520303 0.06813605 0.07204972
0.06895235 0.055915814 0.4473492 0.26172373 0.32697237 0.23161429 0.0023194242 0.124179386
0.07459004 0.07841223 0.07190179 0.06956777 0.461016 0.27194756 0.29074216 0.24367294
0.0023194242 0.12844457 0.0752291 0.06879764 0.070556134 0.056296922 0.4446196 0.25941995
0.31292424 0.23211786 0.0023194242 0.12399039 0.06730962 0.07462566 0.07252837 0.06856486
0.4543829 0.26836723 0.2893673 0.23493911 0.0023194242 0.11885435 0.073837325 0.068214215
0.06987341 0.058348045 0.44227725 0.2563962 0.29782832 0.23591682 0.0023194242 0.12178376
0.069567785 0.071604975 0.07304026 0.063012145 0.44974175 0.2655245 0.31746227 0.332739
0.0023194242 0.11459689 0.071381554 0.06952948 0.054413456 0.06472475 0.4803743 0.32953086
0.31624076 0.31464624 0.0023194242 0.10468785 0.070480615 0.06891372 0.05485391 0.06497153
0.47306824 0.3101575 0.3178546 0.32704705 0.0023194242 0.12113927 0.07721709 0.070177674
0.056201886 0.065217376 0.48149243 0.3283891 0.31306502 0.28356475 0.0023194242 0.109807715
0.06351826 0.07010173 0.058210522 0.06699207 0.46134505 0.28599605 0.3215613 0.2843756
0.0023194242 0.1233793 0.07561693 0.070631586 0.05504852 0.06797941 0.47200966 0.30477545
0.30705565 0.25685608 0.0023194242 0.10741439 0.06590879 0.06941444 0.060681593 0.062842526
0.4482125 0.26360017 0.32799646 0.2471395 0.0023194242 0.11951192 0.071790636 0.06856487
0.06250187 0.07074461 0.46349105 0.28171328 0.30012158 0.25047794 0.0023194242 0.110995874
0.0734761 0.06918379 0.06397861 0.058576506 0.44458938 0.25776926 0.32909507 0.23622824
0.0023194242 0.12746915 0.07318583 0.07351232 0.06945281 0.06778313 0.46178636 0.27405566
0.29378888 0.25629807 0.0023194242 0.12528624 0.06813605 0.07204972 0.06895235 0.055915814
0.44700468 0.26049608 0.32709682 0.23164512 0.0023194242 0.12430521 0.07459004 0.07841223
00000000: 657e a23e 0358 aa3e 7b01 183b d58d ea3d
00000010: cbf5 913d 7965 8e3d a5e0 5e3d 698e 843d
00000020: 020e f63e 941d a93e c1da a13e f414 a13e
00000030: 7b01 183b 6659 d63d 2458 903d a322 8d3d
00000040: 7eae 603d cb0f 853d d854 f23e 8542 9f3e
00000050: 48af a23e 9f6e a73e 7b01 183b dd17 f83d
00000060: f011 9e3d 50b9 8f3d f333 663d b090 853d
00000070: c99f f63e 8d88 a83e 7c38 a03e 572d 913e
00000080: 7b01 183b 57d6 e03d dd15 823d 7f91 8f3d
00000090: 286e 6e3d 2333 893d 785a ec3e f7f8 923e
000000a0: 3191 a43e 9b95 913e 7b01 183b 36a3 fc3d
000000b0: 0ddd 9a3d 4ba7 903d 8f7a 613d ca38 8b3d
000000c0: b3cb f13e fd86 9c3e 4624 9d3e 4680 833e
000000d0: 7b01 183b c4c8 db3d fbe5 863d 2829 8e3d
000000e0: 438d 783d 95b3 803d beaa e53e f496 873e
000000f0: bddf a73e 300d 7d3e 7b01 183b 46a0 f43d
00000100: 12e0 923d bd6b 8c3d fb00 803d 8de2 903d
00000110: 0574 ed3e dcc7 903e 8d99 993e c439 803e
00000120: 7b01 183b ce51 e33d a37a 963d 3bb0 8d3d
00000130: 3807 833d ebed 6f3d 44d4 e33e 45a2 843e
00000140: 316e a83e 4bdb 713e 7b01 183b 705c 023e
00000150: 74e2 953d a18d 963d 463d 8e3d e2d1 8a3d
00000160: cd93 ec3e 96e4 8c3e 1058 963e 9a33 833e
00000170: 7b01 183b 3935 003e ea8a 8b3d ce8e 933d
00000180: e436 8d3d fb07 653d f40a e53e a700 863e
00000190: ec68 a73e 4c2c 6d3e 7b01 183b c351 fe3d
000001a0: aac2 983d 9796 a03d 3f41 933d 8c79 8e3d
000001b0: 4a0a ec3e b63c 8b3e 28dc 943e 6685 793e
000001c0: 7b01 183b f986 033e b711 9a3d c7e5 8c3d
000001d0: bc7f 903d 9a97 663d 2ea5 e33e b1d2 843e
000001e0: 9b37 a03e 4eb0 6d3e 7b01 183b acee fd3d
000001f0: a0d9 893d 57d5 983d c189 943d bc6b 8c3d
00000200: e0a4 e83e 6e67 893e f327 943e e193 703e
00000210: 7b01 183b e969 f33d 0638 973d e5b3 8b3d
00000220: ca19 8f3d 5cfe 6e3d 2a72 e23e 5d46 833e
00000230: f47c 983e 2e94 713e 7b01 183b c469 f93d
00000240: 8e79 8e3d a1a5 923d 2296 953d 830c 813d
00000250: 8d44 e63e d4f2 873e 6a8a a23e c45c aa3e
00000260: 7b01 183b c6b1 ea3d 7e30 923d 7965 8e3d
00000270: a5e0 5e3d 698e 843d 9ff3 f53e 45b8 a83e
00000280: 4fea a13e 5019 a13e 7b01 183b 9566 d63d
00000290: 2458 903d a322 8d3d 7eae 603d cb0f 853d
000002a0: 0036 f23e f7cc 9e3e d7bd a23e b672 a73e
000002b0: 7b01 183b de17 f83d fe23 9e3d 50b9 8f3d
000002c0: f333 663d b090 853d 2d86 f63e 9e22 a83e
000002d0: 0f4a a03e 662f 913e 7b01 183b dee2 e03d
000002e0: dd15 823d 7f91 8f3d 286e 6e3d 2333 893d
000002f0: 6b35 ec3e 136e 923e afa3 a43e ae99 913e
00000300: 7b01 183b 49ae fc3d 0ddd 9a3d 4ba7 903d
00000310: 8f7a 613d ca38 8b3d 40ab f13e 870b 9c3e
00000320: 6636 9d3e a482 833e 7b01 183b 13fc db3d
00000330: 30fb 863d 2829 8e3d 438d 783d 95b3 803d
00000340: 1c7c e53e 9af6 863e 27ef a73e 2312 7d3e
00000350: 7b01 183b aac2 f43d f806 933d bd6b 8c3d
00000360: fb00 803d 8de2 903d b34e ed3e b93c 903e
00000370: 89a9 993e a53e 803e 7b01 183b ce51 e33d
00000380: a37a 963d 3bb0 8d3d 3807 833d ebed 6f3d
00000390: 38a1 e33e 55fa 833e 267f a83e d1e5 713e
000003a0: 7b01 183b 4687 023e 74e2 953d a18d 963d
000003b0: 463d 8e3d e2d1 8a3d 436f ec3e 0651 8c3e
000003c0: 7f6b 963e 8039 833e 7b01 183b 094b 003e
000003d0: ea8a 8b3d ce8e 933d e436 8d3d fb07 653d
000003e0: ccdd e43e be5f 853e 3c79 a73e 6134 6d3e
000003f0: 7b01 183b bb93 fe3d aac2 983d 9796 a03d

onnx::Div_97 f4 [6]
109.00816 129.49573 108.40614 129.50154 107.80049 129.50726
00000000: 2e04 da42 e87e 0143 f2cf d842 6580 0143
00000010: da99 d742 dc81 0143
