Assets/Scene/FinalTest/ZooheimTest/Models/0606/LionBehavior.onnx (onnx, 188057 bytes, 14 tensors)

discrete_act_size_vector f4 [1, 3]
0	0x40000000	2.0
1	0x40400000	3.0
2	0x3f800000	1.0

network_body.observation_encoder.processors.0.normalizer.running_mean f4 [210]
0	0x3ea003dd	0.31252947
1	0x00000000	0.0
2	0x3d161576	0.03664156
3	0x3c923860	0.017849147
4	0x3c889c6a	0.016676147
5	0x3c05bcf2	0.008162724
6	0x3bc751b7	0.006082739
7	0x3c5a89b2	0.013338493
8	0x3c49e516	0.012322685
9	0x3c2a9721	0.0104120085
10	0x3bfe6643	0.0077636554
11	0x3bc55685	0.006022277
12	0x3ef45e80	0.47728348
13	0x3f1fdfe7	0.6245102
14	0x3e9f148a	0.31070358
15	0x00000000	0.0
16	0x3cf90ccc	0.03040161
17	0x3c88b5c2	0.016688231
18	0x3c8193ca	0.015817542
19	0x3c19f284	0.009396199
20	0x3bf6dedf	0.0075338925
21	0x3c61137d	0.0137375565
22	0x3c4fd6bd	0.012685475
23	0x3c240d53	0.010012942
24	0x3c012e59	0.007884585
25	0x3bb7dd71	0.0056111147
26	0x3ef8fe86	0.48631686
27	0x3f21f637	0.6326632
28	0x3e9fb175	0.31190076
29	0x00000000	0.0
30	0x3d0b55d1	0.034017388
31	0x3ca60881	0.020267727
32	0x3c6f5779	0.014608257
33	0x3c08830c	0.008332025
34	0x3bfffc09	0.0078120274
35	0x3c6d2983	0.014475229
36	0x3c448ba2	0.011996182
37	0x3c3aa38c	0.011391532
38	0x3c02f6d7	0.0079934215
39	0x3bbb08fb	0.0057078577
40	0x3ef550fe	0.47913355
41	0x3f20ed21	0.6286183
42	0x3e9d0189	0.30665234
43	0x00000000	0.0
44	0x3cde3406	0.027124416
45	0x3c80fb9e	0.01574498
46	0x3c6e59d4	0.014547784
47	0x3c103d2f	0.00880365
48	0x3bf152a8	0.0073645897
49	0x3c57c39d	0.013169196
50	0x3c47b72a	0.012189666
51	0x3c305609	0.0107627
52	0x3c0a18cd	0.0084287645
53	0x3bae5ad3	0.0053208857
54	0x3effc167	0.49952242
55	0x3f2529b0	0.64516735
56	0x3e9d623a	0.30739003
57	0x00000000	0.0
58	0x3ce9e498	0.028551385
59	0x3ca21216	0.019784015
60	0x3c6ac8d9	0.014330112
61	0x3c0bae95	0.00852551
62	0x3bfb3ab3	0.0076669096
63	0x3c5c1f7b	0.01343524
64	0x3c3e6745	0.011621301
65	0x3c402fc6	0.01173014
66	0x3bfe663f	0.0077636535
67	0x3bbc9ec7	0.0057562324
68	0x3efa5ff8	0.48901343
69	0x3f24a117	0.64308304
70	0x3e99e5d3	0.30058154
71	0x00000000	0.0
72	0x3cc6a02f	0.024246303
73	0x3c77a9bd	0.015116152
74	0x3c6c2bec	0.014414769
75	0x3c129dd4	0.008948762
76	0x3bd4cac8	0.0064939
77	0x3c5a2440	0.013314307
78	0x3c38db14	0.011282701
79	0x3c371292	0.011173861
80	0x3c0524c4	0.008126441
81	0x3bb1865c	0.005417628
82	0x3f01b5dc	0.5066812
83	0x3f293eb2	0.6611129
84	0x3e98e055	0.29858652
85	0x00000000	0.0
86	0x3cad8ff0	0.021186799
87	0x3c8ef382	0.017450098
88	0x3c7f3125	0.015575682
89	0x3bf6dedd	0.0075338916
90	0x3c02f6d7	0.0079934215
91	0x3c533506	0.01289106
92	0x3c30ee35	0.0107989805
93	0x3c318660	0.01083526
94	0x3c0b7be2	0.008513423
95	0x3bbc9ec5	0.0057562315
96	0x3f0165d2	0.5054599
97	0x3f29e294	0.66361356
98	0x3e92e528	0.28690457
99	0x00000000	0.0
100	0x3c94cbca	0.01816358
101	0x3c777703	0.015104058
102	0x3c66078b	0.014039884
103	0x3c1db637	0.009625963
104	0x3be83579	0.0070864526
105	0x3c503c2b	0.012709658
106	0x3c302351	0.010750608
107	0x3c2c5f9a	0.01052084
108	0x3c0b4921	0.008501322
109	0x3ba4d833	0.005030656
110	0x3f06a390	0.52593327
111	0x3f301082	0.6877519
112	0x3e90dbad	0.282926
113	0x00000000	0.0
114	0x3c8f3f8f	0.017486362
115	0x3c7d35f8	0.015454762
116	0x3c8869b1	0.01665196
117	0x3bf152a7	0.0073645893
118	0x3c012e5a	0.007884586
119	0x3c448b9f	0.011996179
120	0x3c3aa389	0.011391529
121	0x3c357cd0	0.011077121
122	0x3c081d99	0.008307838
123	0x3bd19f3f	0.0063971574
124	0x3f067f1b	0.525377
125	0x3f311474	0.69171834
126	0x3e877be9	0.26461723
127	0x00000000	0.0
128	0x3c8e8e0e	0.017401721
129	0x3c5b5497	0.013386867
130	0x3c4e73af	0.012600823
131	0x3c14990b	0.009069691
132	0x3bfba02b	0.0076790056
133	0x3c526a1c	0.012842681
134	0x3c27d105	0.010242705
135	0x3c2e5ad4	0.010641772
136	0x3c0752b5	0.008259465
137	0x3bb77803	0.0055990233
138	0x3f0cab64	0.5494902
139	0x3f380aa4	0.71891236
140	0x3e83051f	0.25589845
141	0x00000000	0.0
142	0x3c8e41fa	0.017365444
143	0x3c71855f	0.014741271
144	0x3c7b6d6e	0.015345914
145	0x3be69fad	0.007038078
146	0x3c0ea768	0.008706905
147	0x3c4e73b5	0.012600829
148	0x3c334ed9	0.010944092
149	0x3c3c9ec4	0.011512462
150	0x3c01f93c	0.007932957
151	0x3bd3ffe5	0.006469714
152	0x3f0cac2b	0.5495021
153	0x3f396bcb	0.72430104
154	0x3e6c5517	0.23079334
155	0x00000000	0.0
156	0x3c8d5db6	0.017256599
157	0x3c5562f2	0.013024079
158	0x3c35af84	0.0110892095
159	0x3c14990a	0.0090696905
160	0x3c038f02	0.008029701
161	0x3c397339	0.011318975
162	0x3c2cf7c4	0.010557119
163	0x3c2dc2aa	0.010605494
164	0x3c0752b2	0.008259462
165	0x3bc81c96	0.0061069233
166	0x3f1632c6	0.58671224
167	0x3f41c314	0.7568829
168	0x3e665073	0.22491626
169	0x00000000	0.0
170	0x3c967ae8	0.018369153
171	0x3c74b0ea	0.014934758
172	0x3c79a4f4	0.015237082
173	0x3bf9a4f1	0.0076185395
174	0x3c01c685	0.007920866
175	0x3c4523cc	0.01203246
176	0x3c25a31a	0.010109687
177	0x3c3d69a1	0.011560828
178	0x3c062263	0.008186909
179	0x3bd0d456	0.0063729687
180	0x3f14c705	0.5811618
181	0x3f4290c8	0.7600217
182	0x3e5435c6	0.20723638
183	0x00000000	0.0
184	0x3c971312	0.01844171
185	0x3c46ec4a	0.012141297
186	0x3c3bd3e0	0.011464089
187	0x3c0c7976	0.00857388
188	0x3bfd9b63	0.007739471
189	0x3c3ad642	0.011403622
190	0x3c3fca4d	0.011705947
191	0x3c1e4e62	0.009662243
192	0x3c012e59	0.007884585
193	0x3bc5bbf3	0.006034368
194	0x3f1aef53	0.6052143
195	0x3f473194	0.77810025
196	0x3e4e7a0b	0.20163743
197	0x00000000	0.0
198	0x3c947fae	0.018127289
199	0x3c5f1843	0.013616624
200	0x3c679d51	0.014136628
201	0x3bec2be5	0.007207381
202	0x3c07b829	0.008283653
203	0x3c3cd17d	0.011524555
204	0x3c129dd9	0.008948767
205	0x3c2803c0	0.0102548
206	0x3bf613f8	0.0075097047
207	0x3bce73ad	0.0063004107
208	0x3f1afe66	0.6054443
209	0x3f491b5a	0.7855736

network_body.observation_encoder.processors.1.normalizer.running_mean f4 [6]
0	0x427062c1	60.09644
1	0x428b15d9	69.54267
2	0x42704efc	60.077133
3	0x428b54eb	69.665855
4	0x42703792	60.054268
5	0x428b9350	69.78772

network_body._body_endoder.seq_layers.0.weight f4 [128, 216]
0	0xbb90107a	-0.0043964954
1	0xbdbd9cad	-0.09258399
2	0xbc02004a	-0.007934639
3	0xbe1678b8	-0.14694488
4	0xbdcf41be	-0.10119961
5	0x3db11c36	0.08647959
6	0x3dd4a9af	0.10383927
7	0xbd3cde1d	-0.04611026
8	0x3df02b9d	0.117270686
9	0xbc2eba38	-0.010664515
10	0xbc693c1a	-0.014235521
11	0xbd67f5f8	-0.05663106
12	0x3df16985	0.117877044
13	0x3cf6a9a9	0.030110197
14	0xbd16e118	-0.03683576
15	0xbdeee76a	-0.116652325
16	0x3d8afec5	0.06786875
17	0x3daf16a0	0.08549237
18	0xbca08c7c	-0.019598238
19	0x3d3c7e69	0.04601899
20	0x3bdada2b	0.0066788397
21	0xbd107b31	-0.035273734
22	0x3dabdb38	0.08391422
23	0xbd7fcc9b	-0.062450986
24	0xbe03d16e	-0.1287286
25	0xbe2fb80b	-0.1716005
26	0x3d9c7397	0.076392345
27	0x3d1e9e79	0.03872535
28	0xbe0acbbf	-0.13554285
29	0x3d256227	0.04037681
30	0x3d6e51aa	0.05818335
31	0x3dd16130	0.10223615
32	0x3df7f1f1	0.121066935
33	0x3bafad02	0.0053612003
34	0x3db3ff39	0.08788914
35	0xbcf469eb	-0.029835662
36	0xbdb99df0	-0.09063327
37	0x3da4949a	0.08036156
38	0x3e14f7cc	0.14547652
39	0x3ca6c6f1	0.020358535
40	0xbc8585f8	-0.016299233
41	0x3c9421b2	0.018082473
42	0x3dd9ec60	0.10640788
43	0x3d03cf1a	0.03217993
44	0xbc7b7a85	-0.015349035
45	0x3de453c4	0.111487895
46	0x3d3b4c2a	0.045726933
47	0x3d51bafc	0.051203713
48	0xbd0be339	-0.034152243
49	0xbcb42738	-0.021991357
50	0x3d83ab64	0.064291745
51	0x3d82beca	0.063840464
52	0xbe093228	-0.1339804
53	0xbd0a7a08	-0.033807784
54	0x3d6af5b1	0.057363216
55	0xbc0c37b0	-0.008558199
56	0xbd0c70a1	-0.0342871
57	0xbd4a2dbf	-0.049360033
58	0x3e2e338d	0.17011853
59	0x3dd43fd4	0.10363737
60	0xba29d826	-0.0006479047
61	0xbd88a9a1	-0.06672979
62	0xbd4ebfab	-0.050475758
63	0x3d98c5f7	0.07459634
64	0x3dbab169	0.091158696
65	0x3d4c7602	0.04991723
66	0x3d07e9f4	0.0331821
67	0xbd85f494	-0.0654079
68	0x3bb3d98b	0.0054885796
69	0x3decd2ea	0.11563666
70	0x3d408afa	0.04700754
71	0xbd8fc50f	-0.07020008
72	0xbcf30681	-0.029666187
73	0x3d9cade4	0.076503545
74	0x3d47636b	0.048678797
75	0xbda78547	-0.081797175
76	0xbe2427ae	-0.16030762
77	0x3db7ca93	0.08974185
78	0xbcac7dd1	-0.021056088
79	0xbe158e50	-0.14605069
80	0x3c46bd66	0.012130117
81	0xbda09be3	-0.07842233
82	0xbcf628f2	-0.030048821
83	0xbd85a76e	-0.06526075
84	0xbdc41acb	-0.09575423
85	0xbddc70fc	-0.107637376
86	0xbd418f1b	-0.047255617
87	0x3dd65568	0.10465509
88	0xbc28e86f	-0.010309323
89	0x3d8c41eb	0.0684851
90	0xbd7206b2	-0.059088416
91	0x3e204f12	0.15655163
92	0x3daaea01	0.08345414
93	0x3d44a323	0.04800714
94	0x3b6bff2a	0.0036010244
95	0x3d823fa4	0.06359795
96	0xbd17ee42	-0.037092455
97	0xbd1a6fee	-0.0377044
98	0xbd0ea0be	-0.034821264
99	0xbe0bac3e	-0.13639924
100	0x3c007f19	0.007842802
101	0x3dad1630	0.084514976
102	0xbddb7cf6	-0.10717194
103	0x3d842cfb	0.06453892
104	0x3d317d51	0.0433324
105	0xbd95e762	-0.073195234
106	0xbd96f23a	-0.0737042
107	0x3d912990	0.070880055
108	0x3bade4d5	0.00530682
109	0x3cbf5db2	0.023360107
110	0xbda1a0d4	-0.07892004
111	0x3da77829	0.081772156
112	0xbd36c789	-0.044623885
113	0xbd96786c	-0.073471874
114	0xbda2beec	-0.07946572
115	0xbc648d15	-0.013949652
116	0xbd9e5fd8	-0.077331245
117	0xbd8cb0bc	-0.06869647
118	0x3dfe8b94	0.12428966
119	0x3e055ade	0.13022944
120	0x3d5f109f	0.05445921
121	0xbdbdf341	-0.092749126
122	0xbd214da1	-0.039380673
123	0x3c59bcd1	0.013289646
124	0x3da24592	0.07923426
125	0xba89867e	-0.0010492352
126	0x3d3bb40e	0.04582601
127	0x3d23d7d0	0.040000737
128	0xbaa9c41f	-0.0012952125
129	0xbd26ad31	-0.040692512
130	0xbe139b0e	-0.14414617
131	0x3c509873	0.012731659
132	0xbc288583	-0.010285738
133	0x3cfcea63	0.030873483
134	0xbdf0209d	-0.117249705
135	0xbd39efba	-0.045394637
136	0x3cfd5f0c	0.030929111
137	0xbb5f0773	-0.003403154
138	0xbd31b186	-0.04338219
139	0x3d0213b6	0.03175708
140	0xbe098bcf	-0.13432239
141	0xbe167367	-0.1469246
142	0xbd3a8228	-0.045534283
143	0xbc512adf	-0.012766569
144	0x3d60a671	0.05484623
145	0xbda52fe4	-0.08065775
146	0xbd7dc9dc	-0.061960086
147	0xbd88ddaa	-0.06682904
148	0x3db5ffcb	0.08886679
149	0xbd42c437	-0.047550406
150	0xbd67596b	-0.05648176
151	0xbdb7e872	-0.08979882
152	0xbd252755	-0.040320713
153	0x3db6c0db	0.08923503
154	0xba32f98c	-0.00068273465
155	0x3ca131ac	0.019677006
156	0x3c51d7ad	0.012807769
157	0xbd392a4e	-0.04520636
158	0xbd0de249	-0.03463963
159	0xbd987027	-0.07443266
160	0xbc650ff3	-0.013980853
161	0xbc5a5cc4	-0.013327781
162	0xbd82ba4b	-0.06383189
163	0xbe091bcb	-0.13389508
164	0x3ddb2ec2	0.10702278
165	0x3d969492	0.07352556
166	0xbd0e7b93	-0.03478582
167	0x3ce2fe1f	0.027709065
168	0xbcff56d0	-0.031169325
169	0x3c84cf33	0.016212082
170	0x3d19c69a	0.037542917
171	0x3cc4f836	0.024044137
172	0xbd72d4b9	-0.0592849
173	0x3c850564	0.016237922
174	0x3d3d9aab	0.04629008
175	0xbb50b020	-0.003184326
176	0x3de82521	0.11335207
177	0x3d0ab092	0.033859797
178	0x3de3e955	0.11128489
179	0x3de8100e	0.11331187
180	0xbd5c9677	-0.053854432
181	0x3d1135d6	0.035451733
182	0x3c30f5df	0.010800808
183	0x3bb0e818	0.0053987615
184	0x3dc764d3	0.097360276
185	0xbd9f27fd	-0.07771299
186	0xbd9607c8	-0.07325703
187	0xbd0fc0a8	-0.03509584
188	0x3d3795b3	0.0448205
189	0xbd6f39f3	-0.058404874
190	0x3d592ae2	0.05301941
191	0x3d206c36	0.039165698
192	0xbbabf23b	-0.005247382
193	0xbc26c818	-0.010179542
194	0x3c90ef7a	0.017692316
195	0xbdffb3fd	-0.12485502
196	0xbcd86a15	-0.026417771
197	0x3d92e344	0.07172254
198	0xbd8f5436	-0.06998484
199	0xbd9afacb	-0.07567366
200	0xbda254ae	-0.079263076
201	0x3ca15701	0.019694807
202	0xbd66ae56	-0.056318603
203	0xbc0fb163	-0.00877032
204	0x3c49e19f	0.012321859
205	0xbd0c62bf	-0.03427386
206	0x3cccd557	0.025004072
207	0x3d706bdb	0.05869661
208	0xbd34dd88	-0.04415658
209	0x3d848ca0	0.064721346
210	0xbc6ca798	-0.014444254
211	0xbde8091b	-0.11329862
212	0x3d6d9994	0.05800779
213	0x3d664f1e	0.056227796
214	0x3d21eea2	0.03953422
215	0xbd0bc2e2	-0.0341214
216	0xbd2b35a8	-0.041799217
217	0xbd62effb	-0.055404644
218	0xbcbfeee5	-0.023429343
219	0xbd6b6712	-0.057471342
220	0xbd313a92	-0.043268748
221	0xbd54442a	-0.05182282
222	0xbb971da2	-0.004611687
223	0xbc50a542	-0.012734713
224	0xbd130689	-0.035894904
225	0xb9e1b512	-0.00043050252
226	0xbd422126	-0.047394894
227	0x3cb23776	0.021754961
228	0xbe1e4ee2	-0.15459779
229	0x3da0b6a4	0.07847336
230	0x3dd43bd3	0.10362973
231	0x3d0e8eb8	0.034804076
232	0xbdbf1cf1	-0.09331692
233	0xbcd0cc56	-0.02548806
234	0xbd474135	-0.04864617
235	0xbd35ba33	-0.044367027
236	0x3c571316	0.013127109
237	0x3cc6579d	0.0242117
238	0xbd307e0b	-0.043088954
239	0x3ae22048	0.0017252052
240	0xbc294e01	-0.010333539
241	0x3b80840e	0.003921992
242	0xbe0c5dd9	-0.13707675
243	0xbc7005b6	-0.014649799
244	0xbdc2d5d8	-0.09513444
245	0x3d4710cb	0.0486
246	0xbd371a19	-0.044702623
247	0x3b43e253	0.0029889538
248	0x3cacaec0	0.021079421
249	0xbe04832e	-0.12940666
250	0x3ce10f6c	0.027473174
251	0xbd3b904e	-0.045791917
252	0xbcdcaa3a	-0.02693664
253	0xbb0ca127	-0.002145836
254	0xbdebd351	-0.11514915
255	0x3d8b2e1c	0.06795904

network_body._body_endoder.seq_layers.0.bias f4 [128]
0	0xbc115527	-0.0088704
1	0x3c48490f	0.01222445
2	0xbc1ab7b7	-0.009443215
3	0xbb5f0d9b	-0.003403521
4	0x3c11217d	0.008858082
5	0xbaf50bda	-0.0018695549
6	0x3c93fa8a	0.018063802
7	0x3c41d655	0.011830886
8	0x3a96c6b0	0.0011503305
9	0xbc8749d1	-0.01651469
10	0x3b11a008	0.002222063
11	0xbc7c3d2e	-0.015395446
12	0xbca1dd8b	-0.01975896
13	0xbb886095	-0.004161904
14	0xbc5f8c9e	-0.013644366
15	0xbc2dca74	-0.010607351
16	0xbc592733	-0.013253975
17	0x3c5eb243	0.013592306
18	0xbbcb3ae8	-0.0062020905
19	0x3b9f3bf1	0.0048594405
20	0xbbe0de90	-0.006862469
21	0xbc7de7b0	-0.015497133
22	0xbcd329ae	-0.02577671
23	0xbc05474a	-0.008134672
24	0x3be1614f	0.006878055
25	0x3cd4903e	0.025947686
26	0xbbe47744	-0.0069722254
27	0x3bf729eb	0.007542839
28	0xbc5c44f1	-0.013444171
29	0x3c67587f	0.01412022
30	0xbba27fa4	-0.0049590636
31	0xbc8e756d	-0.017389977
32	0x39a2c24a	0.00031043804
33	0x3c0c654e	0.008569075
34	0xbc20a92e	-0.009805961
35	0xbc74033f	-0.014893352
36	0xbae78149	-0.0017662431
37	0x3b2be9e4	0.002623194
38	0xbb91b8bb	-0.0044470704
39	0xbc389891	-0.011266843
40	0xbc80c0af	-0.015716879
41	0x3c141b93	0.009039777
42	0x3ab27050	0.0013613794
43	0x3caaf3ff	0.0208683
44	0x3cce0b7b	0.025151959
45	0x3b89bbd9	0.0042033014
46	0xbbc54714	-0.006020436
47	0xbb65cabc	-0.0035063466
48	0x3bb75e8e	0.0055959886
49	0x3cbe9067	0.023262216
50	0x3b45eb34	0.0030200006
51	0x3abff19d	0.001464415
52	0xbc01f0cc	-0.007930946
53	0x3c7368e7	0.014856554
54	0xbc8380e2	-0.016052667
55	0x3c40b13c	0.011761006
56	0xbcecd85b	-0.02891176
57	0x3bd07913	0.0063620894
58	0x3c33ecb2	0.0109817255
59	0xbb77d603	-0.003781677
60	0x3c7ea750	0.01554282
61	0x3a8356cd	0.0010020375
62	0xbb1aaaa5	-0.0023600247
63	0xbc8f3564	-0.017481513
64	0xbc097711	-0.008390204
65	0x3c108968	0.008821823
66	0x3cafc2da	0.021455217
67	0x3c0a09bd	0.008425173
68	0x3b9fd5bf	0.0048777754
69	0xbb6ccc70	-0.0036132596
70	0xbb32bcfd	-0.002727329
71	0xbc228187	-0.009918577
72	0xbc828405	-0.015932092
73	0x3b828c0e	0.003983981
74	0xbbacfa5e	-0.0052788695
75	0x3c5d6a58	0.013514124
76	0xbb417be8	-0.0029523317
77	0x3cfdefff	0.030998228
78	0x3c8a5eda	0.016890932
79	0x3b2ffb72	0.0026852754
80	0x3baf3f50	0.0053481236
81	0x3bbc604d	0.0057487846
82	0x3b1bc2ba	0.002376719
83	0x3cafa977	0.021443112
84	0xbbcea368	-0.0063061006
85	0xbc3fedeb	-0.011714439
86	0xbbc0b049	-0.00588039
87	0x3bb765b5	0.005596841
88	0x3c0d0cb2	0.008608984
89	0xbaff21b6	-0.0019465003
90	0xbc877614	-0.016535796
91	0x3c856973	0.016285634
92	0x3c68a3c0	0.014199197
93	0xbce31efa	-0.027724732
94	0xbc60cd18	-0.013720773
95	0x3ad2697f	0.0016053169
96	0x3c0f99ec	0.008764725
97	0x3bd9d7e9	0.006648053
98	0xbb8877d6	-0.004164676
99	0x3bb0744e	0.0053849583
100	0x3c5bd2af	0.01341693
101	0xbc0735fb	-0.008252616
102	0xba3aadb6	-0.0007121222
103	0xbc636fba	-0.013881618
104	0xbc006375	-0.007836212
105	0x3bd195eb	0.0063960454
106	0xbb8d2e71	-0.0043085148
107	0x3c2184af	0.009858294
108	0x3b69b537	0.003566099
109	0xbc4a29cb	-0.012339066
110	0xba8507f4	-0.0010149465
111	0x3be8a0e0	0.007099256
112	0x3c33971d	0.010961321
113	0xbb80d53b	-0.003931669
114	0xbc2eb6c6	-0.010663694
115	0x3a8f5878	0.00109364
116	0xbc10d02d	-0.0088386955
117	0xbb913bd6	-0.004432182
118	0x3cbf54da	0.02335589
119	0x3cae1dc3	0.021254426
120	0x3bbcfe7e	0.0057676425
121	0x3c643290	0.013928071
122	0xbc86072f	-0.016360847
123	0xbce9dfe2	-0.028549138
124	0x3c69ef0b	0.014278184
125	0x3cc21417	0.02369122
126	0xba71710d	-0.0009210266
127	0x3c4c5ef9	0.012473815

network_body._body_endoder.seq_layers.2.weight f4 [128, 128]
0	0xbdd77e59	-0.10522146
1	0x3dbe9306	0.09305386
2	0xbdcb335b	-0.09921905
3	0xbd6aca60	-0.057321906
4	0x3e0101dd	0.12598367
5	0xbc2fdcb6	-0.010733774
6	0x3bedebb2	0.007260763
7	0x3e25bd88	0.16185582
8	0x3e18056d	0.1484582
9	0xbdda73f9	-0.10666651
10	0xbe00704b	-0.12542836
11	0xbbb8847b	-0.0056310273
12	0xbccacfcb	-0.024757287
13	0x3d723f8e	0.05914264
14	0xbccdf8b0	-0.025142998
15	0x3c5800f5	0.013183822
16	0xbc72a8de	-0.014810769
17	0xbd0a0c16	-0.033702932
18	0xbe4ce492	-0.20009068
19	0x3c93b93a	0.018032659
20	0xbd95aaa0	-0.07307935
21	0x3dad7230	0.08469045
22	0x3dc2ac00	0.09505463
23	0x3a854533	0.0010167718
24	0xbcb9f306	-0.02269889
25	0x3d6c6f34	0.05772324
26	0x3d34be67	0.044126894
27	0xbc2c8aab	-0.010531108
28	0xbd47c3ab	-0.048770588
29	0xbe448a66	-0.1919342
30	0xbd1b1c53	-0.03786881
31	0xbd054a4e	-0.032541566
32	0xbe64b3dd	-0.22334237
33	0x3b17f925	0.0023189273
34	0xbd83897f	-0.0642271
35	0xbd4e68df	-0.05039298
36	0x3cf515e1	0.02991766
37	0x3d0857e9	0.033286963
38	0xbd813165	-0.063082494
39	0xbc2f933c	-0.010716256
40	0x3d995331	0.074865706
41	0xbd64fc04	-0.055904403
42	0x3d29ae9d	0.04142629
43	0x3c8e3482	0.017359022
44	0x3c74127f	0.014896988
45	0xbcff0d3f	-0.031134246
46	0x3dc2749f	0.094949
47	0x3c252911	0.010080592
48	0xbdaab860	-0.08335948
49	0xbbcea509	-0.006306295
50	0xbae3b8ae	-0.0017373764
51	0x3e0ed02c	0.13946599
52	0xbe508c2a	-0.20365968
53	0xbdb18fb5	-0.08669988
54	0x3d117d7f	0.035520073
55	0xbd008513	-0.03137691
56	0x3e25ccc5	0.16191395
57	0xbdb2fb00	-0.08739281
58	0xbcb54f2a	-0.022132475
59	0x3dab34c8	0.083596766
60	0x3d5923b0	0.05301255
61	0x3d60ec41	0.05491281
62	0xbd916070	-0.07098472
63	0x3d731493	0.059345793
64	0x3c3ce4f6	0.011529198
65	0xbd7bc2e1	-0.061465148
66	0xbc543dc5	-0.01295418
67	0xbd0c87e8	-0.034309298
68	0xbda108e5	-0.078630246
69	0xbd1c12ce	-0.03810387
70	0xbc863c0c	-0.016386054
71	0xbe194d5e	-0.1497092
72	0x3de8c142	0.11364986
73	0x3db289bd	0.08717678
74	0xbdbdfe43	-0.09277012
75	0x3dc2bf87	0.09509187
76	0xbe81cf79	-0.25353602
77	0x3e27d305	0.16389091
78	0x3dbe0c6c	0.09279713
79	0x3e028e5d	0.1274962
80	0x3dbacb45	0.09120802
81	0x3dac81e9	0.08423216
82	0x3cb61d7b	0.022230854
83	0xbcb52ff5	-0.022117594
84	0x3e1017cd	0.1407158
85	0x3d96c11b	0.07361051
86	0x3c4ce991	0.012506858
87	0x3da0a87d	0.078446366
88	0xbdbd0cf9	-0.0923099
89	0x3da08417	0.07837694
90	0xbd8cada9	-0.068690605
91	0x3d71c16f	0.059022363
92	0x3dbbc546	0.09168486
93	0xbce0fa87	-0.02746321
94	0x3d861a95	0.06548039
95	0xbd27abed	-0.040935446
96	0x3c7c029c	0.0153814815
97	0x3e38fd0f	0.18065284
98	0xbb877022	-0.0041332403
99	0xbdc3487a	-0.09535308
100	0x3e0b9897	0.13632427
101	0xbc07cd34	-0.00828867
102	0x3d812ca1	0.063073404
103	0xbc21d513	-0.009877461
104	0x3d8bc1c3	0.068240665
105	0x3dc7fb62	0.09764744
106	0xbe177fa8	-0.1479479
107	0xbcfd72e0	-0.030938566
108	0xbc0540f9	-0.0081331665
109	0x3dd1bcdd	0.10241101
110	0x3d2d33d8	0.04228577
111	0xbbb5cbf8	-0.0055479966
112	0x3dede6ca	0.11616285
113	0xbc9db747	-0.019252433
114	0xbd7f2eeb	-0.062300604
115	0xbb3224b4	-0.0027182521
116	0xbe0984a5	-0.13429506
117	0x3e449768	0.19198382
118	0xbd9959b6	-0.07487814
119	0x3d7e15ef	0.062032636
120	0x3d95be7d	0.073117234
121	0xbda78340	-0.08179331
122	0x3d6fa2f4	0.058505014
123	0x3c8d7d73	0.017271733
124	0xbdf491af	-0.119418494
125	0xbe8f3bf7	-0.27975437
126	0xbdaa8f18	-0.08328074
127	0x3db8ae85	0.09017662
128	0x3da05052	0.0782782
129	0x3cb88721	0.022525372
130	0xbe4cfafc	-0.20017618
131	0xbd1b8b47	-0.037974622
132	0xbd7d7d5c	-0.06188713
133	0xbc9abc6f	-0.01888868
134	0x3d7c3ce5	0.06158151
135	0x3daa35cb	0.083110414
136	0xbda10116	-0.07861535
137	0xbb8ed155	-0.0043584504
138	0x3e59659f	0.21230172
139	0xbd2ba4a7	-0.04190507
140	0xbe5b63e0	-0.21424818
141	0xbd38b516	-0.045094572
142	0xbdf66e4b	-0.120327555
143	0xbd3b9083	-0.045792114
144	0xbdec2603	-0.11530688
145	0xbd1b1843	-0.037864935
146	0x3da14fc1	0.0787654
147	0xbb3106df	-0.0027012152
148	0xbce5ab34	-0.028035738
149	0xbc7d4fa9	-0.015460887
150	0xbc1f4599	-0.009721183
151	0xbd5aea5e	-0.053446166
152	0xbdb06144	-0.08612302
153	0x3c64151f	0.013921051
154	0xbdc51f9b	-0.09625169
155	0xbd039e5a	-0.032133438
156	0x3da37d1d	0.07982848
157	0x3d268039	0.040649626
158	0xbd7135d3	-0.05888922
159	0x3d19d74c	0.03755884
160	0x3e438cd9	0.19096698
161	0x3e588e4f	0.21148036
162	0x3d918d25	0.07106999
163	0x3da95a16	0.08269136
164	0x3dbd814d	0.09253178
165	0xbdcd69d8	-0.10029954
166	0xbd5f2ee5	-0.05448808
167	0x3e108812	0.14114407
168	0xbd331e9c	-0.043730363
169	0x3cca1f91	0.024673255
170	0xbc834460	-0.016023815
171	0xbd49d027	-0.049270775
172	0x3d1ae2bb	0.037813883
173	0x3df10030	0.11767614
174	0xbe24d8cd	-0.16098328
175	0x3d7beb07	0.061503436
176	0xbcdeb9e0	-0.027188241
177	0xbd20b5d4	-0.039235905
178	0xbd9080d5	-0.07055823
179	0xbdc5476e	-0.09632765
180	0x3e062ac1	0.13102247
181	0x3c9ea7d1	0.01936713
182	0x3c83722e	0.016045656
183	0x3d8cfa70	0.06883705
184	0xbd9b7138	-0.07589954
185	0x3c8e0928	0.01733835
186	0xbc6821b0	-0.014168188
187	0xbdeaa82b	-0.11457857
188	0xbe13673c	-0.1439485
189	0xbce11bed	-0.027479136
190	0xbbfda239	-0.0077402857
191	0x3dbdb4a3	0.09262969
192	0xbcfdeaf2	-0.03099582
193	0xbda8ab62	-0.08235814
194	0x3da1edaf	0.07906663
195	0x3ddf91d5	0.10916487
196	0x3c1b9cda	0.009497846
197	0x3d00f1ab	0.031480473
198	0xbde75303	-0.1129513
199	0x3d6f833b	0.05847476
200	0xbbf2f0ab	-0.0074139438
201	0x3d47b93e	0.048760645
202	0xbd4c9b1a	-0.049952604
203	0x3d565ede	0.052336566
204	0x39ad1c73	0.00033018328
205	0x3d812e22	0.06307627
206	0xba9ca141	-0.0011949913
207	0x3d7bd648	0.06148365
208	0xbd299276	-0.04139944
209	0x3d717299	0.05894718
210	0xbafc5489	-0.0019251268
211	0x3c42e736	0.011895945
212	0xbd59059d	-0.05298387
213	0xbe2d39fe	-0.16916654
214	0xbd69e779	-0.057105515
215	0xbd9b43c1	-0.075812824
216	0xbdde962f	-0.10868489
217	0x3cbddca0	0.023176491
218	0xbde7761d	-0.11301825
219	0xbd8462f2	-0.06464185
220	0xbda84519	-0.08216304
221	0xbd9552cb	-0.07291182
222	0x3dcb4a3c	0.099262685
223	0x3e1c0b28	0.15238631
224	0xbd45f210	-0.048326552
225	0x3db11cbb	0.08648058
226	0x3d10e5c8	0.035375386
227	0x3d31c179	0.0433974
228	0x3d6f79c2	0.058465727
229	0x3e0143a5	0.1262346
230	0x3e4f572a	0.20248094
231	0x3c7d1972	0.015447961
232	0xbe36c3c7	-0.1784812
233	0x3e179021	0.14801075
234	0xbba6dc3c	-0.005092172
235	0xbdb23052	-0.087006226
236	0xbd9e12f0	-0.07718456
237	0x3c85989c	0.016308121
238	0xbd9fcc9c	-0.07802698
239	0xbde34ca3	-0.11098602
240	0x3cf08045	0.029358039
241	0xbd9785fd	-0.07398603
242	0xb9c3ed6e	-0.00037370197
243	0xbd1761c9	-0.03695849
244	0x3cd1080d	0.025516534
245	0xbde9cace	-0.11415635
246	0xbe850f68	-0.25988317
247	0x3d10d0d7	0.035355415
248	0x3dc192da	0.09451838
249	0x3d5150ce	0.051102452
250	0x3d248e16	0.040174566
251	0xbdeda69f	-0.11604046
252	0x3cda5ae0	0.02665466
253	0x3d304b43	0.043040525
254	0xbcec9448	-0.0288793
255	0xbe06dcad	-0.13170119

network_body._body_endoder.seq_layers.2.bias f4 [128]
0	0xbb51f2ce	-0.0032035592
1	0xbb8d2b46	-0.004308137
2	0x3cbeaa43	0.023274546
3	0x3b9e0df3	0.00482344
4	0x3bdf3856	0.0068121357
5	0x3c8eeb51	0.017446192
6	0xbbaf8e77	-0.0053575593
7	0xbc5b9b26	-0.0134036895
8	0xbc82187e	-0.01588082
9	0x3bd64cba	0.0065399082
10	0xbca40222	-0.020020548
11	0x3c86fa95	0.016476909
12	0x3b673984	0.0035282085
13	0x3c67752e	0.014127059
14	0xbc9af914	-0.018917598
15	0x36e35b74	6.7757737e-06
16	0x3c26fef1	0.010192619
17	0xbc63d9ae	-0.013906879
18	0xbc029816	-0.00797083
19	0x3c8cfcab	0.017210325
20	0xbc26b726	-0.010175502
21	0x3c5bb62d	0.013410133
22	0xbadef09e	-0.0017008965
23	0xbc4b0330	-0.012390897
24	0x3bc0eaa0	0.0058873445
25	0x39a12ab6	0.00030740135
26	0x3bf62063	0.007511185
27	0x387c8e8e	6.0214246e-05
28	0x3cdb14ce	0.026743319
29	0xbc7318ce	-0.014837457
30	0x3b2af1b5	0.002608401
31	0x3bf4578d	0.007456726
32	0xbb9523ff	-0.00455141
33	0xbcc0e8fc	-0.023548596
34	0xbbf4f347	-0.00747529
35	0xbc056c94	-0.008143563
36	0x3b4d750e	0.0031350288
37	0xba89e3d2	-0.0010520166
38	0xbcba4d77	-0.022742016
39	0x3cd59843	0.02607358
40	0x3ca2425a	0.01980703
41	0xbc988ed1	-0.018622788
42	0x3ce3fc68	0.027830318
43	0xbccd77d7	-0.025081558
44	0x3b83d91e	0.004023685
45	0x3c56b747	0.01310522
46	0xbace1e84	-0.0015725647
47	0x3c58d4d0	0.013234332
48	0x3b897b45	0.004195603
49	0x3c2c3208	0.010509975
50	0x3be4f883	0.0069876327
51	0xbc80e182	-0.01573253
52	0xba3fbff3	-0.00073146744
53	0x3cbf28fd	0.023334974
54	0xbb2f45b9	-0.0026744439
55	0xba4d9591	-0.00078424165
56	0xbc5148f9	-0.012773746
57	0xbc10d6ea	-0.008840302
58	0xbbf138d4	-0.007361511
59	0xbba3be2a	-0.0049970346
60	0xbc6dbb8a	-0.014510045
61	0xbb473fff	-0.0030403135
62	0xbc9971c3	-0.018731004
63	0xbbc1eeb6	-0.005918349
64	0xbc58d47c	-0.013234254
65	0x3c5edf12	0.013602989
66	0x3bdc4754	0.00672237
67	0xbb6910c0	-0.0035562962
68	0xbcb5976b	-0.022166928
69	0xbc5a2710	-0.013314977
70	0x3c418d42	0.011813464
71	0x3c34c8d3	0.011034208
72	0xbca05ddf	-0.019576011
73	0xbbf0f86f	-0.0073538343
74	0xbb6f3e4d	-0.003650564
75	0x39af980e	0.0003349189
76	0xbce58d8d	-0.028021598
77	0x3c3173a9	0.010830798
78	0x3ca8af44	0.020591386
79	0xbc8f1b55	-0.017469088
80	0x3c4460be	0.011985956
81	0x3b1407a6	0.0022587567
82	0x3c531858	0.012884222
83	0xbc843efc	-0.016143315
84	0xbcf574ea	-0.029962976
85	0xbb95a147	-0.004566345
86	0xbb052426	-0.0020315736
87	0x3c64c771	0.013963566
88	0xbc5a6cd5	-0.013331612
89	0xbc4b4bbf	-0.012408196
90	0xbc0fdb74	-0.008780349
91	0x3c487560	0.012235016
92	0x3b75d7b0	0.0037512593
93	0x3b2032e3	0.0024444393
94	0x3c5899ba	0.013220245
95	0x3caa7a82	0.02081037
96	0x3c262163	0.010139796
97	0x3bbd2345	0.0057720267
98	0x3b642ed5	0.0034817953
99	0x3cb40f05	0.021979818
100	0xbc6dc3cf	-0.014512016
101	0xbc0e20c7	-0.008674807
102	0x3c8efcf4	0.017454602
103	0xbb8ae64a	-0.0042388784
104	0x3cb7db9f	0.02244359
105	0xbc96c399	-0.018403815
106	0x3bd4fac3	0.0064996197
107	0xbca2f8e5	-0.019894073
108	0x3c8262fd	0.015916342
109	0xbbb5e4eb	-0.005550971
110	0x3b3d3f31	0.0028876776
111	0xbc44b1bb	-0.012005265
112	0xbc37eac2	-0.011225404
113	0x3c2e9d09	0.010657557
114	0x3c0166ba	0.007898027
115	0x3be64107	0.007026795
116	0xbc04e21c	-0.008110549
117	0x3a9f72f2	0.0012164994
118	0xbcb9ff91	-0.022704871
119	0x3acdc503	0.0015698973
120	0x3c2ff53e	0.010739623
121	0x3b7156ba	0.0036825375
122	0xbc5e4259	-0.013565623
123	0xbc6a6031	-0.01430516
124	0x3cab00d1	0.020874413
125	0x3c3d4888	0.011552937
126	0xbc9a4f80	-0.018836737
127	0xbbbc66c4	-0.0057495553

action_model._discrete_distribution.branches.0.weight f4 [2, 128]
0	0xbca8ae79	-0.020591008
1	0x3cdb4155	0.026764551
2	0x3c00d9a0	0.007864386
3	0xbc70467e	-0.014665244
4	0x3cad0da7	0.021124674
5	0x3cddeb50	0.027089745
6	0xbafbb350	-0.001920322
7	0x3c2896b4	0.010289837
8	0xbca812a1	-0.020516695
9	0x39a6ab79	0.00031789744
10	0x3ca20e0f	0.019782094
11	0x3cc06634	0.023486234
12	0x3cf52550	0.029925019
13	0xbc768979	-0.0150474245
14	0xbc94f406	-0.018182766
15	0xbc887021	-0.01665503
16	0x3d57859b	0.05261765
17	0xbb1d5fa2	-0.00240133
18	0xbcec3bf8	-0.02883719
19	0x3c8f3c41	0.017484786
20	0xbd28b4d2	-0.04118807
21	0xbce16049	-0.027511733
22	0xbc8fd6ba	-0.017558444
23	0x3c3a7867	0.011381245
24	0x3c919d62	0.017775241
25	0x3ce16b8f	0.027517108
26	0x3cc7e84a	0.024402756
27	0x3c813add	0.015775139
28	0x3c04dd63	0.008109423
29	0xbcc1936c	-0.023629867
30	0x3cd93376	0.026513796
31	0xbceab9f7	-0.028653128
32	0xbc377009	-0.011196145
33	0x3c16e0fa	0.009208912
34	0xbc36fb9d	-0.011168388
35	0xbbcd2e23	-0.0062616034
36	0x3c86d5bc	0.016459338
37	0xbcdd0721	-0.026980938
38	0xbc96bafe	-0.018399712
39	0x3bfec5a8	0.0077750273
40	0x3d1ef205	0.038805027
41	0x3ce3a34e	0.02778783
42	0x3d86f911	0.065904744
43	0xbbf5bec9	-0.00749955
44	0x3cfd9022	0.030952517
45	0x3cb5bad1	0.022183808
46	0xbc62be6a	-0.013839344
47	0xbcc23ea5	-0.023711512
48	0x3cf05e88	0.029341951
49	0x3c0e72cc	0.008694362
50	0xbd8913f2	-0.066932574
51	0x3b6ba156	0.0035954318
52	0x3ba00b28	0.0048841424
53	0x3c4ac023	0.0123749105
54	0x3ccc5d0b	0.02494671
55	0xbd2f191d	-0.04274856
56	0x3c5fa5d3	0.013650375
57	0xbc81ac2e	-0.015829172
58	0x3c5a3f58	0.013320766
59	0x3af705d4	0.0018846341
60	0x3ca8196e	0.020519938
61	0xbd0997bf	-0.033591982
62	0xbb5940af	-0.0033150127
63	0xbcb68b95	-0.022283355
64	0xbb17dbad	-0.0023171708
65	0x3d1c90dd	0.03822409
66	0xbc2aec77	-0.010432354
67	0x3a065273	0.000512398
68	0x3b694fd3	0.0035600557
69	0xbc7eb9df	-0.015547245
70	0xbb74920e	-0.00373185
71	0x3ce63ebd	0.028106088
72	0xbb94d2f6	-0.00454175
73	0xbd3dbf7f	-0.046325203
74	0x3cb3d12e	0.02195033
75	0x3a4f7f34	0.0007915378
76	0x3b8c02d7	0.0042727995
77	0xbcf947e5	-0.03042979
78	0x3a8fc641	0.0010969118
79	0x3a0b8442	0.0005322137
80	0x3d0824a0	0.033238053
81	0xbbb976e4	-0.005659925
82	0x3cd46164	0.025925346
83	0x3b0af750	0.0021204539
84	0xbb0106fe	-0.0019688006
85	0xbc7aff01	-0.015319587
86	0x3b63184d	0.0034651936
87	0x3cf54f39	0.029945003
88	0xbc2163b6	-0.009850433
89	0xbc8c7a06	-0.017148029
90	0xbd515606	-0.05110743
91	0x3c2d9632	0.010594891
92	0x3ca89fb7	0.02058397
93	0xbbc9edc3	-0.0061623766
94	0xbc2801f2	-0.01025437
95	0x3d2bc06c	0.041931555
96	0xbcc8b4d0	-0.02450028
97	0x3cbd3376	0.023095828
98	0xbd57a66e	-0.052648954
99	0x3c62abfc	0.01383495
100	0x3bcaaeb4	0.006185377
101	0x3ca15753	0.01969496
102	0x3ad09846	0.0015914522
103	0x3cee1e80	0.029067278
104	0x3cf6d261	0.030129613
105	0x3b4817a2	0.0030531664
106	0xbc05ecd5	-0.008174141
107	0x3b7fc750	0.0039028712
108	0x3cbff930	0.023434252
109	0xbc8cbba5	-0.01717932
110	0xbb74cf22	-0.0037354906
111	0xbb38f131	-0.0028219933
112	0x3be809a4	0.0070812274
113	0xbc0e5c15	-0.008688946
114	0x3c01b7cc	0.007917356
115	0x3c8fe950	0.017567307
116	0xbcb0fd79	-0.02160524
117	0xbbace149	-0.0052758795
118	0x3992f605	0.0002803059
119	0xbb22291d	-0.0024743744
120	0xbd545521	-0.051838998
121	0x3bc9d72d	0.006159684
122	0xbc2947db	-0.010332073
123	0xbb39870c	-0.0028309254
124	0x3cf6b46e	0.030115332
125	0x3c1d83ce	0.009613944
126	0xbc3f7041	-0.011684478
127	0x3c817a84	0.01580549
128	0x3c1ff7bf	0.009763657
129	0xbccf04f3	-0.025270915
130	0xbba47810	-0.0050191954
131	0x3b7f7a95	0.0038982977
132	0xbc9d8755	-0.01922957
133	0xbcf42306	-0.029801857
134	0x3c5a5615	0.013326188
135	0x3be3ce93	0.006952116
136	0x3c0f680c	0.008752834
137	0x3bd9facd	0.0066522122
138	0xbb4860d6	-0.0030575297
139	0xbd1edc98	-0.038784593
140	0xbd181167	-0.03712597
141	0x3a783773	0.0009468712
142	0x3bdd1c81	0.0067477827
143	0xb8e6d84a	-0.000110075416
144	0xbd131d77	-0.03591677
145	0x3c54d946	0.012991255
146	0x3c36d3ee	0.011158926
147	0xbc488eed	-0.012241107
148	0x3cb270d2	0.021782313
149	0x3c74b8a8	0.014936604
150	0x3cd27699	0.025691317
151	0xbc4101ea	-0.0117802415
152	0x3bb7b27d	0.0056059943
153	0xbc87fc69	-0.01659985
154	0xbd26009c	-0.040527925
155	0xb93e62ba	-0.0001815659
156	0xbbbd4f2c	-0.0057772603
157	0xbb4426d2	-0.0029930365
158	0xbc809637	-0.015696628
159	0x3c894116	0.016754668
160	0x3cbce28c	0.023057245
161	0xbb1c2216	-0.0023824028
162	0xb9739946	-0.00023231385
163	0xbc759757	-0.0149896955
164	0xbbc9aa3e	-0.0061543277
165	0x3c575f15	0.013145228
166	0x3cc75796	0.024333756
167	0xbc6efabc	-0.014586147
168	0xbd523615	-0.051321108
169	0xbbcc5018	-0.006235134
170	0xbd3bdfc9	-0.045867715
171	0x3c18ef90	0.00933446
172	0xbcf096f5	-0.029368857
173	0xbd0b3753	-0.03398831
174	0x3cb3be7b	0.021941414
175	0x3b9a0be2	0.0047011236
176	0xbc83dfd8	-0.016097948
177	0xbbd116b4	-0.0063808803
178	0x3d744037	0.059631553
179	0xbab7c6f5	-0.0014021086
180	0x3c4ab502	0.012372257
181	0xbccb98f6	-0.02485321
182	0xbcb7e81f	-0.022449551
183	0x3d5dd4f2	0.05415816
184	0xbc1c8620	-0.009553462
185	0x3c06d096	0.008228442
186	0xbc8d9a7c	-0.017285578
187	0x3d0e00ff	0.03466892
188	0xbc493b42	-0.012282195
189	0x3cd8ca91	0.026463779
190	0x3b9cf58a	0.0047900127
191	0x3cdaa1bd	0.026688451
192	0x3b61202c	0.0034351451
193	0xbd1d6362	-0.038424857
194	0x3cc36cf1	0.023855658
195	0x3cadffd3	0.02124015
196	0xbc4583f2	-0.012055384
197	0x3c24edb2	0.010066437
198	0xbb5835cf	-0.0032991057
199	0xbcbd79d6	-0.023129385
200	0x3b8cb104	0.004293563
201	0x3cfcd331	0.030862423
202	0xbc004a16	-0.007830163
203	0x3c261dfb	0.010138984
204	0x3b5184d7	0.0031970048
205	0x3ce4f93a	0.027950872
206	0x39d48a95	0.00040539043
207	0x3c0accf6	0.008471718
208	0xbcc7fc93	-0.024412429
209	0x3c732334	0.014839936
210	0xbccdc27a	-0.025117148
211	0x3c85ed30	0.016348451
212	0xbc0df1f4	-0.008663643
213	0x3d2a7c05	0.04162218
214	0xbc8bf081	-0.017082455
215	0xbc512ae7	-0.012766576
216	0x3c7258f3	0.014791715
217	0x3cd71a5b	0.026257684
218	0x3cb4f77b	0.022090664
219	0xba897e74	-0.0010489956
220	0xbce4b0cd	-0.027916336
221	0x3c1a5b59	0.009421193
222	0x3b2b135f	0.0026104075
223	0xbcd44aee	-0.025914636
224	0x3c0f1191	0.0087322155
225	0xbc810e76	-0.015753966
226	0x3d287864	0.04113044
227	0xb963c43b	-0.00021721509
228	0xbbc113a4	-0.005892234
229	0xbd163aa5	-0.03667702
230	0xbbe6910a	-0.007036333
231	0xbd0b2ae3	-0.033976447
232	0xbce2650a	-0.02763607
233	0x3cf87951	0.030331286
234	0x3ca7cce9	0.020483451
235	0xbae53018	-0.0017485647
236	0xbd116cd9	-0.035504196
237	0x3cc6fae1	0.02428955
238	0x3c26b693	0.010175365
239	0x3ad5ba99	0.0016306221
240	0xbd0b937f	-0.03407621
241	0x3c5a261e	0.013314752
242	0xbc5820fa	-0.013191456
243	0xbc82d97c	-0.015972845
244	0x3ce02045	0.027359137
245	0x3c5a8509	0.013337382
246	0x3c2f7734	0.010709573
247	0x3bc23718	0.005926978
248	0x3d63734a	0.05552987
249	0xbc703f4b	-0.014663528
250	0x3c5cd9f9	0.013479703
251	0xbbfa425f	-0.0076373066
252	0xbd2a4d4c	-0.041577622
253	0x3aa6d4a8	0.0012728171
254	0xbb8803ec	-0.004150858
255	0xbd160708	-0.0366278

action_model._discrete_distribution.branches.0.bias f4 [2]
0	0x3be98a52	0.007127085
1	0xbbe98a4f	-0.0071270834

action_model._discrete_distribution.branches.1.weight f4 [3, 128]
0	0xbcd036e3	-0.025416797
1	0x3c4ea488	0.0126124695
2	0x3bbc35a7	0.0057437005
3	0x3af65a62	0.0018795247
4	0x3cb6f07f	0.022331474
5	0x3c3ff8a4	0.011716995
6	0x3d1dcae7	0.03852358
7	0x3c145031	0.009052322
8	0xbca89b86	-0.020581972
9	0xbc991747	-0.018687857
10	0x3c570b52	0.013125258
11	0xbc9cadf2	-0.019125912
12	0xbba72fb2	-0.0051021213
13	0xbd1793e6	-0.03700628
14	0x3c253771	0.010084019
15	0x3c6d1059	0.01446923
16	0xba08d67c	-0.0005219949
17	0x3c4e6cad	0.0125991525
18	0xbc6553d9	-0.013997042
19	0x3cdfed48	0.027334824
20	0x3d1e3ea8	0.038633972
21	0xbcf85aee	-0.030316796
22	0x3c18de3f	0.009330331
23	0xbcac40e1	-0.02102703
24	0xbcb0e6a4	-0.021594353
25	0x3b928a37	0.004472043
26	0xbcf60dd0	-0.030035883
27	0x3d07165b	0.032980304
28	0xbd273d23	-0.04082979
29	0x3ca444b8	0.020052299
30	0xb919eba7	-0.00014679004
31	0xbd5b94d6	-0.053608738
32	0xbcd2a7a5	-0.025714705
33	0x3cc0833f	0.023500083
34	0xbc9c138a	-0.019052286
35	0xbb9043c1	-0.004402608
36	0x3cefb176	0.029259425
37	0x3c25dd1d	0.010123518
38	0x3ba0e5d0	0.0049102083
39	0xbc134256	-0.008987984
40	0xbca1f916	-0.019772094
41	0x3c855b3b	0.016278854
42	0xbb4f98e5	-0.0031676826
43	0x3c506c9a	0.012721205
44	0x3c6dff88	0.014526255
45	0x3af078c7	0.0018346541
46	0xba1dc985	-0.00060191035
47	0x3c8ee2b2	0.017442081
48	0x3d0dda7e	0.0346322
49	0x3b0aff82	0.0021209423
50	0x3ad3e882	0.0016167315
51	0x3c79b8a9	0.01524178
52	0xbaa97b7f	-0.0012930481
53	0xbcf1662d	-0.029467667
54	0x3ceb0b10	0.028691798
55	0x3c965c40	0.018354535
56	0x3ce1df0c	0.027572177
57	0xbc6c6a83	-0.014429691
58	0xbc056e84	-0.008144025
59	0xbc93f41c	-0.018060736
60	0x3c98aa2b	0.01863583
61	0xbb19f487	-0.0023491697
62	0x3c9c0a5d	0.01904791
63	0x3ce5eaf9	0.028066145
64	0x3cdf1792	0.027232919
65	0x3d124630	0.035711467
66	0xbd2e9b99	-0.04262886
67	0x3c87a3cf	0.016557602
68	0x3c70944c	0.014683794
69	0xbc72541f	-0.014790564
70	0xbcab2ac9	-0.020894425
71	0xbc92150c	-0.017832302
72	0x3cb7c6d5	0.022433678
73	0x3c094527	0.008378304
74	0x3c561301	0.013066054
75	0xbd11cf4b	-0.03559808
76	0x3bf16c79	0.0073676673
77	0xbb9fb7ce	-0.004874206
78	0x3cc08c65	0.023504445
79	0xbbe586e6	-0.0070046065
80	0x3c398ae8	0.011324622
81	0xbd3ba4cf	-0.04581147
82	0x3c1cbcc3	0.009566489
83	0xba753c38	-0.00093549816
84	0xbab4e1d7	-0.0013800216
85	0xbc80c4e7	-0.01571889
86	0xbadf7f2e	-0.0017051452
87	0xbc85f717	-0.016353173
88	0x3c7abbef	0.015303596
89	0x3cd0ce57	0.025489016
90	0xbc08db98	-0.0083531365
91	0x3cb0aa81	0.021565678
92	0x3b7b1e7e	0.0038317735
93	0xbcacec75	-0.021108845
94	0xbd522ed7	-0.0513142
95	0xbce43ab2	-0.02786002
96	0x3cdd3be2	0.027006093
97	0x3ca3e494	0.020006455
98	0x3cd78784	0.026309736
99	0xbc55ab4b	-0.013041328
100	0x3a7ef81a	0.0009726301
101	0x3cab217f	0.020889996
102	0xbd02563f	-0.031820532
103	0x3c4e19e3	0.012579414
104	0xbca1ae92	-0.019736562
105	0xbb2de47b	-0.002653389
106	0xbd0c6e0e	-0.034284644
107	0x3cfd7f4e	0.030944493
108	0x3cbdc1b6	0.023163658
109	0x3ccb9c37	0.024854762
110	0x3d535e44	0.05160357
111	0x3d0d8a2f	0.03455561
112	0x3bc5fe5b	0.0060422844
113	0x3d57f644	0.05272509
114	0xbcb956d8	-0.022624418
115	0x3c2ab2b7	0.0104185855
116	0x3cf8d0a0	0.030372918
117	0xbd0061f2	-0.031343408
118	0x3c8a00da	0.01684611
119	0xbc2f4c0c	-0.010699283
120	0x3cd4e4f4	0.02598808
121	0x3ba76011	0.0051078876
122	0xbb325f6a	-0.0027217516
123	0x3c55218c	0.0130084865
124	0x3b771a67	0.0037704946
125	0xbc1ef9cf	-0.009703114
126	0xbcef64c9	-0.029222863
127	0x3cdb8228	0.026795462
128	0x3cfadd7b	0.030623188
129	0xbcabe39b	-0.020982554
130	0x3d1ff2d3	0.039049935
131	0x3d1238a1	0.035698537
132	0x3b1d864d	0.0024036348
133	0x3d3770df	0.044785377
134	0xbd698fa2	-0.057021745
135	0xbd267c2e	-0.04064577
136	0x3d00612d	0.031342674
137	0x3c69c4f2	0.014268147
138	0xbcfd76cd	-0.030940438
139	0x3cd4aa81	0.025960209
140	0x3bd87074	0.0066052023
141	0x3cb2859e	0.02179223
142	0x3b3ebe85	0.0029105258
143	0xbd4dc1ed	-0.05023377
144	0xbd07c765	-0.03314914
145	0xbcdb3462	-0.026758377
146	0x3c02e406	0.007988935
147	0x3d0257e5	0.031822104
148	0xbbafebc1	-0.00536868
149	0x3d30de38	0.043180674
150	0x3c5806e5	0.013185238
151	0x3c26e9a9	0.010187545
152	0xbc28f9ae	-0.0103134345
153	0xbc21e655	-0.009881576
154	0x3c20b471	0.009808646
155	0x3bde487d	0.0067835436
156	0x3c547671	0.012967692
157	0xbbaa89b2	-0.005204403
158	0xba4f21e2	-0.0007901472
159	0xbc1fe87e	-0.00976002
160	0x3c1a66c9	0.00942392
161	0xbc9c3103	-0.01906634
162	0xbc3cb262	-0.011517139
163	0xbd04e23c	-0.032442316
164	0x3af1d926	0.0018451556
165	0xbce301ec	-0.027710877
166	0xbc0cbe1c	-0.0085902475
167	0x3cdc72c1	0.026910188
168	0x3bf512ab	0.007479032
169	0xba56bb09	-0.00081913226
170	0x3c32f5de	0.010922877
171	0xbcef6898	-0.029224679
172	0xbd0996aa	-0.03359095
173	0x3c5c4b21	0.0134456465
174	0xbcc02e59	-0.0234596
175	0xbd8c1f38	-0.06841892
176	0xbd8b32c7	-0.067967944
177	0x3c8fb63a	0.017542947
178	0x3bb9de72	0.0056722695
179	0xbce885df	-0.028384147
180	0x3b8da525	0.0043226653
181	0x3d262655	0.0405639
182	0xbcd975fa	-0.026545513
183	0xbc28afe5	-0.010295843
184	0xbc804bf8	-0.015661225
185	0xbcf6badc	-0.030118398
186	0xbc920aa8	-0.017827347
187	0xbb965079	-0.00458723
188	0xbc877ace	-0.01653805
189	0xbd36bcfe	-0.04461383
190	0xbd21a805	-0.039466877
191	0x3c18dcf2	0.009330021
192	0x3c3e4be6	0.011614775
193	0xbd206d54	-0.039166763
194	0xbc81ac56	-0.015829246
195	0xbbbf1ba5	-0.005832153
196	0xbc88747a	-0.016657103
197	0xbc945a13	-0.018109357
198	0xbd312b41	-0.04325414
199	0x3ce63d12	0.028105292
200	0xbcf4a3e4	-0.029863305
201	0xbc94befe	-0.018157478
202	0xbbd9c88e	-0.0066462224
203	0x3c89704a	0.016777176
204	0xbb256d86	-0.0025242283
205	0x3d116a6e	0.03550189
206	0x3d02287c	0.03177689
207	0xbb897283	-0.004194559
208	0xbca88d37	-0.020575149
209	0x3b3c596f	0.002873983
210	0x3b7238b8	0.0036960077
211	0x3bb457cb	0.00550363
212	0xbcea013d	-0.028565044
213	0xbc389210	-0.011265293
214	0xbc7983e9	-0.015229204
215	0x3c0fd415	0.008778592
216	0xbc72dcc6	-0.014823144
217	0xbd1ac292	-0.037783213
218	0xbce3d855	-0.027813116
219	0x3cb0da23	0.02158839
220	0xba4a44fa	-0.0007715967
221	0xbd11a46f	-0.035557207
222	0x3c8b3942	0.016995076
223	0x3c1d4d90	0.009601012
224	0x3caeb767	0.021327687
225	0x3c1517d2	0.0090999175
226	0x39e10e76	0.00042926118
227	0x3d63b30d	0.055590678
228	0xbc3ce068	-0.011528112
229	0xbca2295f	-0.019795118
230	0x3d24cc77	0.040234055
231	0xbcb0136a	-0.021493632
232	0x3ced5dd4	0.028975405
233	0xbbcd6e7a	-0.0062692733
234	0x3bb163e3	0.0054135188
235	0xbcdbd6c4	-0.026835807
236	0x3a1e578b	0.00060402666
237	0xbd3b6f3b	-0.045760375
238	0xbd97c49a	-0.07410546
239	0xbca05f39	-0.019576656
240	0xbd173935	-0.03691979
241	0xb98a6d7a	-0.00026402978
242	0x3c2efb0e	0.010679973
243	0xbcf1f4c2	-0.029535655
244	0xbd53ef90	-0.051742136
245	0x3a375a63	0.00069943647
246	0xbc0a2c98	-0.008433484
247	0x3c889257	0.016671343
248	0x3ca9e16d	0.020737374
249	0x3cd89789	0.026439445
250	0x3b930dee	0.0044877445
251	0xbcd8141c	-0.026376776
252	0x3c9a478b	0.018832942
253	0x3c5deb95	0.013544937
254	0xbc2f5e4b	-0.010703634
255	0xbc1ac47c	-0.00944626

action_model._discrete_distribution.branches.1.bias f4 [3]
0	0xbc21c117	-0.009872696
1	0x3c68ad05	0.014201407
2	0xbb6e8ed0	-0.003640104

action_model._discrete_distribution.branches.2.weight f4 [1, 128]
0	0x3b8c1fb3	0.00427624
1	0xbb023cf3	-0.0019872754
2	0x3bb65169	0.005563904
3	0xbb950c73	-0.004548603
4	0xbc3aa6ef	-0.011392339
5	0x3c3bab95	0.011454483
6	0xbbf96ead	-0.0076120705
7	0x3bf128c7	0.0073595974
8	0x3c3a64ea	0.011376599
9	0xbaa7db14	-0.0012806379
10	0xbbe8e0aa	-0.00710686
11	0x3bd601c3	0.0065309717
12	0x3954fdf5	0.00020312502
13	0x3bc0e234	0.0058863405
14	0xbb83f12e	-0.0040265536
15	0xbba84f47	-0.0051364037
16	0xbc0c6c0b	-0.008570681
17	0xbc700ccd	-0.014651489
18	0xbafd26c8	-0.0019313926
19	0xbb9114a2	-0.0044275085
20	0xbaabc119	-0.0013103812
21	0xbc8122c0	-0.01576364
22	0x3b96ba99	0.004599881
23	0x3bdc935a	0.006731433
24	0xbc86a192	-0.016434465
25	0xbb261358	-0.002534112
26	0x3c95b5f7	0.018275244
27	0xbc049145	-0.008091276
28	0x3af4c565	0.0018674551
29	0xbbcc1475	-0.0062280246
30	0xbc531b5d	-0.012884942
31	0xbc0d6a45	-0.008631294
32	0x3bcaefe2	0.006193147
33	0xbb5f26f7	-0.0034050324
34	0x3bd00c9d	0.00634916
35	0xbc638058	-0.01388558
36	0xbbe0fc27	-0.0068659964
37	0x3bf2baaf	0.0074075083
38	0x3c1b0757	0.009462199
39	0x3c3230da	0.010875905
40	0xbb8c397b	-0.004279313
41	0xbc6a47c7	-0.01429934
42	0xbb36757a	-0.0027841018
43	0x3b501e23	0.0031756244
44	0xba917ba4	-0.001109947
45	0x3bc2596a	0.005931069
46	0x3bd70a5d	0.0065625147
47	0xbbe840af	-0.007087789
48	0x3c37f8af	0.011228724
49	0xbcb156b4	-0.021647789
50	0x3b1fde05	0.0024393809
51	0x3b7231f2	0.003695604
52	0xbc38e82c	-0.011285823
53	0x3aca792f	0.0015447492
54	0xbc986e18	-0.018607184
55	0xbbb901e0	-0.0056459755
56	0x3c294d8e	0.010333432
57	0xbbfa1faf	-0.0076331715
58	0x3bb2d274	0.005457217
59	0x3c0eef41	0.008724035
60	0xbc26ac60	-0.010172933
61	0xbc178dc5	-0.009250109
62	0x3c6541da	0.013992751
63	0xbc0060bf	-0.007835566
64	0x3c6e5578	0.0145467445
65	0x3b68f332	0.0035545346
66	0x3ce491ba	0.02790152
67	0x3bc7c08c	0.0060959514
68	0x3a6e08cb	0.000908029
69	0xb8e16f68	-0.00010749587
70	0x3b867328	0.004103083
71	0xbbe880dd	-0.00709544
72	0x3b7e339d	0.0038788088
73	0x3c230e0a	0.009952078
74	0xba51d36a	-0.00080042204
75	0xbbf179cb	-0.007369255
76	0x3bb773bc	0.0055985134
77	0x3c0e5737	0.008687786
78	0x3c0a9a1f	0.008459597
79	0x3b115c27	0.0022180171
80	0xbc095edd	-0.008384434
81	0xb7dad56b	-2.6087006e-05
82	0x3c1a98ed	0.009435874
83	0x3c4e6d5b	0.012599315
84	0x3bf1a638	0.007374551
85	0xba92d976	-0.0011203724
86	0xbc9ce0bc	-0.01915013
87	0x3c19e31b	0.009392525
88	0x3c4784bf	0.012177645
89	0x3b28eaab	0.0025774639
90	0x3c2baebc	0.010478672
91	0x3c1d3fd8	0.009597741
92	0x3c2721fb	0.010200973
93	0xbaaab17f	-0.0013022869
94	0x3b0c7d4e	0.0021436992
95	0x3bc26f08	0.005933646
96	0x3b33f8c4	0.0027461508
97	0xb9909dc3	-0.00027583362
98	0xbb4b86bb	-0.0031055647
99	0xbc0bf6fe	-0.008542774
100	0x3c38b598	0.011273764
101	0x3a57440d	0.00082117395
102	0xbbba6a66	-0.005688953
103	0xb879bcda	-5.9542108e-05
104	0xb9500003	-0.0001983643
105	0xbc21c34f	-0.009873225
106	0x3c91d3e6	0.017801236
107	0xba81243b	-0.0009852716
108	0xbbad0ea2	-0.0052812854
109	0x3c086140	0.008323967
110	0xbb8de329	-0.004330058
111	0xbc00c7e7	-0.00786016
112	0xbbb5695f	-0.005536243
113	0xbbb622b9	-0.0055583385
114	0xbc642683	-0.0139251975
115	0x3bd046af	0.0063560824
116	0xbb83024a	-0.0039980756
117	0x3c52bf6b	0.01286302
118	0x3b4d1c6a	0.0031297454
119	0x3bcf9768	0.0063351877
120	0x3aabd2e0	0.001310911
121	0x3cb6b294	0.02230195
122	0xbc38d9c9	-0.011282393
123	0xbc14340e	-0.009045614
124	0xbc0a6c93	-0.008448738
125	0xbc20109b	-0.009769584
126	0x3c9ae2bf	0.01890695
127	0x3cccfa50	0.025021702

onnx::Div_94 f4 [210]
0	0x3eed54c3	0.4635373
1	0x3b63e691	0.003477488
2	0x3e406c14	0.18791229
3	0x3e07a0a3	0.13244872
4	0x3e032d2f	0.12810205
5	0x3db869c2	0.09004547
6	0x3d9f666d	0.07783208
7	0x3deb0db6	0.114772245
8	0x3de20cfd	0.110376336
9	0x3dd001ee	0.10156618
10	0x3db3e44a	0.08783777
11	0x3d9e9cbe	0.0774474
12	0x3effbde1	0.49949554
13	0x3ed8a87f	0.42316052
14	0x3eecf36f	0.46279475
15	0x3b63e691	0.003477488
16	0x3e2fd8a6	0.17172489
17	0x3e033924	0.12814766
18	0x3dffa062	0.124817625
19	0x3dc5b6d7	0.096540146
20	0x3db13c0b	0.086540304
21	0x3dee7e10	0.11645138
22	0x3de54f09	0.111967154
23	0x3dcc073a	0.09962316
24	0x3db5462f	0.08851277
25	0x3d99251f	0.074777834
26	0x3effe909	0.4998248
27	0x3ed7ebfe	0.42172235
28	0x3eed3365	0.46328273
29	0x3b63e691	0.003477488
30	0x3e39a899	0.18130721
31	0x3e105731	0.14095761
32	0x3df5d1b9	0.12002892
33	0x3dba4c0b	0.09096535
34	0x3db47231	0.08810843
35	0x3df4b708	0.11948973
36	0x3ddf135d	0.10892365
37	0x3dd97414	0.10617843
38	0x3db68256	0.08911578
39	0x3d9a7301	0.075414665
40	0x3effc87d	0.49957648
41	0x3ed7ab18	0.42122722
42	0x3eec1783	0.46111688
43	0x3b63e691	0.003477488
44	0x3e2661fe	0.16248319
45	0x3dff0ca6	0.124535844
46	0x3df55160	0.11978412
47	0x3dbf71ad	0.09347854
48	0x3daf4001	0.0855713
49	0x3de99416	0.11405198
50	0x3de0d7f8	0.10978693
51	0x3dd370a8	0.10324222
52	0x3dbb5d60	0.09148669
53	0x3d95298c	0.07283315
54	0x3f0000c7	0.50001186
55	0x3ed5f13d	0.41785613
56	0x3eec3ff5	0.46142545
57	0x3b63e691	0.003477488
58	0x3e2a937b	0.16657822
59	0x3e0ea4dd	0.13930078
60	0x3df38110	0.11889851
61	0x3dbc6d21	0.09200502
62	0x3db2c724	0.08729389
63	0x3debe463	0.11518171
64	0x3ddb9b8e	0.10723029
65	0x3ddc9ed2	0.1077248
66	0x3db3e44d	0.08783779
67	0x3d9b18de	0.075731024
68	0x3efff1c8	0.49989152
69	0x3ed48850	0.41510248
70	0x3eeac3ac	0.4585241
71	0x3b63e691	0.003477488
72	0x3e1d8b73	0.15385227
73	0x3df9fcf5	0.12206451
74	0x3df43613	0.11924376
75	0x3dc0ffc9	0.09423787
76	0x3da4a7aa	0.08039792
77	0x3dead7f1	0.11466969
78	0x3dd86cd9	0.10567636
79	0x3dd76449	0.10517175
80	0x3db801bf	0.08984708
81	0x3d968076	0.07348721
82	0x3efffbbb	0.49996743
83	0x3ed12060	0.40845013
84	0x3eea5146	0.45765132
85	0x3b63e691	0.003477488
86	0x3e13817b	0.14404862
87	0x3e06218a	0.13098732
88	0x3dfdb280	0.12387562
89	0x3db13c09	0.08654029
90	0x3db68253	0.08911576
91	0x3de72230	0.112858176
92	0x3dd3caba	0.103414014
93	0x3dd4249b	0.103585444
94	0x3dbc4b3a	0.09194036
95	0x3d9b18dd	0.07573102
96	0x3efffdad	0.49998227
97	0x3ecfb6ce	0.40569156
98	0x3ee797ce	0.45233005
99	0x3b63e691	0.003477488
100	0x3e08cb4a	0.13358799
101	0x3df9e3c8	0.12201649
102	0x3df1102d	0.117706634
103	0x3dc8173b	0.09770056
104	0x3dabf040	0.083954334
105	0x3de58635	0.112072386
106	0x3dd3529d	0.103184916
107	0x3dd11441	0.10208941
108	0x3dbc2954	0.0918757
109	0x3d91115b	0.070833884
110	0x3effa95e	0.49933904
111	0x3ec9ceab	0.39415488
112	0x3ee69f51	0.45043424
113	0x3b63e691	0.003477488
114	0x3e06448e	0.13112089
115	0x3dfcba13	0.12340178
116	0x3e031542	0.12801078
117	0x3daf4003	0.08557131
118	0x3db54631	0.088512786
119	0x3ddf1360	0.10892367
120	0x3dd97413	0.106178425
121	0x3dd67806	0.104721114
122	0x3dba0771	0.090834506
123	0x3da36f20	0.0798018
124	0x3effad1d	0.49936762
125	0x3ec82ad6	0.3909518
126	0x3ee1dd7d	0.44114295
127	0x3b63e691	0.003477488
128	0x3e05f2c9	0.13080896
129	0x3deb7929	0.11497719
130	0x3de48d8c	0.111598104
131	0x3dc24903	0.09486582
132	0x3db2eae3	0.08736207
133	0x3de6b4a3	0.112649225
134	0x3dce5441	0.10074664
135	0x3dd24358	0.10266751
136	0x3db97df8	0.0905723
137	0x3d98fb2e	0.07469784
138	0x3efebfc7	0.4975569
139	0x3ebf9768	0.374202
140	0x3edf6d0e	0.4363789
141	0x3b63e691	0.003477488
142	0x3e05cfb1	0.13067509
143	0x3df6eb19	0.1205656
144	0x3dfbd999	0.12297363
145	0x3dab5b15	0.08366982
146	0x3dbe6665	0.09296874
147	0x3de48d8b	0.1115981
148	0x3dd53160	0.10409808
149	0x3dda970a	0.1067334
150	0x3db5d2f8	0.0887813
151	0x3da459bb	0.08024927
152	0x3efebfa1	0.49755576
153	0x3ebd9122	0.3702479
154	0x3ed7bbd5	0.42135492
155	0x3b63e691	0.003477488
156	0x3e056622	0.13027242
157	0x3de84e63	0.11343076
158	0x3dd6959c	0.104777545
159	0x3dc24904	0.09486583
160	0x3db6eb38	0.08931583
161	0x3dd8c4bf	0.10584401
162	0x3dd16f5d	0.10226319
163	0x3dd1e89b	0.10249444
164	0x3db97df6	0.09057228
165	0x3d9fb6d0	0.077985406
166	0x3efc2090	0.49243593
167	0x3eb3e1db	0.35133252
168	0x3ed5c806	0.41754168
169	0x3b63e691	0.003477488
170	0x3e098d16	0.13432726
171	0x3df881f7	0.12134164
172	0x3dfaf849	0.12254388
173	0x3db237df	0.08702063
174	0x3db5afcf	0.088714235
175	0x3ddf6884	0.10908607
176	0x3dcd0014	0.100097805
177	0x3ddb0afd	0.10695455
178	0x3db8aef6	0.09017746
179	0x3da3209b	0.079652034
180	0x3efc9c76	0.4933812
181	0x3eb28a3f	0.34871098
182	0x3ecf88e5	0.4053413
183	0x3b63e691	0.003477488
184	0x3e09d138	0.13458717
185	0x3de0672b	0.10957178
186	0x3dda22d8	0.10651177
187	0x3dbcf465	0.09226302
188	0x3db39d2e	0.08770214
189	0x3dd9913d	0.10623405
190	0x3ddc654f	0.107615106
191	0x3dc8769c	0.09788248
192	0x3db54630	0.08851278
193	0x3d9ec529	0.07752449
194	0x3efa4636	0.48881692
195	0x3eac4c0d	0.33651772
196	0x3ecd6f0c	0.40123785
197	0x3b63e691	0.003477488
198	0x3e08a8f6	0.13345703
199	0x3ded74b8	0.11594528
200	0x3df1e137	0.118105344
201	0x3dad62df	0.08466124
202	0x3db9c2c2	0.0907035
203	0x3ddab40e	0.10678874
204	0x3dc0ffc6	0.09423785
205	0x3dce7312	0.10080542
206	0x3db0f3cf	0.08640253
207	0x3da2342d	0.07920108
208	0x3efa3fb5	0.4887673
209	0x3ea96c90	0.3309064

onnx::Div_97 f4 [6]
0	0x420a19fc	34.525375
1	0x42c1f8d9	96.98603
2	0x420a73bc	34.61302
3	0x42c20707	97.013725
4	0x420ad4a7	34.70767
5	0x42c214e1	97.04078
