Assets/Scene/FinalTest/ZooheimTest/Models/0606/RabbitFBehavior.onnx (onnx, 406457 bytes, 14 tensors)

discrete_act_size_vector f4 [1, 3]
000000 00 00 00 40 00 00 40 40 00 00 80 3f
       2.0 3.0 1.0

network_body.observation_encoder.processors.0.normalizer.running_mean f4 [630]
000000 d2 73 d8 3c 78 bc 76 3c 00 00 00 00 49 43 05 3b
       0.026422415 0.015059583 0.0 0.0020334295
000010 0a c2 cd 3a 44 8f ca 3a 42 e9 a7 3a 5d fc 98 3a
       0.0015698087 0.0015454073 0.0012810605 0.001167189
000020 0b ab 6d 3f c5 f0 75 3f ec 46 e8 3c 3e 56 75 3c
       0.92839116 0.9607051 0.02835413 0.014974175
000030 00 00 00 00 25 65 07 3b 4b 24 ec 3a 08 c2 cd 3a
       0.0 0.0020659652 0.0018016187 0.0015698085
000040 da 3d ad 3a a6 a6 9b 3a ef 1f 6d 3f cb a5 75 3f
       0.0013217286 0.0011875227 0.9262685 0.95956105
000050 3d 1f d2 3c 39 78 76 3c 00 00 00 00 ce 77 f9 3a
       0.025649661 0.015043312 0.0 0.0019032897
000060 bd d0 de 3a ad f3 d8 3a 1c 2e a4 3a bb 95 9a 3a
       0.0016999465 0.0016552113 0.0012525949 0.0011793891
000070 a6 c5 6d 3f 03 ec 75 3f c0 76 03 3d ce 55 78 3c
       0.9287971 0.9606325 0.03209567 0.015157176
000080 00 00 00 00 48 31 0c 3b 2a 23 f4 3a 6b 5b cf 3a
       0.0 0.0021391679 0.0018626202 0.0015820091
000090 ca 18 c3 3a 1d 41 95 3a 1e 0d 6c 3f f9 2d 75 3f
       0.0014884707 0.0011387203 0.92207515 0.95773274
0000a0 a6 d2 d0 3c cd 11 76 3c 00 00 00 00 12 88 01 3b
       0.02549107 0.0150188925 0.0 0.0019764942
0000b0 39 59 df 3a d5 06 ca 3a b8 83 a1 3a b5 95 9a 3a
       0.001704014 0.0015413413 0.001232258 0.0011793884
0000c0 e8 d5 6d 3f 83 c2 75 3f be 63 11 3d b5 f0 6e 3c
       0.9290452 0.95999926 0.035495512 0.014583756
0000d0 00 00 00 00 81 fe 08 3b 5b ef f8 3a 3d 6b d8 3a
       0.0 0.002090365 0.0018992232 0.0016511452
0000e0 7a 26 dc 3a 71 0f 8a 3a 74 29 6b 3f ff a1 74 3f
       0.0016796135 0.0010533166 0.9186013 0.95559686
0000f0 d9 1e d5 3c 6b de 77 3c 00 00 00 00 1a 65 07 3b
       0.026015686 0.015128712 0.0 0.0020659626
000100 29 8e d2 3a b4 05 d2 3a e1 3d ad 3a 3e d7 ae 3a
       0.0016064096 0.0016023428 0.0013217294 0.0013339294
000110 f4 85 6d 3f 4e 82 75 3f 1b e2 1d 3d 08 79 70 3c
       0.9278252 0.95901954 0.03854571 0.014677294
000120 00 00 00 00 11 45 f6 3a 5d 20 0b 3b 72 14 e3 3a
       0.0 0.0018788894 0.0021229007 0.0017324819
000130 b4 e1 df 3a b7 a7 93 3a 31 53 6a 3f 7d 0c 74 3f
       0.0017080815 0.0011265193 0.9153319 0.95331556
000140 f5 e1 dd 3c 83 9a 75 3c 00 00 00 00 e0 fc 14 3b
       0.027085284 0.014990452 0.0 0.0022733733
000150 60 49 d6 3a f3 c0 d5 3a a2 70 b0 3a d2 4e ae 3a
       0.0016348772 0.0016308114 0.0013461302 0.0013298637
000160 72 44 6d 3f bd 45 75 3f f2 28 2a 3d ec df 6c 3c
       0.92682564 0.9580954 0.041542955 0.014457684
000170 00 00 00 00 c7 42 09 3b 03 b7 20 3b 7f df ef 3a
       0.0 0.0020944343 0.0024523146 0.001830086
000180 a4 ab f4 3a 1d 2f 9c 3a 70 48 69 3f 59 5b 73 3f
       0.0018666876 0.0011915896 0.91126156 0.9506126
000190 53 ad e8 3c 7a a1 82 3c 00 00 00 00 f5 50 1e 3b
       0.02840296 0.015946139 0.0 0.002415714
0001a0 89 39 cd 3a 9b f2 e0 3a 65 7f c1 3a 54 b4 b4 3a
       0.0015657406 0.0017162146 0.0014762698 0.0013786652
0001b0 e3 9a 6c 3f 96 c7 74 3f bd 7c 35 3d 7d 18 86 3c
       0.9242384 0.95617044 0.044308413 0.016369099
0001c0 00 00 00 00 7f 75 0c 3b a5 0b 26 3b d6 77 f9 3a
       0.0 0.0021432338 0.002533653 0.0019032906
0001d0 7d 10 02 3b f1 08 ba 3a 4c b7 67 3f 73 78 72 3f
       0.0019846254 0.0014193339 0.90514064 0.9471504
0001e0 99 4d f6 3c 66 5d 81 3c 00 00 00 00 66 a3 33 3b
       0.030066298 0.015791606 0.0 0.0027410625
0001f0 16 b1 cc 3a e1 8a ea 3a e2 d1 d6 3a 7a 5c c7 3a
       0.001561674 0.0017894172 0.0016389454 0.0015210055
000200 8b c3 6b 3f 97 44 74 3f 11 a2 3d 3d 1b 75 8f 3c
       0.9209525 0.9541716 0.046297137 0.017511895
000210 00 00 00 00 55 43 05 3b 83 b6 24 3b 7f bb fd 3a
       0.0 0.0020334322 0.00251332 0.0019358246
000220 c3 54 02 3b 4c a2 bb 3a df e6 66 3f fb d0 71 3f
       0.0019886948 0.0014315336 0.9019603 0.94459504
000230 7a 76 05 3d 22 aa 7f 3c 00 00 00 00 9f 94 22 3b
       0.03258369 0.015604528 0.0 0.0024807823
000240 0d 9f d3 3a fd 79 e9 3a d5 ad e4 3a ca 18 c3 3a
       0.0016145423 0.0017812845 0.0017446826 0.0014884707
000250 26 50 6b 3f 4f fb 73 3f a8 c7 43 3d 15 38 99 3c
       0.9191917 0.9530534 0.04779783 0.0187035
000260 00 00 00 00 f8 fd 0c 3b 9c c9 15 3b eb 9c e3 3a
       0.0 0.0021513682 0.0022855764 0.0017365491
000270 d4 ba 04 3b 8d 81 b1 3a 7c 53 66 3f 68 59 71 3f
       0.002025296 0.0013542637 0.8997114 0.9427705
000280 e8 f8 12 3d 2c 98 88 3c 00 00 00 00 6b 74 14 3b
       0.035881907 0.016674124 0.0 0.0022652398
000290 8b 27 d4 3a 97 e0 e7 3a 9d 04 da 3a f4 2c ac 3a
       0.0016186101 0.0017690834 0.0016633455 0.0013135956
0002a0 ec 6a 6a 3f 52 70 73 3f 7c 20 49 3d ad 25 a3 3c
       0.915694 0.9509326 0.049103245 0.019915426
0002b0 00 00 00 00 59 a9 07 3b 6f 86 0d 3b e3 78 f1 3a
       0.0 0.0020700304 0.0021595021 0.0018422868
0002c0 f5 8a ea 3a eb 1a b3 3a ec a8 65 3f b8 dc 70 3f
       0.0017894196 0.0013664638 0.8971088 0.9408679
0002d0 21 f7 1f 3d 39 0e 93 3c 00 00 00 00 dc 0e 0e 3b
       0.03905404 0.017951118 0.0 0.0021676337
0002e0 2c 8e d2 3a 06 45 f6 3a 12 c3 c5 3a e3 19 bb 3a
       0.0016064099 0.0018788881 0.0015088043 0.0014274683
0002f0 4a 1e 69 3f c9 95 72 3f e6 0a 4b 3d 9d 4f a8 3c
       0.9106184 0.94759804 0.04957094 0.020545775
000300 00 00 00 00 4b 00 fa 3a 97 ff 00 3b 8c df ef 3a
       0.0 0.0019073574 0.0019683593 0.0018300875
000310 13 8d da 3a ff 09 b2 3a 63 74 65 3f f6 ad 70 3f
       0.0016674123 0.0013583301 0.8963072 0.94015443
000320 46 60 2b 3d af 6a 9d 3c 00 00 00 00 d6 31 08 3b
       0.04183986 0.01921591 0.0 0.0020781658
000330 57 25 e4 3a c2 9a f3 3a 87 80 b9 3a 57 b4 b4 3a
       0.0017406148 0.001858555 0.0014152684 0.0013786656
000340 1f e9 67 3f 05 dc 71 3f 3c 8d d9 3c cc 22 77 3c
       0.9059009 0.9447635 0.026556604 0.01508398
000350 00 00 00 00 80 87 05 3b d7 d1 d6 3a c3 f4 d0 3a
       0.0 0.0020374954 0.0016389441 0.0015942085
000360 1b e7 b7 3a ed 3e a5 3a 5e 4a 6e 3f 4e 9d 76 3f
       0.0014030667 0.0012607254 0.93082225 0.9633378
000370 fd 79 e9 3c d7 00 76 3c 00 00 00 00 12 76 08 3b
       0.028500551 0.015014849 0.0 0.0020822329
000380 86 cd f6 3a 24 8e d2 3a a8 4c be 3a b5 71 a8 3a
       0.0018829561 0.001606409 0.0014518695 0.001285127
000390 11 bc 6d 3f 3c 51 76 3f 2f 1f d3 3c d3 22 77 3c
       0.9286509 0.96217704 0.025771705 0.015083986
0003a0 00 00 00 00 4b 00 fa 3a 24 58 e7 3a bf d0 de 3a
       0.0 0.0019073574 0.0017650169 0.0016999467
0003b0 77 92 b2 3a d0 60 a7 3a a2 66 6e 3f eb 99 76 3f
       0.0013623972 0.0012769941 0.93125355 0.9632861
0003c0 cc 18 04 3d 6e 00 79 3c 00 00 00 00 48 31 0c 3b
       0.03225021 0.015197856 0.0 0.0021391679
0003d0 0e 33 fd 3a c5 f4 d0 3a 2e 8e d2 3a c7 83 a1 3a
       0.0019317584 0.0015942088 0.0016064101 0.0012322598
0003e0 8d ad 6c 3f 13 db 75 3f ff c9 d1 3c 47 89 76 3c
       0.9245232 0.96037406 0.025609015 0.015047378
0003f0 00 00 00 00 12 88 01 3b 4c 36 e5 3a ef d2 ce 3a
       0.0 0.0019764942 0.0017487495 0.0015779416

network_body.observation_encoder.processors.1.normalizer.running_mean f4 [6]
000000 cd fd ea 41 10 fc 64 41 21 05 eb 41 9d 49 65 41
       29.373926 14.311539 29.377504 14.330472
000010 ec 0a eb 41 3b 95 65 41
       29.380333 14.348933

network_body._body_endoder.seq_layers.0.weight f4 [128, 636]
000000 61 80 0e bd a7 55 4d bc 9a bf e8 3c f6 f8 ac 3c
       -0.0347904 -0.012532628 0.028411675 0.021114808
000010 d6 5c cb bc 70 49 0a 3c d4 8d 24 3d 15 cc a2 3d
       -0.024824541 0.00844036 0.04017432 0.07949082
000020 b4 9b f0 ba 79 77 20 bc aa 51 cb bb 28 3e 21 3d
       -0.001835695 -0.0097941095 -0.0062048035 0.039365917
000030 51 55 2d bd ce 6c 82 bd 56 28 84 bc 58 88 18 bd
       -0.042317692 -0.06368409 -0.016132515 -0.037239403
000040 8f 17 8a 3c bc c8 07 be 6c ab 7e 3d f9 fb cb bc
       0.016856937 -0.13260168 0.0621752 -0.024900423
000050 7e f3 11 bb c6 8f 16 3c 68 7d 63 3c ea 9b b4 3d
       -0.0022270377 0.009189552 0.01388488 0.08818801
000060 f8 02 a8 3b 1a cb 73 bd 3d 2e 77 bd 4d a8 b6 3d
       0.005127307 -0.059519865 -0.06034683 0.089188196
000070 e7 0e 0d bd 87 98 1c bd f1 53 e9 3c 17 81 9f 3d
       -0.03443804 -0.0382314 0.02848241 0.07788294
000080 b5 d6 2e bd 04 33 92 bd 51 c5 b6 3d 7c ca 70 3b
       -0.04268523 -0.07138637 0.08924354 0.0036741784
000090 c9 ea 0b bd 96 af e7 3c 09 a4 5c bd 6c 10 14 bd
       -0.034159455 0.028281968 -0.053867374 -0.036148474
0000a0 a2 48 a3 bc 7a 36 82 bd 81 93 d2 bc 72 46 91 bd
       -0.019932095 -0.06358047 -0.025705101 -0.070935145
0000b0 6d 7d 07 3c 26 fa 64 3d 54 ab 85 3b 3a 75 02 3d
       0.00826965 0.055902623 0.004079262 0.031850077
0000c0 46 d7 d4 3d ed f0 42 3d 3f d3 66 3c 5a cc bc bd
       0.10392623 0.047593046 0.014088451 -0.092186645
0000d0 44 04 24 3c 4e 6b e2 3d f3 bb 0b 3d c2 74 a8 3d
       0.010010783 0.11055623 0.03411479 0.08225395
0000e0 d6 78 d3 3c b1 cb 00 3d 23 95 4b 3c 3c 98 ff 3c
       0.025814455 0.031444255 0.012425694 0.03120052
0000f0 1f c6 0c bd 6d 86 5a bd db e0 05 3d 0a 76 56 3c
       -0.03436863 -0.053350855 0.032685142 0.013089666
000100 60 2f a5 3c b1 6a dc bc 98 ad 66 bd 2b cd dc bb
       0.020164192 -0.026906343 -0.056317896 -0.006738325
000110 45 2f c9 3c 23 ce fa 3c e3 d6 78 3c 39 06 a0 3d
       0.024558673 0.030615872 0.015187952 0.07813687
000120 84 a1 81 3c cd 68 7a bd 89 00 b1 bd 43 c5 6f bc
       0.015824087 -0.061135102 -0.0864268 -0.014634433
000130 ca 71 45 3c e7 7a 2b 3d 90 78 83 bd 64 3a 4b 3c
       0.012051055 0.041865256 -0.0641948 0.012404058
000140 78 b9 15 bd 79 74 ca bb d5 14 39 3b 61 db 50 3a
       -0.03655383 -0.0061784354 0.0028241177 0.00079672603
000150 72 9d 8f bd 04 97 ae bb fe 30 26 3c 95 c2 20 3d
       -0.07012452 -0.005328061 0.010143517 0.039248068
000160 28 72 b4 bc c0 89 10 bd f2 85 a9 3d d7 fe a9 3d
       -0.02202709 -0.03528762 0.08277501 0.0830056
000170 5c b2 6e bd 6e 14 3f bc bd 76 9e 3c 4b a8 c5 bb
       -0.058275566 -0.011662586 0.019343728 -0.006032025
000180 0e cc c5 3c 0c 76 bb ba 63 44 67 bd 4a 9d 03 bd
       0.024145152 -0.0014302148 -0.056461703 -0.032132424
000190 74 5e 04 bd 6d 97 7f 3b 2a e5 bd bd 51 c8 a2 3d
       -0.03231664 0.003900017 -0.09272225 0.079483636
0001a0 53 9c 48 bd 0f cb 80 3d e6 e6 8b 3d 4d 2a ff bc
       -0.048977207 0.0628873 0.0683115 -0.0311481
0001b0 12 66 bb 3c 78 a4 13 3d 51 3e 43 bd 7d 48 82 3d
       0.02287582 0.03604552 -0.04766685 0.06361482
0001c0 4b 8a 8f bd c7 e2 21 bd a5 dc 08 bd 00 8a 33 bd
       -0.07008799 -0.039522912 -0.033413548 -0.04383278
0001d0 35 01 57 3c dd 7d 70 3d 16 ae 29 3d bb 25 87 bd
       0.013122846 0.058713783 0.041425787 -0.065989934
0001e0 89 ad 60 bd 71 d6 00 3e f0 45 f5 bc c4 a9 5a 3d
       -0.054852996 0.12581803 -0.029940575 0.053384557
0001f0 87 99 46 bd 96 18 f8 3c fc d0 8e bd 73 ce a9 3d
       -0.04848626 0.030285161 -0.06973454 0.0829133
000200 e6 8d ba bd e5 29 0f bd 91 44 53 3d 6c bd 59 3c
       -0.09109096 -0.034952063 0.051579062 0.013289791
000210 e7 4e 13 bd 91 bc 0f bd 72 3b 85 bd 89 f1 82 3b
       -0.03596392 -0.03509194 -0.06505479 0.0039960784
000220 b4 94 8d bd f7 c7 a3 bd 63 1a 6f bd f2 1f b9 bc
       -0.069131285 -0.07997125 -0.058374774 -0.02259824
000230 ba 18 3b bd dc 11 56 3c d0 e1 ce bb 06 c0 3e bd
       -0.045677878 0.013065781 -0.00631354 -0.046569847
000240 fb 4c b7 3c 60 a8 8c bd 13 46 90 3d e1 de 58 3d
       0.022375574 -0.068680525 0.070446156 0.05294693
000250 7e 87 b4 3d 85 1c 17 3d f2 f4 c6 bc 40 4c 04 3c
       0.088149056 0.036892433 -0.02428672 0.00807482
000260 7c ba 88 bd 3e 2e cb 3c 79 86 0d bd e7 14 16 3d
       -0.06676194 0.024802323 -0.03455207 0.036641028
000270 a9 04 7b bd 75 26 d5 3c b7 98 99 3c 73 4e 34 bd
       -0.06128374 0.026019314 0.018749578 -0.044020128
000280 26 c4 61 3d 93 4c 48 3d e3 65 8e 3c b0 f8 bf bc
       0.055118702 0.048901152 0.017382568 -0.023434013
000290 39 f2 0d 3d dc 5c 83 3d 60 c6 0a 3d 84 09 27 bd
       0.03465483 0.06414196 0.03388059 -0.04078056
0002a0 ef 60 35 3d 4c 5e 13 3d dd 5b 85 bc 5d e2 ac bd
       0.044281896 0.0359786 -0.016279155 -0.08441613
0002b0 75 76 48 bc 2c e0 6f bd 22 f0 d3 bd 15 0a 0f bd
       -0.012235274 -0.058563396 -0.10348536 -0.034921724
0002c0 dd 3e 47 3d 1a f6 71 3d 10 06 d2 3c 36 83 9a 3b
       0.048643935 0.05907259 0.025637656 0.0047153486
0002d0 7e 6a 0e 3c e1 93 03 3b 24 c4 f0 bc 9a ef 35 3b
       0.008692382 0.0020077156 -0.029390402 0.0027761222
0002e0 d2 71 19 bd 0b c4 a3 bc ea 08 0a 3d 56 cd 8f 3c
       -0.037462063 -0.019990942 0.033699907 0.017553966
0002f0 af 54 a3 bb f2 4e 5b 3d 0b 13 6b bd 41 cf 19 bd
       -0.0049844603 0.053542085 -0.057391208 -0.03755117
000300 02 23 2c bd 0c 8b 73 3c fc 09 33 3c ec cb 48 3d
       -0.042025574 0.014864694 0.010927673 0.0490226
000310 a3 34 1f 3c 53 a0 f5 3d 02 19 06 bd 10 4d ae bd
       0.009717139 0.1199347 -0.032738693 -0.08510792
000320 5b 2e 69 bc 95 2c 52 3d c2 31 12 bd b9 1d 1f bc
       -0.014232243 0.051312048 -0.035691984 -0.009711676
000330 a1 07 dc bd 76 3a 82 3d ed 97 35 3c a5 a2 f5 bc
       -0.107436426 0.06358807 0.011083585 -0.029984782
000340 75 de c3 3d 67 3c dc bc c0 cd df 3c 36 d8 96 bc
       0.09563915 -0.02688427 0.027319789 -0.018413644
000350 d3 e6 a6 bc 08 ab cb 3d b3 9f 37 bd e3 59 6c 3c
       -0.020373737 0.09944731 -0.044830035 0.014425728
000360 27 48 04 be 58 20 2a bd 7f ec e7 3d 5d a1 8e bc
       -0.12918149 -0.04153475 0.11324405 -0.017410928
000370 cd 12 53 bd 9e ab 17 3d 59 b6 be bc 08 eb 0a 3d
       -0.0515316 0.0370289 -0.02328031 0.03391555
000380 5d a3 6b bc eb 32 08 bd 24 e3 01 3d ba 7f f2 bc
       -0.014382211 -0.033251684 0.03171076 -0.02960192
000390 6c d2 bc 3c 34 e7 9b 3d a0 0b a2 bd 07 75 5f bc
       0.023049556 0.07612458 -0.079123735 -0.013638741
0003a0 dc 13 6b bd 33 a2 07 be b6 df 97 bd 15 28 0d be
       -0.057391986 -0.13245468 -0.07415716 -0.13784821
0003b0 d8 52 ec 3b 42 3f 96 bd 49 1f 71 bc 97 c1 6c bc
       0.007212024 -0.07336284 -0.014716932 -0.014450452
0003c0 42 76 b3 bd 22 37 2f bd 6a 4b 78 3c 4f 5e 84 bd
       -0.0876279 -0.042777188 0.015154699 -0.064633004
0003d0 45 07 d9 bc 7c af 69 3d c5 2a 83 3d 3f 02 ac 3d
       -0.026492724 0.05705212 0.06404642 0.08398866
0003e0 ef f7 72 3d 3f 21 ca bd b5 a6 bc bc 62 07 38 bd
       0.05931848 -0.098696224 -0.02302871 -0.044928916
0003f0 a7 18 57 3d 27 e6 71 bd ce 89 a7 bc 52 b9 b1 bc
       0.052513745 -0.05905738 -0.020451453 -0.021694813

network_body._body_endoder.seq_layers.0.bias f4 [128]
000000 13 ba 7a 3c 03 0d 3d bb 52 70 42 3b ee fa bb bc
       0.015303153 -0.0028846867 0.0029669 -0.022946801
000010 54 58 89 bc 13 3b d9 bc f6 ad 0a 3b 2b 92 ad 3c
       -0.016765751 -0.026517427 0.0021160818 0.021187862
000020 a1 43 81 bc cc 77 6b bb 71 b9 38 3a 05 10 7c 3c
       -0.015779318 -0.0035929559 0.0007046676 0.015384679
000030 96 19 78 3a 17 cd ce 3a 58 fe 1b bc 9b 46 e7 3c
       0.0009464262 0.0015777674 -0.0095210895 0.02823191
000040 ad 87 d8 3c 62 75 53 3c 48 51 15 bc 4b 74 ab bb
       0.026431883 0.012906404 -0.009113617 -0.005232369
000050 f3 b6 14 bc 39 88 bc bc ed 5c 99 bc c1 12 14 3b
       -0.009076822 -0.023014175 -0.018721068 0.0022594186
000060 8d 1c a9 bc 5a 03 87 bc 38 9f cc 39 88 b9 a9 bc
       -0.020643497 -0.01648109 0.0003902854 -0.020718351
000070 bd 45 88 3c fa b2 bf bc 2c 64 cf bc 57 3a ca bc
       0.016634816 -0.023400772 -0.02531632 -0.024686022
000080 7b 3d e9 39 a0 8b da bc 79 97 8f 3b 83 ee 00 bb
       0.0004448703 -0.026677907 0.0043820706 -0.0019673414
000090 fb 39 92 3c 67 a8 91 bc d5 1d 84 3b 2c 5f 1a 3c
       0.017849913 -0.017780496 0.0040318766 0.009422105
0000a0 5c b3 b9 bc d8 b4 71 bc 2d 7b 56 bc 73 ac 94 3b
       -0.022668533 -0.014752589 -0.013090891 0.004537159
0000b0 1c 9f 61 bb a9 2b 15 bc 2d 4d d6 3b 8c 37 91 bc
       -0.0034427112 -0.009104648 0.006539962 -0.017726682
0000c0 3d e1 0f bb 9a 5a c9 3c 87 c4 9f 3b 77 72 48 3c
       -0.002195432 0.024579335 0.004875723 0.012234322
0000d0 fe 04 89 bc 13 b3 be 3c 02 7c 82 bc fe 7f 7b bc
       -0.016726013 0.023278749 -0.015928272 -0.01535034
0000e0 d6 d6 41 bc 55 e2 2b bd ee ef 13 3c 43 b2 6c 38
       -0.011831006 -0.041963894 0.009029372 5.6432804e-05
0000f0 3f 68 75 bc d6 59 ee 3b 89 6f 44 bb 5f 93 bb bc
       -0.0149784675 0.007273893 -0.0029973707 -0.02289742
000100 71 42 21 3c ef 60 8c 3c be af b7 bc 6a 34 17 bc
       0.009842501 0.017136065 -0.022422668 -0.009228805
000110 f6 d1 2c 3c 44 78 80 ba 83 ca 06 bd d2 33 15 bd
       0.010548105 -0.0009801467 -0.032907974 -0.036426373
000120 89 fe 4b bc f9 99 6f bc 54 7c dc bc 7c 7a 9f bb
       -0.012450823 -0.014624112 -0.026914753 -0.004866896
000130 53 cc 2b bc a7 56 b4 3b fd bc f2 3b b0 c4 a3 bc
       -0.010485726 0.005503494 0.007407783 -0.019991249
000140 3f 82 71 3c 39 50 25 ba 3f 32 0d bb 90 29 cf bb
       0.014740526 -0.00063062046 -0.0021544842 -0.0063220933
000150 67 60 08 bc 8f 71 1e bc 31 5f d6 bc 1a 44 90 3b
       -0.008323765 -0.009670629 -0.026168438 0.0044026496
000160 46 3e 5d bc fa 07 86 3a c2 cd 09 3c a5 99 eb 3b
       -0.013503617 0.0010225766 0.008410873 0.0071899467
000170 b7 82 93 bc 1a a9 32 bc d8 7c cb bb 4f 78 5c bd
       -0.018006666 -0.010904575 -0.006209951 -0.053825673
000180 70 a6 5c bc b9 56 0c 3c d2 d3 9a bc b1 8f 8e bb
       -0.013467416 0.008565598 -0.018899832 -0.0043506254
000190 18 fe a5 bb 44 8b 80 3b 0a cf 23 3c 5e 46 23 bc
       -0.0050656907 0.0039228518 0.009998092 -0.009965507
0001a0 3d f3 f7 b9 67 f9 36 bb 51 50 e2 39 41 75 99 bb
       -0.00047292738 -0.0027919651 0.0004316592 -0.004683167
0001b0 73 bf 3d 3c bf c2 8b 3b d5 fe a0 3b 8c ec 35 bc
       0.01158129 0.004265159 0.004913191 -0.01110376
0001c0 36 78 d5 bc 0d 11 da 3a b0 f8 65 3b a1 b2 b2 bc
       -0.026058298 0.0016637162 0.0035090856 -0.021813693
0001d0 79 50 b8 b8 9e 91 f4 bb 6e b3 2e 3c 03 15 2b bb
       -8.788793e-05 -0.007463648 0.010662897 -0.0026105053
0001e0 02 e2 44 3c 03 a7 88 3c 12 77 21 bb bc 5c ac bb
       0.012016775 0.0166812 -0.0024637622 -0.0052600782
0001f0 4b 1f b3 bb 92 c6 bb bb 48 d2 e6 3b 14 53 68 3c
       -0.005466377 -0.0057304585 0.0070441104 0.014179964

network_body._body_endoder.seq_layers.2.weight f4 [128, 128]
000000 61 ac 33 be 30 1a 6e 3c 60 58 03 bc 6b 2b 12 3d
       -0.17546226 0.014532611 -0.008016676 0.035685938
000010 31 e1 8e bc a6 d2 78 3d 58 46 a7 bc b0 cb 6e bc
       -0.017441364 0.060747765 -0.020419285 -0.01457493
000020 cf e0 11 be 0d 78 85 3d dc 29 62 be c5 0e 62 3d
       -0.14245914 0.065170385 -0.2208628 0.055189867
000030 dc db 59 3d 6c c1 8f bd c9 35 ab 3d eb 7e cc 3d
       0.05318819 -0.07019314 0.08359868 0.09985145
000040 44 9f 41 bb 3f 5c 1b be 01 72 15 3d dd 1f bd 3d
       -0.0029544393 -0.15171908 0.036485676 0.09234593
000050 91 44 49 3d ff 61 01 be d3 67 94 3d 00 6b 1f bd
       0.049137656 -0.12635039 0.072463654 -0.038920403
000060 d2 46 fa 3d a2 72 0e be 82 df 6c bd 3b c9 e3 bd
       0.12220539 -0.13910916 -0.05783034 -0.11122366
000070 d6 9a 09 be e8 c5 a3 bd cd ee 84 3c 30 41 31 bc
       -0.13437971 -0.07996732 0.01622715 -0.010818765
000080 c9 51 c1 3c 14 38 bd bc 92 7e 30 bd ea d8 85 3d
       0.023598569 -0.02309803 -0.043089457 0.06535514
000090 94 b5 00 3c cf 99 06 3e ae 5a 96 bd df 52 15 be
       0.007855792 0.13144611 -0.073415145 -0.14582394
0000a0 65 7b 52 3d 97 78 11 3d cd 6d 57 3d 92 9c ec 3d
       0.05138721 0.035515394 0.05259495 0.11553301
0000b0 cb 51 c6 bd 0b f1 cb 3c ea 3e aa bd 1f 17 64 bc
       -0.096835695 0.024895212 -0.08312781 -0.013921528
0000c0 ef 35 02 3d 4a 09 d2 3c 9d 97 ee bc 8f 38 97 3c
       0.031789716 0.025639195 -0.02912503 0.018459586
0000d0 77 fc fa bc 87 b5 9b be d3 af 2f 3d 39 13 88 3e
       -0.030637963 -0.30411932 0.04289229 0.26577166
0000e0 6e 6f 4b 3d 99 94 4a 3d 11 b3 d0 3d 2b 44 e4 bd
       0.049666815 0.04945812 0.10190404 -0.111458145
0000f0 06 0d 11 3e ab 30 59 3d 88 83 9b 3c ec 19 c1 3d
       0.14165124 0.05302493 0.018983617 0.09428772
000100 f8 11 57 3b 99 ba 08 be f2 13 7f 3b f1 b1 18 bd
       0.0032817107 -0.13352431 0.00389218 -0.037279073
000110 99 25 f0 3c f9 bb 21 3d ab d9 a7 bc dc e2 0a 3d
       0.029314803 0.039485905 -0.020489534 0.033907756
000120 f7 99 89 3d 57 0f 1e bd 9c de fa bc 32 a9 b4 bd
       0.067188196 -0.038588848 -0.030623727 -0.08821334
000130 d0 f6 7c 3d c6 7e 1f 3e 38 88 34 3b 0d 51 e9 3a
       0.061758816 0.15575704 0.0027547013 0.0017800644
000140 a1 0b c5 bb 43 58 f1 3d fb 19 19 3e 61 3f 8d 39
       -0.006013349 0.11784413 0.14951317 0.00026940837
000150 02 30 55 bd 41 9c a4 3d 12 c0 87 3c ba ce 4c bd
       -0.052047737 0.080376156 0.016571078 -0.050001837
000160 42 df 8e bd 54 d7 17 3d 94 38 6e bd 5d d0 c9 3c
       -0.06976177 0.037070587 -0.058159426 0.024635488
000170 04 09 e8 3d 82 d8 f3 3c 92 9e 61 3e 64 6f 8a bd
       0.113298446 0.029766325 0.22033146 -0.06759527
000180 2e 2f 89 bd 31 8c 11 3d fc af 72 bd a0 d4 ab bd
       -0.06698452 0.035534088 -0.059249863 -0.083901644
000190 98 87 f7 bd 38 3f 66 3d bb f8 a3 bd 3e 29 86 3d
       -0.12086409 0.056212634 -0.08006426 0.06550835
0001a0 61 7e 82 bc 33 5e 21 3d 15 c4 2d bd c9 d3 c4 3d
       -0.015929403 0.039396476 -0.042423327 0.09610707
0001b0 f2 31 90 bd ba cf 46 3e 72 47 23 bd 25 ec f6 bb
       -0.07040776 0.19415179 -0.039863057 -0.007535475
0001c0 58 aa d0 3c d3 35 6f 3c 02 be 49 3d ee 1d 9f 3d
       0.025471851 0.014600235 0.04925347 0.077693805
0001d0 1b ba 19 3e ff c4 2a bd 41 81 bb bd 99 16 c3 3d
       0.150124 -0.041691776 -0.091555126 0.095257945
0001e0 98 07 87 bc 34 06 ce 3c 94 d4 b6 3d a9 b8 db bd
       -0.016483113 0.025149442 0.08927265 -0.107285805
0001f0 a3 04 9b bd 0f 2e eb 3c d0 2a 58 3c 6e 29 6a 3d
       -0.07569244 0.028708486 0.013193801 0.057168417
000200 13 a1 0f 3e 29 27 b7 3d 59 83 25 be c4 6f db bd
       0.14026289 0.08943016 -0.16163386 -0.10714677
000210 27 56 dc 3d e9 57 4c be 21 f9 37 bd de e8 22 3e
       0.1075862 -0.1995541 -0.044915322 0.15909144
000220 73 da c2 bc 92 c5 f3 3d b9 1b 8e bd 14 7b 19 be
       -0.023785805 0.11902918 -0.069388814 -0.14988357
000230 38 87 17 bd 3e 45 a1 3d c5 e9 45 bd 33 f7 d6 3c
       -0.03699419 0.07874535 -0.048318643 0.02624092
000240 6f 0f 9f 3c 6d 58 5b 3d c9 d9 0e 3d d4 7c 22 3b
       0.019416539 0.053551126 0.034875665 0.0024793642
000250 26 a6 44 be 69 2e 99 bd 46 9c 9d bc b1 6a 89 be
       -0.19204006 -0.07479555 -0.019239556 -0.26839212
000260 45 ab 3c 3d 2a 3a 16 3e 51 df 20 ba ba 8b 89 3d
       0.046061773 0.14670625 -0.00061367924 0.06716104
000270 a2 06 c2 bd b1 04 36 bd fc 9e d0 bc f2 5d de 3d
       -0.09473921 -0.044438068 -0.025466435 0.108577624
000280 ad 3a 30 3d b4 2f 22 3d 49 a3 23 3e 14 81 1f 3d
       0.043024708 0.039596274 0.15980257 0.038941458
000290 5d c4 61 3c 49 c1 5a 3e da 86 ac 3d 6a e7 35 3d
       0.013779727 0.21362795 0.084241584 0.044410147
0002a0 ee de 75 bd 90 68 02 be 7b 46 13 3e ef 1d 38 be
       -0.060027055 -0.127352 0.14382355 -0.17980169
0002b0 19 f3 41 3e bb 19 5a 3d 05 8c c1 bd b9 9b 74 bc
       0.1894039 0.053247195 -0.09450535 -0.014929705
0002c0 33 ce 46 bd 04 34 d1 3d 08 63 20 3e 7a 10 88 bd
       -0.04853649 0.10214999 0.15662777 -0.06643768
0002d0 08 27 cf 3c 9e 9c 6f 3d 1c 3f fc bc a3 4e 27 3c
       0.025287166 0.05849897 -0.030791812 0.01021162
0002e0 35 b9 d1 bc 0a e9 8b 3d 38 e1 bc 3d c5 61 94 bc
       -0.025601009 0.06831558 0.092226446 -0.018113026
0002f0 31 30 cc bd b5 de 31 3d 02 3b 59 be 29 67 87 be
       -0.09970129 0.04342528 -0.21213916 -0.26445892
000300 aa 65 fc 3d b2 03 31 3d 1e 64 42 3b be 06 5b be
       0.123240784 0.043216415 0.0029661725 -0.2138929
000310 01 46 3d 3e f3 69 01 be 33 50 58 bd c2 4c 85 bd
       0.18483736 -0.12638073 -0.05281086 -0.06508781
000320 9f 65 9c bd c1 b1 16 3d cc be 79 3d b0 06 26 3b
       -0.0763657 0.036790613 0.060972974 0.0025333576
000330 21 b9 80 bd 50 b5 91 bd 09 78 73 bd 7f ac 10 be
       -0.062853105 -0.07114661 -0.059440646 -0.14128302
000340 31 92 96 3d 21 72 b7 3c 77 e0 2e be 3c 38 83 3c
       0.073521025 0.022393288 -0.17077814 0.016018026
000350 8c db 02 be 54 14 1c 3c 13 72 03 bd 68 91 1d 3d
       -0.12779063 0.009526331 -0.03209121 0.03846875
000360 f4 29 95 3c 20 ec 19 3e d2 9a 1a 3e d2 72 4a 3c
       0.018208481 0.15031481 0.15098122 0.012356477
000370 95 b9 16 3d e0 de 3b 3d b0 a6 2f bd c7 32 e8 bc
       0.03679808 0.045866847 -0.042883575 -0.028344525
000380 03 b9 fe bb c3 47 92 3e 67 14 7b bd c8 9e 81 3d
       -0.00777352 0.28570375 -0.061298754 0.06329113
000390 47 e7 26 3d ab 3c f3 bc f3 fb 94 3d 70 25 66 3c
       0.040747907 -0.029692015 0.07274618 0.014047012
0003a0 79 a4 23 3d 5a 38 ab 3c 86 08 f0 bc 91 da 0b 3d
       0.039951775 0.020900894 -0.02930094 0.034143988
0003b0 f0 f5 05 bd ce f8 be 3d d2 cf e4 3c ef 6c 3a b9
       -0.032705247 0.093247995 0.027931128 -0.00017778923
0003c0 3e e3 cd 3d 41 dc 0a be a1 39 be bc 20 0e 46 3d
       0.10053109 -0.13560583 -0.023220839 0.048353314
0003d0 a5 d0 da 3d 5b 63 0d 3d 55 93 57 be 89 bd 8b 3c
       0.10684327 0.03451858 -0.21052296 0.01705815
0003e0 30 09 36 3d 97 78 b0 3a 4d 86 28 3e 92 fc 18 be
       0.044442356 0.0013463673 0.16457482 -0.14940098
0003f0 8a 74 05 bd bc 1c b8 bc 9f fc ea bc c3 0c fc bc
       -0.032581843 -0.02247464 -0.028684912 -0.030767804

network_body._body_endoder.seq_layers.2.bias f4 [128]
000000 1f 67 94 bc 1b ef 72 3c b8 d5 1e bc 2d 0e 9a bb
       -0.018115578 0.014827515 -0.009694509 -0.004701397
000010 7e e3 d7 bc cd 61 db bc 17 66 c5 bb 02 5a 5e b9
       -0.026353594 -0.026780033 -0.006024133 -0.000212051
000020 00 6f a9 3b a6 00 66 3c a6 3d 42 3c dd 68 9d 3b
       0.005170703 0.014038241 0.011855518 0.0048037604
000030 1f ee b9 bb 94 52 fe 3c b5 5a 03 bd 48 41 2c bb
       -0.005674138 0.031045236 -0.032068927 -0.0026284028
000040 ce 70 9c bb 80 c4 85 3b 50 6c 4c ba 23 e0 9b bc
       -0.0047741896 0.0040822625 -0.0007798122 -0.019027775
000050 e7 a1 76 b9 5c fa 23 bd 90 c7 07 bc 76 9e fe bb
       -0.00023520702 -0.040033683 -0.0082873255 -0.007770355
000060 a7 f4 84 3c 12 be 15 3c 9d 66 6c bc 10 58 65 bc
       0.01622994 0.009139555 -0.014428762 -0.0139980465
000070 06 40 0d bb ad 28 98 3c e1 ab 4b 3b 9d 43 35 bc
       -0.0021553054 0.018574083 0.003107779 -0.011063484
000080 31 f3 e8 3b d6 24 fe 3b 55 57 0d bd 2e 1f 8a b9
       0.007109069 0.007755856 -0.034507114 -0.00026344642
000090 bf 71 25 3c 74 90 95 3b 5f c6 2b 3c 30 31 65 3b
       0.01009792 0.0045643393 0.010484307 0.0034971945
0000a0 57 83 6b 3b cd 57 92 3b bb 16 c3 3c a0 39 5a bc
       0.003593644 0.004466033 0.02381455 -0.013319403
0000b0 4f ab 74 bc af b9 ef bb 3d c6 74 bc 4f 69 b8 bc
       -0.014933421 -0.0073158364 -0.014939842 -0.022511153
0000c0 8c 08 57 bc 94 cc 69 3c 22 4f b6 3c 1a 64 b1 bb
       -0.013124596 0.014269967 0.02225453 -0.0054135444
0000d0 ab 01 83 3c 75 57 1e 3c 67 c6 cf bc 45 6d a3 bb
       0.015992006 0.009664406 -0.02536316 -0.004987391
0000e0 0c b5 15 3c 22 aa c4 3c b9 c4 c6 3c cb e2 1b bd
       0.009137403 0.024006907 0.024263727 -0.038058084
0000f0 ee 80 8c bc ab 34 6f bc fc 54 63 bb fe 60 ed 3b
       -0.017151322 -0.014599959 -0.0034688106 0.0072442284
000100 d1 01 6b 3b ac c3 51 bc 2a f9 c1 bb 46 26 4b bc
       0.0035859237 -0.0128029995 -0.0059195952 -0.012399262
000110 43 ec 1d bc 86 08 84 3b c4 b0 14 bc ae 65 ef bb
       -0.009638849 0.0040293364 -0.009075347 -0.0073058223
000120 48 99 c2 bc f0 96 7c bc 39 92 41 bc 47 27 3b bb
       -0.02375473 -0.015416846 -0.011814647 -0.0028557347
000130 5e b1 33 3c 75 7b ac bc 8f 73 f9 3b d3 6e 36 bc
       0.010967581 -0.021054963 0.0076126526 -0.011134821
000140 67 36 b6 ba df d7 0b 3d 49 98 8c 3b 5b fb 84 3a
       -0.0013901711 0.034141418 0.0042906147 0.001014571
000150 26 52 2f 39 2c 08 80 bc 54 e0 44 3c b4 b2 a5 bb
       0.00016719903 -0.015628897 0.012016375 -0.0050567035
000160 8a b5 a1 bc 9e 84 36 bc c9 1e 27 3c 67 e7 90 3c
       -0.019739885 -0.011140017 0.010200211 0.017688466
000170 a4 75 31 3c 43 94 c1 38 e2 fe c5 bc cd e8 42 3c
       0.01083127 9.230573e-05 -0.02416939 0.011896324
000180 10 0e b6 3c f8 a5 35 bc 52 2d 27 bc 84 0b ae 39
       0.022223502 -0.011086933 -0.010203676 0.00033196446
000190 1a 7d 77 bc 12 23 a2 bb bb 1f 87 bb f7 a5 d6 3b
       -0.01510551 -0.0049480284 -0.0041236556 0.0065505463
0001a0 2e b1 a8 bb 80 3f 95 3b 85 18 93 bb d7 d1 a1 bb
       -0.0051480746 0.004554689 -0.004489007 -0.004938345
0001b0 ff cc 37 bc 88 ea cb 3b 5c 71 25 3c 72 df c8 3b
       -0.0112183085 0.0062230267 0.010097828 0.0061301524
0001c0 5f 2a 34 3c 46 11 a5 3b d7 a4 0a 3c c4 77 f9 3c
       0.01099643 0.0050374595 0.008462152 0.030452617
0001d0 6a e5 44 3c d0 53 e1 3b e9 b5 9f bc 6c ad 22 bc
       0.012017587 0.0068764463 -0.019495921 -0.009929042
0001e0 6a 64 34 3c 03 77 34 bc 00 82 04 3c 1a 5e 7a 3c
       0.011010269 -0.011014703 0.008087635 0.015281225
0001f0 25 f6 8f ba 45 34 9d 3b 58 6d 4a bc 7e c8 56 3c
       -0.0010983391 0.004797491 -0.012355171 0.0131093245

action_model._discrete_distribution.branches.0.weight f4 [2, 128]
000000 4a d8 05 bb db b9 44 3d 8f 4e bb 3a 4a 61 b6 bb
       -0.0020423108 0.048028808 0.001429038 -0.005565797
000010 d7 14 e0 bb 34 c1 8b bc e4 e8 14 bc 2b dd d4 3b
       -0.006838422 -0.0170599 -0.009088729 0.006496092
000020 fd 0a b6 b9 9d 2b 02 3c b6 48 36 bc ef ac 32 3a
       -0.00034721932 0.0079449685 -0.011125734 0.000681593
000030 28 e1 17 3d 71 5b 8d 3d 27 3d 1c bb 16 4c ee 3b
       0.03707996 0.06902207 -0.002384016 0.0072722537
000040 a3 e8 b9 3c e4 c3 61 bc 56 f2 12 3c 9b 94 1f bb
       0.022693938 -0.013779614 0.00896891 -0.002435005
000050 03 59 a7 bd f3 85 24 3b ab bd 5f 3b 43 22 b3 3b
       -0.081712745 0.0025104254 0.003414015 0.005466731
000060 75 8e 0e 3d 43 f8 31 bd 06 19 af 3c 4b 59 4e bc
       0.034803826 -0.04344965 0.021374237 -0.012594531
000070 a6 ea 00 bd 39 1a 99 bc 91 f7 23 3c 71 9d f8 bc
       -0.03147378 -0.018689262 0.010007755 -0.030348511
000080 64 21 d9 3c 86 0f 81 bc cb da fa bb e2 5c 5d 3b
       0.02650518 -0.015754472 -0.0076554767 0.0033777286
000090 31 1e 97 3c e1 c9 f9 3c 70 98 57 bc 3d 8c 58 bd
       0.018447014 0.030491771 -0.0131589025 -0.052868117
0000a0 79 5a c9 3c 62 23 d8 3a 36 b9 aa 3b 11 bd 79 bc
       0.024579274 0.0016490037 0.005210067 -0.015242831
0000b0 95 26 3f bd d2 2f 9a bc 2e 1b 9e bc 39 b8 8d bb
       -0.046667654 -0.01882163 -0.01930007 -0.0043249396
0000c0 01 d7 70 3c 9c cc b2 3c af 7a 2a 3d 7a 49 a3 bc
       0.014699698 0.021826081 0.041620906 -0.019932497
0000d0 87 0b 90 3d 3a 1f f7 3c 98 54 13 bd 25 28 a0 bc
       0.07033449 0.030166257 -0.035969347 -0.019550392
0000e0 0e 65 27 3d c4 20 1a 3d e5 e8 ba 3c 69 e3 bf bb
       0.040867858 0.037628904 0.02281613 -0.005855967
0000f0 fe e4 9e 3c f3 9a 04 3d a7 6c 06 bd 74 ea 5b 3d
       0.019396301 0.032374334 -0.032818463 0.05369039
000100 5d 2a 9d 3c 6d b2 67 3c bf 69 8b bc 34 7f fa bc
       0.01918524 0.014141661 -0.017018197 -0.030578233
000110 04 4f 3a 3c 5c 1e f7 bc 24 f5 86 3c e8 d5 11 bd
       0.011371378 -0.030165844 0.016474314 -0.035604388
000120 b2 26 5d 3c 67 35 47 3c 2f 2d 1c bd 51 3b 52 bb
       0.013497995 0.012158728 -0.038129028 -0.0032078812
000130 8a 64 6e bd 3d b5 69 bc c8 35 14 3d 75 79 07 bd
       -0.05820135 -0.014264402 0.036184102 -0.033074815
000140 f2 85 31 bd f4 6c ae bb 94 ec 12 3c 15 2e 65 bc
       -0.04334063 -0.005323047 0.008967537 -0.013988038
000150 50 6d 6a bc 80 87 96 bd ba 7b 68 3c b9 46 42 3c
       -0.014308289 -0.07350063 0.014189655 0.011857682
000160 0e 62 8d bc 1c 5f d1 bc 9b 91 88 bc aa 89 dc 3c
       -0.01725867 -0.025558047 -0.016670993 0.026921112
000170 7e f4 d2 3c 5d 90 3a bc fc 6f 17 bb 9e 58 45 3d
       0.025751349 -0.011386958 -0.002310752 0.048180215
000180 04 5b 7d bc 9c 67 0b 3a 4c 61 ab 3c a4 0a e1 3a
       -0.015463594 0.0005317868 0.020920418 0.0017169309
000190 11 dc a9 bb 12 39 ed bc 38 b6 b4 3c 61 f2 17 3d
       -0.0051837047 -0.028957877 0.022059545 0.037096385
0001a0 5f c8 15 bd 32 20 8e bb c1 dc 70 3c 36 48 16 bc
       -0.036568042 -0.004337334 0.014701069 -0.00917249
0001b0 0c f3 c9 ba 21 b8 8f 3c b4 c9 8a 3c 2d 6a f8 3c
       -0.0015407517 0.017543854 0.016941883 0.030324066
0001c0 b5 26 15 3d 95 f1 32 bd 35 23 2b 3a c9 1b cd 3c
       0.036413867 -0.04368742 0.00065283786 0.025037663
0001d0 dd ad d2 3c 07 dc 14 3c 84 8b ba bb df d1 7f bc
       0.02571767 0.009085662 -0.005692901 -0.015614002
0001e0 a1 67 a5 3b e0 cb 8a bd 19 87 28 3c 8f f3 2e 3d
       0.005047754 -0.06777167 0.010286116 0.042712744
0001f0 36 9b f6 bc 48 94 16 3d b0 53 0a 3d b6 8a c4 3c
       -0.030103307 0.036762506 0.033771217 0.023991924
000200 6c 2c 3a bb b3 01 40 bd d6 d9 1a bc 7e 78 04 3b
       -0.0028407825 -0.04687662 -0.00945135 0.002021342
000210 d3 7b 87 3c 9d 5f 15 3d 7f 0c 1a 3b 07 a7 22 3c
       0.016538536 0.036468137 0.0023505983 0.009927518
000220 1a 05 62 bc 68 06 5c bb 4d a9 d9 3c dc b3 a4 bc
       -0.013795162 -0.0033573154 0.026569987 -0.020105295
000230 b7 ab 1c bd 8c 4b 48 bd b6 02 ba bb 1c 6d 90 bb
       -0.038249698 -0.048900172 -0.0056765927 -0.004407538
000240 fe 34 f7 bb 5e 25 91 3b ba cd b7 3c ad 4b 18 3b
       -0.007544159 0.0044295033 0.022436965 0.0023238466
000250 db 66 bc 3d 04 02 b0 3c 6c 4e 5d bc 97 a9 d0 3b
       0.091993056 0.021485336 -0.013507467 0.006367873
000260 68 bf fe bc fc 44 3e 3d 22 55 4a bc 01 63 4d bb
       -0.031097129 0.046452507 -0.012349399 -0.0031339529
000270 ee da df 3c 2d 3a d1 3b bd 87 0c bc 15 fc 2a 3c
       0.027326073 0.006385109 -0.008577284 0.010436078
000280 e9 76 be bc a2 b5 a1 bb e1 c1 71 3b e7 c1 66 bc
       -0.02325006 -0.0049349824 0.0036889242 -0.014084316
000290 91 5c 80 bc 6b 82 da bc b1 3f ad 3c fd 74 50 3d
       -0.01566914 -0.026673516 0.021148534 0.05089282
0002a0 52 92 10 bd ab 12 10 3c e6 f3 be bb 12 f5 13 3c
       -0.035295792 0.008793513 -0.005827415 0.009030597
0002b0 c1 9e ea 3c ca ce e9 ba 39 71 13 3a 6e fc 69 bb
       0.028640153 -0.0017838117 0.00056244765 -0.0035703438
0002c0 06 bb 83 bc ce bf f9 b9 36 21 31 bd ba 96 00 3d
       -0.01608039 -0.00047635887 -0.043244563 0.031393744
0002d0 34 a1 94 bd ae ea ca bc 2c 0c c3 3c a9 a6 d4 3c
       -0.072573096 -0.024770107 0.023809515 0.025958376
0002e0 db bd be bc 4e 6b 21 bd 75 eb 1d bc 48 93 dd 3b
       -0.02328389 -0.039408974 -0.009638657 0.006761942
0002f0 7d bf 44 bb 24 08 9d bc 9b 6a 23 3d 16 64 48 bd
       -0.0030021362 -0.01916892 0.03989659 -0.048923574
000300 be 81 8f 3b c9 a4 03 bc bd 0f 37 3c 55 d6 33 3d
       0.00437948 -0.008034893 0.011173186 0.043905575
000310 07 52 99 bc 36 d8 47 3d 9b cf e6 ba d8 8d 27 3d
       -0.018715871 0.04879018 -0.0017609479 0.040906757
000320 79 f3 53 3c ce f9 47 bc bb f1 3b 3d 28 65 f5 3a
       0.012936466 -0.012205554 0.04588483 0.0018722164
000330 00 5c 0c 3d 72 53 20 3c 26 14 e4 bc f1 9e 05 3d
       0.034267426 0.00978552 -0.027841639 0.03262228
000340 1a e1 3c 3d 25 bc e0 bb 5e be 3b bc 63 1d b9 3c
       0.04611311 -0.006858366 -0.011458961 0.02259702
000350 25 4b 1c 3c 59 8c ae 3d 54 2c f0 bc 4a 40 aa ba
       0.0095394 0.08522863 -0.029318012 -0.001298913
000360 d0 0a f3 3c 84 5f 04 3d e4 20 14 3d 1b 66 b1 39
       0.029668242 0.032317653 0.03616418 0.00033836145
000370 12 cf 1c bd 38 d7 98 3c 20 7f 8f 3b 41 73 25 bd
       -0.038283415 0.018657312 0.004379168 -0.040393118
000380 42 c1 9f 3c c8 d4 86 bc a5 09 85 bc ea c9 d9 3c
       0.019501332 -0.016458884 -0.01623995 0.026585538
000390 13 96 03 bc bf 2a d1 3c a1 78 0d bd c8 f1 31 bd
       -0.008031386 0.025533078 -0.03453887 -0.04344347
0003a0 09 bb 0f 3d 29 72 e8 bc 7f 0c 70 bc 4d 9a c1 3c
       0.03509048 -0.028374748 -0.014651417 0.023633147
0003b0 70 70 6d 3c 6a 17 29 3c b0 07 13 bd 77 3f a0 bc
       0.014492139 0.010320524 -0.035896003 -0.019561512
0003c0 47 78 79 bc 17 24 3f 3d fc 97 b3 3b c5 46 52 bc
       -0.01522643 0.046665277 0.0054807644 -0.012834256
0003d0 76 3f d2 bc a6 ff ed ba 6a 72 6f bb fa de e0 3c
       -0.025665026 -0.0018157854 -0.0036536702 0.027450074
0003e0 cb 7e 04 bd 34 bb 66 3d 94 42 18 bc d4 c2 3d bd
       -0.03234748 0.056330875 -0.009293217 -0.04632838
0003f0 d3 14 0e 3d 1c e4 2d bd f3 a7 e6 bc e1 4f 89 bc
       0.03468783 -0.04245387 -0.028156256 -0.016761722

action_model._discrete_distribution.branches.0.bias f4 [2]
000000 e8 cc a1 3c e3 cc a1 bc
       0.019751027 -0.019751018

action_model._discrete_distribution.branches.1.weight f4 [3, 128]
000000 24 49 07 3c 11 a6 dc 3c 8c ce ec 3c d3 b7 df 3c
       0.008257184 0.026934655 0.028907083 0.027309334
000010 f5 db 05 3c 78 01 93 3c e6 d7 12 3b 0f 42 2d bc
       0.008170118 0.017945036 0.0022406518 -0.010574832
000020 46 41 3b 3c 39 9c 5e bd b3 d8 39 3d 4a 9c d9 3c
       0.011429137 -0.054348204 0.045372676 0.026563782
000030 83 ca 17 3d ef 01 f1 bc 49 24 4c 3c e0 a9 c3 bc
       0.037058365 -0.029419867 0.012459823 -0.023884714
000040 87 02 72 bc c8 36 91 bd e5 1d 20 3d 07 f1 58 3c
       -0.01477111 -0.07090527 0.03909101 0.013241059
000050 fa 72 aa 3c 61 fc ea 3b 64 84 5e 3c 36 87 f1 3c
       0.020806778 0.007171199 0.013581369 0.029483419
000060 7d f0 8d bc 72 fd e1 3a 48 fe a4 3c c3 c2 64 3c
       -0.017326588 0.001724167 0.020140782 0.01396245
000070 32 29 85 3c 58 0d 3c 3d 54 83 d7 bc 04 c9 2c 3c
       0.016254995 0.045911163 -0.02630774 0.010545973
000080 ad 64 6d 3d 1a 84 19 bd 05 72 f0 ba 97 94 20 bc
       0.05795734 -0.037479497 -0.0018344527 -0.009801052
000090 b3 d0 0f bd 8b 20 ca bc 77 0c 58 bd d8 f3 24 bd
       -0.03511114 -0.02467372 -0.052746262 -0.04027161
0000a0 cf 1a ea 3c 8f d4 3c bd 4c 0d 39 3a 6e 56 40 3c
       0.028577236 -0.04610115 0.00070591713 0.011739356
0000b0 8d 14 33 3c 57 f3 15 3b d3 c5 99 3c ea 5a fc bc
       0.010930193 0.0022880638 0.018771088 -0.03080507
0000c0 ee 38 99 3c 2a fa 27 bd 3c 83 a0 3c a6 8d 27 3d
       0.018703904 -0.04101006 0.019593827 0.04090657
0000d0 19 72 b9 bb 1b 0c 9b bc 4f 34 80 3c 7b 23 49 bc
       -0.0056593535 -0.01892667 0.015649943 -0.012276526
0000e0 f9 ad 45 bd f0 e3 45 bd ad 7e 21 bc 51 26 75 3b
       -0.048261616 -0.04831308 -0.009856862 0.0037406872
0000f0 84 b5 2c 3c 48 12 05 3c e6 81 2b bd 80 42 a0 3b
       0.010541324 0.008122034 -0.041871928 0.00489074
000100 78 2a 19 bc 9f f8 1a 3d 3c 7a ea 3c da bf 28 bd
       -0.009348504 0.03783476 0.028622739 -0.04119859
000110 f7 38 81 3c 0a 57 16 3d d4 74 53 bc 31 5a 2f 3b
       0.015774233 0.0367041 -0.012906272 0.002675664
000120 32 62 5a ba d5 d2 df 3a 76 8e d4 3c cb 53 26 3d
       -0.0008330672 0.0017076383 0.025946837 0.040607255
000130 11 ee 8f 3c 2d 09 ea bc 31 13 36 bd 4d 2e b6 bb
       0.017569574 -0.028568828 -0.044451896 -0.0055597187
000140 8a 87 78 3c 3c 78 eb bc b8 da 86 bb b4 77 7b 3d
       0.015169034 -0.028743856 -0.004115429 0.061393455
000150 86 f6 4f 3d 46 6a 8c bc b5 33 5d bd 7c 4c 8b 3c
       0.050772212 -0.017140519 -0.05400439 0.017004244
000160 a5 bb 6f 3c d6 d7 b6 bc ed e8 1f bc b7 22 4b bd
       0.01463214 -0.022319715 -0.009760124 -0.049593654
000170 ea d8 1f 3d 27 27 7a 3c 22 7d e1 bc dd 77 aa bc
       0.039025225 0.015268124 -0.027525488 -0.020809108
000180 aa e5 5e bd 54 8c 5c 3c 08 4f 60 3c c3 57 f9 bc
       -0.054418243 0.013461191 0.0136907175 -0.030437356
000190 20 35 52 bb 4c 1b fb bc 2e d4 5c bc a2 4a 10 3c
       -0.0032075122 -0.030652665 -0.013478322 0.008806856
0001a0 36 26 0a bc db e1 b5 bb 0f 12 fc 3c 22 13 82 3d
       -0.008431962 -0.0055506057 0.03077033 0.063513055
0001b0 30 56 07 3d 56 65 0c bd 04 62 fa 3c 62 c4 14 bd
       0.03304118 -0.03427633 0.030564316 -0.036320098
0001c0 77 ee c2 bc 48 13 1d 3c a4 16 3c bd 5b e7 00 bc
       -0.02379535 0.009587117 -0.04592003 -0.007867659
0001d0 a6 0d 16 3d 48 38 c6 bc 3a ae a8 3c 92 f2 cc bc
       0.03663411 -0.024196759 0.02059089 -0.02501801
0001e0 18 76 fe bc 4c 96 c0 3c bf ff 02 3d ff 1f 3b bd
       -0.03106217 0.023509167 0.03198218 -0.04568481
0001f0 a5 fb 14 bc 92 67 d1 3c 8a dd 0b 3d 92 1d 85 3c
       -0.0090932 0.025562081 0.034146823 0.016249452
000200 56 57 a5 3c a6 5f 5a bd 23 80 2a 3c 23 07 1a bd
       0.020183247 -0.053313874 0.010406527 -0.037604462
000210 d3 bd 65 3d 81 7a 66 bc f1 85 9f bc 4b db 0f 3d
       0.056089234 -0.014067293 -0.019473048 0.035121243
000220 a4 ad 59 bd cf 9e 36 bc 9b e8 a2 bd af 30 3f bd
       -0.053144112 -0.011146261 -0.07954522 -0.046677288
000230 40 ce f8 bc a0 cb d9 b9 d8 e4 83 bb 76 67 42 bb
       -0.030371785 -0.00041541178 -0.004025083 -0.0029663718
000240 7d ee 93 3c 49 e3 9f 3b f9 74 03 3d d4 52 49 3c
       0.018058056 0.0048793894 0.032093976 0.012287814
000250 97 d4 6c bc 6b 16 8a bc 3a 85 12 3d a4 e4 d8 3b
       -0.014454982 -0.016856393 0.035771586 0.006619053
000260 08 ca e5 bc a0 c5 4a 3c 43 92 54 3b d3 10 fc bc
       -0.028050438 0.012376219 0.0032435812 -0.030769741
000270 80 ed 80 3c 3c e2 7a bd 86 fb 93 3c a7 c5 78 bd
       0.015738249 -0.06125091 0.018064272 -0.06073537
000280 20 08 25 bd dc b1 8e bb 55 58 66 3c 21 c4 49 3d
       -0.04029095 -0.0043546986 0.014059146 0.04925931
000290 98 bf 89 3d 88 cc 99 bc 5a 07 fd 3a 0b 32 ca bc
       0.06725997 -0.018774286 0.0019304559 -0.024682065
0002a0 8f bc 04 ba f0 86 0a 3d 4c bd ce 3d da 09 f0 3c
       -0.0005063498 0.033820093 0.10094699 0.029301573
0002b0 41 ec 76 bc 3e 5c ec 3c 89 ed 36 3d 89 9d f0 3c
       -0.015070976 0.028852578 0.044660125 0.029371994
0002c0 a4 91 c9 3b c7 35 6c bc e2 69 6d bd e6 60 bd 3c
       0.006151395 -0.014417118 -0.057962306 0.023117494
0002d0 64 25 33 bc 90 63 f3 bc 9e b1 b8 bc dd e6 9a bc
       -0.010934208 -0.029710561 -0.022545632 -0.018908912
0002e0 7c 5b ed 3c 36 36 98 bc a3 7f 5c bd 36 8d 6f 3c
       0.028974287 -0.018580537 -0.05383266 0.01462107
0002f0 08 32 e6 bc 9c 73 a1 3b 6b 7c 0d 3d 1f 25 42 bd
       -0.028100029 0.004927112 0.034542482 -0.047398683
000300 a8 19 95 bc b4 b1 bd bc 5c 05 f2 bc c1 6c 0b 3d
       -0.01820071 -0.023156025 -0.029543571 0.034039263
000310 1f 00 dc bc d7 21 1b 3c be 30 87 bb 56 2e 3b bc
       -0.026855526 0.009468517 -0.0041256836 -0.011424622
000320 15 4d 44 3c fd 4d 3f 3c a1 5c 54 3c ec 99 c8 bc
       0.011981268 0.011676309 0.012961538 -0.024487458
000330 03 27 e6 bc 6b 1b 97 3b 62 25 aa 3c 24 63 56 3b
       -0.028094774 0.004611423 0.020769779 0.00327129
000340 3e ad bf 3c 1b 50 80 bd 97 e4 22 bc 94 24 24 bd
       0.023398038 -0.06265279 -0.009942195 -0.040073946
000350 7e 36 bf bc 88 f8 01 3d 9a ea 29 3d 0f 0b 01 3c
       -0.023341414 0.03173116 0.0414835 0.007876172
000360 80 5e aa bc bf ed da 3c a2 0d ef bc 4a 73 f3 3c
       -0.020797014 0.026724694 -0.029181305 0.02971806
000370 fc 20 d5 bc 32 b9 b5 3b ea 75 cb 3c 75 1b ab bc
       -0.026016705 0.0055457586 0.0248365 -0.020887116
000380 1c 3d 97 bc 4b 3a a2 3c 25 94 07 3c 30 48 06 3d
       -0.018461756 0.019803187 0.0082750665 0.032783687
000390 7b 79 57 b9 cd ec 3c 3d f7 e1 86 3c d3 dc c6 bc
       -0.00020549253 0.04612427 0.01646517 -0.024275219
0003a0 bb e2 a5 3c a5 f9 94 3c 1a 5c a2 bb d7 70 95 bc
       0.020249715 0.018185446 -0.004954827 -0.018242283
0003b0 60 a0 0f bd 06 31 6d 3d 2b 4b 5e bd 9c bc 33 3d
       -0.035065055 0.05790808 -0.054270905 0.043881044
0003c0 a5 aa 0c 3d 0c eb 46 bd af 6e 5d 3d e1 0f 5c bd
       0.034342427 -0.048564002 0.054060634 -0.05372608
0003d0 42 42 a9 bd 61 d3 b6 3c 13 c7 c8 3c 95 7f d4 3c
       -0.08264591 0.02231759 0.024508988 0.025939742
0003e0 bf b9 4a 3d 4c 12 35 ba 99 56 1e 3d 97 94 f1 3c
       0.049493548 -0.00069073285 0.038656805 0.029489798
0003f0 22 66 03 bb a0 1e 14 bd 68 65 4b 3b 82 91 03 3d
       -0.002004989 -0.03616202 0.0031035785 0.03212119

action_model._discrete_distribution.branches.1.bias f4 [3]
000000 23 9a 01 bc d5 b4 cc bb 3b f8 66 3c
       -0.007910284 -0.006247143 0.014097269

action_model._discrete_distribution.branches.2.weight f4 [1, 128]
000000 17 13 a5 bc d2 56 95 bc 22 f5 af 3a 07 0b d4 3b
       -0.020150704 -0.018229876 0.0013424496 0.006471041
000010 0d 68 de bb aa 7e 74 bc 1d c6 1b 3c 82 0f 31 bc
       -0.006787306 -0.014922777 0.009507683 -0.01080692
000020 88 bf 5e bb 4e 18 ba 3b 21 3f 0b 3c ce 11 8a bb
       -0.0033988673 0.005679167 0.008498938 -0.0042135483
000030 0f 13 bf bc bc 87 85 3b d6 0b 2f bc ed a0 0d 3c
       -0.023324518 0.0040750187 -0.010683974 0.008644325
000040 78 8b 18 3a df a3 36 bb ea b5 77 3b 03 f7 35 bb
       0.00058191223 -0.002786867 0.0037797638 -0.0027765639
000050 71 90 b4 bc ab c3 f3 bb e4 81 0b 3c 92 09 b4 3b
       -0.022041531 -0.007439097 0.008514855 0.005494305
000060 f7 09 e4 bb ff 78 f6 3a 36 e1 ad 3b d3 9b 0e bc
       -0.0069591957 0.001880437 0.0053063883 -0.008704144
000070 c1 b8 16 bc 55 12 e7 3b 1f b8 fb 3a 1d cf 8d ba
       -0.009199322 0.007051746 0.0019204653 -0.0010819171
000080 1e 9c 9b 3b 01 f6 a8 3c 0f 7f 16 bc d0 8b 41 bc
       0.004748835 0.020625116 -0.009185567 -0.011813119
000090 75 05 4b bb 98 03 9e ba c2 79 f9 3b 3a 4f 46 bb
       -0.0030978594 -0.0012055514 0.0076133916 -0.0030259625
0000a0 10 40 d9 3b 85 ee 7e bc a2 b1 50 bc aa d7 fd ba
       0.0066299513 -0.015559797 -0.012737663 -0.0019366641
0000b0 22 6b e6 bb 0b 61 a0 bb 46 a7 03 bc 30 08 80 3c
       -0.007031814 -0.004894381 -0.008035487 0.015628904
0000c0 4b 0f 1b 3b f9 0d 0c bc b0 96 6d 3b b1 ed 09 bc
       0.0023660238 -0.008548253 0.0036253147 -0.008418486
0000d0 02 70 78 ba a7 b3 1c 3c c1 5f ab 3b d2 51 b1 bb
       -0.00094771397 0.009564317 0.0052299206 -0.005411365
0000e0 61 af 88 bc 27 d4 47 bc 28 03 06 3c c0 b8 83 bc
       -0.01668519 -0.012196577 0.008179463 -0.016079307
0000f0 64 1b ac 3c 1f 2e 60 bb d8 1a fe 3a 29 c3 82 bb
       0.021009155 -0.0034207178 0.0019386662 -0.00399055
000100 f2 89 b0 bb eb 76 43 3c 60 58 7f bb 49 34 25 bb
       -0.005387538 0.011930208 -0.0038962588 -0.0025208166
000110 e5 2f 76 3b f2 5a f8 bb 4f fe 80 3a 9b a3 f7 bb
       0.0037565168 -0.007579201 0.0009841415 -0.007557345
000120 06 96 40 bc 1b f2 07 bb 62 2d 4c 3a 64 ae 34 bc
       -0.011754518 -0.0020743671 0.0007788745 -0.011027906
000130 d1 36 05 bc 35 ea db bb 78 5f 52 bc 00 dd d2 3a
       -0.008130745 -0.0067112693 -0.012840144 0.0016087592
000140 19 25 83 3a f7 32 25 bc 77 8f 58 bc 22 ab 3c 3c
       0.0010005563 -0.010082952 -0.013217798 0.011515411
000150 64 3a a2 ba 0f 21 75 3c 9d 82 61 bb cc 0e 83 3c
       -0.0012377021 0.014961495 -0.0034410127 0.015998267
000160 80 80 15 ba 00 54 44 3c 6b 0a 17 ba aa cd b8 3a
       -0.0005703047 0.011982918 -0.0005761745 0.0014099379
000170 a0 fd f5 3a e3 c6 a8 3c 4b cc 2e 3c 1b 8d 82 3b
       0.0018767603 0.02060265 0.010668824 0.0039841062
000180 7f 25 4c bc 73 2c 2b bc a3 b1 1b 3a b1 f6 12 bc
       -0.012460112 -0.010447609 0.00059392507 -0.008969949
000190 72 d6 cc bb 56 ff 16 3b c5 7c de ba fd 7e f0 bb
       -0.00625115 0.0023040376 -0.001697444 -0.007339357
0001a0 ff 01 7c bc 69 f7 23 3c 7a 4f 3f bc d2 4e aa bb
       -0.015381335 0.010007718 -0.0116766635 -0.0051973844
0001b0 37 88 e8 3b 11 14 8a bb 18 57 15 bc 58 52 70 3b
       0.007096316 -0.004213818 -0.009115003 0.0036670174
0001c0 81 2d 19 bb a0 c3 aa 3a fc e1 1e ba 6e 24 c2 ba
       -0.002337307 0.0013028271 -0.0006060896 -0.0014811882
0001d0 84 3d 84 3c 3f 76 4f 3c 18 3a 80 3c 11 64 af bb
       0.016142614 0.012662469 0.015652701 -0.005352505
0001e0 47 64 a1 3b a5 52 7d 3b d7 2f 2c bc a7 fe bb bb
       0.004925284 0.0038653996 -0.010509453 -0.005737144
0001f0 ed 45 71 3a 56 76 b5 3b 4b 89 e7 bb 68 10 c8 3b
       0.000920384 0.0055377884 -0.007065927 0.0061054714
