Assets/Scene/FinalTest/ZooheimTest/Models/0606/RabbitBehavior.onnx (onnx, 406457 bytes, 14 tensors)

discrete_act_size_vector f4 [1, 3]
000000 00 00 00 40 00 00 40 40 00 00 80 3f
       2.0 3.0 1.0

network_body.observation_encoder.processors.0.normalizer.running_mean f4 [630]
000000 1f f3 e6 3c da 22 05 3d 00 00 00 00 c6 2f 34 3b
       0.028192101 0.03250394 0.0 0.0027494296
000010 b3 00 a9 3a fb a9 8d 3a c3 36 05 3b c3 33 07 3b
       0.0012893885 0.0010808104 0.002032683 0.0020630218
000020 da 76 65 3f 4a 9f 71 3f 2e e8 e8 3c 0e 0d 01 3d
       0.8963448 0.9438368 0.028431024 0.03150659
000030 00 00 00 00 c2 23 3c 3b f8 9d 95 3a 00 a7 8f 3a
       0.0 0.0028707837 0.0011414876 0.0010959804
000040 33 1a 18 3b db 6b 0c 3b 09 ac 65 3f 1f be 71 3f
       0.0023208975 0.0021426592 0.8971563 0.94430727
000050 5f bd ea 3c 6a 18 04 3d 00 00 00 00 e9 76 2f 3b
       0.028654752 0.032249846 0.0 0.0026773757
000060 a1 ee b4 3a f8 91 9d 3a 38 fd ff 3a d2 01 fd 3a
       0.0013804027 0.0012021651 0.0019530421 0.0019302911
000070 ec 63 65 3f bc 83 71 3f 41 b5 fa 3c 69 39 fd 3c
       0.89605594 0.94341636 0.030604007 0.030911164
000080 00 00 00 00 df 61 3d 3b 73 ae 8a 3a 76 a2 92 3a
       0.0 0.0028897447 0.0010580554 0.0011187333
000090 fe 9a 17 3b 7d a8 0e 3b 6a 70 65 3f a9 b3 71 3f
       0.0023133154 0.0021767907 0.89624655 0.94414765
0000a0 f5 91 f7 3c a7 1c fb 3c 00 00 00 00 b5 f7 2e 3b
       0.030220965 0.030653311 0.0 0.0026697938
0000b0 e5 67 b9 3a aa eb b6 3a 0a 81 fd 3a 9d f5 05 3b
       0.0014145343 0.0013955731 0.0019340825 0.0020440586
0000c0 66 98 65 3f 01 91 71 3f a6 95 08 3d e6 9e f9 3c
       0.89685667 0.94361883 0.03334584 0.030471276
0000d0 00 00 00 00 48 3a 2d 3b 77 9c 96 3a ee 8e 9f 3a
       0.0 0.0026432443 0.0011490722 0.0012173334
0000e0 37 1a 18 3b 14 dc 16 3b a4 c6 64 3f ee 55 71 3f
       0.0023208985 0.002301936 0.893656 0.94271743
0000f0 19 aa 05 3d 55 c5 ea 3c 00 00 00 00 06 bb 2c 3b
       0.03263292 0.028658548 0.0 0.0026356592
000100 5f 4b cc 3a 2b 02 a8 3a c0 01 fd 3a 60 61 13 3b
       0.0015586427 0.0012818029 0.001930289 0.002248846
000110 dd 74 65 3f 5f 93 71 3f d4 b5 15 3d 69 a6 f4 3c
       0.89631444 0.94365495 0.036550358 0.029864507
000120 00 00 00 00 48 16 45 3b 2e 05 a6 3a 2c 05 a6 3a
       0.0 0.0030073095 0.0012666339 0.0012666336
000130 77 9c 16 3b 27 fc 2b 3b 36 df 63 3f 25 be 70 3f
       0.0022981444 0.0026242824 0.8901247 0.9404014
000140 86 f5 0d 3d 3f ef de 3c 00 00 00 00 c6 41 28 3b
       0.034657978 0.02721369 0.0 0.002567397
000150 93 b2 dc 3a b6 09 a3 3a 11 8a f7 3a d5 5f 14 3b
       0.0016837887 0.0012438807 0.0018885751 0.0022640128
000160 f4 5f 65 3f 84 72 71 3f bf fe 24 3d bc 7a ec 3c
       0.8959954 0.9431536 0.040282007 0.028867118
000170 00 00 00 00 40 22 3d 3b e0 5b c1 3a 68 72 b2 3a
       0.0 0.0028859526 0.0014752112 0.0013614418
000180 9b d1 1d 3b 86 b6 2f 3b 34 ee 62 3f f3 45 70 3f
       0.0024081233 0.0026811673 0.8864472 0.93856734
000190 8d db 19 3d ec 21 dd 3c 00 00 00 00 47 2e 35 3b
       0.037562896 0.026993714 0.0 0.0027645992
0001a0 cf 10 f3 3a 2e 02 a8 3a 55 73 07 3b 98 e3 11 3b
       0.0018544438 0.0012818032 0.0020668108 0.00222609
0001b0 9e 76 64 3f 52 0f 71 3f aa 9c 33 3d 3d 29 e8 3c
       0.89243495 0.94164 0.04385058 0.028339976
0001c0 00 00 00 00 de 58 43 3b 59 27 e4 3a d9 34 db 3a
       0.0 0.0029807608 0.0017406746 0.0016724124
0001d0 4e 3a 2d 3b ef 6a 37 3b 2b c2 61 3f cc a3 6f 3f
       0.0026432457 0.0027987321 0.881869 0.9360931
0001e0 c4 9a 27 3d f4 22 d7 3c 00 00 00 00 66 5d 40 3b
       0.04091908 0.026261784 0.0 0.0029352545
0001f0 03 b6 05 3b 32 08 a4 3a 58 67 0f 3b c5 36 05 3b
       0.0020402677 0.001251465 0.0021881666 0.0020326835
000200 14 aa 63 3f e6 af 70 3f 21 86 42 3d b4 f3 db 3c
       0.88931394 0.940184 0.047491197 0.026849605
000210 00 00 00 00 22 e4 3b 3b 8b a0 e8 3a 14 b7 d9 3a
       0.0 0.0028669913 0.0017748041 0.0016610348
000220 64 7e 2a 3b 81 b9 2d 3b 23 4f 61 3f d3 62 6f 3f
       0.0026015276 0.0026508274 0.8801138 0.9351017
000230 cf da 34 3d de 96 d4 3c 00 00 00 00 89 b9 2d 3b
       0.044153985 0.025950845 0.0 0.0026508293
000240 7e ae 0a 3b ee 85 a5 3a c4 36 05 3b b7 2d 0b 3b
       0.0021161134 0.0012628415 0.0020326832 0.0021236965
000250 0d fc 62 3f 56 2a 70 3f db 9b 4e 3d 46 e8 d8 3c
       0.8866585 0.938146 0.050441604 0.026477944
000260 00 00 00 00 8a a1 3d 3b 56 3c d6 3a a9 c1 d2 3a
       0.0 0.0028935396 0.0016344886 0.0016079444
000270 cf 44 26 3b 31 f3 31 3b 9a d0 60 3f b8 07 6f 3f
       0.0025370603 0.002715301 0.878183 0.9337115
000280 1a e0 43 3d d8 f2 d1 3c 00 00 00 00 92 c2 27 3b
       0.04782114 0.025628492 0.0 0.002559815
000290 5e 7c 01 3b 31 08 a4 3a df 71 08 3b 54 6d 0b 3b
       0.0019757967 0.0012514648 0.0020819826 0.0021274881
0002a0 7f 31 62 3f 48 a6 6f 3f ae ae 54 3d 92 cc d0 3c
       0.88356775 0.936131 0.0519244 0.025488172
0002b0 00 00 00 00 24 e1 3d 3b d8 2b e1 3a 5d 3f d4 3a
       0.0 0.0028973306 0.0017179204 0.00161932
0002c0 0a ca 22 3b d5 4d 20 3b 5f a7 60 3f e8 dd 6e 3f
       0.0024839663 0.0024460454 0.8775539 0.9330735
0002d0 1b 76 52 3d b2 13 cc 3c 00 00 00 00 4d 49 23 3b
       0.051382165 0.024911735 0.0 0.0024915517
0002e0 bf 07 f9 3a 24 d5 c5 3a b9 24 11 3b 58 67 0f 3b
       0.0018999501 0.0015093428 0.0022147133 0.0021881666
0002f0 58 56 61 3f 12 3e 6f 3f 9f b8 58 3d f9 98 c8 3c
       0.88022375 0.93454087 0.052910443 0.024487006
000300 00 00 00 00 46 1c 41 3b 83 a0 e8 3a 5f 51 c8 3a
       0.0 0.0029466315 0.0017748032 0.001528304
000310 2c 05 26 3b 68 84 26 3b 84 b5 60 3f 01 dd 6e 3f
       0.0025332673 0.002540851 0.8777697 0.93305975
000320 66 32 5a 3d 79 2a d2 3c 00 00 00 00 41 40 29 3b
       0.05327072 0.025655018 0.0 0.0025825652
000330 8f a6 e4 3a 14 ba d7 3a 57 4f 1f 3b f9 9a 17 3b
       0.0017444658 0.0016458654 0.0024308765 0.0023133142
000340 82 67 60 3f 4c cf 6e 3f a2 f1 e7 3c 7c 62 05 3d
       0.8765794 0.9328506 0.028313462 0.032564625
000350 00 00 00 00 68 6f 34 3b 6f 66 ba 3a 32 17 9a 3a
       0.0 0.0027532224 0.0014221201 0.001175618
000360 5f 70 09 3b 56 6d 0b 3b c0 03 66 3f 4b 39 72 3f
       0.002097152 0.0021274886 0.8984947 0.9461867
000370 3a 2e ea 3c b4 48 01 3d 00 00 00 00 07 a3 3c 3b
       0.028586496 0.031563476 0.0 0.0028783695
000380 ee 8b a1 3a fe 97 99 3a 54 55 1b 3b 33 26 10 3b
       0.0012325027 0.0011718271 0.0023701983 0.0021995425
000390 6a 3b 66 3f 75 5a 72 3f 29 94 eb 3c f8 67 04 3d
       0.8993441 0.94669276 0.028757172 0.032325715
0003a0 00 00 00 00 8e b6 2f 3b 9e d3 c6 3a 6a 7b ac 3a
       0.0 0.0026811692 0.0015169268 0.0013159339
0003b0 b7 36 05 3b 3e 3b 02 3b 22 ef 65 3f 14 1c 72 3f
       0.0020326802 0.0019871737 0.8981801 0.94574094
0003c0 3a 0b fc 3c 94 d0 fd 3c 00 00 00 00 df 61 3d 3b
       0.030767072 0.030983247 0.0 0.0028897447
0003d0 f3 9d 95 3a b2 18 99 3a ad 15 1b 3b 0d e5 10 3b
       0.001141487 0.0011680333 0.0023664043 0.002210918
0003e0 bd 01 66 3f 42 52 72 3f e5 48 f8 3c d8 a3 fb 3c
       0.898464 0.94656765 0.030308196 0.030717775
0003f0 00 00 00 00 f1 76 2f 3b e2 4c cb 3a d8 5b c1 3a
       0.0 0.0026773775 0.0015510584 0.0014752103

network_body.observation_encoder.processors.1.normalizer.running_mean f4 [6]
000000 a5 c2 ed 41 53 4f 5d 41 e1 c9 ed 41 97 8e 5d 41
       29.720041 13.831866 29.723574 13.847312
000010 c3 cd ed 41 c0 cb 5d 41
       29.72547 13.862244

network_body._body_endoder.seq_layers.0.weight f4 [128, 636]
000000 55 2f 2f bd 52 75 e5 bd db 40 b4 bc aa 45 a6 bd
       -0.04276975 -0.11204018 -0.022003582 -0.08118756
000010 48 16 23 3d 69 b3 79 bd 11 a4 f6 3d e3 2b 7c bd
       0.03981617 -0.060962114 0.12043012 -0.06156529
000020 31 cc a0 bc ee 9b 00 3d df 02 cf 3d 38 33 da bb
       -0.019628616 0.031398706 0.101079695 -0.006658938
000030 6c ea 0c bc 96 03 1e bd 14 f8 99 bc e6 f4 35 bd
       -0.008600812 -0.03857764 -0.01879505 -0.044423006
000040 31 5c 54 3d fa 54 f7 3b 2a a4 fd 3c fc 42 46 3d
       0.051845733 0.007547972 0.030962069 0.048403725
000050 04 3d 01 3d 0b 82 77 3d f2 4d 72 3b 7b 0b 87 3c
       0.03155233 0.060426753 0.0036972729 0.016484967
000060 0a b6 82 3c cf b9 55 3d b1 dc a5 3d 4c c1 e2 bc
       0.015955944 0.052179154 0.08098734 -0.027680062
000070 44 61 92 bc 02 de 40 bd a2 ea 68 3b 22 b4 1a 3c
       -0.017868645 -0.047086723 0.0035540243 0.009442361
000080 a1 ff b7 3c 8e 33 49 bd 17 69 27 3d 74 32 10 3d
       0.02246076 -0.049121432 0.040871706 0.035204366
000090 8d 0b 39 bd bd 06 1d bb c8 5f ad bd 89 ce 6a bd
       -0.04517703 -0.0023960315 -0.084655344 -0.057325874
0000a0 03 8e 41 bd aa b9 4f 3d 26 a9 08 3d b9 29 bf bd
       -0.047254574 0.050714172 0.033364438 -0.0933413
0000b0 36 f7 29 3d d0 21 60 3c f4 1d a4 3c 3f 48 1e bb
       0.041495524 0.0136799365 0.020033814 -0.0024151949
0000c0 6a e1 63 3d a1 5c c9 3d 29 81 f8 3c 7e 7a 90 bd
       0.055634893 0.09832121 0.030335026 -0.070546135
0000d0 6a 8c 79 3c 7a a1 0c be 3b 3d 91 3b ad 70 93 bd
       0.015231231 -0.13733473 0.004432348 -0.071992256
0000e0 70 78 03 3d 2d 18 f4 bc d1 90 54 bc 44 44 80 bd
       0.03209728 -0.029796684 -0.01297398 -0.06263021
0000f0 03 07 21 3c 38 10 3d 3d e8 f4 e4 3b 15 66 62 3b
       0.009828332 0.046158046 0.006987203 0.003454571
000100 9a 80 9a 3c ad 40 9b 3b 4d 24 97 3b 66 b3 bd 3c
       0.01886015 0.0047379346 0.0046124817 0.023156833
000110 7c da f2 bb 9e 11 03 3d 06 58 af 3b cb 99 76 bd
       -0.0074112993 0.031999223 0.0053510694 -0.060205262
000120 1f d9 e0 3c c3 9a 74 3c e5 bb 16 bd e6 f7 c1 3d
       0.027447281 0.014929476 -0.036800284 0.09471111
000130 c8 2c a1 bc de 8a d3 bc 41 32 03 bd d3 c7 89 bc
       -0.019674674 -0.025823053 -0.032030348 -0.016818916
000140 5e 34 f4 bb 66 8d 18 bd 22 b4 e2 3c 55 d2 a2 b9
       -0.0074525317 -0.037244223 0.027673785 -0.00031055757
000150 35 09 2a 3d f9 f9 37 3c 87 e7 57 bc a7 ea 5b bc
       0.041512687 0.011229032 -0.013177759 -0.013422645
000160 8b 1c 87 3c e1 b6 12 bd cc f6 ef 3c 1d f0 9c bd
       0.016493103 -0.03581894 0.029292487 -0.076629855
000170 ac 44 90 3c b4 d0 9b 3d 39 ef 5d 3d bc d6 8a bd
       0.01761087 0.07608166 0.05418322 -0.067792386
000180 94 68 24 3d 7d a5 a8 bd 65 0f be 3c 2c 0c cc 3d
       0.040138796 -0.082346894 0.0232007 0.09963259
000190 f2 db 8f 3c 86 29 2c bc df bb d1 bc 76 8d 5a 3d
       0.017560933 -0.010507947 -0.02560228 0.053357564
0001a0 0c 0a c5 3b 6a 5a 9a 3d 45 b3 14 bd ed df 90 3c
       0.0060131606 0.07536776 -0.036303777 0.017684901
0001b0 0b 4c 02 bd 54 f7 01 bd 85 1c eb 3c 98 24 d1 3b
       -0.0318108 -0.03173001 0.028700123 0.006382536
0001c0 d6 c1 db bc 5a 0c f5 3c a9 32 bf bb f3 b5 87 bd
       -0.026825827 0.029913116 -0.0058348966 -0.06626501
0001d0 24 a4 fa bd 32 d2 d5 3c b7 80 90 3d 3e 45 07 bc
       -0.122383386 0.026101205 0.070558004 -0.008256255
0001e0 67 17 2a bd 18 cb 22 3d d2 98 23 3b fa 83 b7 3c
       -0.041526224 0.039744467 0.0024962914 0.022401799
0001f0 18 e8 2b bd e7 14 c5 bc 0e 7d 34 3c b1 5c 1a bc
       -0.04196939 -0.024057819 0.0110161435 -0.009421513
000200 ba b1 63 3c 27 f5 07 ba 05 5b bc 3d d2 6d 22 bd
       0.013897354 -0.0005186372 0.09197048 -0.039655514
000210 08 f0 0d 3d 5f ec 06 bd 8a 39 0f bd 82 2a 96 bc
       0.03465274 -0.032940265 -0.034966983 -0.018330816
000220 a4 df 1c bd 6a 01 a5 3c 92 70 0a bd 06 ec 8d bc
       -0.038299218 0.020142276 -0.03379876 -0.017324459
000230 64 9d 09 3d e0 86 66 bc 93 01 a4 3c 21 fd b6 3d
       0.033597365 -0.014070243 0.020020282 0.08934999
000240 89 b0 60 bd 4e 7a a2 bd f7 d6 53 bd 2d ac 36 bd
       -0.054855857 -0.07933484 -0.05171868 -0.044597793
000250 af 20 bc 3c 76 47 13 3d 53 f2 a9 bb ec ae 4d bd
       0.022964804 0.035956822 -0.005186358 -0.050215647
000260 11 80 08 3d 16 a7 ff bd 7f b6 58 bd fb b5 a7 3d
       0.03332526 -0.12483041 -0.052908417 0.08189007
000270 a4 82 23 be 68 7d 91 3c 3b 11 ad 3d 4d 84 07 3c
       -0.15967804 0.017759994 0.08450552 0.008271289
000280 77 7b fb 3c 01 e4 c1 3b 99 f8 c8 bc 70 4d e5 3a
       0.030698521 0.0059170728 -0.024532603 0.0017494392
000290 92 c2 e1 bc 59 44 3a bd b5 17 10 3d 56 49 d4 bb
       -0.027558599 -0.045475338 0.03517886 -0.006478469
0002a0 5a 19 0b 3d 98 bf d3 bc 5a 99 76 bd be e1 c4 bd
       0.033959724 -0.025848195 -0.06020484 -0.096133694
0002b0 e2 8c 56 bd 9f 0e c0 bc 05 3f fc bc ab dc 85 3d
       -0.05238045 -0.023444472 -0.030791769 0.0653623
0002c0 15 39 1b be b4 ab c5 bc 19 83 bd 3c 60 cf 03 bd
       -0.15158494 -0.024129726 0.023133801 -0.03218019
0002d0 d8 79 6d 3d ed f4 7a 3c 42 a4 82 bb 3c 69 9d 3c
       0.057977527 0.015317184 -0.003986866 0.019215219
0002e0 24 82 b4 3d 43 3e af bd 16 88 92 3c 53 c3 b8 3d
       0.08813885 -0.08556797 0.017887156 0.0902163
0002f0 79 34 42 bd 42 aa 99 bc a9 bc 3e bd 4a 12 60 3d
       -0.047413323 -0.018757943 -0.04656664 0.05470494
000300 b5 99 bc bc d2 5f b4 bc 58 d3 5e bd 07 63 b1 bc
       -0.023022512 -0.022018347 -0.05440077 -0.021653665
000310 73 39 bc bd f9 7d 44 3a 6b 7b fa bc c3 51 7b bd
       -0.09190645 0.0007495578 -0.030576428 -0.06135727
000320 71 98 0e 3d 87 58 03 3d 85 9c db bc 35 23 23 3d
       0.03481335 0.032066848 -0.026808033 0.039828498
000330 f3 fe 03 bd 40 a5 82 3c 83 cc 93 3c 50 5d ea 3c
       -0.03222556 0.015947938 0.018041855 0.028608948
000340 f4 4a 2e bb 7c fa a7 3c 03 1e 67 3c ab d4 41 3d
       -0.0026594969 0.020505182 0.014106276 0.047321957
000350 0d 9d c9 3c c8 a3 f9 bd f0 08 45 3d 68 4a c2 bb
       0.02461102 -0.12189442 0.048104227 -0.00592928
000360 99 b0 27 3d 3f 85 08 bd 56 5f ed 3c 8e e6 72 bd
       0.0409399 -0.0333302 0.028976124 -0.059301905
000370 6b a8 6d bd 66 d6 11 3d 36 36 57 3d 0e 11 38 bd
       -0.058021944 0.035604857 0.052541934 -0.04493814
000380 4e 88 f0 bc 30 e4 a0 ba 1d bb cc bc a2 a1 02 3c
       -0.02936187 -0.0012275036 -0.024991566 0.007973107
000390 49 a5 b5 3c 47 f9 8b bc 1c bd 76 bd 35 fd 10 3d
       0.02217354 -0.017086638 -0.060238943 0.035397727
0003a0 30 8f 25 bd 65 c2 58 bd 0d f2 22 3d a8 a0 0c 3e
       -0.040419757 -0.052919764 0.03978162 0.1373316
0003b0 71 d2 cb bb 0b 02 be 3d 03 b5 c4 3c d1 9b 43 3c
       -0.006220155 0.092777334 0.024012094 0.011939005
0003c0 c8 10 99 3c e7 33 31 3b f7 8a c4 bb ff 2f c3 3c
       0.01868476 0.0027038993 -0.005998011 0.023826597
0003d0 b1 50 14 3d 84 0a a5 3d 57 84 29 bd 7b ed a7 3b
       0.036209766 0.08058646 -0.041385975 0.0051247454
0003e0 54 26 65 3b 87 22 91 bc 4d c0 4a bd 93 9c 0d 3d
       0.0034965472 -0.01771666 -0.0494998 0.03457315
0003f0 c0 07 bf bc 86 dc be 3c 5c 73 6e 3d f1 14 31 3c
       -0.023319125 0.023298513 0.058215484 0.0108082155

network_body._body_endoder.seq_layers.0.bias f4 [128]
000000 24 28 3f bc c6 6a 31 bd 8d 13 96 bc 1d 67 b7 bb
       -0.011667285 -0.043314718 -0.01831987 -0.005597009
000010 77 6e cb 3a 8a f5 d6 bc 7c 88 04 bd a9 92 02 bd
       0.0015520592 -0.026240129 -0.032356724 -0.031878147
000020 22 aa b5 bb 7a 79 32 3c 99 41 ec 3a bb b5 0c 3b
       -0.005543963 0.01089322 0.0018024921 0.0021470624
000030 32 d0 5f bd d6 ad 59 3b 7a 12 26 bd 15 b4 70 bc
       -0.05464191 0.0033215187 -0.040544964 -0.014691372
000040 6d be d0 bb 9a 0a 96 3b 57 e8 1d bd 2f 77 b9 bc
       -0.006370357 0.0045789005 -0.038551655 -0.022639839
000050 e4 c6 d6 bc 21 11 a5 bc 4c 50 98 3b 2e a7 a5 bb
       -0.026217885 -0.02014977 0.004648244 -0.0050553298
000060 3f 1c ca bb cf 9f 71 bb 31 dd cb 3b 8a 2a 3f bb
       -0.006167918 -0.0036868935 0.0062214364 -0.0029169642
000070 13 6b e8 bb 91 81 f0 3b 99 03 49 bd 71 0f b5 bb
       -0.0070928424 0.0073396643 -0.049075697 -0.0055255224
000080 e8 dd c2 3c b7 57 1b bb 01 8a 64 3b 13 6c 63 bc
       0.023787454 -0.0023703405 0.0034872296 -0.013880747
000090 1e b1 c3 3c 49 cf 9e bc 7c 17 b9 3b f4 87 3b 3b
       0.023888167 -0.01938595 0.0056485515 0.002861497
0000a0 c9 11 83 bc ca c7 1d bb 0a 77 42 3c d2 32 8d 3b
       -0.015999692 -0.0024075382 0.011869201 0.004309037
0000b0 6f 90 c8 ba cc 97 55 bc 7c 5b 95 bb 4b f4 3c bb
       -0.0015301834 -0.0130366795 -0.004558025 -0.0028832133
0000c0 b5 4a 90 bc 45 7c 18 3a 93 8c bc bc 60 40 2d 3c
       -0.017613748 0.00058168574 -0.02301625 0.01057443
0000d0 c4 48 da bc f9 9e 35 bc 88 bf 88 bc bb f4 8e bc
       -0.026646025 -0.011085265 -0.016692892 -0.017450681
0000e0 06 57 05 bd 99 d2 ca bc e7 bb f0 ba 1f ff 51 3b
       -0.032553695 -0.024758624 -0.0018366546 0.0032042933
0000f0 12 4c 05 bd e8 30 18 3c ab d3 6f bc 67 c3 94 bc
       -0.03254325 0.009289004 -0.014637868 -0.018159581
000100 07 88 b4 bc 34 81 c7 3b 47 a9 c5 bc a5 c4 32 bc
       -0.02203752 0.0060884003 -0.02412857 -0.0109111415
000110 65 0b 21 3c 6e aa 52 bc 1f e6 bc bc e2 08 66 bd
       0.009829377 -0.012858016 -0.023058949 -0.056160815
000120 82 c5 fe 3b 4b 79 a3 bc 39 a2 d1 bc 65 e2 1c 3c
       0.0077750096 -0.019955298 -0.02559005 0.009575461
000130 b1 42 41 bd ee 4d 03 bd b8 89 0a bc e7 dd 0b ba
       -0.047182743 -0.03205674 -0.008455686 -0.0005335495
000140 8c 80 b3 3b 89 80 55 bc b3 62 13 bb 99 3d f1 bc
       0.0054779705 -0.013031133 -0.002248925 -0.029448317
000150 f8 de a7 3c 13 d7 79 3c 07 a6 9f 3b ed d2 9e bc
       0.020492062 0.015249032 0.004872087 -0.019387687
000160 5d 30 bb b9 d0 7b 95 3c a8 0e f3 ba 48 3f 13 bb
       -0.00035703453 0.018247515 -0.0018543797 -0.0022468138
000170 3d a3 34 bc 40 1a 0f bd 3b cf ce b9 7c ab 56 3b
       -0.011025247 -0.034937143 -0.0003944578 0.0032756021
000180 25 a7 c9 bc 38 f7 96 bc 2c 08 27 bd b4 1c 02 bd
       -0.024615834 -0.01842843 -0.040779278 -0.031765655
000190 23 fc d5 bc 35 86 a2 3c ca 59 b9 bc a8 1a 95 3c
       -0.026121205 0.019839386 -0.022625823 0.018201187
0001a0 31 49 80 bc 4c d5 e6 3a 47 0a a3 3a e6 69 10 bc
       -0.0156599 0.0017611175 0.0012438976 -0.008814311
0001b0 c5 f5 89 bb 3c 57 54 bc dd 92 2c 3c 88 4d dd 3b
       -0.004210206 -0.012960251 0.010533062 0.006753627
0001c0 35 ad 0f bd 27 a4 7c bc 48 d6 c7 3b f2 94 01 bc
       -0.035077292 -0.015419996 0.0060985424 -0.0079090465
0001d0 25 a3 2d 3c 02 76 8a 3b e3 40 a9 bb 4e d2 ab bc
       0.010597979 0.0042254934 -0.005165206 -0.020974305
0001e0 1b 7e bb 3a 49 c9 00 bd d8 a2 43 3b b4 c5 cb bc
       0.001430455 -0.03144196 0.00298517 -0.024874546
0001f0 11 e4 ce 3c 5a e2 f1 ba f4 e5 d2 bc ca 9e 12 bd
       0.025255235 -0.0018454299 -0.025744416 -0.035795964

network_body._body_endoder.seq_layers.2.weight f4 [128, 128]
000000 3e 07 b5 3d a3 30 c9 3d 9a 16 2a 3d f4 a5 3d 3d
       0.08839272 0.0982373 0.04152546 0.046300843
000010 23 24 67 be 04 c9 d2 bd c8 62 7f bd 58 1f 6a 3c
       -0.22572379 -0.10292247 -0.062350065 0.0142896995
000020 ea 4a 04 be f4 eb 03 3d d6 c6 f0 3c 02 30 0c 3e
       -0.12919202 0.032207444 0.029391687 0.13690189
000030 26 40 c4 3c 0d 74 ea bd e2 89 88 bc da a2 52 bd
       0.02395637 -0.11447916 -0.01666731 -0.05142484
000040 2a 06 a3 3d eb 20 29 be 0b 5b 45 be 70 3b 14 3e
       0.0796016 -0.16516463 -0.19273011 0.14475799
000050 2e 22 25 3c 22 05 2e bd 4b f5 01 be 36 b3 45 3d
       0.01007895 -0.042485364 -0.12691228 0.048266612
000060 3c 9e 8f bd 30 d2 a3 3c cd 7f a7 bd c4 9c b0 bd
       -0.07012603 0.019997686 -0.08178673 -0.08623651
000070 a5 51 93 bd 0f c6 52 3c b2 48 e6 bd 71 27 92 3d
       -0.07193307 0.012864604 -0.11244334 0.07136429
000080 0e 53 b2 bd c1 9e 4e bd bb 29 3a be 94 70 11 3e
       -0.08707248 -0.05044437 -0.18179981 0.14203101
000090 ef 57 65 be 84 eb 0c be 24 ab bc 3c f6 74 d1 3d
       -0.22396825 -0.13761717 0.023030825 0.10227387
0000a0 e8 32 03 bd 0b d9 c6 bc c6 1f 23 bd 22 33 52 bd
       -0.03203097 -0.024273416 -0.039825223 -0.051318295
0000b0 46 08 1a 3e 3d 51 b7 3d 66 7f 05 3e 0b fa 77 3d
       0.15042219 0.08951042 0.1303688 0.060541194
0000c0 64 0c 62 bd 83 13 b9 3c 03 bc 02 be 4b dc f8 bd
       -0.055187598 0.022592312 -0.12767033 -0.121513925
0000d0 fb a0 e8 b9 46 c8 af bd 88 a7 23 3d fb ce 5a be
       -0.00044370428 -0.08583121 0.039954692 -0.2136802
0000e0 94 95 a1 bd 9b 3e 35 be 5b 87 bd 3c ad c7 84 3d
       -0.07889858 -0.17699663 0.023135832 0.06483398
0000f0 b9 f5 a4 3d e1 57 b3 3d b6 0b 2c 3d 03 a6 db bc
       0.080546804 0.08756996 0.042003356 -0.026812559
000100 b1 a7 43 be 5d d8 db 3d ea 08 f8 bd 02 50 09 3e
       -0.19106938 0.107346274 -0.12111075 0.13409427
000110 db 89 80 3d 0b 93 e7 bd 65 c7 f4 3d ee 74 2d 3d
       0.06276294 -0.11307343 0.11952094 0.04234784
000120 86 48 57 bc 89 28 3c be a1 36 76 bd f7 1c 43 3e
       -0.0131398495 -0.18374838 -0.060110692 0.19054018
000130 47 e8 94 3d b7 24 af 3c d1 64 ec bc df 6a a3 3b
       0.07270866 0.021379812 -0.028856667 0.0049871053
000140 37 ea 38 bd 70 fa 57 bd c7 d1 fb bc 98 ed e1 3d
       -0.04514524 -0.05272907 -0.030739678 0.110316455
000150 fc 8e 6e b9 46 b8 a0 3d 0d 56 44 3d e2 5f 46 bd
       -0.00022750715 0.07847647 0.047933627 -0.048431285
000160 dc 8f 87 3c 17 a9 97 3c c2 d3 fd 3d ac e9 e0 3d
       0.01654809 0.018513246 0.12393905 0.109820694
000170 c0 a4 9a 3d 76 db 29 be 46 9b 7b bd 78 d4 51 be
       0.07550955 -0.16587624 -0.061427377 -0.20491207
000180 bc c9 04 3e 3f 39 de bd a6 76 04 3d 7b a7 e1 bd
       0.1296758 -0.108507626 0.032339714 -0.110182725
000190 dc 61 12 3e 77 64 73 be a3 86 c8 bd 58 0e fb 3c
       0.14295143 -0.23768793 -0.09791305 0.030646488
0001a0 41 1c 52 3d d3 99 1a be 16 c6 98 bd 39 04 3d 3e
       0.051296476 -0.15097742 -0.07459657 0.18458642
0001b0 8a b3 ee 3d 26 b4 50 3e b3 ad b0 bd c7 76 b3 bc
       0.11655338 0.20381221 -0.086268805 -0.021907223
0001c0 72 1a 3c bc 74 dd 0e 3e cf 9d 2b be 8c 53 a4 3d
       -0.011480914 0.13951665 -0.16759418 0.08023748
0001d0 6e 39 fc 3d af 05 b4 3d 2c fa 96 3b ac e3 d7 3d
       0.12315641 0.087901466 0.0046074595 0.10541472
0001e0 19 90 ff 3d 05 ca 1c be 82 5e b2 3c 61 18 84 bb
       0.12478656 -0.1531144 0.02177358 -0.0040312265
0001f0 70 75 de 3d a7 0b d1 bc 12 c6 fb bd 7a 81 02 3e
       0.10862243 -0.025518252 -0.12293638 0.12744704
000200 2e bd e8 bc 75 5b 96 bd 34 5b 5a 3e 01 fd 3e 3d
       -0.02841052 -0.07341663 0.21323854 0.046628002
000210 7e 8c cd 3d 92 d8 8a bd 19 70 cd 3d 28 fa bb 3d
       0.100365624 -0.06779589 0.100311466 0.09178573
000220 e9 98 22 3d e5 ce dd 3d 21 47 83 3d 40 b9 19 be
       0.039696608 0.108304776 0.06410051 -0.15012074
000230 2e c4 81 bc 91 c0 34 3d f4 e6 b2 bd dc f4 03 3d
       -0.015840616 0.044128958 -0.08735457 0.032215938
000240 49 e6 52 bd 7d a5 87 3d fa 97 86 bd b6 4c 21 be
       -0.05148915 0.06623361 -0.06571956 -0.15751919
000250 7c e8 ba 3c 1c 69 ee 3d 53 dd e3 3c 44 fc 52 bc
       0.022815935 0.11641142 0.027815497 -0.012877528
000260 da 52 67 3d b6 6d 5b bd 80 7f ee 3d a5 07 bd bd
       0.056475498 -0.053571425 0.116454124 -0.09229974
000270 d1 25 a3 bd 06 08 f5 3d 45 b5 7d bc 31 11 c0 3b
       -0.07966197 0.11964421 -0.015485113 0.0058614244
000280 69 b9 5e bd 0c 1b 6b 3e c0 26 48 3e ec dc 90 bb
       -0.05437604 0.22959536 0.19546032 -0.004420867
000290 cb 0c d0 bc 39 af a0 bb 78 77 8a bd 4d 2e e6 bd
       -0.025396725 -0.0049037007 -0.06761068 -0.112393
0002a0 87 17 19 be d8 d6 47 bd 08 ef 7f 3d de b6 bc 3d
       -0.14950381 -0.048788875 0.062483817 0.09214567
0002b0 8d b6 8c 3d 95 f0 dc 3b 86 9b c3 3d 60 73 05 3d
       0.06870756 0.006742547 0.09551148 0.032580733
0002c0 01 52 12 be 54 1f 65 be 3a f6 f6 bd a2 03 0a 3e
       -0.14289095 -0.22375232 -0.12058683 0.13477948
0002d0 fb 1a 3f 3b 63 f5 db 3d 34 3f 47 be 9c 25 3a b9
       0.0029160369 0.10740163 -0.19457704 -0.00017752353
0002e0 1a 75 1b 3e 1d 18 d1 bd ce e1 8f be 94 a9 11 bd
       0.1518139 -0.10209677 -0.28101963 -0.035562113
0002f0 65 9d 88 bc d0 60 2b 3e 65 a9 98 3d df 2e 0a 3e
       -0.016676614 0.1673615 0.074541844 0.13494442
000300 21 ab 46 be a6 90 30 3e 3f d9 65 bc 55 e3 8e 3d
       -0.19401218 0.17242679 -0.014028846 0.06976954
000310 27 d2 94 3d 94 0e 3a bd 55 48 37 be ad 1f cc 3d
       0.07266646 -0.04542406 -0.17898686 0.09966979
000320 93 49 bc 3d ef ed 9b 3d fa 56 f2 3a ca cf 37 be
       0.09193721 0.076137416 0.0018489056 -0.17950359
000330 d8 f0 18 bd ce cd c3 bc 20 8c bb bb 20 12 d8 3c
       -0.03733906 -0.023901846 -0.0057234913 0.02637583
000340 55 6a 98 3d 6f b4 8b bb 63 41 01 3d 86 4a 2d 3d
       0.07442156 -0.0042634527 0.0315565 0.0423074
000350 30 45 68 3d f6 0a dc bd b1 1f 1e 3d 87 fb e0 3d
       0.056706607 -0.10744278 0.038604442 0.10985475
000360 09 05 40 bd 55 24 f5 3d dd 24 95 3d f5 57 c5 3d
       -0.046879802 0.119698204 0.07282422 0.09635917
000370 83 5f 0c 3d 48 dc 70 3d 8e ab a9 3d ee 4c 5d bd
       0.034270775 0.058803827 0.082846746 -0.054028444
000380 d4 c7 e3 bd 83 47 b4 3d f6 1e ad bd 03 7d fa 39
       -0.111220986 0.08802702 -0.08453171 0.00047776857
000390 34 bb 29 be 87 f4 b0 bd cb 49 f4 bc 1a 0e a5 bd
       -0.16575319 -0.0864039 -0.029820343 -0.0805933
0003a0 52 94 83 bd fe 08 b6 bd 2d 85 09 be 97 c8 94 bc
       -0.06424774 -0.08888434 -0.13429709 -0.018162055
0003b0 c0 89 29 ba 29 46 a3 bd 0c 5e 11 bc 3a e1 9a bd
       -0.0006467365 -0.07972366 -0.00887252 -0.0756249
0003c0 9d d3 fd bd 89 69 8c 3d 8a 73 04 3e 14 42 34 3d
       -0.12393878 0.06856067 0.129347 0.04400833
0003d0 31 a0 8d bd d2 14 5c bd d8 cd b3 bd 14 2d 47 bd
       -0.0691532 -0.053730793 -0.08779496 -0.048626974
0003e0 92 a1 5b bd db 80 e3 bc 29 3e 97 3d 05 40 6b 3d
       -0.053620882 -0.027771404 0.07384903 0.0574341
0003f0 75 04 da bd 1e 94 4b bd 77 8b 9d 3d ea 0a 61 bd
       -0.10645381 -0.049701802 0.076926164 -0.05494205

network_body._body_endoder.seq_layers.2.bias f4 [128]
000000 93 15 34 3b f6 69 17 3c ab 8e dd 3b 71 8a 56 bb
       0.002747868 0.009241572 0.006761392 -0.0032736326
000010 5d 91 0b bc e6 e9 12 3c 80 01 9d bc 96 d5 c7 3c
       -0.008518544 0.008966899 -0.019165754 0.024393838
000020 2a 0d 3d 3c 09 cf a0 bc e5 29 fb bc 63 54 7e bc
       0.011538783 -0.019629972 -0.030659625 -0.015523049
000030 89 95 d4 bc 02 fe ed 3a 0d d4 c8 bc 90 b3 f0 3b
       -0.02595021 0.0018157365 -0.024515176 0.0073456243
000040 b6 5e cc ba c8 f1 68 bb 41 d8 a4 3a 1a 52 f8 bc
       -0.0015592191 -0.0035544503 0.0012576656 -0.030312587
000050 a5 c7 91 bc bb 97 03 bc 70 a4 ad bc d6 8d a0 bc
       -0.017795393 -0.008031781 -0.021196574 -0.019598883
000060 b9 3d d2 bb 30 2d 94 bc ae bf 7c 3c bd b5 d6 bb
       -0.0064160493 -0.018087953 0.015426559 -0.0065524266
000070 c0 89 04 bd 40 df 88 3b 6d a9 b7 ba 64 a0 01 3d
       -0.03235793 0.004177004 -0.0014012285 0.0316471
000080 3c a1 2c bc 87 25 9d 3b dc e7 00 bc 10 45 0d bc
       -0.010536488 0.0047957334 -0.00786778 -0.008622423
000090 da 38 23 3c 7d 7f 48 bb 1c da d3 3c 84 5c 17 bc
       0.009962285 -0.0030593567 0.025860839 -0.009238366
0000a0 45 90 5d bc bf c3 57 3c e3 83 5d bc 5c cd 2c bc
       -0.013523166 0.013169228 -0.013520214 -0.010547008
0000b0 5a ce b0 bb 08 13 a0 bc b9 23 4c 3c a9 f9 5c bc
       -0.005395693 -0.019540325 0.012459689 -0.013487258
0000c0 1d 45 d3 bc ac 1f 37 bc 45 24 c8 bc c9 0b ab 3c
       -0.025789792 -0.011176985 -0.024431357 0.020879643
0000d0 cf 1f d9 3b b3 aa d5 3c bd 22 81 3c 5e 17 1e 3c
       0.0066261063 0.026082372 0.015763635 0.009649126
0000e0 70 04 ad bc 5b 8d c1 3c cb c0 21 bb 7d cf d7 bc
       -0.02112028 0.023626974 -0.0024681564 -0.026344055
0000f0 48 ef 79 bb 16 76 ed bc 50 c1 a2 3b be 9c 18 3c
       -0.0038137008 -0.028986972 0.0049668923 0.009314714
000100 76 d7 b5 3c ba bf f5 bb c7 a5 d7 bb a9 d6 8c bc
       0.022197466 -0.007499662 -0.0065810415 -0.017192202
000110 33 d5 a1 3b c4 32 79 bb 7b ee 01 bb 02 c1 75 bc
       0.0049387454 -0.0038024643 -0.0019825983 -0.01499963
000120 7d 6e 0f bc de 92 49 bb 56 12 36 bc c7 c8 bd bc
       -0.00875437 -0.0030757706 -0.01111277 -0.023167027
000130 74 cd a3 3c 9b 2a d0 bc ec 51 20 3c ab 25 83 ba
       0.019995429 -0.02541094 0.009785157 -0.0010005733
000140 23 8a c4 bb 95 b9 c0 bc 5f 05 91 bb 33 9c d2 3c
       -0.0059979125 -0.023525992 -0.004425689 0.025709247
000150 12 46 4a 3c 41 66 20 3a 15 69 b4 bc 93 9d 04 3c
       0.012345808 0.00061187526 -0.022022763 0.008094209
000160 95 18 5e bc d1 54 91 3c 58 55 9f bb 9f 78 70 bb
       -0.0135556655 0.017740639 -0.0048624687 -0.003669299
000170 47 08 62 bc 2b c4 02 bd 26 0a c6 bc 3e 18 40 bb
       -0.013795919 -0.03192536 -0.024174761 -0.0029311324
000180 6e 26 1d 3c 5f 58 ef 3b 87 ea ba 3c a9 9c f7 bc
       0.009591682 0.007304236 0.02281691 -0.030226069
000190 75 e3 bf bb 0c 8c 77 bb cc cf 09 bd a1 ae a6 bb
       -0.0058559724 -0.0037772683 -0.033645436 -0.0050867354
0001a0 b7 65 ba ba ed 75 b9 3c 97 49 76 bc 7c c3 2e 3b
       -0.0014220987 0.02263924 -0.015032194 0.002666681
0001b0 14 0e 2c 3c ed 23 d3 3c 40 98 98 3a ed 24 a9 bb
       0.010501403 0.025773967 0.0011642054 -0.0051618726
0001c0 b4 d1 c2 bb 42 00 0f bc a4 17 e0 bc 14 fc b2 3c
       -0.0059454087 -0.008728089 -0.027355023 0.021848716
0001d0 bc d9 2e bc 7e 1d 2c bc 99 14 4f bc 0a d4 d2 3c
       -0.010672029 -0.010505078 -0.012639188 0.025735874
0001e0 12 3e f6 3b d0 94 bd ba cf d3 87 bc 6a 88 af 3c
       0.0075147236 -0.0014463905 -0.01658049 0.021427352
0001f0 11 78 0a 3d 06 55 33 bd cb 75 18 bd 7e 08 2e bd
       0.03380591 -0.043782257 -0.03722171 -0.042488568

action_model._discrete_distribution.branches.0.weight f4 [2, 128]
000000 87 e8 ee bc ee 8d 47 3d 45 1b 34 bd 55 8e 7a bd
       -0.029163612 0.04871934 -0.04397132 -0.061170895
000010 d6 9d 32 bd fa d7 2c 3c 75 f8 3d bd 25 65 57 3d
       -0.043607555 0.01054954 -0.046379525 0.052586693
000020 d0 b6 b4 bd 34 97 95 bd 39 9e 14 3c 29 5f 45 bd
       -0.08823931 -0.0730423 0.009070926 -0.048186455
000030 e6 86 49 bd e4 89 bf bc e0 36 d0 bc 19 8c 1c bd
       -0.049200915 -0.023381181 -0.025416791 -0.038219545
000040 4b 7c 7a 3c 38 8c cf b9 80 30 c2 3b 38 e7 aa bc
       0.015288423 -0.00039586588 0.005926192 -0.020862207
000050 c0 0a 95 bd 99 ed 28 bd 57 04 04 bd d6 fb 27 bd
       -0.07277441 -0.041242216 -0.0322307 -0.041011654
000060 c4 4b 4c ba 36 d9 00 bd b0 ed 06 3d c3 00 dd 3b
       -0.00077932724 -0.03145715 0.03294152 0.0067444756
000070 ee 21 c2 bc ff 67 c6 3c c8 2c 05 3c 14 eb 1d 3d
       -0.02369782 0.024219511 0.008128352 0.038554266
000080 19 7c 67 bc cc 5d 7c bc 91 df 39 bc 61 3e 51 bd
       -0.014128708 -0.015403222 -0.011344806 -0.05108488
000090 9f 66 80 3c 02 7f 1a bd af d0 3a 3c 65 8d 38 bb
       0.015673934 -0.03771878 0.011402293 -0.002816045
0000a0 1f 23 54 3c 48 2a a9 3c 67 14 c4 bc 72 74 36 bb
       0.012947827 0.020650044 -0.02393551 -0.0027840403
0000b0 65 0d a9 3b 28 cd c1 3c b5 88 87 3c 85 7d fe bc
       0.0051590675 0.023657396 0.01654468 -0.031065712
0000c0 70 18 95 bc 1d d7 26 bc 49 ad 7c bc 0c 35 20 3d
       -0.01820013 -0.010183123 -0.015422174 0.03911309
0000d0 d4 ee 92 bc 78 fe 4d 3d 58 f6 be 3b 83 67 13 3d
       -0.017936148 0.05029151 0.0058277063 0.03598739
0000e0 e0 ad 53 bd 9e de 77 3c 63 46 4c bc 61 96 f8 bc
       -0.051679492 0.01512876 -0.012467953 -0.030345144
0000f0 31 b5 29 bd 86 c7 5b bd b3 96 60 3c 3e 40 fa 3b
       -0.041432563 -0.053657077 0.0137078045 0.007637053
000100 0c fb 27 3d dd 70 3d bc 33 eb 31 bd d8 1f 1e b9
       0.0410109 -0.011562553 -0.043437194 -0.00015079917
000110 66 9b 7a 3c 81 5d 55 bb 8f 0f ad bd 89 28 4e bd
       0.015295839 -0.0032556953 -0.08450233 -0.050331626
000120 33 12 b7 3b ec 45 d8 3a 1c 75 81 bd f1 0f 30 bd
       0.0055868863 0.001650033 -0.06321165 -0.042983953
000130 4b 67 4a 3d df 11 29 bd e8 97 cc 3c 91 e6 8c 3b
       0.049414914 -0.04127681 0.024974778 0.0042999466
000140 d9 1d b2 bc 1a 53 77 bd 36 ab 98 3c 83 6c a5 3c
       -0.021742748 -0.060381986 0.018636327 0.020193344
000150 55 13 c5 3c 90 d8 49 3c 10 e8 5e bd c6 6e b8 3c
       0.02405707 0.012319699 -0.05442053 0.022513758
000160 57 3d 1d bd e8 c7 3b 3d 7a fd 16 bc 93 1c b4 3b
       -0.038388576 0.045844942 -0.009215707 0.0054965704
000170 5f 50 4e bd a0 30 c4 bc 9d 19 1e bd e8 37 2e bc
       -0.050369617 -0.023948967 -0.038598645 -0.010633446
000180 b2 95 95 bc e4 4e 26 3c 51 72 a7 3c 78 52 3d bc
       -0.018259857 0.010150645 0.020440252 -0.011555307
000190 c7 7c 23 3c 13 d9 a3 3c 1b eb 42 3b 9f 37 ec bb
       0.00997848 0.02000097 0.0029742185 -0.007208779
0001a0 c9 9a 83 3c 98 ea 0d 3d 26 af 49 bd 42 d6 92 3c
       0.016065018 0.034647554 -0.0492393 0.017924432
0001b0 4b 67 09 3d 60 00 5e 3d 02 e0 04 bc a5 d4 00 bd
       0.033545773 0.054199576 -0.008110048 -0.031452794
0001c0 d2 b2 09 bd 5d 82 41 3b 3a 34 04 bd 8f 62 d2 3c
       -0.033617802 0.0029527165 -0.03227637 0.025681762
0001d0 56 5f 86 bb 36 ee ea bc 51 7c 85 bd e0 aa 17 3d
       -0.0041007204 -0.028678041 -0.06517852 0.037028193
0001e0 fa 5a 3f 3c 50 73 60 3c 77 8f 94 bb 71 68 aa 3c
       0.011679405 0.013699368 -0.004533704 0.020801755
0001f0 d5 4a 52 3c 4d d4 cf bc cc 0a 62 bc 64 b5 81 3a
       0.012835224 -0.025369788 -0.0137965195 0.0009895978
000200 f8 ad a8 3c 33 ae 2a bd 6a ab fe 3c db f2 7a 3d
       0.020590767 -0.041670036 0.031087596 0.06126676
000210 bb de 2a 3d 2b a1 bc bc 2c e4 5a 3d 9f ff 3b bd
       0.04171632 -0.02302607 0.053440258 -0.045898076
000220 7f c0 be 3d 7a c4 69 3d bb 98 0b 3c 89 0a 3a 3d
       0.093140595 0.05707214 0.0085203005 0.045420203
000230 58 19 53 3d 03 78 26 3c 7d ad 47 3d 88 6f 6c 3d
       0.05153784 0.010160449 0.048749436 0.057723552
000240 d1 9a 75 bc a5 5e b2 bc b5 a4 f6 bc 95 da 95 3c
       -0.014990524 -0.021773646 -0.030107835 0.018292705
000250 e8 03 7e 3d 4f 0a 04 3d 32 c5 48 3d 98 78 e6 3c
       0.062015444 0.032236394 0.049016185 0.028133675
000260 fb eb d7 3b a3 79 12 3d 9c b5 cb bc 10 71 51 bc
       0.0065894104 0.035760533 -0.024866872 -0.012783304
000270 7c 4a 07 3d df 48 f4 bc f7 9c 99 bc 9f 24 22 bd
       0.03303002 -0.029819904 -0.018751604 -0.039585706
000280 d1 67 ee 3c 26 75 96 3c ea 7b 05 3b 9d 03 33 3d
       0.029102238 0.018366408 0.0020368048 0.043704618
000290 b3 e7 dd bc d9 4b cf bb 6b 3e f3 bc b8 e1 56 3c
       -0.027088022 -0.0063261804 -0.02969285 0.013115339
0002a0 7c 09 ff bb b3 04 b6 bc de 26 ae 3c 05 14 68 ba
       -0.007783113 -0.022219038 0.021258768 -0.0008853081
0002b0 a6 b3 34 3c 74 77 b0 bc 23 a1 90 bc 3b 59 b9 3c
       0.01102916 -0.021541335 -0.017654961 0.022625556
0002c0 d1 51 6c 3b ae c3 8a 3c 39 68 1e bb 63 e4 14 bd
       0.0036059509 0.01693901 -0.0024171008 -0.03635062
0002d0 5b 7e fc 3c 5e 55 36 bd 30 ea 7a 38 aa 3d c9 bc
       0.03082197 -0.044515006 5.982275e-05 -0.024565537
0002e0 c8 65 18 3d 31 0b 7d bc 09 d2 98 3c e7 76 07 3d
       0.03720644 -0.015444563 0.01865484 0.03307238
0002f0 1b 05 1e 3d 29 d3 8e 3d e0 09 ba bc 1a 66 a2 bb
       0.038579088 0.06973869 -0.022709787 -0.004956019
000300 71 2c 62 bd 47 84 91 3c 44 16 14 3d 03 38 a4 ba
       -0.055218164 0.01776327 0.036154047 -0.00125289
000310 f3 cb 68 bc 4b f3 67 37 3e 10 7b 3d d3 5c 73 3d
       -0.0142087815 1.3825319e-05 0.061294787 0.059414696
000320 cb 99 26 3c 16 e4 5e bc ac f0 42 3d 66 8c f4 3c
       0.010168503 -0.013604185 0.047592804 0.029852103
000330 72 c0 3d bd 29 5f 04 3d e1 30 ec bc b8 95 3b bc
       -0.04632611 0.032317314 -0.028831901 -0.01144927
000340 90 33 73 3c 10 3e 7d 3d 1a 80 a4 bc 58 50 46 bc
       0.014843836 0.061826766 -0.020080615 -0.012104116
000350 1e e5 27 bd 01 df cc b9 c8 9f 2e 3d d6 0b 17 bc
       -0.040989988 -0.00039076063 0.042632848 -0.0092191305
000360 88 15 df 3c 8c 78 e9 bc 68 5c d3 bb 0d ba 56 37
       0.027231947 -0.028499864 -0.0064502247 1.2798712e-05
000370 3b f9 5c 3d 49 19 0c bc d0 62 0d 3d 69 11 b9 3c
       0.053948622 -0.00855095 0.034518063 0.02259131
000380 c1 7f c3 bb 68 66 b1 bc 5d 75 e9 bc c6 63 40 3c
       -0.005966157 -0.021655276 -0.028498346 0.011742538
000390 db 68 a2 bc 27 61 c5 ba 1e af 7d bb 4e 0c aa 3c
       -0.01982539 -0.0015058861 -0.0038709114 0.02075782
0003a0 ad f6 cf bc cb 9e bd 39 04 bb 91 3d 66 a2 6f bc
       -0.025386179 0.000361672 0.071157485 -0.014626121
0003b0 d8 30 04 bd d8 e0 07 bd c6 fa 36 3a c7 7d d4 3c
       -0.032273144 -0.033173412 0.0006980117 0.025938882
0003c0 3e d0 ba 3b 04 32 98 3c 12 7b 16 3d 81 ee ab bc
       0.005701094 0.018578537 0.036738463 -0.020987751
0003d0 b5 c7 f4 39 82 de 9d 3c 89 f5 4a 3d b8 43 6a bd
       0.000466881 0.019271139 0.049550567 -0.057193488
0003e0 a0 31 d7 bc e4 fb 25 3c 2a 3e 81 3c e4 81 22 bd
       -0.02626878 0.010130856 0.015776712 -0.039674655
0003f0 14 82 4e bc c6 7f ea 3c e5 96 93 3c 9a 13 29 ba
       -0.012604255 0.02862538 0.018016288 -0.0006449759

action_model._discrete_distribution.branches.0.bias f4 [2]
000000 c2 ae 02 3d c6 ae 02 bd
       0.031904943 -0.03190496

action_model._discrete_distribution.branches.1.weight f4 [3, 128]
000000 70 ea 7b bd 23 e4 11 bc 04 34 af 3d 8b 06 dc 3c
       -0.061502874 -0.00890449 0.08554843 0.026858589
000010 bd e5 bc bc 72 f4 3c 3c 52 dd 9c bb 17 00 c1 bc
       -0.023058766 0.01153289 -0.0047871256 -0.023559613
000020 52 20 a8 3c 79 da 75 3b 77 ce 02 3c 62 53 1c 3d
       0.020523224 0.0037514253 0.007983795 0.038165458
000030 0e 45 a4 3b 2e 2f e9 39 ae a7 8a 3b 0a 8a 29 3d
       0.005013115 0.00044476375 0.0042314148 0.04139141
000040 ea cb 87 3a ef 6f 0c 3c 72 5b 29 3d d9 9f ad bc
       0.0010360454 0.008571609 0.041346975 -0.021194385
000050 f5 61 54 bd 22 83 1e bc 27 f1 36 bb d1 d0 38 bd
       -0.05185123 -0.009674819 -0.0027914734 -0.045121018
000060 2d 3e 42 bc e3 69 10 bd 37 79 c5 bc ac 54 c0 bc
       -0.011855644 -0.03525723 -0.024105651 -0.023477875
000070 98 8b 78 bc fa db d0 3c e3 ad 0b 3d b2 6a 51 3d
       -0.0151700005 0.025495518 0.03410138 0.051127143
000080 0c cf 43 3d 76 6c 62 bd 4b a2 ee 3a 03 47 bf 3b
       0.047804877 -0.055279218 0.0018206326 0.0058373227
000090 0a 25 5d bd 08 19 e5 bc 30 53 d9 bb 79 75 09 3d
       -0.0539904 -0.027966037 -0.006632231 0.033559296
0000a0 b8 27 03 bc 90 11 8c bc 3b 07 8c bc 6a c6 db bb
       -0.008005075 -0.017098218 -0.017093292 -0.0067070024
0000b0 b5 ff 7f 3c e3 e5 7d bc 58 af 32 bb f2 c5 9f 3b
       0.01562493 -0.015496704 -0.0027265158 0.004875892
0000c0 63 9b f0 3c c8 3b d6 ba a5 e6 d8 bb f0 75 af 3c
       0.02937097 -0.001634472 -0.006619292 0.021418542
0000d0 b2 15 1c 3b 8a e5 42 bd 8e 01 8b 3c 57 7c be bc
       0.0023816642 -0.047582187 0.016968515 -0.02325265
0000e0 ec 0c 00 bd 2d 3b cd 3c 96 bf 3c bd 28 03 f2 3c
       -0.031262323 0.025052631 -0.046081148 0.02954252
0000f0 5e 5d 2b 3c aa e4 9f bc 4e f8 03 3d 5b d9 8f bd
       0.010459272 -0.019518215 0.032219224 -0.07023879
000100 29 77 bc bb ca 4a 93 3c ef db 95 bc d4 8f 0a bd
       -0.0057515097 0.017979998 -0.01829335 -0.03382857
000110 a5 01 6b bc c9 75 24 3d f2 b6 f0 3c bc 27 03 bd
       -0.014343654 0.04015139 0.02938411 -0.032020316
000120 7c 33 6a 3c a2 cc c1 3b 51 48 cb 3c b2 0e 32 bd
       0.014294501 0.0059142867 0.024814757 -0.043471046
000130 cd 5b 69 bb ac 99 25 bd 34 2a 62 bd 90 e1 dd 3c
       -0.0035607696 -0.040429756 -0.05521603 0.027085096
000140 e5 e8 36 3d f8 30 a9 3b 11 45 80 3b 92 ab 09 3d
       0.0446557 0.0051633082 0.0039144834 0.033610888
000150 bd f8 48 3d 87 5e f3 3b 01 3b 8c bc e4 f4 24 bc
       0.04906534 0.00742704 -0.017117979 -0.010068152
000160 a7 32 9a bc e0 42 13 3d 0a ef e4 bb dc 04 a5 bb
       -0.018822981 0.03595245 -0.0069865035 -0.0050359797
000170 59 de 00 bd dc a5 cd 3c c9 33 32 3c 83 ba 8f bd
       -0.031462047 0.025103502 0.010876604 -0.07017996
000180 6d dc 65 bd 95 af be bb 4e 74 bb bb 4d 4a 8f bc
       -0.056118418 -0.005819271 -0.0057206517 -0.017491484
000190 d7 57 63 bd 09 af 94 3c 61 4b 4b bc fc 54 d0 bc
       -0.055503692 0.01814987 -0.012408108 -0.025431149
0001a0 63 2c cb bc bf 71 94 3d de b8 24 3d b8 4b 43 3d
       -0.024801439 0.07248258 0.040215366 0.047679633
0001b0 aa 8d 80 bb 55 fc ba ba 9d b2 52 bd 57 27 b3 3b
       -0.0039231377 -0.0014265875 -0.05143987 0.005467336
0001c0 0f 6f 3f 3a 95 c3 a2 3b b1 52 63 3c 8f 2f 38 bd
       0.0007302621 0.004967163 0.013874696 -0.04496723
0001d0 f9 1c 81 3d df e4 9a 3c 89 83 fe 3c af 78 93 bc
       0.06304354 0.018907962 0.03106858 -0.018001882
0001e0 f8 cb fe 3c 54 57 b0 3c 9b e0 eb 3a 9c d3 5a bd
       0.03110312 0.021526016 0.0017996015 -0.053424463
0001f0 f3 69 c4 3c 3a d4 57 3c 0e f9 fb bc 7c 88 62 3b
       0.023976302 0.013173157 -0.030758407 0.0034566214
000200 42 78 07 3d f9 01 28 3c a8 d7 0a bd 67 2c 35 bc
       0.03307367 0.010254377 -0.033897072 -0.01105795
000210 80 33 81 3d 38 5e 9a 3c b8 68 16 bd a5 a5 d3 bb
       0.06308651 0.018843755 -0.03672096 -0.0064589554
000220 77 43 29 bd 12 a2 36 3d b9 eb 0d 3c 05 6e 6b bc
       -0.041324105 0.044588156 0.008662158 -0.014369492
000230 d3 3a 99 bc 79 76 18 bd 54 ba 29 bd 6d bd 69 3c
       -0.018704807 -0.03722236 -0.041437462 0.014266354
000240 05 ca 47 bd e4 72 b9 bb c4 d3 6f bc 86 1c 99 3b
       -0.048776645 -0.005659448 -0.014637891 0.0046725897
000250 76 22 9d 3d 26 94 71 bd 9f 60 02 3d 32 1d c7 3b
       0.076725885 -0.058979176 0.031830426 0.0060764784
000260 e4 7f 72 3d 15 2f 6d 3c 65 4e 79 3c 31 b1 fc bc
       0.059203997 0.014476557 0.015216445 -0.03084621
000270 3e 05 14 3d b0 81 2a bc e5 88 d1 ba 00 6c 97 3b
       0.03613781 -0.0104068965 -0.0015986232 0.004621029
000280 76 73 11 bd 33 c3 c0 bb 01 3d 3b 3d 15 9e 96 bc
       -0.035510503 -0.0058826446 0.045712475 -0.018385926
000290 ab d3 c9 3c 99 eb 74 3c b8 f3 86 bd d3 be db 3c
       0.024637064 0.014948749 -0.065894544 0.02682439
0002a0 b4 83 48 bc fb e8 29 3d a5 a7 cf bc 9a 29 f5 39
       -0.012238432 0.041481953 -0.025348494 0.00046761037
0002b0 5d 2f 26 bd 3b b3 a6 3b 79 a9 2d 3d db 0c 12 3d
       -0.040572513 0.005087284 0.04239795 0.03565679
0002c0 7b 2b f6 bc 74 5c 3d bc 4f 97 3d bd f5 50 fb 3c
       -0.03005003 -0.011557687 -0.046286877 0.030678252
0002d0 9e f8 d6 bc fe 54 6f 3d fd 30 13 bd 1f c7 8c 3b
       -0.026241597 0.058430664 -0.03593539 0.004296198
0002e0 42 b5 8c ba d9 25 60 3d dd 06 a4 bc 12 a6 b5 3c
       -0.0010735171 0.054723594 -0.020022804 0.022173915
0002f0 29 8b 39 3d a8 92 3f 3c 4d 51 a7 bc a2 4a b9 3c
       0.04529873 0.01169268 -0.02042451 0.022618596
000300 9d b3 3e bd 9d 6f a8 3c 74 f1 15 3d b2 ae 83 3b
       -0.04655801 0.020561034 0.03660722 0.004018628
000310 11 f6 d6 bc 49 5f a1 bc 74 bf 88 3b 41 63 61 3d
       -0.02624038 -0.019698756 0.0041732136 0.055026297
000320 e7 93 25 bc 36 7c 12 bd d3 4a 5e bd 28 ad d6 3c
       -0.010106063 -0.035762988 -0.054270577 0.026205614
000330 b7 47 13 bd 0b b6 f5 3c 02 78 fe 3c c5 d5 b8 bb
       -0.035957064 0.029994031 0.031063084 -0.0056407177
000340 f1 a2 a0 bc b7 03 79 3b ca 01 83 bd 67 30 94 bb
       -0.019608947 0.00379966 -0.063968256 -0.0045223716
000350 c7 40 a4 bc df d5 de 39 06 69 56 3a 31 fb 4a bd
       -0.02005042 0.00042502486 0.0008179102 -0.04955596
000360 bf e9 4c 3d fe 09 6d bc 71 0b 1c 3d 04 5a 86 3d
       0.050027605 -0.014467714 0.03809685 0.06560138
000370 b0 98 81 3b b5 23 c8 bb 8f b2 6b bc 7e 63 b4 3c
       0.0039549693 -0.0061077722 -0.014385833 0.022020098
000380 2c 89 c2 3c fe 59 0d 3d 23 fb b8 bd 04 9b 78 3c
       0.02374705 0.03450965 -0.090322755 0.015173677
000390 e7 16 2b 3d 00 ea b6 bc 65 a6 e7 3c 1c 2a 23 3b
       0.04176989 -0.022328377 0.028277585 0.0024896925
0003a0 e3 d6 52 3d 6a e9 f1 bc 9e 29 dc bc 71 2d 60 bc
       0.051474463 -0.029530246 -0.026875313 -0.013682709
0003b0 39 e7 a4 b9 26 f0 18 3d eb cc e8 3c be bb 3c bd
       -0.00031452792 0.0373384 0.028418025 -0.046077482
0003c0 ce ed 6c 3d 3c e4 32 3d b5 12 e7 3a fa a8 0b 3c
       0.057843976 0.043674693 0.0017629476 0.008524174
0003d0 7e 5a f1 bb 20 ea 76 bd d7 c7 e0 3b 50 12 00 3d
       -0.007365524 -0.060281873 0.0068597603 0.031267464
0003e0 14 75 52 bb 29 35 28 bd 72 d4 67 3c 47 ac be 3c
       -0.003211324 -0.041066322 0.014149772 0.023275508
0003f0 d5 98 86 bd 6e ab 54 3b 32 1b 43 3d e4 e3 5b 3b
       -0.06572119 0.0032450813 0.047633357 0.0033552581

action_model._discrete_distribution.branches.1.bias f4 [3]
000000 b9 63 2e bc 75 82 c3 b9 f1 af 33 3c
       -0.010643893 -0.00037290496 0.010967241

action_model._discrete_distribution.branches.2.weight f4 [1, 128]
000000 f2 f1 13 bb f2 7e 6b 3a 0f 32 2a 3b 03 b8 2d bc
       -0.002257463 0.0008983455 0.0025969779 -0.010602954
000010 27 fd 5d bc 12 32 8c bb 3f ec 0b 3c a2 f1 43 3c
       -0.013549126 -0.00427843 0.008540212 0.011959465
000020 3f 54 99 3b db d0 1e 3c 6f e9 3d bc 52 10 13 3c
       0.0046792324 0.00969335 -0.011591299 0.008976059
000030 b5 87 5a bc 67 86 b0 3b 13 88 8c 3c 77 79 d8 ba
       -0.013338019 0.0053871158 0.017154729 -0.0016515692
000040 b3 69 11 3c 89 88 94 bb 06 6a 87 3c 6d 9d 51 3c
       0.008875298 -0.004532878 0.016530048 0.012793881
000050 eb 24 25 3a f7 7d 14 3c 0b e9 fd 3a 6a 70 e0 bb
       0.00062997517 0.0090632355 0.001937182 -0.0068493383
000060 8c 26 80 3b 1f 7c a3 ba 05 2a b2 ba e2 84 17 bc
       0.003910845 -0.0012472904 -0.0013592845 -0.00924799
000070 c1 6f 19 3c 8f 0d 39 bc 0c 32 0e 3c c7 6b 87 bc
       0.009365023 -0.0112947365 0.008678924 -0.016530884
000080 bb 09 be bb 0f c6 87 3c ad 7b 01 bb 5e 1a b4 bb
       -0.0057995 0.016573934 -0.0019757554 -0.0054963073
000090 8a ca ec bb b3 fd fa ba 0d c1 eb 3b 9f 36 aa 3c
       -0.007226293 -0.0019149095 0.0071946443 0.020777998
0000a0 ef 59 f5 bb 40 8e f3 39 8d c8 27 3c ca ed 1a 3c
       -0.0074875276 0.00046454556 0.010240686 0.009456107
0000b0 04 be c8 3b 5f 94 39 bc cb f2 a6 b9 f7 83 0f bc
       0.0061261673 -0.011326878 -0.00031842882 -0.00875949
0000c0 f7 c0 be 39 32 06 a8 bb 3d d8 5c bb ca 5e 96 3b
       0.00036383394 -0.0051276917 -0.0033698224 0.0045889365
0000d0 0f a7 20 bb 17 3a a3 bc 23 9f 4b 3b 68 55 89 b9
       -0.0024513637 -0.01992516 0.0031070195 -0.0002619431
0000e0 df 31 0e bc af 13 61 3b 64 ec 0a bc c7 6d 60 3c
       -0.008678882 0.0034344008 -0.0084792115 0.013698048
0000f0 f4 2e c8 3b 05 b2 40 bc 99 18 b6 3b a6 b7 80 b9
       0.006109113 -0.011761193 0.0055571315 -0.0002455089
000100 ba 92 43 ba e3 87 92 3c 42 b9 d9 ba 27 37 a4 bb
       -0.00074605236 0.017887061 -0.0016610997 -0.0050114575
000110 d3 f6 b8 bb 3b 30 7f bb 5b 96 5e 3a 3f 01 df bb
       -0.005644658 -0.003893866 0.00084910326 -0.0068055685
000120 75 b7 7c 3c 27 e8 0e bc 03 b6 bb ba 8f 35 d1 3c
       0.015424599 -0.008722342 -0.0014321211 0.025538234
000130 57 fa 6d ba 0a d6 8d bb f9 75 9a 3c b6 dd 2b b9
       -0.0009078136 -0.004328494 0.018855082 -0.00016390425
000140 0a e1 bf ba a0 be 73 bb c7 ac 13 bc 7d 70 26 bc
       -0.001463921 -0.0037192479 -0.009013361 -0.010158655
000150 f6 41 96 3c 23 69 18 bc cf 75 d7 ba 1c 08 a5 3b
       0.018342 -0.00930241 -0.0016438308 0.005036367
000160 2b 9a de ba 4d d9 e0 3a d4 ec 30 3b f3 7d 3d 3b
       -0.0016983201 0.0017154604 0.002699663 0.0028914183
000170 e7 13 6c bb 9d 13 5d bc 86 d5 21 3b 9d 4d b0 bb
       -0.0036022605 -0.013493446 0.002469392 -0.005380346
000180 62 10 41 3c c7 b5 89 3c 57 80 1e 3c fa 0b b7 3c
       0.011783691 0.016810311 0.009674153 0.022344578
000190 fb f4 0d bc 43 dc c2 3a 9d a7 89 bb 37 61 2b 3c
       -0.008664365 0.0014866668 -0.0042008893 0.01046019
0001a0 f8 e3 a7 bc ba e5 a1 bb f3 a3 08 3c 4e 71 c1 ba
       -0.020494446 -0.0049407156 0.00833987 -0.0014758499
0001b0 4a 55 7a bc c2 e1 6e bb 76 a7 42 3c 0f 15 d2 bb
       -0.015279124 -0.003645048 0.011880746 -0.006411202
0001c0 17 19 75 3c 7b 2e 3e bc 63 5b cf 3a 7e d6 4a bc
       0.014959595 -0.0116077615 0.0015820082 -0.0123802405
0001d0 65 3a 5c 3b 21 22 83 bb 2a 3a 89 bb d1 74 89 bc
       0.0033604142 -0.004001871 -0.004187842 -0.016779335
0001e0 3f 41 cb bb a0 0a 18 bb 18 64 48 bc cb 82 b6 3b
       -0.0062028463 -0.0023199692 -0.012230895 0.005569791
0001f0 07 a1 80 3b 2f 04 89 3b ef f4 32 3c ac 09 23 3c
       0.003925446 0.004181407 0.0109226545 0.009951036
