Assets/Scene/FinalTest/ZooheimTest/Models/0606/WolfBehavior.onnx (onnx, 406457 bytes, 14 tensors)

discrete_act_size_vector f4 [1, 3]
2.0 3.0 1.0
00000000: 0000 0040 0000 4040 0000 803f

network_body.observation_encoder.processors.0.normalizer.running_mean f4 [630]
0.22465503 0.0 0.023140658 0.022685418 0.01946366 0.008460627 0.006793716 0.007907325
0.008222497 0.0075221155 0.0070178383 0.0044824528 0.5727805 0.7409091 0.2241787 0.0
0.023560902 0.02060526 0.017740702 0.00849565 0.0065976055 0.007662193 0.008761792 0.0072489656
0.0070248414 0.0046925703 0.5746993 0.7435927 0.22439587 0.0 0.020871432 0.023315743
0.019288551 0.00837658 0.006765699 0.0077042114 0.0084116 0.008152462 0.0065906057 0.004391403
0.57320035 0.7413311 0.22034043 0.0 0.022272179 0.019939896 0.017831763 0.008334559
0.0068147294 0.010631814 0.010778899 0.007893318 0.007466085 0.004944706 0.57163197 0.7481727
0.22408059 0.0 0.019694773 0.022097068 0.01794381 0.0075431215 0.0067656985 0.008026391
0.009140001 0.0074170586 0.0067727044 0.004251324 0.57971406 0.74821675 0.21239114 0.0
0.02094146 0.02089243 0.0166341 0.007087879 0.0068637542 0.012214679 0.011059048 0.00824351
0.008075419 0.004461439 0.5815563 0.75722724 0.22155221 0.0 0.018735249 0.019988943
0.016627096 0.007585151 0.0071509113 0.008915872 0.0090559535 0.0069688107 0.0061213467 0.004706573
0.5843717 0.7541953 0.20291492 0.0 0.01885431 0.019932916 0.015513484 0.0077042156
0.006863754 0.011402236 0.011038033 0.007452075 0.0073260055 0.0041812886 0.5947725 0.7697689
0.21612416 0.0 0.018083898 0.018609181 0.015387413 0.0074730874 0.0073049953 0.00953221
0.009083965 0.007297992 0.006541578 0.0047485987 0.59022 0.76237565 0.19292045 0.0
0.017901791 0.017642662 0.01442789 0.0073890444 0.0073330095 0.011178111 0.010890962 0.007872309
0.006919786 0.004146267 0.605544 0.7814677 0.21123567 0.0 0.016690124 0.018048877
0.01355942 0.0077742497 0.0069478005 0.009497196 0.009118992 0.00799838 0.0068987734 0.0044054086
0.5966634 0.77266926 0.18203661 0.0 0.017845761 0.016809195 0.013853574 0.0071228947
0.006884767 0.010778896 0.01185048 0.007669194 0.006954806 0.0043633888 0.6169953 0.791516
0.20443486 0.0 0.015814656 0.016437998 0.012473823 0.0070598596 0.006786711 0.010596799
0.009315095 0.008565683 0.0061983895 0.004517472 0.6038352 0.7831368 0.17341487 0.0
0.018188944 0.01632593 0.013846571 0.0072559686 0.0068077254 0.011087062 0.010596796 0.008880859
0.0073190057 0.005063769 0.6233198 0.7994422 0.19716494 0.0 0.0155835245 0.0148761375
0.012487829 0.0065625887 0.007255969 0.010575786 0.009840386 0.009462172 0.006268429 0.004902684
0.6100128 0.7932813 0.22518001 0.0 0.023294732 0.022783466 0.019547686 0.008481641
0.0068007186 0.0080544045 0.008327556 0.007557134 0.0072559705 0.00464354 0.5743212 0.7428599
0.22474588 0.0 0.023679951 0.02071733 0.017831754 0.008509655 0.0066186227 0.007788265
0.008880857 0.0072699785 0.007227953 0.0048536565 0.576247 0.7455689 0.22488599 0.0
0.021025505 0.0233928 0.019351564 0.008425608 0.006772706 0.007816268 0.0084956465 0.00816647
0.006849749 0.004545485 0.57477623 0.7432987 0.2209429 0.0 0.02234223 0.020023944
00000000: f80b 663e 0000 0000 7a91 bd3c c5d6 b93c
00000010: 4172 9f3c 719e 0a3c d29d de3b ba8d 013c
00000020: a7b7 063c 147c f63b e5f5 e53b 8ae1 923b
00000030: bea1 123f 38ac 3d3f 1a8f 653e 0000 0000
00000040: cb02 c13c 5dcc a83c f354 913c 5731 0b3c
00000050: ba30 d83b 2213 fb3b 9f8d 0f3c bb88 ed3b
00000060: a430 e63b 22c4 993b 7e1f 133f 175c 3e3f
00000070: 08c8 653e 0000 0000 91fa aa3c a800 bf3c
00000080: 0603 9e3c ec3d 093c ccb2 dd3b 9c73 fc3b
00000090: cfd0 093c e791 053c 02f6 d73b c2e5 8f3b
000000a0: 42bd 123f e0c7 3d3f eca0 613e 0000 0000
000000b0: 2574 b63c fe58 a33c eb13 923c ad8d 083c
000000c0: 184e df3b 0f31 2e3c fb99 303c fa52 013c
000000d0: 0fa6 f43b 3307 a23b 7956 123f 3f88 3f3f
000000e0: 6275 653e 0000 0000 ef56 a13c e904 b53c
000000f0: e6fe 923c 4a2c f73b cbb2 dd3b 2081 033c
00000100: f1bf 153c cc0a f33b 90ed dd3b b14e 8b3b
00000110: 2468 143f 228b 3f3f 107d 593e 0000 0000
00000120: 6d8d ab3c 9a26 ab3c 3c44 883c 7041 e83b
00000130: 58e9 e03b 1420 483c 0231 353c c90f 073c
00000140: c34e 043c 4331 923b e0e0 143f a5d9 413f
00000150: 95de 623e 0000 0000 aa7a 993c dabf a33c
00000160: 8c35 883c dc8c f83b 3152 ea3b e113 123c
00000170: 6c5f 143c 9f5a e43b 9495 c83b 9939 9a3b
00000180: 6299 153f f112 413f eec8 4f3e 0000 0000
00000190: 5b74 9a3c 5b4a a33c 452c 7e3c a573 fc3b
000001a0: 57e9 e03b 72d0 3a3c ded8 343c 8930 f43b
000001b0: fd0e f03b 3103 893b 0343 183f 930f 453f
000001c0: a74f 5d3e 0000 0000 af24 943c 4872 983c
000001d0: 7d1b 7c3c cde0 f43b be5e ef3b fd2c 1c3c
000001e0: e9d4 143c fe23 ef3b bc5a d63b 229a 9b3b
000001f0: a818 173f 0d2b 433f f08c 453e 0000 0000
00000200: c7a6 923c 5887 903c f562 6c3c cc1f f23b
00000210: be49 f03b 6524 373c 0170 323c dbfa 003c
00000220: 5fbf e23b 69dd 873b ee04 1b3f 440e 483f
00000230: 2a4e 583e 0000 0000 bab9 883c 3ddb 933c
00000240: 5428 5e3c 22bf fe3b 60aa e33b 219a 1b3c
00000250: d367 153c a30b 033c 1b0f e23b 3f5b 903b
00000260: efbe 183f a7cd 453f ce67 3a3e 0000 0000
00000270: 4631 923c 70b3 893c 1afa 623c 2c67 e93b
00000280: 9d99 e13b f799 303c 8428 423c dd4d fb3b
00000290: 24e5 e33b c2fa 8e3b 67f3 1d3f cba0 4a3f
000002a0: 5f57 513e 0000 0000 bd8d 813c fba8 863c
000002b0: 015f 4c3c 6556 e73b 0f63 de3b 329e 2d3c
000002c0: 579e 183c 1457 0c3c dc1b cb3b 4d07 943b
000002d0: f294 1a3f a77b 483f ab93 313e 0000 0000
000002e0: fb00 953c f5bd 853c badc 623c 7ac3 ed3b
000002f0: 5713 df3b 82a6 353c 2f9e 2d3c 0681 113c
00000300: 45d4 ef3b f9ed a53b e391 1f3f 3ea8 4c3f
00000310: 9be5 493e 0000 0000 0a52 7f3c 0bbb 733c
00000320: c099 4c3c fc0a d73b 7bc3 ed3b 1046 2d3c
00000330: 9239 213c 3a07 1b3c 6567 cd3b b2a6 a03b
00000340: cd29 1c3f 7c14 4b3f 9795 663e 0000 0000
00000350: 98d4 be3c 64a4 ba3c 7822 a03c 95f6 0a3c
00000360: 90d8 de3b 9ff6 033c 4d70 083c d6a1 f73b
00000370: 7ec3 ed3b d628 983b b706 133f 112c 3e3f
00000380: c923 663e 0000 0000 75fc c13c 64b7 a93c
00000390: e613 923c 146c 0b3c 08e1 d83b b434 ff3b
000003a0: 0481 113c 0039 ee3b 77d8 ec3b 6c0b 9f3b
000003b0: ec84 133f 9add 3e3f 8348 663e 0000 0000
000003c0: ae3d ac3c 42a2 bf3c 2c87 9e3c 900b 0a3c
000003d0: 93ed dd3b ce0f 003c 5331 0b3c a8cc 053c
000003e0: dc73 e03b 4bf2 943b 8924 133f d348 3e3f
000003f0: db3e 623e 0000 0000 0d07 b73c 4109 a43c

network_body.observation_encoder.processors.1.normalizer.running_mean f4 [6]
59.955063 39.132298 59.946705 39.198296 59.934372 39.263493
00000000: fcd1 6f42 7987 1c42 6dc9 6f42 0ecb 1c42
00000010: ccbc 6f42 d10d 1d42

network_body._body_endoder.seq_layers.0.weight f4 [128, 636]
-0.006959059 0.049526297 -0.048676502 -0.06300552 -0.025736323 0.04269368 -0.080791526 -0.05684663
0.09361656 0.049275257 0.04071834 0.031450603 -0.008412857 -0.040006947 0.041440938 -0.013968713
0.04176001 -0.0061803535 -0.04446941 -0.006081206 -0.042964242 -0.026750714 -0.07063661 0.05279661
0.0004658002 0.0072115334 -0.07760999 0.10955957 -0.03664289 -0.049456283 0.01617034 0.07899295
-0.019753672 0.0057637957 0.023585852 -0.021733215 -0.059103508 0.004288546 -0.009667224 -0.13215527
0.08419778 -0.0140300905 -0.036154244 -0.038393907 -0.009841862 0.036234993 -0.0124402465 0.0066121533
-0.025652904 -0.09802878 -0.041561507 -0.09397613 -0.060424533 -0.028178401 0.053258453 -0.036457624
0.0683622 -0.027366932 -0.010317993 0.00069823704 0.09245183 -0.049029425 0.060894635 -0.055482056
-0.024527123 0.01726549 0.02883132 0.028547348 -0.016046809 0.0038387296 0.00896164 0.0351285
-0.09842863 -0.050527047 -0.022998055 -0.035225864 -0.06640712 -0.028693771 -0.013057083 -0.05292749
0.0030840358 -0.07895812 0.066655345 -0.03550802 -0.011788413 -0.012609372 -0.032585084 0.042776912
0.0026317628 0.0020295442 0.0054762694 -0.07883093 0.13920397 0.03623761 0.039673135 -0.09528089
0.04241337 -0.029875582 0.063584246 -0.06836586 -0.00059834303 0.05045459 -0.0367314 0.017344303
-0.01885633 0.057790063 -0.062123302 0.058525335 0.034293458 -0.041738465 -0.041786272 -0.04208214
0.015485692 -0.026639024 0.013914908 0.032663986 -0.06910818 -0.012433292 -0.030987512 0.0289782
0.019002475 0.12530091 -0.038343 0.027096042 0.0137639735 0.0022222893 0.052092534 -0.03869298
-0.011335186 0.015485659 -0.098994754 0.0331706 0.00056326436 0.034862153 0.06484189 -0.007663253
-0.020308534 -0.05623322 0.021445734 -0.008573645 -0.09590188 -0.011238134 0.019473769 0.052730475
-0.07237717 -0.060129896 -0.044312403 0.0010523463 0.021587828 -0.047760777 -0.064295046 -0.0018999774
0.009926714 0.03414607 -0.0252392 -0.06846141 -0.09848902 0.04543046 -0.041887645 0.0031908902
0.00024834773 -0.024077969 -0.023016665 0.02495002 0.010555016 -0.027422732 0.08010504 0.05968337
0.071897216 0.008315565 -0.017795337 0.016830062 -0.0370408 -0.047647312 -0.047836505 -0.051898528
0.0031341056 -0.034925204 0.035317343 -0.0031749723 -0.015165563 0.030748844 -0.010273824 -0.016987266
0.06077063 0.038465507 -0.004688237 -0.011772069 0.065439865 0.027954757 0.03158773 -0.07682414
0.020503681 -0.012146359 -0.06914569 -0.047762748 0.009542052 -0.032578345 0.034276877 -0.05306772
0.000366323 0.06074842 0.045969788 -0.08745039 0.052822962 0.056407824 -0.013321999 0.015965052
0.04093263 0.041804377 -0.047900554 -0.004591733 0.059319977 0.014467993 -0.037243176 -0.061921783
-0.033625327 -0.0075471727 -0.00042835152 -0.09830958 0.037699528 0.06820429 0.007138511 0.020263828
0.012500179 -0.048327982 0.03481742 -0.03071078 0.035980158 -0.019429078 -0.04675073 -0.051692028
0.04704694 0.03530266 0.029400345 0.025550844 -0.003340786 -0.03723689 -0.015293974 -0.031114312
0.033876043 0.018292867 0.05481238 -0.108912595 0.03468819 0.08066096 -0.0068403073 0.10671354
0.018767478 -0.0056246887 -0.021245966 -0.023538364 -0.04434898 -0.020900417 0.00033044553 0.026252624
00000000: d108 e4bb 16dc 4a3d 0361 47bd 0a09 81bd
00000010: fbd4 d2bc 91df 2e3d 0776 a5bd 03d8 68bd
00000020: 0aba bf3d dad4 493d 46c8 263d 59d2 003d
00000030: 14d6 09bc 53de 23bd f9bd 293d 07dd 64bc
00000040: 8b0c 2b3d 9084 cabb 8e25 36bd da44 c7bb
00000050: 46fb 2fbd 5024 dbbc eda9 90bd 4241 583d
00000060: a536 f439 ba4e ec3b fdf1 9ebd c560 e03d
00000070: db16 16bd ac92 4abd a977 843c 0ec7 a13d
00000080: 74d2 a1bc 39de bc3b 1e37 c13c db09 b2bc
00000090: 8516 72bd ee86 8c3b 4763 1ebc b653 07be
000000a0: e36f ac3d 77de 65bc 7916 14bd ee42 1dbd
000000b0: c33f 21bc 256b 143d 2dd2 4bbc c3aa d83b
000000c0: 0a26 d2bc 50c3 c8bd 663c 2abd 8f76 c0bd
000000d0: b77f 77bd 64d6 e6bc 8925 5a3d 9754 15bd
000000e0: 7b01 8c3d 9e30 e0bc cd0c 29bc e509 373a
000000f0: 6357 bd3d 14d3 48bd a76c 793d 2741 63bd
00000100: 1bed c8bc 5b70 8d3c a92f ec3c 21dc e93c
00000110: 9974 83bc 3293 7b3b d8d3 123c e7e2 0f3d
00000120: f394 c9bd 73f5 4ebd 6b66 bcbc ff48 10bd
00000130: 7500 88bd 330f ebbc 60ed 55bc 7fca 58bd
00000140: 891d 4a3b cbb4 a1bd 9982 883d dc70 11bd
00000150: 3024 41bc 8a97 4ebc f077 05bd d836 2f3d
00000160: a779 2c3b 1a02 053b 4772 b33b 1c72 a1bd
00000170: 7c8b 0e3e e36d 143d 4c80 223d a122 c3bd
00000180: a4b9 2d3d a3bd f4bc 7538 823d 6603 8cbd
00000190: 1fda 1cba 79a9 4e3d aa73 16bd a415 8e3c
000001a0: 9778 9abc 46b5 6c3d 0175 7ebd 43b8 6f3d
000001b0: 4c77 0c3d f4f5 2abd 1528 2bbd 525e 2cbd
000001c0: b3b7 7d3c 153a dabc 5bfb 633c acca 053d
000001d0: 9788 8dbd 02b5 4bbc 86d9 fdbc b163 ed3c
000001e0: 14ab 9b3c e24e 003e 8d0d 1dbd 85f8 dd3c
000001f0: 4a82 613c d4a3 113b fb5e 553d 887c 1ebd
00000200: 37b7 39bc 90b7 7d3c c3bd cabd e5dd 073d
00000210: 08a8 133a 9ecb 0e3d d3cb 843d 071c fbbb
00000220: 155e a6bc ce54 66bd f7ae af3c 7978 0cbc
00000230: 3468 c4bd 2620 38bc 7487 9f3c e9fb 573d
00000240: 7b3a 94bd c44a 76bd ec80 35bd e2ee 893a
00000250: f5d8 b03c cea0 43bd 1fad 83bd aa08 f9ba
00000260: a8a3 223c c0dc 0b3d 70c2 cebc 7f35 8cbd
00000270: 9cb4 c9bd 4a15 3a3d 6192 2bbd 411e 513b
00000280: ab34 8239 293f c5bc 728d bcbc fc63 cc3c
00000290: f2ee 2c3c a3a5 e0bc 1c0e a43d 8d76 743d
000002a0: d93e 933d 023e 083c 87c7 91bc 33df 893c
000002b0: 18b8 17bd d429 43bd 36f0 43bd 8d93 54bd
000002c0: 9165 4d3b bb0d 0fbd eba8 103d 3213 50bb
000002d0: fb78 78bc 00e5 fb3c 8b53 28bc e128 8bbc
000002e0: a0ea 783d 028e 1d3d c89f 99bb a3df 40bc
000002f0: 5605 863d 6001 e53c 2362 013d fa55 9dbd
00000300: 56f7 a73c 8601 47bc 419c 8dbd dfa2 43bd
00000310: 4456 1c3c df70 05bd e965 0c3d 8a5d 59bd
00000320: 0a0f c039 56d3 783d d14a 3c3d 3119 b3bd
00000330: e45c 583d e40b 673d 8444 5abc 24c9 823c
00000340: f9a8 273d 113b 2b3d 5f33 44bd 4076 96bb
00000350: 81f9 723d 290b 6d3c 4d8c 18bd b2a1 7dbd
00000360: b6ba 09bd 464e f7bb 5e94 e0b9 8856 c9bd
00000370: d26a 1a3d b1ae 8b3d 2cea e93b 5400 a63c
00000380: 8dcd 4c3c 90f3 45bd b69c 0e3d 2c95 fbbc
00000390: ee5f 133d bb29 9fbc b27d 3fbd 05bb 53bd
000003a0: 4bb4 403d 8699 103d fed8 f03c 0150 d13c
000003b0: 17f1 5abb b685 18bd 9493 7abc 71e3 febc
000003c0: 9bc1 0a3d ecda 953c f282 603d 910d dfbd
000003d0: 3415 0e3d 9331 a53d a824 e0bb a18c da3d
000003e0: 41be 993c 4f4f b8bb 050c aebc 87d3 c0bc
000003f0: 47a7 35bd 5a37 abbc a63f ad39 be0f d73c

network_body._body_endoder.seq_layers.0.bias f4 [128]
0.0075788917 0.0021062824 -0.005618977 -0.014894944 -0.0074366704 -0.015684413 0.0031873358 -0.025628
-0.0060392283 -0.010764596 0.007568159 0.015426604 0.012509032 -0.009284378 0.003380169 -0.0089688
-0.025384722 0.008773651 -0.019343624 0.0001673912 -0.004988792 -0.011004171 -0.00582194 -0.012379705
-0.037677202 0.0018684559 -0.028876921 -0.015578721 -0.01866568 -0.018943787 -0.025401486 -0.03486303
-0.007550553 -0.0037922286 -0.007411063 -0.0052690348 -0.013057127 -0.033984873 -0.010567834 0.01047533
0.005785153 -0.0058595277 -0.027413007 0.007440126 -0.0030718981 0.0013916 0.011056631 -0.030542476
-0.00824211 -0.01921085 -0.007044134 -0.0059859282 -0.003945673 -0.026158605 -0.028981714 -0.014251251
0.0015410236 0.005014973 -0.0033558065 0.002179864 -0.020144243 0.0006296011 -0.008402961 0.0072455956
-0.012556467 -0.008994639 -0.008010186 -0.014317382 -0.006109919 -0.01255406 0.016277878 0.0106609
-0.016146647 0.00795634 -0.023432314 -0.0016904994 -0.003440061 -0.022570293 -0.026810415 -0.019380804
-0.0139877135 0.009864946 -0.0047138864 -0.0059546004 -0.004376248 -0.00097071053 -0.0063641053 0.0076461094
-0.0029756885 0.0024903454 -0.01327618 -0.00030492013 0.008666973 -0.024124097 -0.015347646 0.0152357975
-0.015095214 0.01382973 -0.013046778 -0.023529796 0.0042223935 -0.016890945 -0.019214485 -0.011601325
-0.0053537516 -0.009507864 0.0043033916 0.0026143673 -0.004626112 0.0037863008 -0.02843659 0.0005727745
-0.015445873 -0.02983824 -0.004218692 -0.0053575984 -0.027799973 -0.01114859 -0.038118873 0.005503532
-0.023064192 -0.007227013 -0.02932918 0.00071895676 0.010519746 -0.027038956 -0.010462958 -0.033253346
00000000: 5a58 f83b 8e09 0a3b 651f b8bb ec09 74bc
00000010: 50af f3bb 997c 80bc 9fe2 503b d0f1 d1bc
00000020: b8e4 c5bb fd5d 30bc 52fe f73b debf 7c3c
00000030: aff2 4c3c 811d 18bc d385 5d3b e0f1 12bc
00000040: 9ff3 cfbc 5cbf 0f3c 8576 9ebc bc85 2f39
00000050: 0579 a3bb d74a 34bc f9c5 bebb 3fd4 4abc
00000060: 6953 1abd fae6 f43a 4b8f ecbc e43d 7fbc
00000070: c5e8 98bc 0030 9bbc c716 d0bc 89cc 0ebd
00000080: a16a f7bb 0a87 78bb 81d8 f2bb dea7 acbb
00000090: 8fed 55bc b933 0bbd b524 2dbc b8a0 2b3c
000000a0: 6191 bd3b 4801 c0bb 3e91 e0bc 4dcc f33b
000000b0: e651 49bb 5966 b63a df26 353c 3734 fabc
000000c0: ea09 07bc 1360 9dbc 7bd2 e6bb 9b25 c4bb
000000d0: b44a 81bb 924a d6bc 0f6b edbc 147e 69bc
000000e0: 2cfc c93a a554 a43b 17ed 5bbb 0ddc 0e3b
000000f0: 8a05 a5bc d10b 253a 93ac 09bc 766c ed3b
00000100: a4b9 4dbc 405e 13bc 283d 03bc 7493 6abc
00000110: b735 c8bb 8baf 4dbc 2f59 853c 0eab 2e3c
00000120: f945 84bc 4f5b 023c 20f5 bfbc bf93 ddba
00000130: a572 61bb 56e5 b8bc 84a1 dbbc 7ec4 9ebc
00000140: b92c 65bc 95a0 213c f276 9abb cf1e c3bb
00000150: a166 8fbb 4877 7eba fc89 d0bb 378c fa3b
00000160: c503 43bb 1035 233b 5684 59bc b0dd 9fb9
00000170: ebff 0d3c e69f c5bc b174 7bbc 919f 793c
00000180: eb51 77bc 1896 623c 27c2 55bc 8fc1 c0bc
00000190: 015c 8a3b e15e 8abc b267 9dbc 7c13 3ebc
000001a0: 866e afbb dfc6 1bbc 7703 8d3b ce55 2b3b
000001b0: a496 97bb 9623 783b daf3 e8bc 3f26 163a
000001c0: b010 7dbc 536f f4bc f43c 8abb cb8e afbb
000001d0: c5bc e3bc 93a8 36bc 8922 1cbd f956 b43b
000001e0: 1ef1 bcbc 94d0 ecbb c043 f0bc 5f78 3c3a
000001f0: 035b 2c3c cd80 ddbc d46c 2bbc a934 08bd

network_body._body_endoder.seq_layers.2.weight f4 [128, 128]
-0.008522874 0.105393514 -0.14905968 -0.028224362 0.010078103 0.051817365 -0.02121851 0.18698539
-0.002777234 0.1190134 0.13683686 -0.059620578 -0.19054708 -0.016048439 0.13059172 -0.071247555
-0.082927704 0.058070898 -0.005966557 -0.03164539 0.05122244 0.17806546 0.10374496 -0.06130416
0.0055519845 -0.045940768 -0.055219024 0.061769832 -0.055986457 -0.088182464 0.10060215 0.014372752
-0.03134907 0.03314102 0.10536937 -0.0010746766 0.031296745 0.029765978 0.0054957266 0.004774815
-0.0689198 -0.08545487 0.0012146836 0.09854472 -0.029040493 0.07927931 0.053396244 -0.12293324
-0.049051385 -0.12026611 0.09863756 -0.07074099 0.02319524 0.072797954 -0.09558261 0.17606263
-0.038765002 -0.07008152 0.030096188 0.06930277 0.086243376 -0.11231542 0.081875734 0.049484964
-0.06491305 0.07630593 -0.23181047 -0.024628034 -0.03737962 -0.1906289 -0.09390099 -0.006074638
-0.1397399 -0.13569374 -0.080517545 0.061262783 0.037707984 0.0910128 0.06404589 0.05713013
-0.03356914 -0.0034776952 0.07524913 -0.07488775 -0.20770656 -0.092902966 0.023397999 -0.017228276
-0.0367024 -0.004021834 0.087682955 -0.036822964 -0.051013496 -0.08394741 0.09171567 0.070515715
-0.19119917 -0.013098275 0.036599208 -0.019278064 -0.033716615 -0.037673216 -0.08421327 0.011188689
-0.113178514 -0.038479015 0.16312408 0.21205468 -0.009985425 -0.072899334 0.0057456023 0.150405
0.08340073 -0.09170471 0.09130464 0.011189916 -0.013431413 0.050085016 0.018204696 -0.04579602
-0.031771146 0.013927307 -0.14557493 -0.029952753 0.063619204 -0.025874173 -0.022050826 0.027189888
-0.04448782 0.070581466 0.07632475 -0.008993929 0.031739015 -0.050048616 -0.024514575 -0.23378865
0.090297565 -0.0039957147 0.16197403 -0.0627519 0.050509296 0.008674213 0.035080202 -0.09725187
-0.092229426 -0.0274798 -0.16140385 -0.04367775 0.24393535 -0.06136601 0.079266965 0.031031989
-0.051585775 -0.084115 0.00076781475 0.096812904 0.062269848 -0.09072776 0.0059903823 -0.20072348
0.12874463 0.11995037 -0.14372459 -0.22088334 0.113153934 -0.112233825 -0.04286111 -0.019795058
-0.01580717 0.04635643 -0.061761968 0.009939471 0.0012056265 0.12120213 0.16167974 0.17328575
0.050132077 -0.04364198 -0.053044677 -0.1590365 -0.09103943 -0.084155686 -0.030982401 0.030256264
0.14250042 0.09263029 -0.022584619 0.07587223 0.05266736 -0.043237 -0.06312841 -0.14417695
-0.14907068 0.013329411 -0.03023851 0.04626863 -0.108419396 0.09033613 0.05604517 -0.039304372
-0.092360266 0.07463516 -0.098437294 0.20463322 0.03589674 0.0035328367 -0.046244014 -0.015850017
-0.19843875 -0.08368327 -0.025508787 -0.10888262 0.05161769 0.12422242 -0.022743832 0.05337886
-0.14846465 0.1409261 0.037968457 0.023959342 -0.045160387 -0.019008629 0.06308799 0.040675137
0.013183619 -0.05755533 -0.0866953 0.012253269 -0.11317065 0.11314458 -0.22812614 0.015048679
0.023436388 0.08449387 -0.13362637 -0.08128692 0.041450948 0.12043271 0.010552802 -0.045470268
-0.021512603 -0.03261718 -0.03519182 0.112176895 -0.03481371 0.037246767 0.06769973 -0.13583192
-0.043285724 0.088931315 -0.05657074 0.21614133 0.00034487367 0.15121937 -0.12455674 0.1387565
00000000: 86a3 0bbc 8ed8 d73d 1aa3 18be c736 e7bc
00000010: a11e 253c 723e 543d 71d2 adbc 1979 3f3e
00000020: 4102 36bb 4cbd f33d f61e 0c3e b534 74bd
00000030: c61e 43be 0478 83bc d6b9 053e 3dea 91bd
00000040: 00d6 a9bd c0db 6d3d 1c83 c3bb 999e 01bd
00000050: 9fce 513d cb56 363e 3d78 d43d 121a 7bbd
00000060: 6ced b53b 632c 3cbd 582d 62bd 5d02 7d3d
00000070: 0e52 65bd 0299 b4bd 8008 ce3d b17b 6b3c
00000080: e267 00bd e1be 073d e5cb d73d 2adc 8cba
00000090: 0431 003d c8d7 f33c 7f15 b43b 0d76 9c3b
000000a0: d325 8dbd f602 afbd 0536 9f3a d0d1 c93d
000000b0: 54e6 edbc 315d a23d 05b6 5a3d 6cc4 fbbd
000000c0: 1bea 48bd 144e f6bd 7d02 ca3d a7e0 90bd
000000d0: f203 be3c 1817 953d d1c0 c3bd c349 343e
000000e0: 0dc8 1ebd e686 8fbd 488c f63c 9cee 8d3d
000000f0: 5ea0 b03d a005 e6bd 77ae a73d bfb0 4a3d
00000100: 22f1 84bd 4946 9c3d b95f 6dbe bbc0 c9bc
00000110: 5f1b 19bd 3934 43be 2a4f c0bd c20d c7bb
00000120: fa17 0fbe 4df3 0abe 62e6 a4bd afee 7a3d
00000130: b073 1a3d eb64 ba3d 7e2a 833d 4801 6a3d
00000140: cb7f 09bd 0bea 63bb 371c 9a3d c05e 99bd
00000150: 07b1 54be e943 bebd 29ad bf3c 5022 8dbc
00000160: 4155 16bd 97c9 83bb 1f93 b33d add3 16bd
00000170: 87f3 50bd 9fec abbd 6dd5 bb3d 8b6a 903d
00000180: b7c9 43be 269a 56bc 0de9 153d 08ed 9dbc
00000190: 6f1a 0abd 3b4f 1abd 0278 acbd c350 373c
000001a0: 23ca e7bd 2c9c 1dbd 000a 273e dd24 593e
000001b0: e899 23bc 3f4c 95bd 9b45 bc3b c503 1a3e
000001c0: 00ce aa3d aecf bbbd edfd ba3d e955 373c
000001d0: 6e0f 5cbc f225 4d3d 0422 953c 9c94 3bbd
000001e0: 7622 02bd 5c2f 643c 9811 15be 7a5f f5bc
000001f0: c94a 823d 13f6 d3bc efa3 b4bc 54bd de3c
00000200: dc38 36bd 048d 903d 2750 9c3d 465b 13bc
00000210: c500 023d c7ff 4cbd cad2 c8bc 4b66 6fbe
00000220: eeed b83d 7cee 82bb 85dc 253e 1184 80bd
00000230: d6e2 4e3d 491e 0e3c 42b0 0f3d fd2b c7bd
00000240: c8e2 bcbd 511d e1bc 0d47 25be 71e7 32bd
00000250: 30ca 793e ed5a 7bbd b856 a23d cc36 fe3c
00000260: 9b4b 53bd 7c44 acbd 2d47 493a d845 c63d
00000270: ab0e 7f3d 7acf b9bd f84a c43b 758a 4dbe
00000280: a2d5 033e 8aa8 f53d 8a2c 13be 3e2f 62be
00000290: 40bd e73d d9da e5bd 228f 2fbd 3f29 a2bc
000002a0: 0a7e 81bc 3de0 3d3d 1efa 7cbd 2ad9 223c
000002b0: 1d06 9e3a d338 f83d 608f 253e d271 313e
000002c0: 4b57 4d3d efc1 32bd 6045 59bd 77da 22be
000002d0: e172 babd d159 acbd cece fdbc fcdb f73c
000002e0: a1eb 113e f3b4 bd3d 6103 b9bc e662 9b3d
000002f0: bbb9 573d 4819 31bd 7849 81bd 1fa3 13be
00000300: fca5 18be 9a63 5a3c c0b6 f7bc 2d84 3d3d
00000310: fd0a debd 2602 b93d 9f8f 653d 9ffd 20bd
00000320: 6127 bdbd 52da 983d 7e99 c9bd 5f8b 513e
00000330: 7608 133d 2a87 673b 5d6a 3dbd e5d7 81bc
00000340: 8733 4bbe 2262 abbd cef7 d0bc dafd debd
00000350: 126d 533d 5368 fe3d 4651 babc cba3 5a3d
00000360: 1e07 18be ee4e 103e d084 1b3d 6246 c43c
00000370: 19fa 38bd fcb7 9bbc 4734 813d f99a 263d
00000380: 1b00 583c 23bf 6bbd 4e8d b1bd efc1 483c
00000390: 04c6 e7bd 58b8 e73d e699 69be bc8e 763c
000003a0: abfd bf3c 1f0b ad3d 5ad5 08be c279 a6bd
000003b0: 78c8 293d 6da5 f63d a9e5 2c3c 083f 3abd
000003c0: 333b b0bc 9899 05bd 4c25 10bd 00bd e53d
000003d0: d298 0ebd 1190 183d 28a6 8a3d 8617 0bbe
000003e0: 5f4c 31bd 9f21 b63d b8b6 67bd 2754 5d3e
000003f0: 29d0 b439 40d9 1a3e 9b17 ffbd 2f16 0e3e

network_body._body_endoder.seq_layers.2.bias f4 [128]
-0.0031881398 0.0025900467 -0.015091068 0.0065194583 0.011656768 -0.010972718 -0.007868333 0.0011718398
-0.0071502165 -0.0045152456 0.00413206 -0.0024355203 0.002475029 0.017374393 -0.0024595608 0.009861375
0.0065253447 -0.014969037 -0.007745146 0.0067531946 -0.0018003675 -0.00821909 -0.018744914 -0.011585881
-0.024363918 -0.0035357529 -0.0042593023 -0.0015968641 -0.017784333 -0.012082506 0.013675643 -0.0084652845
-0.0078166975 0.012934974 0.008236921 0.02140028 0.008981166 -0.024962178 -0.0044788476 0.0019097071
-0.010181567 0.01705096 0.019207811 -0.013847792 0.0014156091 -0.0041928384 0.0031752218 0.0043789833
0.0018317965 -0.041712463 -0.012395271 0.01199844 0.0066839512 -0.005204196 -0.01641682 -0.010522974
0.012179449 -0.009476411 0.0023512507 -0.023100222 0.007914146 0.027533032 0.0073663485 0.0035756198
0.017468233 -0.00495705 0.0044784825 -0.0031110812 0.0060444013 -0.015216103 0.012513732 0.0075139683
0.006519297 -0.009610613 -0.007784682 -0.011012194 -0.015734185 -0.009073762 0.0056715184 -0.019378582
-0.0088277375 0.0002642469 -0.008118948 -0.0051981485 -0.039159186 0.010633832 -0.030963726 -0.017603133
-0.004773652 -0.03548062 0.016038178 0.023218127 0.000253084 -0.01764106 -0.022574093 0.008230316
-0.02120614 0.022454763 0.006875536 -0.011181461 -0.017113663 0.0121057825 0.002399386 0.021753207
-0.010747184 -0.03186677 -0.0034730746 0.00039749654 0.0068918513 -0.0057687657 -0.009064718 0.0066618994
0.003721353 0.017936785 -0.006721383 -0.017236535 0.004368877 -0.016705615 -0.0033240204 0.0044762213
-0.010610505 -0.012349063 0.017236978 0.0032655848 0.0043439725 -0.008522785 -0.0038879048 -0.020612635
00000000: 1cf0 50bb c6bd 293b 8740 77bc 2ea1 d53b
00000010: 07fc 3e3c eac6 33bc 2eea 00bc 6b98 993a
00000020: 5d4c eabb a0f4 93bb 3b66 873b 409d 1fbb
00000030: 1934 223b be54 8e3c 9530 21bb 9b91 213c
00000040: 8fd2 d53b b140 75bc feca fdbb e749 dd3b
00000050: 4ffa ebba 5da9 06bc ef8e 99bc b5d2 3dbc
00000060: d796 c7bc 17b8 67bb 9e91 8bbb de4d d1ba
00000070: 73b0 91bc b4f5 45bc ce0f 603c fab1 0abc
00000080: 9b11 00bc 37ed 533c 27f4 063c a44f af3c
00000090: be25 133c 7b7d ccbc 4cc3 92bb 234f fa3a
000000a0: 96d0 26bc 74ae 8b3c b359 9d3c d9e1 62bc
000000b0: f68b b93a 1464 89bb 6217 503b 937d 8f3b
000000c0: e418 f03a b0da 2abd 8915 4bbc 1b95 443c
000000d0: 0c05 db3b f687 aabb 917c 86bc 8d68 2cbc
000000e0: 508c 473c f342 1bbc 7117 1a3b ad3c bdbc
000000f0: 56aa 013c f48c e13c 6961 f13b f254 6a3b
00000100: 8a19 8f3c c06e a2bb 3cc0 923b 48e3 4bbb
00000110: 1d10 c63b f64c 79bc 6506 4d3c bc37 f63b
00000120: d49f d53b d575 1dbc a516 ffbb 7d6c 34bc
00000130: fae4 80bc 1eaa 14bc 25d8 b93b d5bf 9ebc
00000140: 37a2 10bc 9e8a 8a39 5605 05bc 3b55 aabb
00000150: 6265 20bd 8639 2e3c a4a7 fdbc 7234 90bc
00000160: 4c6c 9cbb 2054 11bd 7f62 833c f133 be3c
00000170: 5cb0 8439 fc83 90bc 4eed b8bc 73d8 063c
00000180: 80b8 adbc 0df3 b73c 2d4c e13b 7232 37bc
00000190: f431 8cbc 5557 463c 043f 1d3b c833 b23c
000001a0: f514 30bc bb86 02bd 869c 63bb 1567 d039
000001b0: 0ad5 e13b ea07 bdbb 2f84 14bc 104c da3b
000001c0: f1e1 733b 2af0 923c 0c3f dcbb a233 8dbc
000001d0: cc28 8f3b 37da 88bc cfd7 59bb 44ad 923b
000001e0: afd7 2dbc b953 4abc 9034 8d3c 6c03 563b
000001f0: e257 8e3b 27a3 0bbc 38cc 7ebb d4db a8bc

action_model._discrete_distribution.branches.0.weight f4 [2, 128]
-0.014875229 0.022553472 -0.018694328 -0.027244978 -0.02544276 -0.0071978313 0.027568348 0.044314526
0.03684517 0.04250397 -0.039026994 0.045378152 0.02859247 0.013261791 0.017498503 0.038653657
0.0059844977 0.020907212 -0.003959202 0.014485881 -0.031542953 -0.0131064 0.020045184 -0.012845701
0.0068531777 0.030745966 0.049446274 -0.01355357 0.019024588 0.012122055 0.00066072645 -0.0063298675
0.032492854 -0.004595989 -0.020129547 0.012279985 -0.009814602 -0.0013184609 -0.011427483 -0.035139322
0.002856509 0.0059676734 -0.04109645 -0.0101381205 0.023974257 0.039019283 -0.013770432 0.03015241
0.012108022 -0.0032936742 0.01999109 -0.025588706 0.0053855646 -0.03400118 0.0012112492 -0.0012691019
-0.0052058212 0.020393118 0.062991396 -0.008607238 0.04022375 -0.04165983 -0.02330899 -0.026712153
-0.04013805 0.01673566 0.0027296538 -0.001486001 -0.02879394 0.014051132 0.027832644 -0.05155316
0.007709976 0.013264135 -0.012270389 -0.008373118 0.060538623 0.03803078 -0.008543147 0.012013479
-0.012527558 -0.010572933 0.0061504883 0.008497446 0.008444864 0.0023110157 0.027660942 0.022177447
0.0050257067 0.007762391 -0.06397265 -0.0010352465 -0.00063953095 0.018008936 -0.011664047 0.009014491
0.018732091 -0.05191182 0.0032798008 0.0384797 0.041060627 0.014461612 -0.021655375 -0.00079078384
0.029096646 0.014142972 -0.008515872 -0.01972837 0.005577224 -0.027510973 0.03851073 -0.0405731
0.01719324 0.02854298 -0.0018357323 0.038977984 0.0037950862 0.013657166 -0.045347895 0.015128712
0.005032785 0.00077590026 0.012258894 -0.0063569867 -0.016529161 0.028607726 -0.023595667 -0.007107521
0.019659344 -0.02620023 0.015407444 0.017944999 0.0061121345 -0.008477902 -0.033266254 -0.04079689
-0.02640585 -0.0521596 0.042515527 -0.043793198 -0.027645383 0.0039016386 -0.00013911781 -0.02579901
0.01567037 -0.008846654 -0.0011655551 -0.019012788 0.0152645605 0.022147957 -0.018256208 0.014057012
-0.0041397265 -0.032687996 -0.05768486 0.016430242 -0.009363222 -0.015499623 0.016246088 0.013273273
-0.028048487 0.024382178 0.0026597613 -0.01996849 0.020011485 -0.014301202 0.014437308 0.034715485
0.017846392 -0.035520654 0.049083497 0.0028907498 -0.027818104 -0.040150013 -0.0032146436 -0.032281343
-0.024893166 0.00037441673 -0.005595466 0.010958817 -0.028442957 0.044628292 0.00079198217 -0.0006611518
0.024166446 -0.040243953 -0.05561893 -0.001486051 -0.03120327 0.041876335 0.031972952 0.021993548
0.01752216 -0.029917927 0.0007708747 0.011339918 0.036926195 -0.012599349 -0.02908762 0.04382126
-0.019413345 0.0040552397 0.020936709 -0.01736986 -0.044687234 -0.021792432 -0.00027011445 -0.008845501
0.012014414 0.017424105 -0.010404856 -0.048611253 -0.00515131 -0.000118308126 -0.026808858 -0.017078348
-0.005194622 -0.018200139 0.070880964 0.00095813954 -0.0041393517 -0.019574748 -0.016893212 -0.004243981
-0.010600161 0.05516229 0.0091394195 -0.029488936 -0.040599234 -0.030851653 0.024456289 0.0050851554
-0.028379297 -0.021258242 0.0063873017 0.030521104 -0.00028459058 0.022627449 -0.04447148 0.04223092
-0.0025402333 -0.019137826 -0.011989204 -0.018256053 0.024231384 -0.0066995625 0.04628123 -0.004611153
0.026505942 0.0064803637 -0.018654522 0.01849609 0.015700681 -0.036166117 0.008474955 -0.0067201382
00000000: 3cb7 73bc 0fc2 b83c d924 99bc dc30 dfbc
00000010: 566d d0bc c9db ebbb 04d7 e13c 2683 353d
00000020: f6ea 163d a518 2e3d c5da 1fbd 71de 393d
00000030: c13a ea3c fc47 593c 0559 8f3c 4c53 1e3d
00000040: 9b19 c43b 9a45 ab3c 32bc 81bb 3056 6d3c
00000050: 2f33 01bd 3abc 56bc cc35 a43c c676 52bc
00000060: 9f90 e03b f7de fb3c 2d88 4a3d cb0f 5ebc
00000070: 74d9 9b3c 959b 463c 9a34 2d3a c76a cfbb
00000080: 3a17 053d f399 96bb b8e6 a4bc fd31 493c
00000090: 6dcd 20bc 35d0 acba 563a 3bbc 40ee 0fbd
000000a0: 4534 3b3b 798c c33b c054 28bd 5c1a 26bc
000000b0: a965 c43c afd2 1f3d 619d 61bc 3002 f73c
000000c0: ba60 463c afda 57bb 5bc4 a33c 689f d1bc
000000d0: 6479 b03b d244 0bbd c7c2 9e3a fe57 a6ba
000000e0: 9895 aabb 780f a73c a201 813d 5f05 0dbc
000000f0: a9c1 243d 7fa3 2abd 7ff2 bebc 72d3 dabc
00000100: cc67 24bd 3919 893c fee3 323b ebc5 c2ba
00000110: 45e1 ebbc b836 663c 4901 e43c 6829 53bd
00000120: f7a3 fc3b d151 593c be09 49bc 672f 09bc
00000130: 59f7 773d 2ac6 1b3d 8ef8 0bbc 2fd4 443c
00000140: 6340 4dbc 183a 2dbc 098a c93b df38 0b3c
00000150: 545c 0a3c 6974 173b 3399 e23c 7aad b53c
00000160: afae a43b a85b fe3b 1804 83bd 1cb1 87ba
00000170: 32a6 27ba 7a87 933c 8f1a 3fbc 84b1 133c
00000180: 0b74 993c 7da1 54bd edf1 563b e49c 1d3d
00000190: 302f 283d 66f0 6c3c 9d66 b1bc 9b4c 4fba
000001a0: 175c ee3c edb7 673c 2886 0bbc 649d a1bc
000001b0: 25c1 b63b b15e e1bc 6dbd 1d3d fb2f 26bd
000001c0: d6d8 8c3c f8d2 e93c f49c f0ba 61a7 1f3d
000001d0: fbb6 783b 4ec2 5f3c b7be 39bd 6bde 773c
000001e0: 0fea a43b c965 4b3a 87d9 483c 454e d0bb
000001f0: 2a68 87bc c05a ea3c b34b c1bc 35e6 e8bb
00000200: a20c a13c dda1 d6bc 816f 7c3c 6401 933c
00000210: 4d48 c83b e6e6 0abc 3242 08bd a41a 27bd
00000220: 1551 d8bc 4ea5 55bd c324 2e3d 7f60 33bd
00000230: 9278 e2bc a2b2 7f3b 27e0 11b9 7258 d3bc
00000240: 265f 803c 8ef1 10bc 8ac5 98ba b5c0 9bbc
00000250: 3518 7a3c a26f b53c 0b8e 95bc 624f 663c
00000260: 8ba6 87bb d9e3 05bd f646 6cbd b798 863c
00000270: 3368 19bc 21f2 7dbc 8416 853c 2478 593c
00000280: f1c5 e5bc 22bd c73c 644f 2e3b f594 a3bc
00000290: 20ef a33c 974f 6abc 758a 6c3c d331 0e3d
000002a0: 9932 923c 1b7e 11bd c70b 493d bc72 3d3b
000002b0: cbe2 e3bc 5774 24bd c5ac 52bb 7139 04bd
000002c0: c1ec cbbc 5d4d c439 2c5a b7bb 9c8c 333c
000002d0: 3401 e9bc 28cc 363d 069d 4f3a 2551 2dba
000002e0: b6f8 c53c d8d6 24bd add0 63bd 99c7 c2ba
000002f0: 009e ffbc 8586 2b3d 12f6 023d d02b b43c
00000300: a28a 8f3c 7116 f5bc 8714 4a3a 10cb 393c
00000310: ec3f 173d 806d 4ebc 2949 eebc ec7d 333d
00000320: bc08 9fbc d1e1 843b 7683 ab3c 3d4b 8ebc
00000330: f609 37bd 0b86 b2bc 269e 8db9 b8ec 10bc
00000340: 1bd8 443c ffbc 8e3c 2179 2abc 981c 47bd
00000350: 52cc a8bb 311c f8b8 409e dbbc e4e7 8bbc
00000360: a637 aabb 7518 95bc 0a2a 913d a82b 7b3a
00000370: 66a3 87bb 395b a0bc a263 8abc 1811 8bbb
00000380: 4cac 2dbc daf1 613d 81bd 153c c892 f1bc
00000390: 624b 26bd 9bbc fcbc 8e58 c83c 60a1 a63b
000003a0: b37b e8bc c425 aebc 924c d13b 6507 fa3c
000003b0: 1a35 95b9 335d b93c ba27 36bd 54fa 2c3d
000003c0: 0b7a 26bb eec6 9cbc 5e6e 44bc b88d 95bc
000003d0: e580 c63c 0188 dbbb 6391 3d3d 2819 97bb
000003e0: fd22 d93c 3b59 d43b 5ed1 98bc 1d85 973c
000003f0: b79e 803c ec22 14bd 8ada 0a3c 9b34 dcbb

action_model._discrete_distribution.branches.0.bias f4 [2]
-0.0023218757 0.002321869
00000000: 9c2a 18bb 7f2a 183b

action_model._discrete_distribution.branches.1.weight f4 [3, 128]
0.024741283 0.010541181 -0.033045977 0.03182826 -0.012908729 0.03989571 0.013913913 0.004382529
-0.035214543 0.025550192 0.038869772 -0.0018825146 -0.041886803 0.0359275 0.00094493764 -0.018380407
0.028855564 0.004090968 0.018286873 0.005586054 0.017090082 0.029107805 -0.025898837 -0.052345667
0.008905428 -0.045850463 -0.00097573054 -0.058526654 -0.03128738 -0.04366601 0.043280996 0.021921774
-0.0062671867 0.02461759 -0.001039639 0.043577522 -0.030730156 -0.007244903 -0.0378168 -0.0032551386
0.024473337 0.0122357365 0.01923052 -0.0025594493 -0.021742035 0.044733286 0.037235864 0.03355108
-0.016503045 -0.0039765965 -0.032275546 -0.0006026309 0.0058675157 0.017424306 0.007940273 -0.03528661
0.06519282 0.016769601 0.025336288 -0.02436123 -0.026624799 0.0033810164 0.01284768 0.021321822
0.008446179 -0.015095678 -0.0056134183 0.018741 -0.040434178 -0.022830991 -0.08142005 0.037992
-0.044303156 -0.0030478549 -0.039082557 -0.054607145 -0.0066196267 0.0070555243 0.027134107 0.033490773
0.0027522761 0.010567751 0.024895703 -0.03556654 -0.004185131 0.0248472 0.0011452943 -0.021775095
0.0140144965 -0.007031587 0.04085568 -0.020831533 0.023855932 0.029974122 0.013041561 -0.0362752
0.02614066 -0.005417733 0.059306692 -0.013785553 0.018504305 -0.020313147 0.015162235 -0.018825194
-0.018162968 0.009235838 -0.0006150448 -0.026773056 0.020810492 -0.011438305 0.013717677 0.014121004
0.03286177 0.041893724 -0.035481773 0.02914662 -0.009145091 0.03256698 -0.015731517 -0.03319119
-0.00092493993 0.020769428 0.071209446 0.048348855 0.023149818 -0.02372658 0.020652607 0.03107287
-0.0059197787 -0.015408948 0.02345718 0.0020159944 -0.014206278 0.0222641 -0.009800366 -0.024310337
0.0054145064 0.0128442785 0.0027227183 0.0054148193 0.06828018 -0.055324234 0.03808168 -0.0103595955
-0.019420482 -0.014831743 -0.04031281 -0.016252453 0.01689397 0.01155043 0.034904666 0.040648792
0.01250324 0.027203131 0.025011402 0.080835596 0.00833637 0.040648088 -0.04264858 -0.004445479
0.030526591 -0.0385241 -0.034525685 -0.07738706 -0.011964245 -0.004289122 -0.00093256845 0.023010662
0.0017092703 -0.030726071 0.02911305 0.029355215 -0.010936097 -0.027403764 -0.023973953 -0.042018212
-0.04709228 0.0018907144 0.004137976 -0.04164636 -0.025336802 0.004740421 0.008587922 -0.0007731469
-0.052026164 0.020334087 -0.03038707 0.022056147 -0.015950892 -0.061428238 0.002103192 -0.035185076
-0.030945541 -0.010867038 0.042703804 -0.028870244 0.023711422 0.017892102 0.0064816307 -0.0131832175
-0.025720758 0.061812546 0.029447148 0.063145235 0.042765725 -0.011065668 -0.03281492 -0.008297858
0.020173423 0.014747115 -0.013784671 0.06959832 -0.0052390224 -0.043267827 -0.0049953316 0.020913726
-0.054116234 -0.0052416762 -0.029429555 -0.056813724 0.011161026 -0.01219204 0.023416994 0.006751564
0.010287186 0.01226088 0.021168549 0.016100572 0.023322055 -0.026058314 -0.018687349 -0.058354184
0.008969683 0.025928153 0.06603692 0.022026328 -0.03543386 0.0072816354 0.0366434 0.011467277
-0.01728244 -0.060074516 0.047335286 0.0108470805 -0.021408224 -0.00034600566 0.05090944 -0.0125718275
-0.018619046 -0.026594725 -0.025685748 -0.022568436 -0.020029286 -0.015907547 0.020267624 -0.005970065
00000000: 3bae ca3c ebb4 2c3c 385b 07bd 595e 023d
00000010: 227f 53bc af69 233d 2ef7 633c 519b 8f3b
00000020: 203d 10bd a34e d13c e935 1f3d b5be f6ba
00000030: 7f91 2bbd b728 133d b1b5 773a 8292 96bc
00000040: 8162 ec3c 870d 863b 5ace 953c 380b b73b
00000050: 8000 8c3c 7e73 ee3c cc29 d4bc 6968 56bd
00000060: 13e8 113c b2cd 3bbd 2bc8 7fba a5b9 6fbd
00000070: 3227 00bd 21db 32bd 6a47 313d 4b95 b33c
00000080: f95c cdbb d4aa c93c 7f44 88ba 587e 323d
00000090: cfbd fbbc a766 edbb cae5 1abd 2a54 55bb
000000a0: 4f7c c83c 6678 483c 5389 9d3c 6fbc 27bb
000000b0: 5a1c b2bc 403a 373d a284 183d db6c 093d
000000c0: 6531 87bc 1c4e 82bb 5d33 04bd e0f9 1dba
000000d0: 4a44 c03b 6bbd 8e3c eb17 023c b188 10bd
000000e0: d083 853d 6760 893c 0c8e cf3c 3491 c7bc
000000f0: 401c dabc 0b94 5d3b 137f 523c 1aab ae3c
00000100: d861 0a3c dd53 77bc c4f0 b7bb ba86 993c
00000110: 4f9e 25bd 0f08 bbbc 8ebf a6bd 809d 1b3d
00000120: 3a77 35bd 85be 47bb 0815 20bd beab 5fbd
00000130: 74e9 d8bb 0732 e73b 5948 de3c 9f2d 093d
00000140: 885f 343b 5c24 2d3c 13f2 cb3c 38ae 11bd
00000150: 6c23 89bb 5b8c cb3c b31d 963a af61 b2bc
00000160: 0f9d 653c 3a69 e6bb 4958 273d e4a6 aabc
00000170: 846d c33c 4a8c f53c 45ac 553c 4e95 14bd
00000180: f024 d63c 3d87 b1bb 93eb 723d cddc 61bc
00000190: 5796 973c c267 a6bc 066b 783c 4b37 9abc
000001a0: 81ca 94bc ea51 173c f53a 21ba 2b53 dbbc
000001b0: c47a aa3c ba67 3bbc 1cc0 603c c95b 673c
000001c0: 109a 063d c198 2b3d 5655 11bd e4c4 ee3c
000001d0: 4bd5 15bc f464 053d 62df 80bc 7cf3 07bd
000001e0: ab77 72ba a624 aa3c 42d6 913d 7309 463d
000001f0: b0a4 bd3c 3f5e c2bc a82f a93c 888c fe3c
00000200: b4fa c1bb d075 7cbc 4629 c03c c61e 043b
00000210: 73c1 68bc 3463 b63c b791 20bc 7926 c7bc
00000220: 2c6c b13b cf70 523c a26f 323b cc6e b13b
00000230: 7bd6 8b3d aa9b 62bd 89fb 1b3d 4bbb 29bc
00000240: b417 9fbc d700 73bc 0c1f 25bd dd23 85bc
00000250: 3965 8a3c 043e 3d3c 32f8 0e3d 597f 263d
00000260: 64da 4c3c 1ad9 de3c b6e4 cc3c 228d a53d
00000270: 4595 083c 9c7e 263d 47b0 2ebd 61ab 91bb
00000280: e712 fa3c 72cb 1dbd ce6a 0dbd 1b7d 9ebd
00000290: ae05 44bc c38b 8cbb 9c77 74ba db80 bc3c
000002a0: 9809 e03a 3eb5 fbbc 7e7e ee3c 597a f03c
000002b0: 512d 33bc dc7d e0bc 0665 c4bc 4a1b 2cbd
000002c0: d6e3 40bd d9d1 f73a dc97 873b 6095 2abd
000002d0: 208f cfbc 8955 9b3b 5bb4 0c3c 03ad 4aba
000002e0: 6319 55bd ac93 a63c 4eee f8bc 18af b43c
000002f0: 72ab 82bc 2d9c 7bbd b5d5 093b 3a1e 10bd
00000300: 8181 fdbc a90b 32bc 2fea 2e3d 4a81 ecbc
00000310: 753e c23c 7592 923c dc63 d43b 6cfe 57bc
00000320: 57b4 d2bc 272f 7d3d 253b f13c 4a52 813d
00000330: 1d2b 2f3d c74c 35bc f068 06bd bdf3 07bc
00000340: bc42 a53c e29d 713c 1ad9 61bc 9089 8e3d
00000350: 1bac abbb 9b39 31bd e1af a3bb 4353 ab3c
00000360: fca8 5dbd 5ec2 abbb 4016 f1bc 82b5 68bd
00000370: bcdc 363c 1fc1 47bc ffd4 bf3c 393c dd3b
00000380: 968b 283c dce1 483c aa69 ad3c 59e5 833c
00000390: e50d bf3c 3f78 d5bc 3616 99bc cc04 6fbd
000003a0: 94f5 123c 4767 d43c 5d3e 873d 8f70 b43c
000003b0: 1823 11bd c99a ee3b 6417 163d 3fe1 3b3c
000003c0: e793 8dbc b210 76bd a5e2 413d f4b7 313c
000003d0: 4d60 afbc 1868 b5b9 6b86 503d 11fa 4dbc
000003e0: f886 98bc 2edd d9bc eb6a d2bc 71e1 b8bc
000003f0: 7514 a4bc 8b50 82bc 4a08 a63c 89a0 c3bb

action_model._discrete_distribution.branches.1.bias f4 [3]
0.0040204832 -0.011270004 0.008003852
00000000: 42be 833b d3a5 38bc 9722 033c

action_model._discrete_distribution.branches.2.weight f4 [1, 128]
0.00094833144 -0.0041475664 0.002164879 -0.015137471 0.007191462 0.0027970572 0.014262602 -0.001679267
0.0034388227 -0.0027136642 0.010675671 -0.001275408 -0.0077686235 -0.00333962 -0.0055735926 -0.0040517873
0.0035928984 0.006535079 -0.0034567786 0.005888044 0.0148628075 -0.011869679 0.0038921663 0.0029256206
0.007882379 0.0002538989 0.0038274364 0.00012439341 -0.002147828 0.012626926 -0.0052885176 -0.0039242674
0.009992633 -0.000898377 0.0018388603 -0.008962504 -0.0059351977 0.0035771516 -0.0038637859 -0.005301539
-0.0032013822 0.0078485 0.0030600226 0.020182636 -0.014447048 -0.0084885275 0.0031671056 -0.0044840295
0.007849002 -0.0027175779 0.00073564565 -0.0048970277 0.023498164 0.010616398 0.0021181565 -0.003986106
0.009489105 -9.893707e-05 -0.009242528 0.020651612 0.0019297771 -0.003760524 -0.0029800478 0.015294413
-0.0072639347 0.0014003388 -0.0042434214 -0.0023762975 -0.002970257 0.007989422 0.020476358 0.011914857
-0.00054187205 0.0011005888 0.0024524624 0.018249802 0.0008289013 -0.010076519 0.012866813 0.0015898263
0.00923878 0.011492553 -0.008238387 0.00027154604 0.006843157 0.0038875085 0.0035220552 0.008092899
0.01574826 0.008007321 -0.0021729048 -0.00014627312 0.0038427028 0.0020969154 -0.016908938 0.012120645
-0.0026067044 0.008867334 -0.0007376184 -0.00054205285 -0.020724852 -0.0012331832 -0.0032044207 0.012489047
-0.0034059787 0.005078716 0.012112186 0.0049889227 -0.006413262 -0.0013867317 0.002827486 -0.004174736
0.0017008316 -0.003168511 0.016962308 -0.012510279 -0.0050371643 0.017482448 0.0030661607 0.0021530814
0.007818946 -0.0010040241 -0.00036108235 -0.0005042569 0.0013803601 0.015572964 0.00448475 0.01104159
00000000: 7299 783a 4fe8 87bb a5e0 0d3b 2803 78bc
00000010: 5ba6 eb3b d54e 373b b0ad 693c da1a dcba
00000020: df5d 613b bbd7 31bb 02e9 2e3c 972b a7ba
00000030: f08f febb 87dd 5abb afa2 b6bb dbc4 84bb
00000040: d576 6b3b 3724 d63b 1f8b 62bb 7ef0 c03b
00000050: 2283 733c 0b79 42bc b713 7f3b c5bb 3f3b
00000060: 1825 013c bc1d 8539 bad5 7a3b 9a6f 0239
00000070: 93c2 0cbb 2be1 4e3c 4d4b adbb 2497 80bb
00000080: 24b8 233c 0f81 6bba ea05 f13a 77d7 12bc
00000090: 0c7c c2bb a56e 6a3b 9237 7dbb 88b8 adbb
000000a0: 48ce 51bb ff96 003c a98a 483b 0e56 a53c
000000b0: 50b3 6cbc 7713 0bbc 378f 4f3b c4ee 92bb
000000c0: 1a99 003c 6419 32bb 58d8 403a 3f77 a0bb
000000d0: 397f c03c 67f0 2d3c c5d0 0a3b e19d 82bb
000000e0: 3178 1b3c 6f7c cfb8 f96d 17bc 922d a93c
000000f0: 93f0 fc3a 2073 76bb e84c 43bb 6b95 7a3c
00000100: 4d06 eebb 938b b73a 660c 8bbb a8bb 1bbb
00000110: a5a8 42bb 11e6 023c 09be a73c 8836 433c
00000120: 6b0c 0eba a241 903a 7eb9 203b 9c80 953c
00000130: a04a 593a fc17 25bc 53cf 523c b861 d03a
00000140: 405e 173c 434b 3c3c 4dfa 06bc 4b5e 8e39
00000150: 903c e03b 92c5 7e3b 48d2 663b 1498 043c
00000160: 7f02 813c 2331 033c 4b67 0ebb e460 19b9
00000170: dbd5 7b3b 676c 093b 9d84 8abc ab95 463c
00000180: 3ed5 2abb 4b48 113c bc5c 41ba 8d18 0eba
00000190: 2ac7 a9bc c3a2 a1ba 4201 52bb dc9e 4c3c
000001a0: d736 5fbb 5c6b a63b 3172 463c 1e7a a33b
000001b0: 5726 d2bb ffc2 b5ba 584d 393b 39cc 88bb
000001c0: 70ee de3a cba6 4fbb 8af4 8a3c eaf7 4cbc
000001d0: cc0e a5bb 5a37 8f3c a4f1 483b b61a 0d3b
000001e0: 091b 003c 7599 83ba a74f bdb9 1c30 04ba
000001f0: 33ed b43a bf25 7f3c cff4 923b c9e7 343c

onnx::Div_94 f4 [630]
0.41736317 0.002646475 0.15037344 0.1489221 0.13817315 0.09162996 0.08218615 0.08861038
0.09034318 0.08644385 0.08351999 0.06685326 0.49468172 0.36800233 0.41704854 0.002646475
0.15169963 0.14208338 0.132034 0.09181765 0.08100053 0.08723808 0.093231045 0.08487294
0.08356134 0.06839263 0.4943956 0.36664864 0.41719213 0.002646475 0.14297836 0.1509276
0.13756274 0.09117799 0.08201789 0.08747495 0.091366604 0.08996112 0.080957815 0.06617493
0.4946197 0.36686426 0.4144847 0.002646475 0.14759113 0.13981883 0.1323661 0.09095109
0.08231216 0.10259524 0.10329431 0.088532574 0.086124025 0.07019444 0.4948494 0.36088502
0.41698378 0.002646475 0.13897444 0.14702317 0.13277361 0.08656349 0.08201786 0.08926906
0.09520224 0.085843146 0.08206 0.06511726 0.49361187 0.3615851 0.40900862 0.002646475
0.14321284 0.14304873 0.12792343 0.08393234 0.08260536 0.10987489 0.104612365 0.090457484
0.0895389 0.066697344 0.49331093 0.3543573 0.41529977 0.002646475 0.13561432 0.13998704
0.12789701 0.08680225 0.084301725 0.09403927 0.09476784 0.083230145 0.07804409 0.068493985
0.49283713 0.35572195 0.40217844 0.002646475 0.13603616 0.13979478 0.12361154 0.08747492
0.08260538 0.106203705 0.10451416 0.086043894 0.08531903 0.0645818 0.49094307 0.34520808
0.4116085 0.002646475 0.13328114 0.13516612 0.12311638 0.08616407 0.085197635 0.09720261
0.094912864 0.085157104 0.08065848 0.068797216 0.49180025 0.34841317 0.3946001 0.002646475
0.132621 0.13167536 0.119275875 0.08568227 0.08535949 0.105167344 0.10382361 0.088415705
0.08293919 0.06431239 0.4887408 0.33566505 0.40819365 0.002646475 0.12813495 0.13315453
0.11568303 0.08786819 0.08310555 0.097025774 0.09509383 0.089114554 0.08281414 0.066279724
0.49057442 0.3400611 0.38588378 0.002646475 0.13241708 0.1285832 0.116913006 0.08413777
0.08273072 0.103294306 0.10824534 0.08727762 0.08314709 0.06596474 0.4861267 0.32756108
0.40329674 0.002646475 0.12478603 0.1271801 0.11101906 0.08376769 0.08214411 0.10242806
0.096100636 0.09219175 0.078530096 0.067112334 0.48910648 0.33097225 0.37861475 0.002646475
0.13366048 0.12675335 0.11688392 0.08491363 0.08227018 0.10474319 0.10242802 0.09385624
0.0852786 0.07102909 0.484561 0.32074437 0.39786658 0.002646475 0.12388577 0.12108608
0.11108056 0.08078691 0.0849136 0.102327615 0.09874487 0.096848585 0.078969255 0.069897436
0.48775434 0.32153738 0.41770914 0.002646475 0.15086117 0.149236 0.13846508 0.09174262
0.08222818 0.089423314 0.09091323 0.086643115 0.084913634 0.06803662 0.49445271 0.3665045
0.41742322 0.002646475 0.15207303 0.14246097 0.13236609 0.09189263 0.0811284 0.08794662
0.09385622 0.08499485 0.0847509 0.069549285 0.4941593 0.36511096 0.41751572 0.002646475
0.14349365 0.15117067 0.13778286 0.09144194 0.08206001 0.08810324 0.091817625 0.09003765
0.08252171 0.067318834 0.49438405 0.3653531 0.4148905 0.002646475 0.1478176 0.14010711
00000000: a0b0 d53e 7c70 2d3b 7ffb 193e 097f 183e
00000010: 437d 0d3e 7da8 bb3d 3651 a83d 5c79 b53d
00000020: d805 b93d 7909 b13d 870c ab3d 5dea 883d
00000030: ec46 fd3e cd6a bc3e 6387 d53e 7c70 2d3b
00000040: 2657 1b3e 4e7e 113e ec33 073e e40a bc3d
00000050: 9be3 a53d e1a9 b23d ebef be3d ddd1 ad3d
00000060: 3522 ab3d 6f11 8c3d 6c21 fd3e 5fb9 bb3e
00000070: 359a d53e 7c70 2d3b eb68 123e c48c 1a3e
00000080: 3fdd 0c3e 87bb ba3d fff8 a73d 1126 b33d
00000090: 6a1e bb3d 893d b83d 36cd a53d b986 873d
000000a0: cb3e fd3e a2d5 bb3e 5737 d43e 7c70 2d3b
000000b0: 2122 173e ab2c 0f3e fb8a 073e 9144 ba3d
000000c0: 4793 a83d 741d d23d f88b d33d 9150 b53d
000000d0: cb61 b03d 1ac2 8f3d e75c fd3e ecc5 b83e
000000e0: e67e d53e 7c70 2d3b 514f 0e3e 3e8d 163e
000000f0: cef5 073e 3348 b13d fbf8 a73d b2d2 b63d
00000100: 64f9 c23d 88ce af3d 130f a83d 335c 853d
00000110: b2ba fc3e af21 b93e 9469 d13e 7c70 2d3b
00000120: 63a6 123e 5e7b 123e 5cfe 023e b8e4 ab3d
00000130: 002d a93d 1606 e13d 023f d63d c641 b93d
00000140: 2c60 b73d 9e98 883d 4093 fc3e 526e b53e
00000150: 2ca2 d43e 7c70 2d3b 7bde 0a3e c358 0f3e
00000160: 6ff7 023e 61c5 b13d 62a6 ac3d a997 c03d
00000170: a415 c23d 9174 aa3d 94d5 9f3d 9346 8c3d
00000180: 2655 fc3e 3021 b63e 55ea cd3e 7c70 2d3b
00000190: 104d 0b3e 5d26 0f3e 0c28 fd3d 0d26 b33d
000001a0: 022d a93d 5481 d93d 850b d63d c837 b03d
000001b0: bebb ae3d 7643 843d e45c fb3e 1dbf b03e
000001c0: 59be d23e 7c70 2d3b da7a 083e fd68 0a3e
000001d0: 7124 fc3d ca76 b03d 197c ae3d 2912 c73d
000001e0: ad61 c23d d966 ae3d 4630 a53d 8ee5 8c3d
000001f0: 3ecd fb3e 3663 b23e 0609 ca3e 7c70 2d3b
00000200: cdcd 073e e8d5 063e e946 f43d 307a af3d
00000210: f5d0 ae3d fa61 d73d 79a1 d43d 4b13 b53d
00000220: 06dc a93d 37b6 833d 3c3c fa3e 4adc ab3e
00000230: c2fe d03e 7c70 2d3b cf35 033e a959 083e
00000240: 39eb ec3d 3df4 b33d 3e33 aa3d 73b5 c63d
00000250: 8ec0 c23d b181 b63d 769a a93d aabd 873d
00000260: 922c fb3e 7d1c ae3e 8f92 c53e 7c70 2d3b
00000270: 5898 073e 50ab 033e 1670 ef3d 6c50 ac3d
00000280: b96e a93d f78b d33d bcaf dd3d 9cbe b23d
00000290: 0649 aa3d 8618 873d 99e5 f83e 16b6 a73e
000002a0: e97c ce3e 7c70 2d3b d18f ff3d 803b 023e
000002b0: f65d e33d 658e ab3d 2c3b a83d cdc5 d13d
000002c0: 69d0 c43d 07cf bc3d 63d4 a03d 3172 893d
000002d0: 2a6c fa3e 3275 a93e cbd9 c13e 7c70 2d3b
000002e0: 4bde 083e a1cb 013e d660 ef3d 32e7 ad3d
000002f0: 457d a83d 9983 d63d c8c5 d13d b337 c03d
00000300: 8ca6 ae3d b377 913d 6118 f83e 9b38 a43e
00000310: 2bb5 cb3e 7c70 2d3b d3b7 fd3d fbfb f73d
00000320: 347e e33d 9c73 a53d 2ee7 ad3d 2491 d13d
00000330: c03a ca3d 8d58 c63d a2ba a13d 6326 8f3d
00000340: f0ba f93e 8ca0 a43e f9dd d53e 7c70 2d3b
00000350: 5a7b 1a3e 52d1 183e cac9 0d3e 8ee3 bb3d
00000360: 3f67 a83d 9223 b73d b730 ba3d f271 b13d
00000370: 33e7 ad3d c956 8b3d e828 fd3e 7aa6 bb3e
00000380: 7fb8 d53e 7c70 2d3b 08b9 1b3e 4ae1 113e
00000390: fa8a 073e 3432 bc3d a626 a63d 5c1d b43d
000003a0: b137 c03d c811 ae3d e191 ad3d db6f 8e3d
000003b0: 7302 fd3e d3ef ba3e 9fc4 d53e 7c70 2d3b
000003c0: 00f0 123e 7ccc 1a3e f316 0d3e e945 bb3d
000003d0: 140f a83d 796f b43d e10a bc3d a965 b83d
000003e0: 2401 a93d 75de 893d e81f fd3e 900f bb3e
000003f0: 876c d43e 7c70 2d3b 7f5d 173e 3d78 0f3e

onnx::Div_97 f4 [6]
33.642685 71.33983 33.740013 71.37231 33.84474 71.40381
00000000: 1c92 0642 fead 8e42 c6f5 0642 9fbe 8e42
00000010: 0461 0742 c0ce 8e42
