Assets/Scene/FinalTest/ZooheimTest/Models/0606/WolfFBehavior.onnx (onnx, 406457 bytes, 14 tensors)

discrete_act_size_vector f4 [1, 3]
000000 00 00 00 40 00 00 40 40 00 00 80 3f
       2.0 3.0 1.0

network_body.observation_encoder.processors.0.normalizer.running_mean f4 [630]
000000 3c b1 20 3e 00 00 00 00 35 fe 8b 3c 62 fa c4 3c
       0.1569261 0.0 0.017088989 0.024045173
000010 bf 3a 66 3c 1a 8b da 3b 96 1f b7 3b e8 d2 13 3c
       0.014052092 0.006669414 0.005588482 0.009022452
000020 6f 60 b0 3b 93 c3 0e 3c 19 ee c2 3b cc a1 81 3b
       0.0053825895 0.008713621 0.0059487936 0.0039560553
000030 06 fa 2d 3f 98 96 4c 3f a2 e7 1c 3e 00 00 00 00
       0.6795963 0.7991729 0.15322736 0.0
000040 6f 70 83 3c 69 66 c0 3c ad 2e 50 3c 95 ed ea 3b
       0.016044823 0.023486333 0.012706441 0.0071694353
000050 b7 fd b3 3b 08 fb 12 3c 21 76 a7 3b 96 79 0c 3c
       0.0054928917 0.008970983 0.0051105176 0.00857391
000060 ae 25 bd 3b 59 c5 75 3b c6 3f 2f 3f cc d6 4d 3f
       0.005772314 0.0037501662 0.68456686 0.8040588
000070 f3 60 27 3e 00 00 00 00 7d 4e 85 3c c6 28 bb 3c
       0.16345577 0.0 0.016272778 0.02284659
000080 ea d1 63 3c 1f 1c d2 3b 0f 79 b4 3b 43 6d 0a 3c
       0.013905028 0.0064120437 0.0055075954 0.008448902
000090 91 b3 bb 3b e5 5d 05 3c a2 e1 ca 3b 20 09 7c 3b
       0.005728193 0.008140062 0.0061914483 0.0038457587
0000a0 02 d5 2c 3f 6d 21 4c 3f 87 f0 1a 3e 00 00 00 00
       0.67512524 0.79738504 0.15130816 0.0
0000b0 b8 62 6f 3c e8 8e a1 3c 2f cc 3f 3c b2 56 d9 3b
       0.014610939 0.019721463 0.011706396 0.0066326493
0000c0 9f d8 b7 3b 81 9e 12 3c e6 ea c9 3b bd c6 07 3c
       0.00561054 0.008948923 0.0061620353 0.008287129
0000d0 3e 10 b2 3b 61 75 63 3b e4 36 31 3f 16 6f 50 3f
       0.005434065 0.0034707414 0.6922438 0.81419504
0000e0 a7 46 2e 3e 00 00 00 00 d3 8a 6e 3c bd 6c b2 3c
       0.17019139 0.0 0.014559465 0.021780366
0000f0 2f b3 59 3c 6e 88 b9 3b ad fd b3 3b 73 ba 05 3c
       0.01328735 0.0056620156 0.005492887 0.008162129
000100 f4 ac dd 3b ff f9 e2 3b c0 bf c7 3b d8 82 8b 3b
       0.0067650024 0.0069267745 0.0060958564 0.004257541
000110 8a ca 2b 3f d7 80 4c 3f 6a 59 18 3e 00 00 00 00
       0.67105925 0.79884094 0.14877859 0.0
000120 05 b0 60 3c e5 cc 88 3c f5 59 48 3c d1 78 c8 3b
       0.013713841 0.016699264 0.012228479 0.006117918
000130 ab 88 a5 3b 7f 32 17 3c e3 43 ef 3b f5 dd f9 3b
       0.0050516925 0.009228348 0.007301794 0.0076253363
000140 81 85 ac 3b 43 19 45 3b 63 fb 32 3f 33 09 53 3f
       0.0052649383 0.0030074872 0.69914836 0.8243591
000150 04 7b 34 3e 00 00 00 00 09 60 4e 3c a7 8b ad 3c
       0.17625052 0.0 0.012596139 0.021184755
000160 7c 9d 62 3c 00 54 b8 3b b2 69 af 3b d6 3e 19 3c
       0.0138314925 0.005625248 0.005353176 0.00935336
000170 ac a1 0b 3c d7 1e f3 3b c8 97 be 3b 0d 67 8e 3b
       0.008522432 0.007419448 0.0058164336 0.0043457807
000180 f9 07 2a 3f fe a7 4c 3f 6d 05 15 3e 00 00 00 00
       0.66418415 0.79943836 0.14552851 0.0
000190 7a 94 4f 3c b5 40 76 3c 1f 3b 48 3c 42 85 c0 3b
       0.012669677 0.015030076 0.012221127 0.0058752606
0001a0 44 54 a4 3b 8f 57 13 3c 5c 95 09 3c 03 8e e7 3b
       0.005014928 0.008993044 0.008397426 0.0070664897
0001b0 59 32 a1 3b d3 03 3a 3b 93 f0 34 3f 45 70 55 3f
       0.004919332 0.0028383627 0.7067959 0.83374435
0001c0 4f 3b 39 3e 00 00 00 00 47 c9 32 3c 13 01 9e 3c
       0.1808903 0.0 0.010912246 0.019287622
0001d0 35 8b 50 3c 9b 63 a9 3b 62 5a aa 3b eb 03 30 3c
       0.012728502 0.0051693446 0.0051987628 0.010743122
0001e0 aa 88 25 3c 7b df 01 3c 71 69 c3 3b 61 32 a1 3b
       0.010103384 0.007926817 0.0059634973 0.0049193357
0001f0 5b 0d 29 3f dc 9a 4d 3f dc af 12 3e 00 00 00 00
       0.66036004 0.8031442 0.14324898 0.0
000200 16 16 4c 3c ed 1e 69 3c 31 aa 46 3c 28 9e b0 3b
       0.012456438 0.014228565 0.012125538 0.0053899474
000210 54 51 97 3b 48 b7 0c 3c 5e bd 12 3c 5e 31 f1 3b
       0.0046178494 0.0085886195 0.0089562815 0.0073606214
000220 aa a7 9b 3b 90 6f 49 3b 23 17 35 3f ba 33 57 3f
       0.0047502117 0.0030736662 0.7073843 0.84063303
000230 33 24 39 3e 00 00 00 00 f4 db 26 3c 89 2c 87 3c
       0.18080215 0.0 0.010184277 0.016500728
000240 7c 8b 3c 3c 43 c0 9f 3b a7 44 b3 3b 8d 3e 2d 3c
       0.011507865 0.0048752143 0.0054708305 0.010573995
000250 b7 c3 04 3c c1 32 03 3c dc 9d c4 3b c3 19 9d 3b
       0.008103303 0.008007706 0.0060002636 0.004794331
000260 8d e7 2a 3f 42 c1 4f 3f 7f 36 0d 3e 00 00 00 00
       0.6675957 0.81154263 0.1379032 0.0
000270 cf 50 3f 3c a5 6f 3f 3c f3 e4 39 3c 8d d2 b1 3b
       0.011676981 0.011684333 0.01134609 0.005426711
000280 24 6d 94 3b db 5a 02 3c 77 51 0d 3c 46 34 fe 3b
       0.004529612 0.007956232 0.00862538 0.0077576963
000290 19 8c 8a 3b ac f3 70 3b b2 5e 37 3f 36 46 59 3f
       0.0042281267 0.0036766334 0.7162887 0.8487276
0002a0 10 4a 32 3e 00 00 00 00 50 aa 3c 3c c4 87 6b 3c
       0.17411065 0.0 0.011515215 0.014375631
0002b0 be 94 3b 3c c7 8e ab 3b 91 b3 bb 3b bb d5 2a 3c
       0.011449037 0.0052355262 0.005728193 0.010426934
0002c0 01 2b ff 3b 24 42 08 3c 10 e5 af 3b e0 63 95 3b
       0.007787109 0.00831655 0.0053678825 0.004559025
0002d0 ba 04 2d 3f ee 50 52 3f 93 db 06 3e 00 00 00 00
       0.6758534 0.8215474 0.13169698 0.0
0002e0 0d cc 49 3c e4 6c 28 3c 8d 82 1f 3c 9a 8b b2 3b
       0.012316716 0.010279868 0.009735716 0.0054487707
0002f0 ab 13 97 3b fd 19 09 3c 2c 2e f8 3b ae 5f ec 3b
       0.004610499 0.0083680125 0.0075738635 0.0072135543
000300 57 48 84 3b 4a 78 70 3b 31 8b 3a 3f fb a3 5b 3f
       0.004036944 0.0036692792 0.7286864 0.8579709
000310 dc 1d 28 3e 00 00 00 00 4c f4 3e 3c 37 b6 5c 3c
       0.1641764 0.0 0.011654925 0.013471178
000320 2d 57 31 3c a8 88 a5 3b 0f 04 a6 3b fa de 29 3c
       0.010824007 0.005051691 0.005066402 0.010368103
000330 40 b6 dc 3b 7d 3d fd 3b f4 fd 9f 3b c1 10 8a 3b
       0.006735593 0.0077282772 0.0048825685 0.004213423
000340 a5 68 30 3f 5c 42 55 3f 64 17 21 3e 00 00 00 00
       0.68909675 0.8330438 0.15731579 0.0
000350 6e 98 8c 3c 73 b3 c5 3c b6 cb 67 3c bd c8 da 3b
       0.017162528 0.02413342 0.01414769 0.006676762
000360 ec 9a b7 3b 0b 8f 17 3c 5d 3b b4 3b f4 3e 0f 3c
       0.005603185 0.009250413 0.0055002407 0.008743037
000370 fa a3 ca 3b fc 60 88 3b 09 71 2e 3f a0 1e 4d 3f
       0.0061840983 0.004161952 0.6814123 0.80124855
000380 cd 4d 1d 3e 00 00 00 00 cd eb 83 3c 9b 00 c1 3c
       0.1536171 0.0 0.01610365 0.023559859
000390 50 fd 51 3c f5 68 eb 3b 6b f4 b4 3b 2b b7 16 3c
       0.012816742 0.0071841427 0.005522301 0.009198944
0003a0 c9 8e ab 3b 46 b7 0c 3c b5 72 c2 3b ad 68 7f 3b
       0.005235527 0.008588618 0.0059340843 0.0038972304
0003b0 98 bc 2f 3f b2 65 4e 3f f5 ca 27 3e 00 00 00 00
       0.68647146 0.80623925 0.16386016 0.0
0003c0 89 07 86 3c b0 00 bc 3c d1 a9 64 3c d4 59 d2 3b
       0.016361015 0.022949547 0.013956503 0.0064193998
0003d0 71 f4 b4 3b 50 70 0d 3c 24 13 bf 3b 47 d9 05 3c
       0.0055223037 0.008632734 0.005831139 0.008169479
0003e0 3d 8e d3 3b 56 48 84 3b 17 4b 2d 3f a7 aa 4c 3f
       0.006456165 0.0040369434 0.67692703 0.79947895
0003f0 c3 6f 1b 3e 00 00 00 00 c6 1b 70 3c c1 ad a1 3c
       0.15179352 0.0 0.014655059 0.019736173

network_body.observation_encoder.processors.1.normalizer.running_mean f4 [6]
000000 1f 7e 6a 42 ca 26 23 42 07 73 6a 42 84 72 23 42
       58.623165 40.78788 58.61233 40.86183
000010 15 66 6a 42 5c bd 23 42
       58.59969 40.93492

network_body._body_endoder.seq_layers.0.weight f4 [128, 636]
000000 5d de 53 3c 7f 8c 35 bd e1 0c f6 bc b5 a9 2c 3d
       0.0129314335 -0.04432344 -0.030035438 0.042154033
000010 60 17 e1 3b b6 c3 fc bb b4 da d7 3d 5f 3a b3 bc
       0.0068692416 -0.0077137602 0.10539761 -0.02187842
000020 4c 7c b2 bc 2b 11 e4 ba 89 61 77 bc ae ca da 3d
       -0.021787785 -0.0017400136 -0.015098938 0.10683189
000030 8f 3f e1 3a 5a 18 54 3d 39 61 22 3d b1 8b 05 3b
       0.001718508 0.051781036 0.0396435 0.0020377452
000040 16 37 60 3d bc fd 8a 3d 83 d6 4d bc 0b dd 6e 3d
       0.054740034 0.06786677 -0.012563351 0.05831627
000050 d9 04 88 bc 3d df 03 3d cb 8a c0 bc 9a ef c9 bd
       -0.016603874 0.03219532 -0.023503682 -0.098601535
000060 e1 87 21 3c 3f 69 a4 bc 2a db 72 bc b7 db 66 3d
       0.009859056 -0.020069716 -0.014822761 0.05636188
000070 91 a0 17 bc 65 e9 59 bb bf d3 5e 3c fc a4 2e bc
       -0.009254591 -0.0033250686 0.013600289 -0.0106594525
000080 6f c8 a2 bc 2d ad c4 3c 1e cb c7 bc 1b 01 6e bd
       -0.019870965 0.024008358 -0.024388846 -0.058106523
000090 9c 58 43 bd 2b 45 46 bd 6a 8d 80 bd 04 11 4b bc
       -0.047691926 -0.048405807 -0.062769726 -0.012394194
0000a0 f4 1d 69 3d f2 2b ce 3d 4a 4a 24 3d 2a 48 37 bd
       0.05691333 0.10066976 0.04010991 -0.044746555
0000b0 0b fd 4e bd 43 66 2e 3c 9d 22 12 3d 38 9b 88 3b
       -0.05053429 0.010644498 0.03567754 0.004168894
0000c0 ce 82 d5 bb d4 70 b9 bb 87 ae df 3b 2d ce cf bc
       -0.0065158373 -0.005659202 0.006826225 -0.025366867
0000d0 7b 01 8d bd 57 2e 81 3d c1 71 02 3c 91 84 e3 3c
       -0.06885048 0.06307667 0.007961691 0.027773174
0000e0 cb 05 37 bb 55 cc 03 3d 27 e5 92 3d af e6 9e ba
       -0.0027927037 0.032177288 0.071726136 -0.0012123192
0000f0 e2 3f 6c bc cc 9a e0 3d 18 54 1a bc c0 13 8d 3c
       -0.014419528 0.10967025 -0.009419464 0.017221332
000100 af cc 07 bd de e5 a3 bd e1 c3 cf 3c d3 8b 46 bc
       -0.033154186 -0.08002828 0.025361957 -0.012118298
000110 14 9a 83 bc c5 6c 2d 3c 7e 10 b7 bd 9f 36 9a 3d
       -0.016064681 0.010585015 -0.089386925 0.075299494
000120 93 c3 19 3d 26 80 01 bd 3b 92 bc bc e0 93 2e bd
       0.03754003 -0.031616352 -0.023018947 -0.042621493
000130 a1 49 1a 3d f6 b8 93 bc 60 8a 99 3d 47 89 36 3c
       0.037667874 -0.018032532 0.07497096 0.011141128
000140 8d c1 0b 3d 1b 80 e0 bb 78 ef f7 bc d9 d5 30 bd
       0.03412013 -0.006851209 -0.030265555 -0.04317269
000150 fd 50 17 bc c1 00 01 bc 64 ea db 3c 93 b2 ab bd
       -0.009235618 -0.007873715 0.026845165 -0.0838367
000160 d6 ba 05 bc d5 f3 78 bc 35 91 3d bd b3 a3 98 3d
       -0.008162221 -0.015194853 -0.04628106 0.07453098
000170 0d 6c 5a bd 57 1b af bd 35 72 91 3b dd c2 44 3d
       -0.0533257 -0.085501365 0.0044386634 0.0480374
000180 cf 4a d6 bc 56 0b 4e 3d fe 0a 37 3d ab 8a 12 bc
       -0.026158718 0.05030378 0.044688217 -0.008944194
000190 2f b1 2d 3d 00 7b b6 3c ab 2f 92 bd dd 0a 98 bc
       0.042405304 0.022275448 -0.07137998 -0.018559868
0001a0 e3 d5 ba bc e4 5d 45 bd 02 ce 22 bd eb 26 c0 3c
       -0.022807067 -0.048185244 -0.039747246 0.023456058
0001b0 43 de ac bb de 15 3d bc 12 2b e3 ba 89 ff 01 3d
       -0.005275519 -0.011540858 -0.0017331562 0.031737838
0001c0 16 b5 f4 3c 3c 98 09 bc 11 29 73 bd 62 f7 d4 3c
       0.029871505 -0.008398112 -0.059365336 0.025996868
0001d0 c4 08 3e 3d 38 b2 23 3d 45 95 a3 bd 59 e6 9f 3c
       0.04639508 0.039964885 -0.07987455 0.019519018
0001e0 3f 49 98 bd 6a 83 21 bc 2f 44 df 3c 1e 9d 56 3d
       -0.074358456 -0.009857992 0.027254192 0.052395932
0001f0 05 97 8b 3d f2 8d 99 bd 6d f2 71 3c 90 18 64 3d
       0.06815914 -0.07497777 0.0147672715 0.055687487
000200 61 7a ff 3b 52 4c 3e 3d f7 aa 21 bd 48 a3 5e 3d
       0.007796571 0.046459503 -0.039469685 0.054354936
000210 9f 47 97 bc a4 7d 17 3d 8f f2 d3 bc fe e1 68 bc
       -0.018466769 0.036985055 -0.025872497 -0.014214037
000220 60 fc 3f 3d 2c c6 b2 3c 6a a7 a2 bb 6c 0b 48 bd
       0.046871543 0.021823011 -0.004963805 -0.048839018
000230 79 49 8b bc e4 52 01 3d a9 da 80 bd c1 10 eb 3a
       -0.017002808 0.03157319 -0.06291706 0.001793407
000240 62 8d 51 3c 78 51 94 3c fe 05 07 bd b6 47 c4 3b
       0.012790056 0.018105254 -0.0329647 0.005989994
000250 58 53 54 bd 4d 55 18 bc 79 1a 0d 3d dd b7 54 3c
       -0.051837295 -0.009297681 0.034449074 0.01298329
000260 65 77 07 bd 18 fb b6 bc 19 e6 78 3c 7c 5f a2 3a
       -0.033072848 -0.022336528 0.015191578 0.0012388076
000270 41 1f 85 bd 43 d6 9d 3d be 81 b7 3b 61 b6 38 3a
       -0.06500102 0.07706883 0.0056001833 0.00070462195
000280 b2 b2 96 bd a8 1f cb bd 3b 0b 91 bb 0e c3 14 bd
       -0.07358302 -0.09918147 -0.0044263876 -0.03631883
000290 53 1a 8f bc 19 11 1e bd 56 c4 ad 3c f6 1d 3c 3d
       -0.017468607 -0.038590524 0.021211784 0.04592701
0002a0 9c 44 81 ba 06 61 c1 bc 38 ed 69 bb e1 a1 1e 3d
       -0.0009862366 -0.023605835 -0.0035694372 0.0387286
0002b0 cc 93 0b 3d 56 06 17 bb a2 ee 13 3d 5e 98 cb 3c
       0.034076497 -0.0023044548 0.03611625 0.024852928
0002c0 f7 c1 3f 3d dc 66 40 bd 65 06 57 bd df 14 42 3b
       0.04681584 -0.046973094 -0.052496333 0.002961449
0002d0 9b ff c3 bd 46 2b 08 bd 07 db 3a bd d0 94 15 3c
       -0.09570237 -0.033244394 -0.045619037 0.009129718
0002e0 2a 72 04 bd 2b e4 d6 bc fd df d0 3d 46 ba 31 bd
       -0.032335438 -0.026231846 0.101989724 -0.043390535
0002f0 29 fb 14 3d d6 44 06 bc 9b 4d 86 bd e7 9d 03 3e
       0.036372337 -0.008195123 -0.06557771 0.12853204
000300 ca 14 56 bd 4f 42 a7 3d 53 04 ec bd c3 2e cf bd
       -0.05226592 0.08166944 -0.11524262 -0.10116341
000310 53 54 1c bd f7 a7 a7 bc 96 1b 06 bc 00 79 50 3d
       -0.038166355 -0.020465834 -0.008185288 0.050896645
000320 37 3c 68 bd 5b 70 8b bb 38 04 2f bd 76 86 64 bd
       -0.05669805 -0.004255337 -0.042728633 -0.055792294
000330 08 c9 b9 bc 0b 56 ce bc 8d 3c 82 3d 60 56 c1 bc
       -0.022678867 -0.025187513 0.063592054 -0.023600757
000340 00 88 56 3d c8 7b 0b 3d b4 d7 5f 3d 9b d4 17 bd
       0.052375793 0.034053594 0.05464907 -0.03706799
000350 be a7 82 bd e8 a7 76 bd 21 24 50 3d ce 1a d9 3c
       -0.063796505 -0.06021872 0.050815705 0.02650204
000360 41 32 1c 3d fe 87 3c 3d 50 bf 57 bd 3c 8f f8 bd
       0.038133863 0.04602813 -0.052672684 -0.12136695
000370 2f 43 06 bc 34 d0 84 bc cb ec 32 3d fa 21 9a 3c
       -0.008194729 -0.01621256 0.043682855 0.01881503
000380 d0 f2 73 bb 15 41 16 bd d0 7f d0 bd 64 9e 1a 3d
       -0.0037223585 -0.03668316 -0.10180628 0.03774871
000390 1d ed b6 ba 42 bb c4 3c a6 cd 03 3d e4 8d ac bd
       -0.0013956163 0.024015073 0.032178544 -0.08425501
0003a0 bf c6 bd bc e1 98 86 b9 87 62 29 bd a1 80 61 bc
       -0.023166059 -0.00025672375 -0.04135373 -0.013763578
0003b0 42 15 e9 bd 6e c1 70 bb 99 b4 e7 bb 8a 25 82 bc
       -0.11381008 -0.0036736387 -0.0070710895 -0.01588704
0003c0 95 89 02 be 35 b1 b8 bd 82 36 65 bd fb dc 8e bc
       -0.12747796 -0.090181746 -0.055960186 -0.017439356
0003d0 64 be 12 bc 91 6b b6 3d 1c b1 4e bd ea 87 06 be
       -0.0089565255 0.089072354 -0.050461873 -0.13137785
0003e0 20 8f a7 3c 23 49 0d 3d 6a 2d d4 3c 11 2d 54 bd
       0.02045399 0.034493577 0.025900561 -0.05180079
0003f0 24 95 7c 3c 25 52 b1 3d a3 b2 82 3d 5d 93 b2 3b
       0.015416417 0.08658246 0.063817285 0.005449696

network_body._body_endoder.seq_layers.0.bias f4 [128]
000000 79 d6 39 bc af 59 df ba 4a 30 c5 bc 38 af 52 bc
       -0.011342638 -0.0017040278 -0.024070878 -0.012859158
000010 8b f6 d9 bb 6f 20 f0 bc b3 9a d0 bb 2e 76 5a bb
       -0.0066517047 -0.02931234 -0.006366098 -0.00333346
000020 b4 de 75 3c bb 2c 34 3c 70 83 8c ba 6f 7e 43 3c
       0.01500671 0.010996993 -0.0010720324 0.011932
000030 16 f5 2d bd ff b2 da bc cc 72 b3 bc 78 d9 34 bc
       -0.04247006 -0.02669668 -0.021905325 -0.011038177
000040 9a 8d 42 3b 9f a3 86 3c e8 b9 75 bc 16 3d cf bc
       0.0029686452 0.016435442 -0.014997937 -0.025297683
000050 7c 30 a7 bc 99 6a d7 bb 8d 37 3e bb c9 6a 49 3b
       -0.020408861 -0.0065739867 -0.002902481 0.0030733815
000060 19 52 c8 bc 4c 17 e7 3b 7b cb 4e bc 5a fe f4 bc
       -0.02445321 0.0070523378 -0.012621756 -0.02990644
000070 c8 51 85 bc 80 e5 c3 bc cf db d8 bb 1f d1 10 ba
       -0.016274348 -0.023913145 -0.006618 -0.00055243255
000080 10 3d 73 bc 75 5e 95 bb 0f 18 36 bc 30 07 ac bc
       -0.014846101 -0.0045583793 -0.011114134 -0.020999521
000090 e4 ec 8c bc 43 58 65 3b 7f d1 b4 bc 4f e2 b6 bc
       -0.017202802 0.0034995235 -0.022072552 -0.02232471
0000a0 0c 9a 1f bd 54 d9 4a bb f5 2c 96 bb 07 be 49 3b
       -0.03896527 -0.0030952292 -0.004582996 0.003078343
0000b0 d8 28 8b bc 6b 95 92 bc 4f bf dd bc 52 19 a6 3a
       -0.01698725 -0.017893514 -0.027068762 0.0012672341
0000c0 8a 7e b6 ba d4 e3 da bc a7 12 50 bc f8 7b 91 bc
       -0.001392321 -0.026719965 -0.01269976 -0.017759308
0000d0 76 ec 2c 3c 47 89 a2 bb ca 8a 35 bc 75 8a d0 bb
       0.010554424 -0.0049602124 -0.011080453 -0.0063641616
0000e0 5c c2 47 3c ff 3f 85 bc 55 91 80 bc 83 0b a6 bb
       0.012192335 -0.016265867 -0.0156943 -0.0050672903
0000f0 6b 50 5e bc 0a a1 c2 bc 9b 25 0e bc 59 90 f4 3b
       -0.013568978 -0.02375843 -0.008675958 0.0074634966
000100 12 73 d3 bc b9 40 9b bc 00 e4 22 bc ff 74 1d bc
       -0.025811706 -0.01895176 -0.009942055 -0.009610414
000110 60 a7 04 bc bf f0 e7 bc c9 89 2b 3c cb 4d 02 3b
       -0.008096546 -0.028313039 0.010469862 0.0019882794
000120 bd 22 99 bc 00 ea 48 bc af 51 66 3b 76 06 53 bb
       -0.018693322 -0.012262821 0.0035143902 -0.0032199896
000130 e3 fd 66 bc 52 1c 41 bb 04 ce 91 bb 66 b7 7c bc
       -0.014098617 -0.0029466343 -0.004449608 -0.015424585
000140 77 ea 33 bc 5a 67 be bc 4e 09 31 bc c0 08 10 bc
       -0.010981194 -0.023242641 -0.010805441 -0.008791149
000150 9a 77 ea bc d4 f2 d3 bc 8b 07 53 bc 68 93 5f bb
       -0.028621484 -0.025872625 -0.012880216 -0.003411496
000160 06 34 44 bc e3 a8 26 bc fc 4c bb bc 50 eb 96 bb
       -0.011975294 -0.010172102 -0.022863857 -0.004605688
000170 49 89 42 bd 13 10 2f bb 9d 4f 42 3c c7 9d 1d bc
       -0.047494207 -0.0026712462 0.011859802 -0.009620137
000180 47 72 86 3b 7b d3 4d bc 74 cc b8 bc 7e ba 1a 3c
       0.0041029784 -0.012562628 -0.022558428 0.009443877
000190 80 ed 13 3c 22 f2 d3 3b 52 2d ce bb 23 f5 12 bd
       0.009028792 0.0064680735 -0.0062920237 -0.03587831
0001a0 d0 68 95 bb 30 52 95 3b 36 f9 c8 bb 40 12 26 bc
       -0.0045596138 0.0045569167 -0.006133224 -0.010136187
0001b0 dc 08 27 bc 1e 93 8c bc 46 09 c7 bc 19 47 cd 3b
       -0.010194983 -0.017159995 -0.024296414 0.006264579
0001c0 78 99 ec bc 6c 25 76 3b 6a 11 80 bb db 21 05 b9
       -0.028881773 0.0037558926 -0.003908326 -0.0001269648
0001d0 4b ec 6a bc 1f 3e b2 bb d0 a3 f5 bc 76 0e 66 bb
       -0.014338563 -0.0054395343 -0.029985338 -0.0035103834
0001e0 5f b1 df bb 09 93 dd bc 62 61 21 bc 3c f3 81 bc
       -0.006826564 -0.02704765 -0.009849878 -0.015863054
0001f0 bd 62 0d bc 12 36 1d bd d4 be 87 3c e7 21 98 ba
       -0.008629498 -0.038381644 0.016570486 -0.0011606783

network_body._body_endoder.seq_layers.2.weight f4 [128, 128]
000000 23 bf 43 3d c0 d3 81 bd 0e ee 87 bd 1e 89 fa 3c
       0.047789704 -0.06339216 -0.06637202 0.03058296
000010 8b 7e ae bd b2 2e 38 3c 42 20 8a 3d f4 d8 2d be
       -0.0852023 0.011241602 0.06744434 -0.16977292
000020 43 af 82 bc 7a c5 89 3d 5b a0 73 3c e5 5d 44 3a
       -0.015952712 0.06727119 0.014869775 0.0007490798
000030 cf be 1d bd 03 c9 70 3d b2 bf 59 bd b4 93 6b 3d
       -0.038512047 0.05878545 -0.05316133 0.057513908
000040 b7 c3 e0 3c 86 e1 76 bd 65 2f 8d bd 60 b2 99 3b
       0.027437074 -0.06027367 -0.068938054 0.0046904534
000050 60 59 ba bd 47 1e 2c be 89 9f c5 3b 29 4c c6 bd
       -0.09099078 -0.16808425 0.006030981 -0.09682495
000060 63 ab 3c 3c 6c d1 d5 3d ef 6b 9c bd ca 81 13 be
       0.011515471 0.10440335 -0.07637774 -0.1440498
000070 89 fe 92 3c 74 34 12 bd 97 b6 69 bd 12 6d a2 3a
       0.017943637 -0.035694554 -0.057058897 0.0012392125
000080 eb 35 42 3e 32 07 64 bd b4 9a 9d bd 1c 0d 6a bd
       0.1896588 -0.055670924 -0.07695523 -0.05714141
000090 8d 83 97 3d a8 db 41 bd 47 d4 8f bd 5a 62 60 3d
       0.07398138 -0.04732862 -0.070229106 0.054781295
0000a0 91 23 f3 bc 1b 0c 31 3e 89 63 9d bd 7a 2d cb bd
       -0.029680045 0.17289774 -0.076850004 -0.09920783
0000b0 66 ff 4d bd 47 80 f7 3d 85 39 8e bd b4 01 97 bd
       -0.050292395 0.12085014 -0.06944565 -0.07373372
0000c0 58 d5 4f 3d 7b f7 b3 3d 05 f1 97 3d 83 6d 15 bd
       0.05074057 0.087874375 0.07419018 -0.03648139
0000d0 68 8d 3c ba a1 b8 02 be 65 ac f5 3c d7 78 1e 3e
       -0.0007192702 -0.12765743 0.02998943 0.15475784
0000e0 70 32 af 3d 3b 79 8f bd 3d d4 85 3e 41 fe 53 3d
       0.08554542 -0.07005545 0.26138487 0.051756147
0000f0 bd b9 6b 3d c8 6a 1a bd 7d 10 60 bd 4f b8 26 3d
       0.05755018 -0.03769949 -0.054703224 0.040703114
000100 09 3d 96 bc 39 8c fd bc 6d af c6 ba 3d 9e 8c 3b
       -0.01833965 -0.030950652 -0.0015158482 0.0042913244
000110 c8 d4 4b be 49 3a 31 bc 02 7a 06 3e 98 70 aa 3c
       -0.19905388 -0.010817119 0.1313248 0.020805642
000120 1f 48 e0 3d 6b d0 a2 bb 8d 92 e9 bd be 14 64 3d
       0.10951256 -0.004968693 -0.114049055 0.055683844
000130 e2 7b 24 bd 87 f6 ab bc a2 f7 c5 bd a0 35 98 bc
       -0.040157206 -0.020991577 -0.09666373 -0.018580258
000140 22 f7 ef 3d 2c 01 02 bd 95 cb 8a bb 7d 37 d7 bc
       0.11717059 -0.0317394 -0.0042356947 -0.026271576
000150 47 45 67 bc 09 88 c6 3d e3 04 ae bd 0c 18 12 be
       -0.014115638 0.096939154 -0.08497026 -0.14266986
000160 17 c5 87 bb f5 9d 8d 3d 1d 20 18 3d 33 32 0f ba
       -0.004143368 0.069148935 0.03714 -0.00054624974
000170 6b ad 03 3e 5f f0 4b 3c 0d 16 e7 3d e5 e6 b3 bc
       0.12859122 0.012447446 0.11283503 -0.021960685
000180 fd d4 29 3d 6b 99 cf 3d db c5 bc 3c 06 f9 c8 bc
       0.041462887 0.10136684 0.023043564 -0.024532806
000190 ea df 48 3d 59 c5 11 3e 8a d1 24 bc 8c 37 c4 bc
       0.049041666 0.14235438 -0.010059724 -0.023952268
0001a0 2e 66 02 be a1 85 2e bd d3 81 1c be fa 78 ae 3d
       -0.12734291 -0.042607907 -0.15283899 0.08519168
0001b0 1e be ec bd 48 e7 93 3d 4a 8f 63 bd 73 27 cb bd
       -0.115596995 0.07221848 -0.055556573 -0.09919634
0001c0 0b 97 58 3e b1 d0 28 be 8a e2 90 3d e3 50 dc 3c
       0.21151368 -0.1648586 0.07074459 0.026894039
0001d0 d1 61 b8 bd 62 91 5d 3d 89 70 90 3d 0d 55 8e 3c
       -0.09003032 0.054093726 0.070527144 0.01737454
0001e0 5f 65 d5 3d 5d 47 14 bd 58 fd 0f bd 0e 2e 99 3d
       0.104197256 -0.03620087 -0.035153717 0.07479487
0001f0 3d 65 d8 bd 76 99 b4 bd 93 64 4e 3b 3d 58 5e 3d
       -0.10566185 -0.08818333 0.0031493052 0.05428337
000200 50 d3 9a 3b 49 6c 6a 3d ea 83 0d bd c2 42 5e bd
       0.0047248974 0.057232175 -0.03454963 -0.054262884
000210 04 5d e3 bc ec 03 8b 3d 06 36 0c be f2 e2 6c be
       -0.027754314 0.067878574 -0.13692483 -0.23133448
000220 34 7c 01 3c 56 4c 87 bd a6 6b a4 3d be d5 b6 3d
       0.0079031475 -0.06606357 0.08028345 0.08927487
000230 c7 e4 cc 3c 4f 24 14 3e 35 4f 0f 3e 93 c8 5f 3d
       0.025011433 0.14466976 0.13995059 0.05463464
000240 e9 0b 2c be af af 01 bc cf d3 f0 3d 61 5e 18 be
       -0.16801418 -0.007915421 0.11759149 -0.14879753
000250 fa d6 52 3d 40 33 f2 bd 70 2c fc bd 38 0b 8c bc
       0.05147455 -0.118261814 -0.12313163 -0.017095193
000260 f9 b6 18 3d 73 52 89 3e ee b7 10 3e 5c 7b 40 bd
       0.03728387 0.26820716 0.14132664 -0.046992645
000270 ab 5a 7e ba 09 26 bf 3c 3a 2c 71 be eb 4f 99 bd
       -0.00097028416 0.023333566 -0.23552027 -0.07485946
000280 ed 7a 2e 3d 86 c1 5d be db 89 b0 bd 94 e3 52 3d
       0.0425977 -0.21655855 -0.08620044 0.051486567
000290 dd 67 0e be d5 3c 52 3d 33 e0 56 bd 71 09 3f be
       -0.13906808 0.051327545 -0.052459907 -0.18655945
0002a0 53 fc df 3b 4f 9d 99 3c 5e a4 e7 bd 5e 4a 85 bd
       0.0068354993 0.018751768 -0.113106474 -0.06508325
0002b0 84 76 b0 3d 5b 82 09 be 7f 62 13 3d 62 fe 17 be
       0.08616355 -0.13428633 0.035982605 -0.14843133
0002c0 45 cb b3 bc a8 70 23 bd 75 ae 09 bd 92 00 06 be
       -0.021947512 -0.03990236 -0.03361364 -0.13086155
0002d0 7b dc 9e be ac 87 f1 3b 11 ea d4 3d 62 42 98 3d
       -0.31027588 0.0073709097 0.10396207 0.074345365
0002e0 d9 2d bb 3c d4 21 db 3c 7e 11 00 be 60 2a 53 3e
       0.02284901 0.026749529 -0.12506673 0.20621634
0002f0 62 21 26 bd 0a d6 a2 bd bb fe 29 be bb ff 68 3d
       -0.04055918 -0.07950981 -0.16601078 0.05688451
000300 b4 20 46 3d 6e 5d b6 bd a6 fe 11 be b4 1a 32 bd
       0.048371032 -0.08904539 -0.14257297 -0.043482497
000310 62 0e 19 3d b5 ba 36 be 12 6c a1 3d 87 e9 94 bd
       0.037367232 -0.1784466 0.07881941 -0.07271104
000320 1b f5 99 bd 8c 7c 95 bc e6 d6 d9 bc 91 07 16 3d
       -0.07517453 -0.018247865 -0.02659173 0.03662831
000330 54 48 f4 bd 87 a4 4a be a2 3a 7f 3b 97 21 44 bc
       -0.11927858 -0.19789325 0.003894486 -0.011970899
000340 7d 36 58 3e 9f 88 8b 3b e8 c7 98 bd b6 98 33 3d
       0.21114536 0.00425823 -0.07460004 0.04384681
000350 8f d9 bf 3d 94 25 92 3d 92 a4 ce bd ce d8 e0 bc
       0.09367668 0.07136074 -0.10089983 -0.02744713
000360 9a 74 94 3d 96 1f bd bc 40 f9 16 bd cc e9 b6 3c
       0.072488025 -0.02308635 -0.036858797 0.02232828
000370 5b 05 9d bd 1b cd 19 3d dc b4 01 be fd 9a 6f bd
       -0.07667037 0.03754912 -0.12666649 -0.058497418
000380 ab bd 24 3e 0f 6f d1 3d 44 f8 ca bd 42 8c a1 3c
       0.16087978 0.10226261 -0.09910634 0.0197202
000390 75 77 c8 bd eb d2 08 3e e4 2c 94 bd 46 88 e6 3c
       -0.097884096 0.13361709 -0.07235125 0.028141152
0003a0 54 c1 51 3c 78 43 11 bb 1a d8 8d bd 91 30 4f 3e
       0.012802441 -0.0022165459 -0.06925984 0.2023337
0003b0 75 2f b9 bc 38 15 ba 3c 1e 1d 80 3d 26 f0 dd 3d
       -0.022605637 0.022715196 0.06255554 0.1083682
0003c0 f3 4d eb 3b 12 7d f3 3d d8 2c 64 3e 01 cc 46 bd
       0.007180923 0.1188909 0.22282732 -0.048534397
0003d0 9c ea fc 3d 3d 0c 96 be 00 d6 f0 bd ad 1a dc bd
       0.12349436 -0.29306212 -0.11759567 -0.107472755
0003e0 64 b2 0b bd 4c 29 02 bc 95 94 6a 3d ea 4b 33 3d
       -0.034105673 -0.007944416 0.057270605 0.04377357
0003f0 9c 64 87 3c 4c 0c 04 3d ae 1f b1 be 9e 41 3b 3e
       0.016527466 0.03223829 -0.34594482 0.1828675

network_body._body_endoder.seq_layers.2.bias f4 [128]
000000 cf 97 e4 bc f3 09 8b b9 08 30 0a bd 1a e9 ba 3b
       -0.02790442 -0.0002651956 -0.033737212 0.0057040574
000010 51 62 2a 3c ef 74 04 3b 81 3c 42 bc e7 20 cf 3a
       0.010399417 0.00202113 -0.011855246 0.0015802652
000020 7f 85 72 bc 54 23 87 bc 37 62 66 bb 03 12 8c 3c
       -0.014802336 -0.016496338 -0.0035153755 0.017098432
000030 fe 91 7c 3c a6 28 95 bc 17 fb f1 3b 07 91 1a 3c
       0.015415667 -0.01820786 0.0073846686 0.009433991
000040 b9 0c 52 3c f0 3b d2 bc 1c 52 58 bc 84 1c bf bc
       0.012820416 -0.025663346 -0.01320317 -0.023329027
000050 fd 2e e6 3a ae c5 7a bc a2 ec 44 bc ab dc f6 bb
       0.0017561611 -0.01530592 -0.012019308 -0.00753363
000060 4a 4b 0d 3c 3d 31 02 bb 3d 30 72 3c 1c 7b 49 bb
       0.008623907 -0.0019865774 0.014782009 -0.0030743545
000070 ad 23 1a bc 94 ea b1 3c f9 8e fc bc 35 72 ad bb
       -0.00940792 0.0217183 -0.030829893 -0.0052931556
000080 ef 49 0b 3d 22 b5 1f bc 91 af e8 bc d0 05 7e ba
       0.034006055 -0.009747775 -0.02840403 -0.0009690197
000090 c5 75 b5 bc af 91 e3 bb 5b 58 1c 3c b0 a3 93 bb
       -0.022150883 -0.006944857 0.00954255 -0.004505597
0000a0 e9 56 2e bc 65 c9 7d 3c 17 d5 24 ba fa 4c d3 3c
       -0.010640838 0.015489911 -0.00062878564 0.025793541
0000b0 3d 2e 56 bb de 79 b9 bb 4e dc 8f bc ae c2 b6 bb
       -0.0032681369 -0.0056602797 -0.017561104 -0.005577407
0000c0 3f 82 da 3b fa f2 07 bd 19 be 88 3a 89 3f 02 bc
       0.0066683586 -0.033190705 0.001043263 -0.007949718
0000d0 c3 09 94 3a 71 a0 d7 ba 5e 48 4b bb 78 13 2a bc
       0.0011294413 -0.0016451014 -0.0031018476 -0.010380618
0000e0 df d4 59 3b 6d c0 39 3c b2 80 4f bc 97 c4 e3 3a
       0.0033238453 0.011337382 -0.012664961 0.0017377314
0000f0 13 40 3a bc a2 be ab 3a 55 3a aa 3a bb 74 b4 3a
       -0.011367816 0.0013103078 0.0012987355 0.0013767699
000100 3f 5a 9d bb 8a 9b 83 3b 33 14 6f bc e2 3f 04 3d
       -0.004802018 0.0040163444 -0.014592218 0.032287486
000110 49 46 e0 ba 8b 0b 0d 3c 70 83 7d bc dc 2d 99 bc
       -0.001711079 0.008608709 -0.015473232 -0.018698625
000120 42 94 c8 3c 06 54 60 bc d7 d6 7d 3c 7a dd bb 3c
       0.024484757 -0.013691908 0.015493116 0.022932757
000130 22 da 6d 3c 87 4e 87 3c e4 94 15 3b e7 fc 04 3d
       0.014517339 0.016516937 0.0022824341 0.03246775
000140 a4 7b 8f bb 37 cd 82 3c ef 9e 2e 3b bf 57 bc bc
       -0.004378753 0.015966995 0.0026645025 -0.02299106
000150 55 b6 58 bc d3 9a a6 bb 9c 54 a8 bb ff c6 14 bc
       -0.013227065 -0.0050843745 -0.0051370393 -0.0090806475
000160 ef 61 d7 3c d6 bb d1 bb 70 0f d2 bc ca da 2e bc
       0.026291816 -0.0064005656 -0.025642127 -0.010672281
000170 8d 59 8b bc 69 43 68 3c dd 0f 4f 3a 10 1f b4 bc
       -0.017010475 0.014176228 0.0007898787 -0.021987468
000180 c1 c6 4d bc 4c 8d 81 bb 43 89 03 bc 14 fa 0e bc
       -0.012559594 -0.0039536115 -0.008028331 -0.008726615
000190 0b f7 87 bc e6 d0 86 bb 19 77 8e 3b 42 a1 b3 bb
       -0.016597291 -0.004114258 0.0043476936 -0.00548187
0001a0 9d 1e be 3c c1 0c 55 3b 02 5c d9 bb 78 e7 96 bc
       0.023207957 0.0032508823 -0.0066332826 -0.01842092
0001b0 98 d9 7e bb 8a d9 c9 bb d2 a9 4f 3a db cb 3f bc
       -0.003888702 -0.006159966 0.00079217285 -0.011706318
0001c0 b1 2f 64 bc b4 fc 0b bc 59 d1 22 bc 07 7a 0a bc
       -0.013927386 -0.008544136 -0.009937608 -0.008451945
0001d0 59 54 e7 bb 55 40 04 bd 35 e2 44 3c a5 42 7c bc
       -0.0070596156 -0.032287914 0.012016823 -0.015396749
0001e0 26 f2 34 3c e0 dd 8a 3c 3d b0 d2 bb 0d 20 79 bc
       0.011044061 0.016951501 -0.0064297006 -0.015205395
0001f0 30 d3 9a bc ad 6a 12 ba f0 12 6f bc b5 bb 0f 3c
       -0.01889953 -0.0005585354 -0.014591917 0.00877278

action_model._discrete_distribution.branches.0.weight f4 [2, 128]
000000 3e 8f 83 3c 27 2e 51 bc ea 3a 0e 3c 2c 6b c7 bb
       0.016059514 -0.012767351 0.008681038 -0.006085774
000010 01 58 24 bd e2 21 14 bd 55 52 a6 3c 4d 09 1f bc
       -0.04012299 -0.036165126 0.02030293 -0.009706807
000020 80 84 bb ba f6 37 54 3c 59 83 8d bc da bd c7 3c
       -0.0014306456 0.012952795 -0.017274546 0.02438252
000030 11 09 10 bd 1e 9a 60 ba f6 da 7c 3c 8a 87 31 bd
       -0.035164896 -0.0008567887 0.015433064 -0.04334215
000040 56 f2 9a bc 7f f4 4d 39 c7 3e 37 bc ce d1 bc 3c
       -0.018914383 0.00019641405 -0.011184401 0.023049261
000050 16 ee 14 bd 37 3b 9e 3c 6d 38 0b 3d ba 77 0c 3c
       -0.03635987 0.019315345 0.03398936 0.008573467
000060 48 74 9f bb aa 0c cf 3c 7b e0 59 3c dc 75 06 3a
       -0.0048661567 0.025274593 0.013298149 0.0005129257
000070 5b 43 91 3c af a8 e7 bc 5e 27 45 3c 73 76 f0 3b
       0.017732313 -0.028278677 0.012033312 0.007338339
000080 1c ba 1c bd 23 09 e1 3b 8b 6d ec 3b b9 da 00 3c
       -0.038263425 0.0068675443 0.007215207 0.007864648
000090 4d 87 c8 bc 43 c0 04 3b 75 e5 67 bd c5 b7 d6 3b
       -0.024478579 0.0020256198 -0.05661531 0.0065526688
0000a0 67 70 85 3b 00 21 1d bd 46 be 01 bd eb 2a 95 3c
       0.0040722373 -0.03836155 -0.0316756 0.018208941
0000b0 c5 cd 98 3c b4 90 9b 3b ca e3 75 3c df e5 90 bc
       0.018652806 0.0047474746 0.015007922 -0.017687736
0000c0 98 21 bc bc ab 63 2b 3b 68 0d 2b bd 65 81 f4 3c
       -0.022965237 0.0026151936 -0.041760832 0.029846856
0000d0 d5 65 62 bc 8e a1 2e 3b ff 53 ba bb 1d 99 bd 3c
       -0.013818224 0.0026646587 -0.0056862826 0.0231443
0000e0 16 c0 7e bc 13 86 3b 3d c7 3b 14 3d 84 05 14 3d
       -0.015548727 0.04578216 0.03618982 0.036138073
0000f0 ea 8b 89 3c a6 67 ba 3a 81 18 33 bc 0a 5e 8b bc
       0.016790349 0.0014221563 -0.010931135 -0.017012615
000100 58 3a af bc 4e a9 73 bc 7d 45 4a 3b e8 f4 ed bb
       -0.021390125 -0.014871908 0.0030864172 -0.007261861
000110 f0 88 86 3d ff 15 cd bb f9 a9 c3 3c 5c c1 94 bc
       0.065690875 -0.0062587257 0.02388476 -0.018158607
000120 b4 55 e7 3c dc 3a b6 3c 63 c3 31 bd 19 70 77 bd
       0.028239109 0.022244863 -0.043399226 -0.06040964
000130 41 dd 1e bd a9 6e 0e bd 07 2c d6 3c d4 a7 c3 3c
       -0.038785223 -0.034773502 0.02614404 0.023883738
000140 86 61 28 bc 93 0d 0e bd ab fa 01 bd fd 45 c9 3b
       -0.010277158 -0.034680914 -0.031733196 0.0061423765
000150 8c 06 90 3c 4b aa a7 3c 17 3f 9f bc b3 fe 10 3d
       0.017581247 0.020466944 -0.019439263 0.03539915
000160 7e 14 8a bc e4 40 b2 3c d4 1d 5a 3b 4f 81 8c 3c
       -0.016855475 0.021759458 0.003328194 0.017151503
000170 b3 e9 33 bc 67 54 eb bc 16 34 c0 3c 4f 3e 8b 3c
       -0.010981011 -0.02872677 0.023462337 0.016997484
000180 cd 39 b6 3c 5b 0b 79 3c c8 06 10 3d c8 8d 47 bc
       0.022244358 0.015200461 0.035162717 -0.012179799
000190 6e 90 f6 ba b7 e6 13 bc 33 21 ef 3c 44 4b 34 3c
       -0.0018811354 -0.009027175 0.029190635 0.011004273
0001a0 26 09 73 bb d7 be 79 bb d5 63 0a bc 4f 79 86 bc
       -0.003708431 -0.0038108134 -0.008446653 -0.016415266
0001b0 83 0b 2c 3d 7f 3b 00 bd 9e f3 02 3d a6 a6 72 3c
       0.042003166 -0.03130674 0.031970613 0.01481024
0001c0 68 e1 5d 3b a7 5c 19 3c 1c 5e bc b9 b9 0d 1e bd
       0.0033856276 0.009360469 -0.0003592827 -0.038587306
0001d0 ea a2 af ba 88 3f 80 3a 6a 62 27 bc 2e c9 1a bb
       -0.0013399993 0.0009784559 -0.010216335 -0.0023618448
0001e0 ef 45 1d bd 91 c3 e0 bc 84 25 c0 bb 50 4b 2e 3c
       -0.038396772 -0.027437003 -0.005863847 0.010638073
0001f0 23 18 40 3b 6a 64 df 3c d3 25 0a bb a9 26 fb bc
       0.0029311262 0.02726956 -0.0021079674 -0.030658083
000200 b9 4c c0 bb aa f6 20 bc 73 66 02 bc fb 49 17 3c
       -0.005868521 -0.009824434 -0.007958996 0.009233947
000210 59 0a 85 3d f5 3c 0f 3d 13 6d b0 bc 1c 5f 43 3c
       0.06496114 0.034970243 -0.021536386 0.011924531
000220 b2 06 db bb 8a ee 32 bc 6e 94 42 3c 18 2f 6b bc
       -0.0066841478 -0.01092113 0.011876209 -0.01435449
000230 0f 2e c1 3c 36 38 eb ba 74 c4 b0 bc 56 11 12 3d
       0.023581533 -0.0017945829 -0.021578051 0.035661064
000240 a6 9c bc 3c 02 ac c4 3a 3b f5 e7 3b d8 63 5c bc
       0.023023915 0.0015004876 0.0070787943 -0.013451539
000250 79 24 ce 3c bd 93 3d bd 0d 7f 1d bd 14 09 08 bb
       0.025163876 -0.046283472 -0.038451243 -0.0020757364
000260 cc e7 1a bb 1c 37 aa bc 60 76 c0 bb 59 1e 44 3b
       -0.0023636697 -0.020778231 -0.0058734864 0.0029925315
000270 5a e3 8e bc 74 76 3e 3d e3 e9 19 bc 66 0e de bb
       -0.017442394 0.046499684 -0.009394142 -0.006776619
000280 b9 38 57 3d c1 bd a3 3b f7 10 03 3c 51 54 06 bb
       0.05254433 0.0049969857 0.00799965 -0.0020497034
000290 65 e8 6c 3c e5 f8 69 3c d5 e6 74 3d ab 85 5e bc
       0.014459704 0.0142805325 0.05979045 -0.013581674
0002a0 ae 4c 14 bc 71 38 d2 3c 7b 2d e8 3c 3c 52 9d bc
       -0.009051485 0.025661679 0.028342 -0.019204251
0002b0 64 4b ee bc 8a 35 c6 bb 7c 2c 4c 3b 7d 50 16 3c
       -0.029088683 -0.006048863 0.0031154444 0.009174463
0002c0 eb 17 58 3c 56 93 85 3a c9 2b 5a 3d 6b da 21 bd
       0.013189296 0.0010191004 0.053264413 -0.03951494
0002d0 4c d0 a1 3b a6 ec 0d 3c 42 67 b7 3c 3f 33 0f bd
       0.004938161 0.008662378 0.022388104 -0.03496098
0002e0 58 63 19 3c 0b 6f df bc 78 42 d8 bc ce 14 5e bd
       0.009362064 -0.02727463 -0.026398882 -0.05421906
0002f0 07 7e a1 bb 80 51 94 bc 43 d3 79 3c 0b 02 a2 3c
       -0.0049283537 -0.018105268 0.015248123 0.019776365
000300 3d b3 93 3b 61 13 24 3b d7 d1 e1 ba a5 28 f9 3c
       0.004507451 0.0025035965 -0.0017228675 0.030414889
000310 be b8 3d bd fc 86 93 bc e8 38 95 bc d8 2c ec bb
       -0.046318762 -0.018008702 -0.018215612 -0.007207494
000320 41 12 47 bd ff 3c 86 bc 8c 1f ad 3c 67 de 3b 3d
       -0.048601393 -0.016386507 0.021133207 0.045866396
000330 67 ae 0f 3d 7e 22 f7 3c 84 8c 22 bc f6 54 05 bd
       0.035078432 0.030167814 -0.009921197 -0.03255173
000340 b4 0c 09 3c e0 df e3 3c 21 e0 3b 3c 4f 6f 14 bc
       0.008364845 0.027816713 0.011467011 -0.009059741
000350 b7 c7 99 bc 5a da b2 bc 4e 93 64 3c 63 07 d0 bc
       -0.01877199 -0.021832634 0.013951136 -0.025394147
000360 2b b4 de 3b 45 db f7 bc 2e 61 1d 3c 9e 28 04 bb
       0.00679638 -0.030255923 0.009605689 -0.0020165811
000370 51 c0 f5 3c f0 b3 b3 3c a8 19 0a bd 34 81 24 3b
       0.02999893 0.021936387 -0.033715874 0.0025101425
000380 38 c4 07 bd 22 59 d7 bc 44 d6 14 bd 3f 2f d1 3b
       -0.033146113 -0.026287619 -0.036337152 0.006383806
000390 c3 32 8a bb e1 72 34 3c 82 c0 36 bd ae 9d 2f bc
       -0.004217477 0.011013717 -0.044617184 -0.010718746
0003a0 19 fc 8c 3c a4 f1 47 3c df fa a2 3c d8 25 de bb
       0.017210053 0.012203608 0.019895015 -0.0067794137
0003b0 ca 51 9a bd 17 82 a4 3c dc b7 7c bd 1f 25 cd bb
       -0.07535131 0.020081563 -0.06169878 -0.0062605287
0003c0 fc e9 4a 3c 65 6b e9 ba 7f dd 97 39 7e e2 33 3d
       0.012384888 -0.0017808495 0.00028965992 0.04391717
0003d0 5c ab bb bb fa f2 58 bb 94 51 8a bb 0e d5 29 3c
       -0.0057272147 -0.003310381 -0.0042211507 0.010365738
0003e0 36 b7 18 3d f2 3a c5 3c 3c 54 fe 3b cf 7b 10 bb
       0.0372841 0.024075959 0.0077615064 -0.0022046452
0003f0 79 3d 97 3b d0 65 7d bc c2 b1 69 bc b6 20 00 3d
       0.0046154824 -0.0154661685 -0.014263572 0.031281196

action_model._discrete_distribution.branches.0.bias f4 [2]
000000 87 42 11 bb 72 42 11 3b
       -0.0022164898 0.0022164849

action_model._discrete_distribution.branches.1.weight f4 [3, 128]
000000 a2 e2 e8 3b d0 9e 83 3d 71 2c 59 bc 68 b2 4f bc
       0.007107095 0.064267755 -0.013255225 -0.012676813
000010 73 4c 89 3c 40 54 b2 3c 55 73 c7 3c 08 a7 e7 bc
       0.016760087 0.02176869 0.024346987 -0.028277889
000020 16 15 28 bc f0 67 0a 3d 50 03 df bc 7a 74 77 bd
       -0.0102589335 0.03379053 -0.02722326 -0.060413815
000030 c6 87 82 3c 0a e5 f0 3c d7 8f be bc af 8c c9 3c
       0.015933882 0.02940609 -0.023261948 0.024603216
000040 df 2c 7b bd b5 26 d2 bc ec e8 88 3c ae ed 91 3b
       -0.06132209 -0.025653223 0.016712628 0.0044533825
000050 a4 3b 52 bd 3d 3e 31 3c f7 62 af 3c 98 bf 43 ba
       -0.05132641 0.010818061 0.021409495 -0.00074672094
000060 5f 5d 03 3d 62 96 2a 3c 26 ca 1d 3d a3 f3 5f 3d
       0.032071467 0.010411831 0.038522862 0.05467571
000070 e4 54 3d bb d3 c4 80 3c 46 df a6 bc 1d 17 bd bc
       -0.002888971 0.015718853 -0.020370137 -0.02308231
000080 52 09 3d 3c fb 37 c3 3c 35 09 2c bb a5 a7 4f bc
       0.011537867 0.023830405 -0.0026250605 -0.012674247
000090 6e a3 9c 3c 30 ba a5 3c 61 f4 ab bc 1a b5 42 bd
       0.019120898 0.020230383 -0.020990552 -0.047535993
0000a0 6d f5 e4 3c cf d4 d8 3a 4f 42 30 3c b6 2e d3 bc
       0.02794906 0.0016542914 0.010757997 -0.02577911
0000b0 77 ab d0 bb 9c 70 48 bd db 52 1a 3c c7 73 56 bb
       -0.0063680965 -0.048935518 0.009419168 -0.0032722817
0000c0 01 37 29 bd b5 ed a1 3b 21 2e 78 bc d4 64 2d 3b
       -0.04131222 0.004941667 -0.015147717 0.0026457803
0000d0 dc 0d 1b bc 3f eb 4b 3d 17 eb 6a bd 72 7f 14 bb
       -0.009463754 0.049784895 -0.057353105 -0.002265897
0000e0 5d a4 a9 bc 71 20 be bc 21 d5 29 bc 61 46 d2 3b
       -0.020708257 -0.023208829 -0.010365755 0.006417081
0000f0 03 3b 0d bd 0d bd 0f bb 8d 22 00 3c 67 2e c6 3b
       -0.034480106 -0.0021932751 0.007820738 0.006048012
000100 cf f5 33 bc 85 40 11 3c 4c b7 1e bd ca 0d 43 bd
       -0.010983898 0.00886548 -0.038749024 -0.047620572
000110 10 93 e4 3a ab 69 10 bd d0 01 18 bd d1 37 6f 3c
       0.0017438848 -0.035257023 -0.037111104 0.01460071
000120 0c bd e2 bc 78 9e 10 bc cf d5 3f 3d e8 a3 87 bd
       -0.027678035 -0.008826844 0.046834763 -0.066230595
000130 da a4 d8 bc f6 d4 0e bc 1f 6c 84 bb 90 9d 14 3b
       -0.026445795 -0.008717766 -0.0040412094 0.0022676922
000140 f4 8a 2c 3c 49 de 16 3d 87 15 8d bc 08 51 bb ba
       0.010531176 0.03683308 -0.01722218 -0.0014291117
000150 13 e4 2c bc 64 53 90 bc 2d 5a 12 bd 7c 34 30 bc
       -0.010552424 -0.017617889 -0.03573053 -0.010754701
000160 f2 79 a4 bc 16 9c 89 bc 25 b6 d2 3b 3e d9 30 bc
       -0.02007768 -0.01679806 0.0064304047 -0.010793982
000170 3d 31 02 3c 55 84 31 bd 0a 04 0f 3d 86 8e 94 bc
       0.00794631 -0.043339092 0.03491596 -0.018134367
000180 8c 22 9c bc d0 a3 f1 3c 0c 50 62 3c cb a7 7d 3d
       -0.019059442 0.029497057 0.01381303 0.061927598
000190 cf 70 0f bd 7d e1 40 3d f2 27 9b 3c 05 3b 0f 3c
       -0.035019692 0.047090042 0.018939946 0.008742099
0001a0 5c 4f ab bd f1 91 52 bc c5 3f 37 3d fd 9a c0 3c
       -0.08364746 -0.012852178 0.04473855 0.023511404
0001b0 ee fa ff 3b 1b 49 90 bc a8 1c 18 bc c1 21 2e 3d
       0.0078118956 -0.017612984 -0.009284176 0.04251266
0001c0 74 9f 29 3c 6f de c7 3c 5e 50 a6 ba 76 f0 76 3c
       0.010352958 0.024398057 -0.0012688746 0.015071979
0001d0 01 46 f1 bc ab 69 05 3b 75 a5 08 bd 12 cf 16 bb
       -0.029452326 0.0020357172 -0.033360917 -0.0023011607
0001e0 b9 36 9e bc 65 ad 38 3c 49 c8 c3 3c f4 26 6a 3c
       -0.019313203 0.011271809 0.023899214 0.014291514
0001f0 4d 15 29 bb b1 33 c0 bc a6 11 4e 3c 37 9e 09 bd
       -0.002580005 -0.023462148 0.01257745 -0.03359815
000200 c6 af 04 3a 01 a6 f6 bc 89 03 30 bb 71 44 27 3c
       0.00050615927 -0.030108454 -0.0026857576 0.010209189
000210 86 73 77 bd 3c f9 bb bc 81 7a b9 b9 f8 0b a6 3c
       -0.060412906 -0.022945993 -0.00035377222 0.020269379
000220 b4 3b 3e bc f5 c9 c8 bc ff 67 08 bc 8b 11 35 3d
       -0.011610914 -0.024510363 -0.008325576 0.044206183
000230 7c 13 09 bc b0 ba 1e bd df a2 0f 3d f0 7c 2f bc
       -0.008366462 -0.038752258 0.035067435 -0.01071094
000240 e0 bf 20 3d 33 7c f1 3a 88 ad 2f bd 41 a5 c1 bc
       0.039245486 0.0018423855 -0.0428901 -0.02363837
000250 aa 84 3a 3c e9 09 bf bc 76 4e 42 bc 8e 34 c9 3b
       0.011384169 -0.023320155 -0.011859527 0.006140298
000260 26 86 4a bb 33 0e eb bc 8d 27 69 3c 01 c1 d5 bc
       -0.0030902713 -0.028693294 0.014230621 -0.026093008
000270 14 9b d9 3c 16 1c 2e 3d 44 ed 1c ba 43 dd 97 3b
       0.026563205 0.042507254 -0.0005986283 0.0046345307
000280 ca ce a9 bc b1 9f 9f bb b1 15 70 3b 39 96 8c 3c
       -0.020728488 -0.0048713316 0.0036634023 0.017161475
000290 48 34 57 bc b0 80 24 bd f8 e0 3e bd 31 83 51 3c
       -0.013135023 -0.04016179 -0.046601266 0.012787626
0002a0 e5 49 5c 3c a5 af 7e 3c ed b3 f0 bc 94 40 73 3d
       0.013445352 0.015544807 -0.02938267 0.05938776
0002b0 07 20 b8 3c 0e ee 5a 3c ff 4b e2 bc 0a c5 9b bc
       0.02247621 0.013362421 -0.027624128 -0.019014854
0002c0 12 c3 d4 3c e3 21 06 bc 61 c1 31 3c 5f 77 11 bd
       0.025971923 -0.00818679 0.010849328 -0.03551423
0002d0 38 f1 d7 bc af 09 38 bd a2 7e 34 bc fa d6 ef bc
       -0.02636014 -0.04493111 -0.01101652 -0.029277314
0002e0 ad 96 8d bd 3c 3b 54 bb 56 35 3e bc 4d e8 85 bb
       -0.06913505 -0.003238394 -0.011609396 -0.0040865303
0002f0 62 6d fa 3b e9 2b e9 3c 67 aa 1e bd 6d 1d e0 3c
       0.007642434 0.02846332 -0.038736727 0.027357781
000300 36 2c a5 bc 03 38 57 bd 99 19 e6 bc ad 2f a3 3d
       -0.020162683 -0.05254365 -0.028088378 0.07968078
000310 b6 d5 29 bd 1a 10 74 3d 3c c0 92 bc cb 3d 0e bd
       -0.041463576 0.05958567 -0.01791393 -0.0347269
000320 09 fb 70 3d 70 19 a5 b9 03 e8 15 bd ac 84 6c 3d
       0.058833156 -0.00031490205 -0.036598217 0.057743713
000330 c4 c7 bd bc aa 1e 16 3d 60 24 f2 3c b8 ad 4b 3d
       -0.023166545 0.036650337 0.02955836 0.049726218
000340 28 fc ca bc 10 66 54 bd 2a 78 05 3c 82 1a 86 3c
       -0.02477844 -0.051855147 0.008146325 0.016370062
000350 29 cd bb bc 5d 1b 43 bb 8d 96 b5 bb fb d0 f4 3b
       -0.022924976 -0.0029770948 -0.0055416287 0.0074712015
000360 40 a9 27 3c ca 10 c6 b9 c8 fc 3c 3b a7 3c bc bc
       0.010233223 -0.00037778012 0.0028837193 -0.02297814
000370 a7 9a c1 bc 7f 5c 01 3d b7 0b c8 3c cb be 8f 3b
       -0.023633314 0.03158235 0.024419649 0.004386758
000380 6d 10 01 3b d7 51 0b bc 06 8f 36 bd b2 3d 4e bd
       0.0019693628 -0.008503399 -0.04456999 -0.050351806
000390 bf 5e b2 ba 01 91 f5 bc 65 d7 0c 3c d2 97 56 3b
       -0.0013608559 -0.02997637 0.008596276 0.00327443
0003a0 76 df f7 3c 33 a7 ec 3c f5 27 f7 3a 29 9b 46 bb
       0.030257922 0.02888832 0.0018856513 -0.0030304885
0003b0 7a 5e a4 3b 98 aa 8f bc 74 5f 37 3c 29 05 80 bd
       0.0050161453 -0.0175374 0.011192191 -0.06250984
0003c0 aa 44 09 3c 22 e8 6d bd f0 60 7d bc 34 d5 c5 ba
       0.008378187 -0.058082707 -0.015465006 -0.0015093447
0003d0 99 88 44 3c 2e ae aa bc b8 6c 24 3d a3 4e cf 3b
       0.011995458 -0.020835008 0.040142745 0.006326513
0003e0 11 87 73 bc 62 58 25 3d 43 5e ed bc ab ed 2a bd
       -0.014863745 0.04036749 -0.028975612 -0.041730564
0003f0 0d b4 91 bc cc 8e 37 bd cf e9 4d bd c5 d0 34 3c
       -0.01778605 -0.044813916 -0.050271805 0.011036103

action_model._discrete_distribution.branches.1.bias f4 [3]
000000 fa 0d 98 bb 98 e2 55 3c 39 14 08 bc
       -0.004640338 0.013054512 -0.008305603

action_model._discrete_distribution.branches.2.weight f4 [1, 128]
000000 e0 be f2 3a 78 f5 39 3c b1 1d 4c bc 85 1b 46 3c
       0.001852002 0.011350028 -0.012458251 0.012091522
000010 0a 84 09 bc 13 ae 5f 3c ed 88 92 bc 19 07 86 b9
       -0.008393297 0.013652342 -0.017887557 -0.0002556376
000020 58 c2 50 bc 3a 5f 83 3b 88 00 bf 3b 11 55 3f 3c
       -0.012741648 0.0040091546 0.0058289208 0.011677996
000030 24 59 9e bc 6b 8b 97 bb 90 37 63 3a 72 35 95 bb
       -0.019329615 -0.004624774 0.0008667642 -0.0045534903
000040 11 b8 c1 bc 80 34 01 3c 07 a2 05 bb db 04 ea 39
       -0.02364734 0.007886052 -0.0020390765 0.00044635576
000050 af 03 34 bc d8 7d d0 3b 3f 69 00 bb 67 ab 47 bc
       -0.010987206 0.006362658 -0.0019593982 -0.012186862
000060 b5 e3 14 bc 41 50 1a bc c7 1b 9f 3a 8b 60 7f 3b
       -0.009087493 -0.009418548 0.0012139016 0.0038967456
000070 07 38 0b 3b 6a 0f 42 bb a3 67 cc 3b 3e 64 a1 ba
       0.0021243112 -0.0029611238 0.0062379404 -0.00123132
000080 04 b5 35 3b 02 fc f3 39 ef ba 73 3c 0b 0a 22 3c
       0.0027726302 0.00046536332 0.014876111 0.00989009
000090 e7 37 05 39 f3 a1 cb bb 55 a9 39 3c 7f 4c e0 3b
       0.00012704694 -0.006214374 0.011331876 0.0068450565
0000a0 fd e7 0c 3b c3 3d fe ba 5f 82 d8 3b 6a e1 ab ba
       0.002150058 -0.0019397069 0.0066073383 -0.0013113443
0000b0 f3 e9 b3 ba 68 cf b2 bc 0d 01 6f bb a7 47 02 bb
       -0.0013726339 -0.021827415 -0.0036469132 -0.0019879134
0000c0 7b db 57 bc 5b f5 0f bc 5b 5a ee bb 9f d2 ac 3c
       -0.013174887 -0.008786525 -0.007273955 0.021096526
0000d0 c2 b2 5e 3c b5 0a 08 bc b0 ce 61 bc 1b 02 96 ba
       0.013592424 -0.008303334 -0.013782188 -0.0011444719
0000e0 2a 3f 67 bc fb a1 f2 3b 52 9f 30 bc af b9 86 bc
       -0.014114181 0.0074045635 -0.010780172 -0.016445963
0000f0 83 71 81 3b 6f 92 ac 3c 2a f1 c1 bb da 57 aa 3c
       0.003950299 0.021065919 -0.0059186416 0.020793844
000100 83 ff e1 bb 67 43 5d 3b 4f 92 1f bc af 4a 35 b9
       -0.0068969144 0.0033762099 -0.0097394725 -0.00017289327
000110 6c f4 a3 3a f4 b1 15 3c 8b 11 c7 bb 83 03 df bb
       0.0012508756 0.009136666 -0.0060750893 -0.0068058386
000120 67 81 a0 39 53 37 6e bb 82 8b e9 bb e8 47 32 bc
       0.0003061399 -0.0036348894 -0.0071272263 -0.010881402
000130 77 3f 26 bb db ee 0e bc fd 3d f3 b9 43 66 54 3c
       -0.0025367418 -0.00872394 -0.00046394757 0.012963834
000140 63 16 74 3c d3 8f 7c 3b 85 a1 28 bc c7 48 85 bb
       0.014897916 0.0038537874 -0.0102924155 -0.0040675136
000150 5a 26 f5 3b 98 d6 aa ba 83 00 e1 3b 60 92 87 bc
       0.0074813785 -0.0013033925 0.006866516 -0.01654929
000160 9b a9 9b 3c 0f 6f 0e 3b 73 bb 26 bc 77 ca eb bb
       0.019001773 0.0021733677 -0.010176527 -0.0071957665
000170 ed e0 81 3b 67 05 f5 ba 5c 6b 42 3c f0 e4 ce 3a
       0.003963581 -0.0018693627 0.011866417 0.0015784781
000180 f6 b1 b7 3b 37 a2 bc 3b bd ee b8 3a cb 36 2c bb
       0.0056059314 0.005756642 0.0014109235 -0.0026277776
000190 71 b9 36 3c 33 f9 3a b9 49 c5 49 b9 43 cf 3e bb
       0.011152611 -0.00017831176 -0.00019242348 -0.0029115237
0001a0 c4 c1 a4 ba 70 c8 f8 3a 72 f0 05 3b 90 df 42 3c
       -0.0012569954 0.0018980633 0.0020437506 0.011894122
0001b0 38 ea 74 bc 72 e2 19 3c bd 3a 7d 3a 6f ff 50 bb
       -0.01494842 0.009392368 0.0009659937 -0.0031890532
0001c0 95 1e 63 bc 1b 66 56 bb 9b a1 08 3c f2 3b 67 3b
       -0.013862272 -0.0032714668 0.008339311 0.0035283533
0001d0 c7 20 af ba f7 4b 45 bb 7b ae b6 bc 34 02 9c 3b
       -0.0013361209 -0.0030105093 -0.022299996 0.004761005
0001e0 84 c3 9a 3c 9e 40 c6 ba fd 9b 8c 3a 2a e2 b7 3a
       0.018892057 -0.0015125459 0.001072764 0.0014029194
0001f0 9a 15 92 3b ed b6 4e bc bc d8 38 bc f2 dd ec bb
       0.0044581415 -0.012616855 -0.011282142 -0.0072286064
