Assets/ML-Agents/Examples/3DBall/3DBall_test.onnx (onnx, 74243 bytes, 9 tensors)

network_body.observation_encoder.processors.0.normalizer.running_mean f4 [8]
00000000: 77db 8aba 3c10 543a b37a 36be 0a18 4340
00000010: 479d 53be 0086 003b 109e 75be d709 0abc
-0.001059397 0.00080895773 -0.17820244 3.0483422 -0.20665465 0.001961112 -0.23986077 -0.008425198

network_body._body_endoder.seq_layers.0.weight f4 [128, 8]
00000000: 5d4d b23e 1f63 00bf cec4 293f 3daf 26bf
00000010: 11c7 83be c40c 38be 639e 09bd f19e 04bf
00000020: d732 d1bd 514c db3e 016e 3dbe 7ddf dbbe
00000030: 8d72 a93e f8c0 a03e 829d af3d feb0 133e
00000040: 7f96 95bd aa1e 06bf e661 34bd 81d0 083f
00000050: 8818 f3be 4873 b03e f0e5 ad3e 1a73 c53e
00000060: a710 dcbe 98ac 07bf adeb c7be 11fc 82be
00000070: f9fb aabe a64d eabd 6902 0f3e 5e45 c83e
00000080: 042d 043c 55bd 2d3e dd27 50be b9cf d33c
00000090: 0aaa 1dbe 46fc fdbe 8f32 27bd 29eb 2e3e
000000a0: 3981 c53d d346 a83e 0062 6ebe a8a1 02bd
000000b0: 4ede 17bf 02f4 003f 2420 ecbd d98e 273f
000000c0: 04d1 8ebe 74a2 07bf 04b0 9fbd 386e 353f
000000d0: 7242 2a3e 73e9 1cbe 6dbd 6ebe b42a 983e
000000e0: 8906 373f 9500 ce3d 6ddf 8dbd 4b37 a8be
000000f0: 1d4f 0dbf 8d29 32bf e141 0d3e 9231 9dbe
00000100: 830f 0fbd 408e 81be 40c8 923e 0e05 3dbf
00000110: 79aa 183e acc4 0dbe c048 0f3f bcde 60be
00000120: 286a 6bbe a004 253f 84d1 8abe 1b6f 663e
00000130: 14bd dc3e 89f1 a33e 5ee3 e33d 3ef8 943e
00000140: 54d5 523e 0ded 3c3d 5f66 b13e 27b4 d43e
00000150: 24c4 e8be 8baa 37bf 9cf5 383f 5424 69bf
00000160: 8030 84bc b3ae ec3e 8002 003e c0ee 8b3e
00000170: 9893 46bd 38e1 af3e abc4 bf3e ec76 173f
00000180: 77d0 153c c3b3 21bf 1a06 893a 6844 f33e
00000190: b19a b4be 8628 1bbd 9be8 dc3e d4bb 18be
000001a0: d4be 8ebe 3119 3c3e 8afd 003f 3e8d 7cbe
000001b0: f17d cebe dccb db3e 1f20 7b3e 02fc 91be
000001c0: a9f5 32bf cd66 afbe 8cc4 963e bb49 e03e
000001d0: 7ce4 00be 665d febe be8e fc3d 58a3 883e
000001e0: 4923 b6bc f920 88bf 94be b53d a1e2 0e3e
000001f0: ff02 b53d a184 473f 7d3e cbbe 3453 1dbe
00000200: 38b6 8c3e fc12 97be 5072 83be 4b0a 7abe
00000210: bb4e 2a3e 718c 8c3e 2878 9cbe 77b4 5cbd
00000220: d2ab 1d3e a397 2abe 6f87 b7be 3ca0 5abe
00000230: 4cbd e1bc 7779 0ebf b3ae f33d e997 053f
00000240: 0f30 8abe c6f7 303e 5086 093e 07d6 ddbe
00000250: dc14 bf3e 6b6e 063f 350b babc b074 293e
00000260: 4d4e 49be e937 b1be 38b6 de3d c8d2 c73c
00000270: bb70 e73c f67e 45bf 046a 2bbe e0ad bbbe
00000280: fceb 24bf 61e5 3dbf 52a6 1a3f 47a5 443f
00000290: cecc 1ebf ec65 e03e 7860 b03e c672 a9bc
000002a0: d244 80be 5855 5c3e c52c 19be f4b6 fabe
000002b0: e3d4 03be 3e26 c73e 87af a43e 5a5b ecbd
000002c0: 79d0 efbd 7b7c 163f f75f b5be 60cb 5f3e
000002d0: 72b4 203e d0f9 18bf faa5 9fbe f806 483d
000002e0: 6610 8f3e 52f0 9c3e 4c57 13bf dbda 1a3e
000002f0: 8839 513e 1be1 93bd 3661 523e c59e 08bf
00000300: 4a5f 2bbd 4e37 953e cbcc a03e 982e 46be
00000310: 50ef c53d 155e ad3e 50b6 60bc 0345 c73d
00000320: 6a36 02ba 7e70 38be 9448 383a 2533 d7be
00000330: 6fe1 bebe 3b73 be3e 95ff 5f3e e7c0 9b3e
00000340: d8b3 793e dacf 4ebf 03de dfbe f544 7d3e
00000350: f84b c3be ee83 f53d c9c6 84be 997b 153f
00000360: d85a 03bf 8308 bf3e 83b2 2e3e c55a f53d
00000370: b51f 953e bbd3 293f 97a8 a83c ae26 2cbe
00000380: 9f5a 0ebf 3e50 61bf a333 aa3e 70b5 a33e
00000390: 1ffb e4be d92c 823d 3fc2 be3c 8ecf bbbd
000003a0: 3af3 efbe 88fb 653e 40fe e4be 2a04 d7be
000003b0: 6621 8a3e 5094 c03e 6ae3 bebe 59c4 1f3e
000003c0: b356 24be 1b4b 663e fca1 0d3e 3e2a dc3d
000003d0: c146 97be 407e ba3d 82cf d5be 214b a13d
000003e0: 9940 dbbe ccbf 2a3f c0d8 13be 3f06 d03d
000003f0: 8c07 5c3f da6b 2abf 6f03 1c3f dac3 c1bd
0.34824648 -0.50151247 0.66315925 -0.6511114 -0.25737813 -0.1797362 -0.033598315 -0.51805025
-0.10214775 0.42831662 -0.18498994 -0.42943946 0.33095208 0.31397223 0.08574964 0.14422986
-0.073040955 -0.5239054 -0.044038676 0.5344315 -0.47479653 0.34462953 0.3396449 0.38564378
-0.42981455 -0.5299773 -0.39046994 -0.25582936 -0.33395365 -0.114405915 0.13965763 0.39115423
0.008067373 0.16966756 -0.20327707 0.025855886 -0.15396896 -0.49606532 -0.0408197 0.17081894
0.09643788 0.32866535 -0.23279572 -0.03189245 -0.59323585 0.50372326 -0.11529568 0.65452343
-0.2789384 -0.5298226 -0.07797244 0.70871305 0.1662691 -0.15323429 -0.23314448 0.2972008
0.71494347 0.10058705 -0.06927381 -0.32854685 -0.5519884 -0.6959465 0.13794662 -0.30701882
-0.034926903 -0.2530384 0.28668404 -0.7383584 0.1490878 -0.13844556 0.5597038 -0.21959966
-0.22989714 0.6446018 -0.27112973 0.22503321 0.43113005 0.32020214 0.11127351 0.29095644
0.2058919 0.046124507 0.34648415 0.41543695 -0.45462143 -0.717446 0.7224977 -0.9107106
-0.016136408 0.46227035 0.12500954 0.2733059 -0.0484806 0.34351516 0.37454733 0.59165835
0.00914394 -0.6316492 0.0010454089 0.47513127 -0.3527427 -0.037880443 0.43146214 -0.149154
-0.27879965 0.18368985 0.5038687 -0.24663255 -0.4033046 0.4292897 0.24523972 -0.2851258
-0.699061 -0.34258118 0.29446828 0.43806252 -0.1258716 -0.49680632 0.123319134 0.2668712
-0.022233622 -1.0635062 0.088742405 0.1395364 0.08838462 0.7793675 -0.39696112 -0.1536377
0.27482772 -0.2950667 -0.2567315 -0.24417989 0.16631596 0.27450898 -0.30560422 -0.053883042
0.15397575 -0.16659407 -0.35845515 -0.21350187 -0.027556084 -0.5565409 0.118985556 0.5218492
-0.2698979 0.17282018 0.13430142 -0.43327352 0.37320602 0.52512234 -0.022710422 0.16548419
-0.19658776 -0.3461297 0.10874599 0.0243925 0.028251996 -0.7714685 -0.1673966 -0.36656094
-0.64422584 -0.7417813 0.60410035 0.76814693 -0.6203126 0.4382776 0.344486 -0.020684611
-0.25052506 0.21516931 -0.14958484 -0.48967707 -0.12874179 0.38896364 0.32165167 -0.115408614
-0.11709685 0.5878369 -0.35424778 0.21854925 0.15693834 -0.59756184 -0.31181318 0.04883477
0.279422 0.306521 -0.5755508 0.15122549 0.20432103 -0.0722067 0.20544896 -0.53367263
-0.04183892 0.29143757 0.31406245 -0.19353712 0.09664786 0.3386084 -0.013715342 0.0972996
-0.0004967215 -0.18011662 0.0007029858 -0.42031208 -0.37281367 0.3719729 0.2187484 0.3042061
0.24385011 -0.80785906 -0.4372407 0.24733336 -0.38143897 0.11988054 -0.2593291 0.5839172
-0.5131049 0.3731118 0.17060284 0.119802035 0.29125753 0.663387 0.020588202 -0.1681163
-0.55607027 -0.88013065 0.3324252 0.31974363 -0.4472284 0.0635621 0.023285983 -0.09170447
-0.46865255 0.22459233 -0.44725227 -0.41995364 0.26978606 0.37613153 -0.37282878 0.15602244
-0.16048698 0.22489588 0.13831323 0.107502446 -0.29546168 0.091061115 -0.41759878 0.07875658
-0.42822722 0.6669891 -0.14438152 0.10157441 0.85949016 -0.6657082 0.6094274 -0.09461184

network_body._body_endoder.seq_layers.0.bias f4 [128]
00000000: bf63 d8bd f7ab 2bbd b4b0 b1bc cc5e 2bbc
00000010: a743 453c 7a9b 9abd 52dd 7cbd 2eb4 2439
00000020: 1f30 61bc a5b6 2c3d 49ae 983b c0ba 4c3c
00000030: 1341 013c ef98 d63b 524d ff3b 0514 c0bd
00000040: de8e f0bb 0309 dbbc 4407 5ebd df10 c0bd
00000050: 8393 553d 5209 be3c 9708 61bc 37d8 00bd
00000060: 886c 32bd 3826 cabc 5628 45bd c9b9 073d
00000070: c720 983c 41ca 3cbd 6e1f 11bd 6bb5 cbbc
00000080: f25c 473c dc20 39bc 2539 17bb 7b06 d9bd
00000090: 3b86 b9ba 0fe1 f8bc 847f f9bc 88a3 64bd
000000a0: 235b b7bd cb54 25bd 6f94 983c 0c60 31bc
000000b0: fa0f 48bd 0742 11bc 6dc9 cf3c e6db f53a
000000c0: 3de0 00bc 41ea cdbd 0330 19bd f324 b1bc
000000d0: f613 22bd 22ef 73bd f399 6b3c 9104 9e3c
000000e0: e50e da3b e5d3 c5bd 11c5 263d 3767 ddbb
000000f0: 1cb5 5bbc b885 31bd 39b2 f63c 913b 7fbd
00000100: ae09 6bbd ef5a c1bb c85a b13b 0e30 9d3b
00000110: 5e4e 25bd 2ab5 d03c 9003 94bd 0525 83bd
00000120: 50fe 6e3c 77a2 d9bd 2b2a cebc 11e1 8f39
00000130: 8989 3abd beb6 2bbd 2691 d83c 8df3 8bbc
00000140: f018 bbbc acf2 63bd 7709 a53c d76e 3f3d
00000150: 93e6 6d3c 4677 f23c 84bd 60bd 1d3a b8bd
00000160: c5a3 72bc 196b 0c3c b30f c23c 4d55 793d
00000170: fd2f 0cbc 6361 04bb 48d7 2f3b ea3f adbc
00000180: b154 2abc 87c2 2abb 9375 28bd 7131 aa3c
00000190: 27c4 90bc fcde bbbd 7f82 88bc 7d3d 1bbd
000001a0: a6c5 3abd 5ed9 2cbd 682a 2ebc 0136 26bc
000001b0: 2d8b 9bbd 35b9 05bc 22bb c4bc 388c c4bd
000001c0: ddac cfb8 77ce b5bc 4685 ba3b 8377 19bd
000001d0: 2f14 bfbc f019 28bd 1482 69bd e76c 94bd
000001e0: cf58 69bd e96d fabc b794 b13c 764d b5bd
000001f0: bdb9 393c c0ed 15bb a0e3 80bc 3a06 263d
-0.105659 -0.041912045 -0.021690704 -0.010459613 0.012040055 -0.07549186 -0.061734505 0.00015707381
-0.013744383 0.04216637 0.0046594483 0.012495697 0.00788905 0.006548993 0.0077911997 -0.093788184
-0.00734125 -0.026737696 -0.054206148 -0.09378218 0.05214263 0.023197804 -0.013734958 -0.0314562
-0.043560535 -0.024676427 -0.04813417 0.033136163 0.018570317 -0.04609132 -0.035430364 -0.02486678
0.012168156 -0.011299338 -0.0023074832 -0.10596939 -0.0014154384 -0.030380754 -0.030456312 -0.055820018
-0.0895293 -0.040364068 0.018625466 -0.010826122 -0.04884336 -0.00886584 0.025364602 0.0018757551
-0.007865963 -0.10054446 -0.037399303 -0.021624064 -0.039569817 -0.059554227 0.014379966 0.019289287
0.0066546076 -0.09659556 0.04071528 -0.006756689 -0.013409879 -0.043340415 0.03011428 -0.062312666
-0.05738228 -0.0059007327 0.0054124333 0.0047969883 -0.04035794 0.02547701 -0.07227242 -0.06403545
0.014587 -0.10626691 -0.025166592 0.00027442773 -0.04554132 -0.041922323 0.0264364 -0.017083907
-0.02283904 -0.05565135 0.020146115 0.046736564 0.014520305 0.02959789 -0.054868236 -0.08995459
-0.0148095535 0.008570456 0.023689127 0.060872365 -0.008556363 -0.0020199649 0.0026831198 -0.02114864
-0.010396169 -0.0026055889 -0.041127753 0.020775529 -0.017671658 -0.0917339 -0.016663788 -0.037900437
-0.04559865 -0.042199485 -0.010630228 -0.0101447115 -0.07594905 -0.008161833 -0.024015013 -0.09597057
-9.9027275e-05 -0.022193177 0.005692157 -0.03746749 -0.023325054 -0.04104036 -0.057008818 -0.07247334
-0.05696946 -0.030569987 0.021677358 -0.08852665 0.011335787 -0.0022877306 -0.01573354 0.040533282

network_body._body_endoder.seq_layers.2.weight f4 [128, 128]
00000000: 97b4 0ebc db50 8abd ac37 c4bd 5424 d33d
00000010: 3af1 86be 7248 f93d e357 afbc b128 673c
00000020: 14f4 803d 0916 623e 5a03 dabd bff6 2e3e
00000030: 22a0 b2bd 229c 23be a074 cfbc c785 2dbe
00000040: 5c54 71bd 05db d23c b5ff 93bd 4907 263d
00000050: 5228 af3d 47ac 8c3d 31d3 233e 535f 9abc
00000060: df22 513d a4b5 47bc 41e3 99bd ec0f 35be
00000070: 2985 b03d 1bcd 59bd bd3b debd 46bd 513d
00000080: d756 1e3e 7a81 dfbc 0aad 1cbd 2879 81bb
00000090: 681e 9d3c d67e 7a3d 8868 b4bd d4ca 4f3d
000000a0: 6d00 0c3d 8e2a 893c aa96 2ebd 63a9 9ebd
000000b0: 9344 dbbc cc37 2f3d da40 7fbd 5658 bcbd
000000c0: 354d e7bd 9d30 ce3c 6a45 4fbd ef17 53bd
000000d0: dffa 993d cec6 4c3c d129 0cbc 5af1 4cbe
000000e0: eea7 c53d cf13 c23d ddc6 91bd 4e6c edbd
000000f0: 23c7 fe3d 62ec a7bd fc96 073d ec92 4c3b
00000100: 1936 ce3c 381d 393d a4bb ccbd b62d a83d
00000110: eb5b 473d be8a 553c 42a8 273d c65a 033d
00000120: b264 e4bd 1046 3abd 14bc ed3d 8489 f3bc
00000130: a290 233b 62f4 c73d ef59 693d 30db b53d
00000140: 254b b53d 138c 6abd 5774 303d 511b 583d
00000150: 52a8 35bb 123d 1dbe e598 b53d 3abd c4bd
00000160: ae2c 18bc 02e4 0b3c 0073 cebd 3dc5 bd3d
00000170: 338c 333c ae54 2ebd af56 663d f6ae 23bd
00000180: 9e3c 94bb b706 983c 24d4 843c 43b8 313d
00000190: d2fa 053c 7040 19be 45f6 8e3c 93cd 973c
000001a0: 3060 853d e45f 973c bc65 7b3d af6f 33bd
000001b0: 3acd 49bd ff1e 87bc 0a9b ffbd aa95 e9bd
000001c0: aeb0 373b 98e7 1c3e 94fd 51bd cbfb 013e
000001d0: 77f5 213e 2576 9bbb 039d b63c d396 d23c
000001e0: b20e 01be 8c03 3c3d b545 093e 9e27 483d
000001f0: d282 1eb9 478b afbc 8799 693d 156e 12bc
00000200: 1e54 32be 0971 273c 9710 ff3d 4028 9cbc
00000210: fbb6 ec3b 9e98 62bd d7cb ca3d 943c d63d
00000220: 149d 903c d346 1cbe 885c b6bd e42e 1a3d
00000230: c839 54bc 3d9e fd3c 48ae 11bd 584a 17be
00000240: 527f 1ebd 2f2d e1bd bbb8 7f3d 7418 b4bd
00000250: 590d 553c 85b3 e8bd 077e 20be eddd d93d
00000260: b6f1 ddbc c386 99bc f045 f73d 2c51 b5bd
00000270: 5f9a 2e3e 976b dc3d 016b c73d a9a5 dbbc
00000280: 7675 8dbc 5a5c 203e 756b 88bd 8628 9cbd
00000290: 843a 96bd 9ad7 81bc f154 fc3d 8cdf 083d
000002a0: 24b9 8abd 3568 573d dd46 d2bd 5397 a3bd
000002b0: 0413 803d cb5c 2b3d 84d4 4b3d 0aa1 85bd
000002c0: 03b1 9f3d 2d6c 9fbd a50b babb 80cb 9b3d
000002d0: c229 103d 58eb 19bd ffa0 853d e3f7 f5bd
000002e0: d6af 133e 8cae 0d3d 3529 a6bb 026f f7bc
000002f0: 6ca7 bdbd 42be 443c bdd0 d7bb dfef bdbc
00000300: 8771 703d f633 0a3d ad78 ddbd 2b88 0dbe
00000310: b738 55bd 7ba0 d3bc 06d0 34bd cc81 09be
00000320: 66b8 a8bc e740 813d aa8c fabd d747 f6bd
00000330: 8aac 513d c7be debd b1e3 b63c 2c2a a23d
00000340: aca6 07be 1db7 b9bd b67a 293c f1cd 1a3e
00000350: 81d7 97bd 5567 cabd 45de dcbd a8cd 7e3d
00000360: f3d0 333d ceba ed3d 1289 16bc 29d9 ea3d
00000370: 514a 27bd e842 8dbe f92d a03a 2ddf ecbd
00000380: b6f3 20be be15 e73d 2e02 f1bd c393 533d
00000390: 04f3 993b 24ee fc3d 8d4d 843b 5196 083e
000003a0: 35a9 413c 639c e9bd 76b2 3e3d 6a0c 003d
000003b0: 1d66 e13d f0d7 02be 41d9 b6bd bdba 283d
000003c0: a2ad f53d 44a6 bb3d a01f 803d c85a 363d
000003d0: 942b e03d 46d3 52be ea18 afbd d0ef 463d
000003e0: 983e b8bd 0dda 4ebe 9639 8abe 0939 d2bc
000003f0: f70d 68bd 4308 34bd 0b03 313d e12e 273d
-0.008710048 -0.06753703 -0.09580931 0.103096634 -0.26355916 0.12172021 -0.021404212 0.014108823
0.06296554 0.22078718 -0.106451705 0.17086314 -0.08721949 -0.15977529 -0.025324166 -0.16945563
-0.058918342 0.025739202 -0.072265066 0.04053429 0.08552612 0.06868797 0.15998532 -0.018844282
0.051058646 -0.012189303 -0.07514048 -0.17681855 0.08619148 -0.05317412 -0.10851238 0.051205896
0.15462814 -0.027283419 -0.03825096 -0.0039512105 0.019179538 0.061156116 -0.08809 0.05073054
0.034180094 0.016743924 -0.042624153 -0.07747152 -0.026766097 0.04277782 -0.062317707 -0.09196536
-0.11294023 0.025169665 -0.050603308 -0.051536497 0.07518553 0.012498571 -0.008554892 -0.20013943
0.09651171 0.094764344 -0.07118008 -0.11592923 0.12440326 -0.08199383 0.033102974 0.0031215502
0.02517228 0.04519388 -0.09996727 0.08211844 0.048671644 0.013033567 0.040931948 0.03206899
-0.111520186 -0.045476973 0.11608139 -0.029728658 0.0024958034 0.09763409 0.056970533 0.08879697
0.08852223 -0.05726249 0.0430797 0.052760426 -0.0027718735 -0.15355328 0.08867053 -0.096064046
-0.009287996 0.008538248 -0.10080528 0.09266136 0.010958719 -0.042561226 0.05623501 -0.039961778
-0.0045238277 0.01855789 0.016214438 0.043388616 0.008177476 -0.14965987 0.017451415 0.018530643
0.06512487 0.018478341 0.06137632 -0.04380768 -0.049267985 -0.016494272 -0.12480743 -0.11405499
0.0028028893 0.15322721 -0.05126722 0.12693708 0.15816294 -0.0047443085 0.022291666 0.025706684
-0.12603262 0.04590182 0.13405497 0.048865907 -0.00015116789 -0.021428717 0.05703118 -0.008937378
-0.174149 0.010219821 0.12454336 -0.019062161 0.0072239614 -0.05532133 0.099021606 0.10460773
0.017653026 -0.15261392 -0.08904368 0.037642375 -0.012953229 0.030959243 -0.0355666 -0.14774454
-0.03869564 -0.10994946 0.062432032 -0.087937266 0.013003671 -0.11362366 -0.15673076 0.10638032
-0.027092796 -0.018741017 0.120738864 -0.08853373 0.17051075 0.10762709 0.09737206 -0.026812391
-0.017267924 0.1566023 -0.06661121 -0.07624917 -0.0733538 -0.015849877 0.12320889 0.033416316
-0.06773594 0.052589614 -0.10267422 -0.07987847 0.06253627 0.04183654 0.049763218 -0.065248564
0.07797434 -0.07784305 -0.0056776577 0.07607174 0.035196073 -0.037577957 0.06524848 -0.12010171
0.14422545 0.03459029 -0.00507083 -0.0302043 -0.09260449 0.012008252 -0.006586163 -0.023185669
0.058702018 0.03374096 -0.10814033 -0.13821475 -0.05205604 -0.025833359 -0.0441437 -0.1342842
-0.02059574 0.06311207 -0.12233861 -0.12025421 0.051189937 -0.10876232 0.022325369 0.079182
-0.13247174 -0.09068129 0.010344198 0.15117623 -0.07414151 -0.0988299 -0.10784582 0.062207848
0.04390044 0.11607896 -0.009187954 0.11467201 -0.040842358 -0.27590108 0.0012220732 -0.11566005
-0.15717968 0.11283444 -0.11767994 0.05165459 0.004698159 0.12350109 0.004037565 0.13338591
0.011820127 -0.114067815 0.046556912 0.03126184 0.11005805 -0.12777686 -0.08928157 0.041193713
0.119960085 0.09162572 0.06256032 0.04452017 0.10945812 -0.20588407 -0.08549674 0.048568547
-0.08996314 -0.20200367 -0.2699706 -0.025661962 -0.056653943 -0.04395319 0.043215793 0.04081619

network_body._body_endoder.seq_layers.2.bias f4 [128]
00000000: 0428 98bc 72d8 a7ba 4197 bebc 7123 903c
00000010: 1798 29bd 84e9 f53b 10cd 75bb a935 5cbb
00000020: 9ce6 573d 1cb8 9abb 5360 d1bb 5d4e d33a
00000030: 0777 6f3d 4dfc 61bc c4cd 8bbb 9608 163d
00000040: 7193 a0bc bec5 8bbb a52b b43b aacd 443c
00000050: 8b05 333d f65a 24bc ab0f 11bd e3e0 08bc
00000060: a17d 163c f6dd 093d 0223 12bc e779 fe3c
00000070: 09da 003d c48c 91bc 9101 78bb 8683 833c
00000080: cbbf f73c 155e eb3c a493 7c3b 9a43 473c
00000090: 1df7 c93c d007 413b f5c3 92bb 79de 2a3c
000000a0: a3fd 483d 5889 42bc f907 acbc f7e1 193d
000000b0: 5d54 6e3d c289 5e3d d1f7 aa3b 00ca bcbc
000000c0: 57c0 06bc 3e84 9fbc 8145 953c 7d19 22bd
000000d0: 3ef8 1f3d 229a 933c e264 7abc 6949 96ba
000000e0: 542f 753c a371 893c 2379 863c 4507 f5bc
000000f0: ca98 85bb a501 f43b b118 c1bc 0e9c c93c
00000100: 1cbf c73c edb3 b63c a3d7 f33c 72d2 c0bb
00000110: c1b3 353c 7220 c7bc 6ed9 a73d 03a0 793b
00000120: b4a6 97bc 618a 623d e900 d73c 92fd 14bd
00000130: c64a fdbc 9998 aebb e442 27bd f452 88bc
00000140: 1db3 6fbc 0a9f 42bc 0143 77bc a53a f43b
00000150: 4574 67bb ff5a bbbc 9f76 8f3c 2bc3 f53c
00000160: f21e dabc d58f 4cbd 7cd3 72bc fd7a 05bd
00000170: 709d 37bd cef6 e3bc 83e7 14bc 8092 283d
00000180: 1c27 9abb 5b95 173c d437 ad3d 8340 6b3b
00000190: 708c 33bc e7cc 0fbd 2f3a c7bc 68fc 403d
000001a0: 36eb 063d 0e84 11bc 2271 aabc c9d7 d83c
000001b0: 4d1c 30bc 4dab 36bd f03c 043d e833 a63c
000001c0: 0bfe 383d 0c8d 2f3c 9457 3fbc 5dba e1bc
000001d0: 06b4 fd3c a346 7639 61d3 7e3c 90df 933c
000001e0: 1da3 86bb 6fcd 99bc 2727 7bbc d2c4 43bc
000001f0: 8fac dcbc f45a a6bb dd55 d43c d383 c7bb
-0.018573768 -0.0012805595 -0.023265483 0.017595025 -0.04140481 0.007504644 -0.003750626 -0.003360132
0.05271016 -0.0047216546 -0.0063896566 0.0016121377 0.058463123 -0.013793063 -0.0042664725 0.036629282
-0.019601556 -0.004265516 0.005498367 0.012011925 0.043706458 -0.010031452 -0.035415333 -0.008354398
0.009185226 0.033658944 -0.008919479 0.031063987 0.031457935 -0.017767318 -0.003784273 0.016053926
0.030242821 0.028731385 0.003854015 0.012162114 0.024653966 0.002945412 -0.0044789263 0.010429018
0.04907001 -0.011873566 -0.020999895 0.037569012 0.058185924 0.054330595 0.0052175303 -0.02304554
-0.008224568 -0.019472238 0.018221619 -0.03957509 0.0390551 0.018017832 -0.015282841 -0.001146597
0.014964897 0.016777819 0.016415184 -0.029910693 -0.0040770518 0.007446485 -0.023571344 0.024610545
0.02438312 0.022302592 0.02976591 -0.005884462 0.01109022 -0.024307463 0.08195768 0.003808976
-0.018512107 0.05530775 0.026245551 -0.036374636 -0.030919444 -0.0053282497 -0.040835276 -0.016641118
-0.014630106 -0.011878738 -0.015091659 0.00745328 -0.0035317105 -0.022870539 0.017512618 0.03000029
-0.026626084 -0.049941856 -0.01482093 -0.032587994 -0.04482788 -0.027827647 -0.0090884 0.04115534
-0.004704369 0.009251918 0.08457914 0.0035896606 -0.010958776 -0.03510752 -0.024319736 0.047115713
0.03293916 -0.008881582 -0.020805899 0.026470082 -0.010748935 -0.04459696 0.032284677 0.020288423
0.04516415 0.010714781 -0.011678595 -0.027554685 0.03096963 0.00023486702 0.015553326 0.018050939
-0.0041088 -0.018774716 -0.015329159 -0.011948781 -0.026937751 -0.0050767604 0.025919849 -0.0060887127

action_model._continuous_distribution.log_sigma f4 [1, 2]
00000000: fb42 40be 2a83 27be
-0.18775551 -0.16358629

action_model._continuous_distribution.mu.weight f4 [2, 128]
00000000: 544a 92ba 14c4 973b d05e 59b9 2b84 94bd
00000010: 4f0c c1ba 69d8 a1bd 76ce 2a3d 9d69 8b3c
00000020: 36d7 a23d 9340 5a3c a5d5 08bd 1a1a 493c
00000030: ce97 4ebc 161f 733c bbf0 28bd fae5 693d
00000040: 957b d3bc c14b 6a3c ac08 243d b31e df3c
00000050: 7919 a0bd 3e21 0abd d4ad 50bc 4df7 f5bc
00000060: b00c 2cbd d937 443d 11ff cebc 8877 713d
00000070: 70ba 46bd b015 00bc d56b 233c 4041 513d
00000080: dc35 763d b456 873d 4c5c 0b3d 689b 443d
00000090: 11ec 8ebd ce4c fb3b 2f71 92bd fbbb f7bc
000000a0: 1cbf a8bd 2425 2abc 578c 15bc 5c81 abbd
000000b0: eba6 5d3d 018c c53d 418c 953c 1fb3 8cbc
000000c0: 184e 2a3c 2f9a e5bb 57a2 013d dfc4 54bb
000000d0: 6f0b d7bd a5b6 8abd b05e 96bb 1329 043d
000000e0: b482 b5bb 7d3f 34bd a988 e5bb 302b 5a3b
000000f0: 021b 353c a825 acbc 82b8 10bd fe41 80bd
00000100: bd20 273c 4701 9b3c f31b afbd ea64 043b
00000110: d959 953c 2960 43bc c766 c23d c56f f93c
00000120: 995f 193c d5e0 fabd c734 85bd 7acf 17bc
00000130: b801 d03b 8781 8ebb 1c71 34bc d9fa 43bc
00000140: 5c68 02bd 67ba 64bc 68c7 a0bc 17de abbc
00000150: 6ed8 6c3b e30b e4bb 7c20 a6bc 76ae 193d
00000160: a2ec 7dbb 1a3d 0ebc 07cc 89bc f290 08bb
00000170: f148 b0bb 239d 58bc 4051 833c a3be b03d
00000180: 9d1c 96bc fd4f 58bd 34f9 ed3d 7099 963a
00000190: 8fbb 94bc 7ca4 603c 39a7 48ba 660f e0bc
000001a0: b717 0c3d 8bba 233c f10d 633b 2619 9c3d
000001b0: 3dea 6fbd 8f14 8ebb eb1e 1c3c 48a2 4d3d
000001c0: cc47 55bd e084 8fbd 35af e8bc def3 aa3b
000001d0: b9ed 6c3d 95e3 ae3c 2a8e 323d 4304 bfbb
000001e0: 77bc 833c 2d70 333a b513 44bc 3001 92bc
000001f0: 2a4b b3bc 7ff8 21bb c81a 3bbd 566b 18bd
00000200: 3e3d 3ebc 7071 773d 8732 01bc e916 2ebc
00000210: a434 c3b8 adb6 2f3d 6e2c 84bc 1c36 be3c
00000220: ca50 05bd 87ae 423d 8206 063d 24ab ee3c
00000230: 2203 88bd edf6 a03c 3f76 85bc c9f1 8fbd
00000240: abc9 903c cd18 783d 96dd c13c 2a2d fdbc
00000250: 4495 9e3d a03f bd3c 2bcf ae3c 7e76 773c
00000260: 702e 42bd f832 1abd be21 18bc 5ee8 64bc
00000270: 8f54 943d c8c8 24bb 7444 03bc 6005 133c
00000280: a91d 4c3d b926 cfbc cb2e 8bbc 36bd 69bb
00000290: 6dce 80bc 107a 44bb 52eb c43c ee69 5abd
000002a0: 0629 10bd 8a41 10bc b8a7 92bb 42bf 6bbd
000002b0: 4a0d 473d 88ad ac3c 0eaf 113d 941b e63b
000002c0: a6eb 1b3d a3af 963b 11d6 9bbc 9a3e 0a3c
000002d0: d6f2 093d 36e3 ccbb ef4d 183a dfbc 223d
000002e0: e8b7 8f3d d554 793d 71c8 9e3d aa36 e63b
000002f0: d202 563d 8f71 47bd 155e a6ba acc3 6ebd
00000300: 4f27 30bd b929 5b3d a95d dcbc a75f a9ba
00000310: 2007 f0bb 7841 803a d95f 3c3d 3e2d dfbb
00000320: 9189 4d3c b441 ae3b 12a6 31bd fcba 5d3c
00000330: 6dcb 5bbb 62b1 84bc 6539 383a b6b9 d339
00000340: f9e6 bd3c 2a32 8e3c b714 2cbc 070e 05bd
00000350: 60be 4e3b 3e01 753c e166 b73d a999 963d
00000360: 4f62 a83c 617e 1b3c 6996 a23b e354 9cbb
00000370: 7c62 90bb e73a dfbb 8ab2 2cbc 3606 88ba
00000380: 6f75 1bbd 1363 a03c 3212 8fbd 8a66 07bd
00000390: 139e 3abc b465 d03b 7713 973c b81d 9abd
000003a0: aa91 f9bc d4e0 433b 1b60 073d c7f2 a6bc
000003b0: a81e 073d 1aa3 873c 4bd3 cfbd 9226 cc3c
000003c0: b7f1 82bd 2970 8c3b 8542 d0ba 4026 773a
000003d0: 4567 8a3b c0b0 e33a 0f90 9fbc 0059 a3bd
000003e0: 79c4 a1bb a193 51bb 7ba7 ab3c eecc 1dbd
000003f0: e96e dd3c a9be c4bc 9b1f 883d f417 1ebc
-0.0011161068 0.0046315286 -0.00020730053 -0.072517715 -0.00147284 -0.07902605 0.041700803 0.017018134
0.079512045 0.01332106 -0.033406872 0.0122742895 -0.012609435 0.014838954 -0.041245203 0.05710409
-0.025815764 0.014300288 0.040047333 0.027236318 -0.078173585 -0.03372311 -0.012736756 -0.030025149
-0.042004287 0.047904823 -0.02526811 0.058951885 -0.048517644 -0.007817671 0.00997444 0.051087618
0.060109958 0.06608334 0.034023568 0.04799977 -0.0697862 0.007669068 -0.07150494 -0.030241003
-0.08239576 -0.010384832 -0.009127698 -0.08374283 0.054114264 0.09645844 0.018255355 -0.017175255
0.010394596 -0.0070069055 0.03164896 -0.0032465977 -0.10500228 -0.06773118 -0.0045889243 0.032265734
-0.0055392627 -0.04400586 -0.0070048166 0.0033289902 0.011053802 -0.02101405 -0.03533221 -0.06262587
0.0102006765 0.018921508 -0.08550253 0.002020175 0.01823132 -0.011924782 0.094922595 0.030448804
0.009361171 -0.122499146 -0.06504207 -0.009265775 0.006347861 -0.004348937 -0.0110132955 -0.011961662
-0.031837806 -0.013960457 -0.019626334 -0.020979924 0.0036139744 -0.006959425 -0.020279162 0.037519895
-0.003874578 -0.00868156 -0.01682092 -0.0020838347 -0.005379789 -0.013221058 0.016029954 0.08630111
-0.01832419 -0.052810658 0.11619797 0.001148982 -0.018155841 0.013711091 -0.00076543126 -0.027351093
0.034202304 0.009993206 0.003464576 0.07621984 -0.058572996 -0.004335947 0.009528856 0.05020359
-0.052070424 -0.07007766 -0.028403858 0.0052170595 0.057843897 0.021348754 0.04359261 -0.0058293655
0.016081078 0.00068450236 -0.011967589 -0.017822832 -0.021886427 -0.0024714766 -0.045679837 -0.03721174
-0.011611281 0.060410917 -0.007885582 -0.010625579 -9.30813e-05 0.042898823 -0.016134467 0.02321916
-0.03254775 0.047529723 0.03272105 0.02913434 -0.066412225 0.019648993 -0.016291736 -0.07028539
0.017674288 0.060570527 0.02366523 -0.030905325 0.07743314 0.023101628 0.02133902 0.015103934
-0.047407568 -0.037646264 -0.0092853885 -0.013971416 0.07242691 -0.002514409 -0.008011926 0.0089734495
0.049832974 -0.02528702 -0.016990086 -0.0035665757 -0.015723431 -0.0029979981 0.02403799 -0.05332368
-0.035195373 -0.008804688 -0.00447556 -0.057555445 0.048596658 0.02107884 0.035567336 0.0070223305
0.03806653 0.0045985742 -0.019022973 0.008437777 0.033678852 -0.0062526716 0.0005809953 0.039730903
0.07017499 0.060871918 0.07753075 0.0070255594 0.052248783 -0.048692282 -0.0012692834 -0.058292076
-0.043006238 0.053506587 -0.02690013 -0.0012922183 -0.007325068 0.0009785136 0.045989845 -0.006810813
0.012545005 0.005317891 -0.043371268 0.01353335 -0.0033538 -0.016197864 0.00070275954 0.00040383422
0.023181425 0.017357904 -0.010502986 -0.03248408 0.0031546578 0.014953909 0.089551695 0.07353527
0.02055469 0.00949058 0.004961778 -0.0047708615 -0.0044062715 -0.0068124416 -0.010540614 -0.0010377828
-0.03795379 0.019578492 -0.06985892 -0.033056773 -0.011390227 0.00635978 0.018441899 -0.075252
-0.030464966 0.0029888647 0.033050638 -0.020379437 0.03298822 0.016557265 -0.10147723 0.024920736
-0.0639376 0.0042858315 -0.0015888965 0.0009428002 0.0042237365 0.0017371401 -0.019477872 -0.0797596
-0.0049367514 -0.0031978863 0.020953884 -0.038525514 0.027030425 -0.024016695 0.06646653 -0.009649266

action_model._continuous_distribution.mu.bias f4 [2]
00000000: 7e4b 0b3c a3cd dcbb
0.008501885 -0.006738381

53 f4 [8]
00000000: 47b5 393d 87ca 393d 0166 0f3f b9f7 2c3e
00000010: 233a 0b3f dcce dd3e 73c4 113f c285 da3e
0.045338895 0.04535916 0.5601502 0.16891374 0.54385585 0.43321884 0.5694038 0.42680174
