Assets/Scene/FinalTest/ZooheimTest/Models/Model1/LionBehavior.onnx (onnx, 156857 bytes, 14 tensors)

discrete_act_size_vector f4 [1, 3]
00000000: 0000 0040 0000 4040 0000 803f
2.0 3.0 1.0

network_body.observation_encoder.processors.0.normalizer.running_mean f4 [150]
00000000: a5f5 813e 8e0d 113d 0000 0000 5b79 843d
00000010: 0000 0000 0000 0000 d4b7 403c 1b2c 743d
00000020: 411f 133f b18a 323f aa8d 823e 7474 013d
00000030: 0000 0000 e818 893d 0000 0000 0000 0000
00000040: 32e2 4d3c 4752 653d 2af2 133f b2dd 323f
00000050: 883c 823e 9cc1 123d 0000 0000 dac2 5b3d
00000060: 0000 0000 0000 0000 d839 443c ed7f 6e3d
00000070: 6d00 163f 1d98 343f bbd5 843e 74ea fd3c
00000080: 0000 0000 b56b 7d3d 0000 0000 0000 0000
00000090: 24ac 603c e30f 483d 35cb 153f f9d8 343f
000000a0: 6443 833e 8660 143d 0000 0000 2f98 3f3d
000000b0: 0000 0000 0000 0000 2556 583c 9812 633d
000000c0: ef8b 173f b235 373f d216 893e 9f82 093d
000000d0: 0000 0000 a853 5e3d 0000 0000 0000 0000
000000e0: 6a25 713c 4acf 273d 61b5 163f 7bb5 373f
000000f0: 59de 823e cd26 1e3d 0000 0000 106a 2b3d
00000100: 0000 0000 0000 0000 c7cb 6a3c 329c 4c3d
00000110: 9882 193f a2d3 3a3f 5d93 893e d227 0c3d
00000120: 0000 0000 596a 2b3d 0000 0000 0000 0000
00000130: b3f9 803c b30c e83c 0375 1c3f 1d4b 3e3f
00000140: 1c9f 7d3e 8818 2e3d 0000 0000 1049 fd3c
00000150: 0000 0000 0000 0000 a991 7f3c 6f7d 1d3d
00000160: b9f5 1f3f 15b0 423f 837a 793e f059 153d
00000170: 0000 0000 465f 013d 0000 0000 0000 0000
00000180: 55b9 a13c 6b81 dc3c f843 243f 1bfb 483f
00000190: 23bb 583e 2c4c 363d 0000 0000 ec8e bb3c
000001a0: 0000 0000 0000 0000 e1fd a53c 4da7 013d
000001b0: 9245 2b3f b67e 4f3f 6839 4a3e 2639 283d
000001c0: 0000 0000 b544 d43c 0000 0000 0000 0000
000001d0: a42f a23c bb8d da3c bb65 303f ba45 543f
000001e0: c7d4 293e 664d 3c3d 0000 0000 cbde 9f3c
000001f0: 0000 0000 0000 0000 6de4 983c ca75 eb3c
00000200: f6a3 383f b17c 5b3f f968 3d3e 7e0f 2a3d
00000210: 0000 0000 5878 be3c 0000 0000 0000 0000
00000220: 34df 893c ce60 ca3c d36e 353f c642 593f
00000230: e8af 1c3e 704d 3c3d 0000 0000 f4d1 903c
00000240: 0000 0000 0000 0000 6e93 7e3c 2c56 cb3c
00000250: 1933 3e3f 9237 603f
0.25382724 0.035413317 0.0 0.06468459 0.0 0.0 0.011762578 0.059612375
0.57469565 0.69742876 0.25498706 0.0316052 0.0 0.066942036 0.0 0.0
0.012566136 0.05598667 0.5779139 0.6986953 0.25436807 0.03582917 0.0 0.05365262
0.0 0.0 0.011976682 0.05822747 0.585944 0.70544606 0.25944313 0.030995585
0.0 0.061870296 0.0 0.0 0.0137129165 0.048843276 0.58513194 0.70643574
0.25637352 0.036224864 0.0 0.046775993 0.0 0.0 0.013204132 0.055437654
0.59197897 0.7156631 0.26775223 0.033571836 0.0 0.054279 0.0 0.0
0.014718393 0.04096917 0.5887051 0.7176129 0.25560263 0.038611222 0.0 0.041849196
0.0 0.0 0.014330811 0.049953647 0.59964895 0.72979176 0.26870242 0.034217663
0.0 0.041849468 0.0 0.0 0.015744066 0.028326368 0.61116046 0.74333364
0.24767727 0.042503864 0.0 0.030918628 0.0 0.0 0.015598693 0.0384497
0.6248432 0.7604993 0.24363141 0.036462724 0.0 0.031585 0.0 0.0
0.019741694 0.02691718 0.6416621 0.78508157 0.21165137 0.044506237 0.0 0.022895299
0.0 0.0 0.02026266 0.03165369 0.6690303 0.8105272 0.19748461 0.041070126
0.0 0.025911668 0.0 0.0 0.019798107 0.02667891 0.6890523 0.82918894
0.16585074 0.04597225 0.0 0.019515416 0.0 0.0 0.01866361 0.02874269
0.72125185 0.8573714 0.18497075 0.04151868 0.0 0.023250744 0.0 0.0
0.016830064 0.024704363 0.7087223 0.84867513 0.15301478 0.045972288 0.0 0.017678238
0.0 0.0 0.01553808 0.024821363 0.7429672 0.87584794

network_body.observation_encoder.processors.1.normalizer.running_mean f4 [6]
00000000: e895 a843 3395 7b41 5eaa a843 359b 7b41
00000010: b192 a843 7aab 7b41
337.17114 15.723926 337.331 15.725392 337.14603 15.729364

network_body._body_endoder.seq_layers.0.weight f4 [128, 156]
00000000: 2c99 2cbd ce62 a93d 4679 62bd f6de 32bb
00000010: 8163 f7bc 99eb 1a3d ad88 323c 8853 d13d
00000020: a60c 053e f7e6 37bd 6420 0d3d 46ec 923d
00000030: 6603 2dbc fe12 6d3d f109 91bd 1fdf d5bd
00000040: 1dfd 1abc 77ab a13d f403 85bc 7f25 b23c
00000050: c4c9 013d 95a0 f13c 530b 0ebe db61 a73d
00000060: 3e25 ccbc 767a 983c 2c98 0d3d 3122 5dbd
00000070: 7d22 9d3b f235 edbd eedf a1bd 7f2a bf3d
00000080: d159 6f3d 1486 b2bc efbd 1b3d 3207 b83d
00000090: cd3e c0bd 60a3 3a3c f276 be3c 929c 5f3d
000000a0: 986d 8b3d 8b55 b93d 8744 a5bd 07c9 6b3d
000000b0: 1543 9f3d ba8a 1abe 3676 143e 86c7 8fba
000000c0: a2c1 133b 0f6d a6bc a1d2 17bd 5134 1e3e
000000d0: a359 333e c458 3b3c 9856 c53d 734b c43c
000000e0: 54ca 273d 70af 213d 2c7f 14bd 51cf 8abd
000000f0: bc84 fc3c 4280 35bd 58f1 363d ca9a e83d
00000100: f747 503d d250 08bd f34b b0bc f234 ecbd
00000110: 3e2a 263d 34e3 23bd 7ff0 ecbc d168 a3bd
00000120: 9577 183d c264 84be 2bf1 a8bc 1de1 53bd
00000130: 0437 bdbc e2b8 b8bc c0d8 08be 1443 d03c
00000140: 5186 e73d 80ec 0ebe 0a82 40bd 156c f83a
00000150: abf1 c03d 5a55 673c 8827 743c 0fb5 81bd
00000160: c1a5 003e 54c3 35be 135e ed3c be44 ff3d
00000170: 6a51 8a3d 56f3 cdbc 647a 6abd 5fb8 d73d
00000180: 0cf4 2d3d eedc d0bd 6d39 91bd 309a 7d3d
00000190: fb89 523d 5e3c fcbd 7c20 febd 4198 e13d
000001a0: ca8d 15be f512 b13c 7962 0ebe ba8b 423d
000001b0: a82f 0c3d 36f2 dd3d 7e17 943d 9d77 073d
000001c0: fc00 893d fe88 50bd 90d7 3a3c b8fd 593d
000001d0: 7699 8a3d e001 1fbd e87a 72bd c598 e93c
000001e0: 49fc 73bd 1b9d 513b 3327 de3d 07e0 263b
000001f0: 214a 4fbd 7298 f3bc 7246 c9bb 477e 3fbd
00000200: 6de5 843d 6d7e 0dbe 9087 9dbd 2dc3 5dbd
00000210: 6776 fbbc 6514 8d3b fdd7 a5ba 7f18 42bd
00000220: dfeb f73d fd50 18bd 5ff7 603c dfe3 db3a
00000230: 658b 1b3b 13f4 3a3e 2ad1 af3c 69e2 8d3e
00000240: af8b 043d bbdf 173e 3b8a 603d f708 0b3e
00000250: 9c09 03bc 2d4c 863d 92cd d43d a48c 503d
00000260: ecc1 8b3d bc99 703d fb10 28bd 462c 213d
00000270: faf8 fc3d 663c c93d bb0b 9bbd 4d60 ba3d
00000280: 9faa bcbb 32c7 083d 690e dd3c de30 22be
00000290: e1dc 09be 9ecb 27be d951 de3d 9d18 3fbd
000002a0: 5491 f43b 6459 83bd 6229 f73d eae0 efbc
000002b0: 317b 0ebe 32ea 073d 1ad3 debd e831 96bc
000002c0: 17fa 1e3e 60c3 9b3d e548 17be 58b2 a6bb
000002d0: 8461 d2bc 48f2 753d fa65 13be a172 713e
000002e0: 2a63 c9bc e63a 4f3d 189a bbbc 271c a8bd
000002f0: 087e 173d df40 1dbb cf68 3f3d 361f 463d
00000300: a018 51bd 20ad a43d 6832 0dbe 66eb 02bd
00000310: fd02 6d3e 00a2 103e 3b17 bc3d 35f7 55be
00000320: c744 adbc 7427 0abd ffe4 52bd 0573 023e
00000330: 5ce9 dfba 859b 543d 07da dc3d 884c cb3c
00000340: f4a1 873b b80f bebd 7e48 fbbd bf6b 9c3b
00000350: 2a4e fbbd 5403 323d 4d0f 08bd b382 aabc
00000360: c3d5 56bd b859 9c3c 2c43 de3d af71 37bd
00000370: 7a42 7c3d 7a76 793d 0259 1c3e f338 8f3c
00000380: afb3 acbd 0eba 8cbd fcd8 e93d ea62 47be
00000390: 5d2d b03d e0a4 c7bd 983e a73d c1b8 353d
000003a0: 3b46 25bd db83 babc fce7 553d 4750 ca3d
000003b0: 5614 a6bc 373e 9d3d fa77 b23d c3ce 8bbd
000003c0: 2c77 533d 4155 e13d 597b 153c 9d44 9c3d
000003d0: c92b 5fbc 98c0 f73d a55d 643b 4f05 17be
000003e0: ef56 cc3d dbba efbd ed9e a7bd 4950 19be
000003f0: 1366 c1bd d3ec 3e3c ef85 873c 91af 043c
-0.042138264 0.082707986 -0.055291437 -0.002729354 -0.030198814 0.03782234 0.010896844 0.102210104
0.12993106 -0.044898 0.03445472 0.07173972 -0.010559892 0.05787944 -0.07081974 -0.104429476
-0.009459761 0.078940324 -0.016237237 0.021746395 0.03168656 0.029495517 -0.13871507 0.08172961
-0.024920102 0.018613081 0.03456895 -0.053987686 0.004795371 -0.11582555 -0.07904039 0.09334277
0.058435265 -0.021792449 0.03802293 0.089857474 -0.09386978 0.011391491 0.023250077 0.054592676
0.06808013 0.09049519 -0.08069711 0.05756476 0.07776467 -0.15091982 0.14498219 -0.0010969497
0.0022545834 -0.020315675 -0.037066106 0.15449645 0.17514662 0.011434738 0.09635657 0.023961758
0.04096444 0.03947395 -0.036254093 -0.06777824 0.030825011 -0.04431177 0.044663757 0.11357649
0.05084988 -0.0332802 -0.02152059 -0.11533536 0.04056763 -0.0400116 -0.028923271 -0.079789765
0.037223417 -0.25858122 -0.02062281 -0.051728357 -0.023097523 -0.022549096 -0.13363934 0.02542261
0.11304916 -0.13957405 -0.046999015 0.0018953109 0.094210945 0.0141194705 0.014902003 -0.06333362
0.1256323 -0.17750293 0.028975522 0.124642834 0.0675381 -0.025140446 -0.057245627 0.10533213
0.04246907 -0.10198389 -0.07091031 0.061914623 0.05140112 -0.123162016 -0.1240854 0.11015368
-0.1460487 0.021615485 -0.13904752 0.047496535 0.034225136 0.10837214 0.07231043 0.033073056
0.06689641 -0.050911896 0.011403933 0.05322048 0.067675516 -0.038820148 -0.059199244 0.028515229
-0.05956677 0.0031984511 0.108473204 0.002546312 -0.050607804 -0.029735778 -0.006142431 -0.046751287
0.06489072 -0.13817759 -0.07691872 -0.054141212 -0.030696107 0.0043054097 -0.001265287 -0.047386643
0.12105536 -0.03718661 0.013730853 0.0016776285 0.0023734209 0.1825717 0.021462042 0.277118
0.032359775 0.1483144 0.054819327 0.13577639 -0.0079978965 0.06557498 0.10390772 0.050915375
0.06824097 0.058740363 -0.04103182 0.039348863 0.12352176 0.09825973 -0.07570597 0.09100399
-0.0057576443 0.033393092 0.02698441 -0.15838954 -0.13463165 -0.16386268 0.10855455 -0.046654332
0.0074636135 -0.06413534 0.1206844 -0.029282052 -0.13914181 0.03318233 -0.10880108 -0.018334344
0.15525089 0.07605624 -0.14773901 -0.005087178 -0.025681265 0.06004551 -0.1439437 0.23578884
-0.024583418 0.05059328 -0.022900626 -0.08208495 0.036985427 -0.0023994965 0.046730813 0.04836961
-0.051048875 0.080408335 -0.1378876 -0.031962775 0.23145671 0.14124298 0.09184118 -0.20895083
-0.02115096 -0.03372903 -0.05148792 0.12739189 -0.0017083096 0.051906127 0.10783773 0.024816766
0.0041391794 -0.09280342 -0.12269686 0.0047735865 -0.12270768 0.043460205 -0.033217717 -0.020814275
-0.052449953 0.01908575 0.10852656 -0.04478615 0.061586834 0.060904004 0.15268329 0.01748321
-0.084327094 -0.068714246 0.114183396 -0.19471326 0.08602402 -0.09748244 0.08166236 0.04436565
-0.04035018 -0.022767952 0.05222319 0.09878593 -0.020273369 0.07677882 0.0871429 -0.06826546
0.051627323 0.11002589 0.009123647 0.076302744 -0.013621279 0.12097281 0.0034845856 -0.14748119
0.09977519 -0.11705562 -0.081846096 -0.14972033 -0.09443297 0.011653143 0.016543357 0.008098499

network_body._body_endoder.seq_layers.0.bias f4 [128]
00000000: 6bf7 24bd 1b3a 503d 29b3 f43c 66ce bbbb
00000010: 9fed 4abd 7981 1ebd e3b7 f2bc 732f 893c
00000020: 058f 09bd 6dce 983c 1900 393c 7d77 5f3c
00000030: 3043 9a3b 36f5 9b3c 43c0 123d e91b d73c
00000040: 8074 18bc 396f 573b 29de cd3b e653 733c
00000050: 69fd 0ebd 559a 40bc 4651 2d3d 653f 493d
00000060: 93a4 dfbb d080 473b 5577 17bd 648e 193c
00000070: 488a 533d d8b2 473b 388e 963a 8589 d13b
00000080: 2090 09bd 3017 4abd 597c 623a ff38 e4bc
00000090: 6656 b7bc 018e 653c f961 a13a 2d6f 91bc
000000a0: 99b4 34bc 791c bc38 92dc 353c 19b7 b2bc
000000b0: 8c1b 82bc 644c 3f3d e666 1abb 487f a9bb
000000c0: a66f cc3c 0bb0 b83c 9a54 2dbc 76ec 12bb
000000d0: 91de 193d 8b35 cf3b 237e 0a3d bf89 003c
000000e0: d98c c2bb 178d b43c eafb 443c 77df cb3c
000000f0: c913 513c d385 ff3c 1c00 53bb 3fc0 af3c
00000100: a261 53bb e0f6 923c 9542 7f3c f9de 0cbc
00000110: 652c 863c 2f43 d2bc 3ab2 b93a a690 b2bc
00000120: 88d4 ff3c 7d20 b13c c827 cd3c 8677 273c
00000130: 39c8 8fbc e4c8 043c 2b3c 843d 3bd9 d13c
00000140: 1362 3a3d 44ad e5bc fe2e b03c 47f8 d53c
00000150: 3709 873c f690 aebc ff58 073d 7688 a03c
00000160: f81f 7b3c b19d 333b b0ae 54bd 3cab 193d
00000170: 785f 233d b3ea 9dbc c556 613c ac6d 763d
00000180: 7b55 ff3b bf88 903b 7948 19bd a56a 653d
00000190: 627d b93b d8a8 4cbc 4c42 2b3c 1382 103d
000001a0: 7723 71bd 760f 1dbb 9484 9cbc d14d 0b3d
000001b0: 33b7 50bb acc0 4bbc c666 1abd 19da 783c
000001c0: 9736 bf3a ce68 2ebb afdf 6b3c ccbb ecbc
000001d0: 10f9 733d 7497 02bc 95f6 463c 68da 94bb
000001e0: 23ff 9ebc 9683 aebb 4c5d 1abb d560 163c
000001f0: 8c60 113d 685a 783d da7a 50bc 7dd5 b138
-0.04027502 0.050836664 0.029870586 -0.0057313917 -0.04954302 -0.038697693 -0.0296287 0.016746258
-0.03358366 0.018653119 0.011291527 0.013639328 0.0047077164 0.019037824 0.035827886 0.026258426
-0.0093051195 0.003287269 0.006282587 0.014851546 -0.03490964 -0.011755546 0.042313837 0.049132723
-0.0068250387 0.0030441768 -0.03697904 0.0093723275 0.051645547 0.003047159 0.0011486476 0.0063945674
-0.033584714 -0.04933852 0.0008639745 -0.02785921 -0.022380065 0.014010907 0.0012312523 -0.017753208
-0.011029386 8.969842e-05 0.011099951 -0.021815823 -0.015882276 0.04670371 -0.0023559867 -0.005172644
0.024955582 0.022544881 -0.010579253 -0.0022418774 0.03756577 0.0063235215 0.0338117 0.007845341
-0.0059372005 0.022039933 0.012022952 0.02488683 0.012761065 0.031191742 -0.003219611 0.021453975
-0.0032254239 0.017939985 0.015579839 -0.008598083 0.01637859 -0.025666801 0.0014167496 -0.02179749
0.031229272 0.021621937 0.025043383 0.010221368 -0.017551528 0.008104537 0.06456789 0.025616279
0.045503687 -0.028036721 0.021506783 0.026119364 0.016483886 -0.021309357 0.033043858 0.01959632
0.015327446 0.0027407224 -0.051924407 0.037516817 0.039885968 -0.019276952 0.013753598 0.060163185
0.0077921725 0.0044108327 -0.03742263 0.056009907 0.0056606987 -0.012491427 0.010452818 0.0352803
-0.058871713 -0.0023965514 -0.019106187 0.03400976 -0.0031847476 -0.012436073 -0.03769567 0.015188717
0.0014588413 -0.0026612761 0.014396592 -0.028898142 0.059563696 -0.00797068 0.012143751 -0.0045426376
-0.019408768 -0.005325745 -0.0023554144 0.00917836 0.035492465 0.060633093 -0.012724603 8.479783e-05

network_body._body_endoder.seq_layers.2.weight f4 [128, 128]
00000000: 37cc 24bd f4fa ab3d bd5a 72bd bb8f 163d
00000010: 354e e3bc 64d3 c9bd a874 ab3b 83da 0abd
00000020: fa3a d3bb 581e e0bb 3576 4abc 4991 56bd
00000030: eb70 d2bd 8034 a23d 94ff eb3c 4255 423d
00000040: 0e5b 3bbe 6418 aebd f59a da3d 0377 803d
00000050: 4e58 9c3c 7836 333d b442 68bd 7d65 983c
00000060: bdd5 783d ba31 053e 72dd 803b 64e8 e63d
00000070: 4d41 523d 4960 06bd 8302 083d 247d 0fba
00000080: e530 733d 2168 f63d 1abe 12be 1603 04b9
00000090: bbdb 95bc b2d7 8a3d eb62 03be 714c f8b9
000000a0: 7615 a13c b80c 743d 103f 86bd e492 963a
000000b0: 62e4 273c b955 10bd 7c49 6bbc ac73 283c
000000c0: 07c4 2bbe ffbc 9cbd abee 60bd 1bf7 963d
000000d0: b9d1 493e 8888 d53c 8bf7 793c 0cd1 d2bd
000000e0: 69e4 04be c47c 18bc 30b4 4b3c 002d c7bd
000000f0: 24e6 18be d799 143d a66d 2a3e 1171 02be
00000100: ba8b de3c 43da 47bc a19c 263d 132d 28bd
00000110: 6e9c 34be 6d88 5e3d 51d9 193c 07ee ce3c
00000120: a07a 5f3d b4ce 7d3d f062 e83b 8fd2 7e3c
00000130: e5bf 8b3d 5a75 e1bd 05bb ec3c 27e8 9b3d
00000140: 4a98 8cbd 1c02 3a3d c367 e23d 1c6b 6b3d
00000150: db75 cebd 818d e1bd c8d6 0abd 1a4b 803c
00000160: 1f5a b7bb cf6c 1bbd fb35 953d e042 04be
00000170: 6db7 6d3d 175e 22bc 53f7 b2bc 0dad 453d
00000180: d9d1 833d 372f 103d 17aa 643d decd d83b
00000190: 0a5e 40bd 8935 d63c 0ab7 0ebe e565 1c3d
000001a0: fadb 8238 f0e7 f1bd 41bb bd3c 1012 043e
000001b0: 4f95 d73d a6ad 823d 3ae2 40bd 71a8 3dbd
000001c0: 3594 993c 39aa 47bd 455a 02be a105 053e
000001d0: 3969 3fbd 0f82 eabd 3a77 f6bc 4c66 97bd
000001e0: 4b12 373e 29d8 923b f1b1 19be c708 013e
000001f0: 6b7f 6e3c 6ae0 a83d b370 28bd 07d6 c83d
00000200: 865c 00bb 8c54 f23c 6672 c93d 1843 08bd
00000210: 236c e7bd dc20 8bbd a74d 1b3e 551e f9bc
00000220: 645b b0bd aa2d d53c 0502 58bd 560f e9bc
00000230: 2c25 8ebd f6ac 46bd 0b18 b5bd bbc7 e33d
00000240: a13e fa3d 14b0 9f3d 689c 633d 6aa0 103d
00000250: fcfe d1bd c75f 3bbd 00c0 59bc 3088 0d3e
00000260: 0423 bc3d 2e16 4fbc 769f 9b3d 1436 263c
00000270: 1bf5 82bc 6cc2 703a a8e0 073e 911c 86bc
00000280: f1ff 3f3d 2061 44bd c633 6abd 59bd 143d
00000290: a8b5 213d 1b0e 523b 4466 85bd 0103 87bd
000002a0: 66a5 983d 9b1c 82bd 24ef 06be 6f59 fdbd
000002b0: 9755 583d 7469 8bbe c89f 81ba 522d 83bd
000002c0: b466 ed3d b8d6 2f3e d8e1 afbc f41a 073e
000002d0: 7727 283d 1ada 90bd e2f4 303e a28f cb3c
000002e0: 9e5b ad3d fe1a 603d 1814 a93d ee60 97bd
000002f0: 3601 d53c 0501 a4bd f197 19be 401b 313d
00000300: 9bda 473c 495e d3bd 502f 0b3c 564f d3bc
00000310: 91ac 4ebd d9ac 03bd 0279 70bd c550 79ba
00000320: 09f9 fbbc 5179 a7bb 1744 3abb 5f6c c9bd
00000330: b1dc 0dbd 9e68 9abd 17fa 19be bcef c73c
00000340: a69d febd 2b62 033e e299 553d a606 28be
00000350: 0f5d 9c3c d0f0 3bbd 4695 333d 2807 58bb
00000360: 0ced bbbd c3f1 26bd 8fde 223e 8e14 f6bd
00000370: 755a 00bd 1afa 51bc ddc4 03bd 0df5 b33d
00000380: f11d 0ebe 8ab8 e43c 03b9 6b3b 3cbb 8bbd
00000390: 9c55 233e 1c2f d2bd d82a 0e3d 25c8 3bbd
000003a0: e0bc bfbd ea98 993c b1c4 473d 5337 c63d
000003b0: be9b 18be ca84 dbbd bb61 103c 83fe be3d
000003c0: d839 8cbe 9e82 d13b 080f 5a3d 69db a5bd
000003d0: 0651 623d 618b 053e 32c3 a93d 0d30 a3bd
000003e0: caf7 e7bd 1e76 f63d e031 3ebd 0409 e03d
000003f0: ef5d d33d d8c9 3b3d 8c77 6cbd 6cf6 933d
-0.040233817 0.08397475 -0.059168566 0.036758166 -0.027747253 -0.09854773 0.0052324124 -0.033899795
-0.0064462395 -0.0068395548 -0.012357284 -0.05238465 -0.10275444 0.0792017 0.028808393 0.04744459
-0.18296453 -0.08500746 0.10674087 0.062727 0.019085076 0.043753117 -0.056704238 0.01860308
0.06075071 0.1300725 0.0039326483 0.11274794 0.051331807 -0.03280667 0.03320552 -0.00054736645
0.0593728 0.1203158 -0.1433033 -0.0001258965 -0.018293252 0.06779422 -0.12830703 -0.000473592
0.019663554 0.059582442 -0.06554997 0.0011487869 0.010247322 -0.035238 -0.014360782 0.010281485
-0.16773997 -0.07653236 -0.05491511 0.073713504 0.19708909 0.02606608 0.015256773 -0.10293779
-0.12977757 -0.00930709 0.012433097 -0.0972538 -0.14931542 0.036279526 0.1664339 -0.12738444
0.027166236 -0.012198034 0.040676717 -0.04105861 -0.17637798 0.054329325 0.009390191 0.025259985
0.054560304 0.061964706 0.0070918724 0.015553131 0.0682371 -0.11008711 0.028897772 0.07612639
-0.06864984 0.045412168 0.11054947 0.057475194 -0.10081073 -0.11013318 -0.033896238 0.015660811
-0.00559546 -0.037945565 0.072856866 -0.12916136 0.058036257 -0.009910128 -0.021846449 0.048260737
0.0643651 0.035201278 0.055826273 0.006616338 -0.046964683 0.026148574 -0.13937011 0.03818311
6.239857e-05 -0.11811817 0.023160579 0.12897515 0.10526525 0.06380777 -0.047090746 -0.046303216
0.018747428 -0.04874632 -0.12729748 0.12990429 -0.046731208 -0.11450588 -0.030086149 -0.073925585
0.17878072 0.0044813347 -0.15009286 0.12601005 0.014556746 0.082459286 -0.041123103 0.098064475
-0.0019586398 0.02958133 0.09836273 -0.03326711 -0.11299922 -0.06793377 0.15166341 -0.030409971
-0.086111814 0.02602275 -0.0527363 -0.028449696 -0.06940684 -0.048504792 -0.088424765 0.1112208
0.12218977 0.07797256 0.055569082 0.035309233 -0.102537125 -0.045745637 -0.013290405 0.13821483
0.09186366 -0.012639565 0.07598774 0.010144729 -0.015986016 0.00091842446 0.13269293 -0.016371043
0.046874944 -0.047944188 -0.05717828 0.03631339 0.03947988 0.0032051865 -0.06513646 -0.0659237
0.07453422 -0.06353112 -0.13177162 -0.12370574 0.052816 -0.27228892 -0.0009889537 -0.064051285
0.11591855 0.17171752 -0.021469995 0.13193876 0.04105326 -0.070728496 0.17280915 0.024848763
0.0846474 0.05471324 0.08255786 -0.07391535 0.026001554 -0.08008007 -0.14999367 0.04323888
0.012198116 -0.10320718 0.008495167 -0.025794666 -0.05045754 -0.032147262 -0.058709152 -0.0009510632
-0.030758398 -0.0051108976 -0.0028421932 -0.09835123 -0.034634296 -0.075394854 -0.15036808 0.024406306
-0.12432413 0.12830417 0.052148707 -0.16408786 0.019087343 -0.045883954 0.04384353 -0.003296325
-0.091760725 -0.040757906 0.15905212 -0.12015639 -0.031336267 -0.0128159765 -0.032170165 0.08786974
-0.13878609 0.027920026 0.003596843 -0.068228215 0.15950626 -0.10262892 0.034708828 -0.04584517
-0.09362197 0.018749673 0.048771564 0.09678521 -0.14903161 -0.10718687 0.008812363 0.09325888
-0.2738788 0.0063937446 0.05323699 -0.0809849 0.05525305 0.1304145 0.08289184 -0.07968149
-0.11326559 0.12034248 -0.046434283 0.109392196 0.10320651 0.04584679 -0.057731196 0.072247356

network_body._body_endoder.seq_layers.2.bias f4 [128]
00000000: 5db3 283c 4c55 50bd a641 af39 7e58 19bb
00000010: a455 f0bb f6d5 df3b b446 8fbb 84b4 18bc
00000020: c75a 683d 5aa9 763d feb1 453d ba6a f1bc
00000030: 905c 33bd 1836 33bc a338 bd3c 86f7 c6bb
00000040: c7c0 143d 7b22 97bc aa35 f23c d12b 64bc
00000050: 8a6c 9bbb f7e3 0fbc 6d56 88bc ee94 23bd
00000060: 522a 823c ac29 49bc a310 843b 877e 98bb
00000070: 905d bb3c 8276 1c3c 7dd0 babc b8e5 ecbb
00000080: 7bcb fbbb 8f37 a33c 28b8 123d d61e b6bc
00000090: 9d99 09bb d13f 593c b735 22bd 68ef c43c
000000a0: 65c6 8bbc b32a d2bb c258 b53c 96e5 ba3c
000000b0: 6801 063d 66ed 2ebc 2b58 27bd e3d5 07bd
000000c0: a69b 0a3d 2b36 d33a 24b2 5e3c b63f 2b3d
000000d0: 5c38 37bd d6c6 6f3a 3705 aa3b baf8 103d
000000e0: b919 00bc 6513 bf3c d618 8bbc 0023 583c
000000f0: f980 99bb 8ba3 c43c 2cc9 1f3d e39c e13c
00000100: 5268 c8bc 25c3 49bd 7f00 01bc 7705 6cbc
00000110: 70a4 82bb 0043 493c 23f3 bdbb 13e4 333d
00000120: b75f a13c 4c7b bfbc f167 91bc 39ae b83c
00000130: f231 bb3c c37a 80bc 028e 6d3d 44a5 553a
00000140: 831e d33c 4e70 3d3c f4dd 483d 8b07 163b
00000150: 870d 2c3d 0bc2 273c 5a70 343c 13a2 a4bc
00000160: 6ff7 b93b c6ad 2e3d 7271 463c c962 1fbc
00000170: 4d53 00bc d61c 1d3c 6d9c 4bbc d9fb 97bc
00000180: 1cfb 173d acd3 da3c a552 d93c f9e0 cb3c
00000190: 0aa2 2d3c cf17 943c 8624 dd3c 6dd3 1f3c
000001a0: af30 67bc 4a1f de3c 51e1 1a3d 3c59 d9bc
000001b0: 143c 05bd b69a 443d 508e febb c317 30bd
000001c0: 0f8d 1739 e933 d53c bef5 c4bc 6868 a13c
000001d0: 5f2f 78bc c04f d43c f855 25bb d7ae 28bc
000001e0: fb8f 18bc 900f 6ebb 35c6 d43c fd2a 09bd
000001f0: 3a19 793c aa29 063d 5c34 923c c35b 2cbb
0.01029667 -0.050862595 0.00033427513 -0.0023398693 -0.007334428 0.006830926 -0.004372442 -0.009320382
0.056727197 0.0602201 0.04826545 -0.029469837 -0.043789446 -0.01093819 0.023098296 -0.0060719876
0.03631666 -0.018449059 0.029566605 -0.013926462 -0.0047431635 -0.008782378 -0.016642774 -0.039936952
0.01588932 -0.012278002 0.0040303036 -0.004653755 0.022871763 0.009549739 -0.022804493 -0.007229533
-0.007684169 0.019923953 0.035820156 -0.0222315 -0.0020996102 0.013259844 -0.039602008 0.024039939
-0.017062375 -0.0064137815 0.02213705 0.022814553 0.032716185 -0.010676717 -0.040855568 -0.033162963
0.033839844 0.0016114166 0.013592277 0.041808806 -0.044731483 0.00091467553 0.00518861 0.035393454
-0.007818633 0.023324678 -0.016979616 0.013191938 -0.004684564 0.024003765 0.03901021 0.02754063
-0.024463806 -0.04925837 -0.007873653 -0.0144056 -0.0039868876 0.01228404 -0.0057968064 0.04391868
0.01969896 -0.023374222 -0.017749758 0.022544013 0.022850964 -0.015683537 0.057996757 0.00081499317
0.025771385 0.01156242 0.049039796 0.002289268 0.04200509 0.010239135 0.011013115 -0.020096814
0.0056752483 0.042646192 0.012112008 -0.009728142 -0.00783236 0.009589395 -0.0124274315 -0.018552708
0.03710471 0.026712261 0.026528666 0.024887549 0.010597715 0.01807776 0.026994955 0.009754998
-0.014110728 0.02711453 0.037812535 -0.026531808 -0.032527998 0.047999106 -0.00776843 -0.04299141
0.0001445303 0.02602573 -0.02404296 0.019703105 -0.015148013 0.025916934 -0.0025228243 -0.010295591
-0.009311671 -0.0036325194 0.025973419 -0.033488262 0.015203768 0.032754578 0.017847233 -0.0026299811

action_model._discrete_distribution.branches.0.weight f4 [2, 128]
00000000: fe77 c7bc 1d86 d63b ebfa 74bd c486 313b
00000010: ad1f a03c 7b47 e5bc fd3d 503a 7270 44bb
00000020: 92a0 6ebb 4787 5c3c 6655 1ebd 6fc1 2e3a
00000030: d2da 29bc 990b 60bc 72ee 1bbc 29ec 25bc
00000040: ee98 523c 9a8c 223d 4b70 6dbc 5ec6 1abd
00000050: 90e3 e1bc e6fd e63b 6df9 56bd 7370 e23b
00000060: ece4 673d 21dc 99bc bd78 7ebd 4de6 f6bc
00000070: bc77 a73d 7b44 21bd b766 c6bc 359e ec3b
00000080: 15b1 2ebb 386f ca3c bf1d 793d 2715 87bc
00000090: be75 f5bc 9e14 543d 51e0 c13b 7391 5abd
000000a0: 8329 453c 6ff5 8d3b 10c1 1c3d 80f7 bfba
000000b0: d6a7 0f3d a0ad 093d ed59 993c 4334 a2bc
000000c0: 401e 18bb 177d 063d bd81 a8bb 13e6 67bd
000000d0: 1325 92bc 80e9 673d b804 5bbd 8b3e 91bc
000000e0: 3d0f d53a 93b2 f7bc 9eb3 6abc 0e05 06bd
000000f0: cd49 6ebd b334 133d bad6 cd3b 7902 ef3c
00000100: 9f03 043d fed5 9b3c 3f99 97bc 11e9 2b3c
00000110: 5b5c 373d b13d 31bb d02c 013c 3c7c 513c
00000120: b7c8 663c a573 313d 4a30 d0bc e801 e53c
00000130: ccb4 353d 069a debc 8619 553d 57cf 83bd
00000140: fc4e 083d 9318 1b3b 1a8c fe3c af44 343d
00000150: f22b 103d ae67 82bd d5c7 3d3d f4a6 39bd
00000160: 16db 6cba 3071 8b3c 94d4 5abc 8bf6 f33c
00000170: 3711 75ba cbe7 8c3d 8823 63bc 4e74 c13a
00000180: efb3 c6bc ef75 7f3c 39d1 c23a 4c88 8dbd
00000190: c0e9 4c3d e05f 92bc 8226 333d a05c e939
000001a0: f14d ceba 1e40 3f3b e820 0bbd ddd5 23bd
000001b0: cefe fc3b b734 1ebd 3b0f e33b 5abb 5a3a
000001c0: 1ee8 87bd b907 1c3b 9e4a f53c 3536 fdbc
000001d0: 454f 72bc 5d6b 86bd 65f4 3abd 5870 ee3c
000001e0: e7c6 603c f3e8 c03b 27e1 8e3c f28f 4fbc
000001f0: 54d6 ebbc c305 d4bc 86b8 fdbb 8d49 8dbd
00000200: 989b 8c3c fb42 14bc 398f 1e3d 0d80 8cbc
00000210: 2270 44bd d1aa 173d 5ac7 3cbc 38e3 4939
00000220: 146a d13b 3bf1 ebbc dd5f 0a3d d6e2 5b3b
00000230: 7959 873b 412c eb3c e1a1 f5bb a1b2 043d
00000240: 08e2 96bc 0087 03bd 6ddc 1e3c cc35 bf3c
00000250: 2dae b23c b9bd 643c 4979 f03c 4da0 a6bc
00000260: 489d e6bc 38c3 f13c f59b 413d 804f d73c
00000270: f2bd a2bd 6718 6b3d 8a46 c93c 30f7 943b
00000280: 552a e93b 3d7c 0abc ca6b 52bd cd1a 3bbb
00000290: fe46 adbb 568e 48bd fb94 f5bb 243f 2f3d
000002a0: 096c cc3a f956 d3bc 0a2d 56bd c574 843a
000002b0: c955 d0bb a3f6 9ebc 02aa b3bc 0d26 8dbb
000002c0: bf3e e23a e5f1 30bd 767b cb3c 4efd 7e3d
000002d0: 281b 663c 5076 84bd 8666 7b3d 8a41 9e3c
000002e0: 441d 71bc 2940 203d be72 d03b 5be0 123d
000002f0: 4587 113d fb66 31bd 0e6d 36bd 3226 a5bc
00000300: 6adb 09bd 5f94 c1bc e87c 033c e861 d3bc
00000310: 111b 42bd 9a2c 2e3c eac7 35bc b501 b4bc
00000320: 13c7 b0bc e488 15bd cd06 f63c d3dc 03bd
00000330: 96c2 01bd 2508 da3c 501e 89bd 18f0 743d
00000340: 43c8 52bc 43ef a73b 039d 4bbd eeb8 7ebc
00000350: 2498 34bd aa92 3e3d c1cf 1ebd 2543 453d
00000360: 67a9 453c 51a7 abbc 40d9 a23c 18d1 72bc
00000370: 13d0 1ab8 8e2f a1bd 7167 493c 40f3 a43b
00000380: 4465 133d 37fc 84bc c925 adb8 cb94 703d
00000390: 28f7 2abd 5fc7 043d 9ba5 4dbd 25e7 223c
000003a0: 4663 83bc 6f16 a53b c56c be3c 0ad3 243d
000003b0: ae08 46bc 715f 1b3d f6f2 e13b ad39 163b
000003c0: ee15 7f3d 279e d73a acb1 b4bc b63f de3c
000003d0: d0fd ac3c 783a c33d 7788 513d ea04 f4bc
000003e0: 7e3d a2bc 365f b9bc b2ec 86bc 3c9c b13b
000003f0: 10d2 f83c ca91 253d ae01 5e3b 72a6 443d
-0.024349209 0.0065467493 -0.059809607 0.0027088383 0.019546354 -0.027988186 0.0007943807 -0.002997425
-0.0036411625 0.013459987 -0.03865566 0.0006666397 -0.010367112 -0.01367464 -0.009517299 -0.010127106
0.012853844 0.03968487 -0.014492105 -0.037786834 -0.02757433 0.00704931 -0.052483965 0.0069103776
0.0566148 -0.018781723 -0.062126864 -0.030139113 0.081771344 -0.03937195 -0.0242189 0.007221008
-0.0026655842 0.024711236 0.060819384 -0.016489578 -0.02996337 0.051777475 0.005916633 -0.053361367
0.012033823 0.0043322365 0.038270056 -0.0014645904 0.03507217 0.033612847 0.018719638 -0.019800311
-0.002321139 0.03283414 -0.005142419 -0.0566159 -0.017839944 0.056619167 -0.053471297 -0.017730018
0.0016255152 -0.030236518 -0.014325051 -0.032719664 -0.05817585 0.03593893 0.006281701 0.029175984
0.032230016 0.019022938 -0.01850569 0.010492579 0.04476581 -0.0027044828 0.007884219 0.012785967
0.01408594 0.043323178 -0.025413651 0.02795501 0.044361874 -0.027173053 0.052026294 -0.06436031
0.03327845 0.002366577 0.031072665 0.044010814 0.03519816 -0.063674316 0.046333153 -0.045325235
-0.0009035332 0.017021745 -0.013356347 0.029780647 -0.00093485735 0.068801485 -0.013863452 0.0014759393
-0.02425572 0.015592082 0.0014863379 -0.06910762 0.05002761 -0.017867982 0.043737896 0.00044510234
-0.0015739781 0.0029182504 -0.03396693 -0.039998878 0.007720805 -0.03862449 0.006929306 0.00083439576
-0.0663607 0.0023808314 0.029942807 -0.030909637 -0.014789407 -0.06563447 -0.04564323 0.029106304
0.013719297 0.0058871447 0.017441345 -0.012668597 -0.028788723 -0.025881654 -0.007742944 -0.06898794
0.017164037 -0.0090491725 0.038710807 -0.017150903 -0.0479585 0.037028138 -0.0115221385 0.000192535
0.0063908193 -0.028801551 0.03378283 0.0033551953 0.004130539 0.028707625 -0.007496104 0.032396916
-0.018418327 -0.032111168 0.009696108 0.023341082 0.02181157 0.013961249 0.029354708 -0.02034011
-0.02815117 0.029512033 0.047267873 0.026283026 -0.079463854 0.05739632 0.024569768 0.0045460686
0.007115642 -0.008452472 -0.051372327 -0.002854991 -0.005288004 -0.048963867 -0.0074945665 0.042784825
0.0015596162 -0.025798308 -0.052289046 0.0010105601 -0.0063578826 -0.019404715 -0.021931652 -0.0043075145
0.0017261131 -0.04319944 0.024839144 0.06225329 0.0140445605 -0.06467879 0.06137707 0.01931836
-0.01471645 0.039123688 0.0063613346 0.035858493 0.035529394 -0.0433111 -0.044537596 -0.020159815
-0.033656515 -0.02363032 0.008025385 -0.025803521 -0.047389094 0.010630751 -0.0110950265 -0.02197347
-0.021579301 -0.036507502 0.03003254 -0.032193016 -0.031679712 0.026615212 -0.06695235 0.059799284
-0.012865129 0.0051249578 -0.049710285 -0.01554702 -0.044090405 0.04652659 -0.03877235 0.048159737
0.012064314 -0.020953806 0.019878983 -0.01482036 -3.6910245e-05 -0.078703985 0.012292729 0.0050338805
0.035985246 -0.016233547 -8.256321e-05 0.05873565 -0.041739613 0.032416698 -0.05020676 0.009942804
-0.016038548 0.0050380747 0.023245225 0.040240325 -0.01208703 0.037932817 0.0068954183 0.002292256
0.062276773 0.0016450331 -0.022057377 0.02712999 0.021117121 0.095326364 0.051155534 -0.0297875
-0.019804712 -0.022628408 -0.016470287 0.005420236 0.030373603 0.04042224 0.0033875513 0.048010297

action_model._discrete_distribution.branches.0.bias f4 [2]
00000000: ed75 0a3b fe75 0abb
0.0021127418 -0.0021127458

action_model._discrete_distribution.branches.1.weight f4 [3, 128]
00000000: c58a fdbb 6c6c 10bc e694 0e3c 3fa7 febc
00000010: b9d1 9c3d 16c8 b43b d113 c4bb ff79 93bb
00000020: 2d94 523c 6c76 b6bc 6351 3d3c 981a 3ebd
00000030: a5a4 8f3c 2842 d73b 9787 92bb 6cfe 9a3c
00000040: 62dc 8cbd 0cae 7ebb 25a6 f5bc d2b9 6a3d
00000050: fccd 87bd 0756 25bd 8e30 463d ba95 8dbc
00000060: 0ecf 40bc 9de9 2c3d 3131 12bd 79ad d13b
00000070: e3b4 053d 3d4c c9bb 06e6 2ebd 20c7 8dbb
00000080: 07bc 933c a73f 0e3b 22e1 55bc 4fb1 01bb
00000090: 4599 7cbb 10c7 35bd 9375 f5bc 9d14 05bd
000000a0: 46ff 273d fe53 23bc 0d8b 613a 6702 763c
000000b0: abb4 de3c 9ba5 fdbc d33d e53b 4ae2 bcbc
000000c0: 6370 28bd 67e5 e3bc 36c3 64bc 2f0b cbbc
000000d0: 150f 2bbc f0a2 f93c 816b a3bc f91e 993c
000000e0: f2e6 d13b 2d38 8fbd 46b8 273d 2137 d6bc
000000f0: fd80 1e3d 9c04 28bc cfae 923d cde7 1bbd
00000100: d44a ae3c 9623 f8bb 995f 94bc 6ac7 29bb
00000110: f5ee 7b3c d6d1 8abc 932d 62bd 47e0 3bbd
00000120: 9c4e 5e3c f747 abbc ff4e 8e3c 95a5 683d
00000130: 48b1 ccbc 4199 a43b 80b2 41bd 1a39 ae3c
00000140: 0a28 30bd 20b5 0bbd 96a0 493d 5b21 c83b
00000150: d9be 5abd 0846 b33b 240f 5ebd a9c8 023d
00000160: 409a 2abc 84a5 93bd 25a9 42bc b04c 98bc
00000170: bf32 68bc 4015 223d 5998 03bd a99b 95bc
00000180: 9106 09bd 56e8 82bb 803f 8abc 5b9e 943b
00000190: 11c0 d5bc 03b4 a8bb 371c 2cbd e22e 093d
000001a0: 6922 883d 11d6 dfbc 136e a33c 767f be3b
000001b0: a8b0 37bd 3d27 a53b 89e7 dd3c 04d9 0abc
000001c0: 7a06 84bc 7a6c a0bd 9a29 4fba 89f8 fabc
000001d0: 25d8 893c 1018 a2bc f6c1 4cbc 03d8 bbbc
000001e0: cdaf bdbc 5b20 b63d 9eab 14bd 33fd ed3c
000001f0: 40e6 a8bb bb14 a3bd ee40 6c3c c75e ca3c
00000200: 95e5 40bd 4704 e03b 0929 bfbc 2ac8 f23b
00000210: 1ff3 7e3c 5bb4 c83c 108e 16bd 78e4 d4bc
00000220: 6223 98bd 4b97 18bd a1a0 9fbd 7821 9c3d
00000230: 61f9 bbbb f7e8 c9bc 65e2 41bd b1ab c9bc
00000240: 0544 3e3d 0e87 c23c dfb2 6bbd ae35 803c
00000250: 6554 4c3d 394a 953d 89fa 393c e48e 053d
00000260: 108e a3bc 600a a0bc ac4d 353d b213 1fbd
00000270: f824 c23b 7c32 6c3c b7a7 5f3d b3b7 56bc
00000280: 853c 2d3d 19c6 973c 5a99 c9bb 5e2b aebc
00000290: f9a7 08bd 0ab9 8a3d 3e50 ac3c 8a8c 843b
000002a0: acd7 28bb c392 2ebd 31c6 1d3a b8f9 6fbd
000002b0: 8a5d 65bd 012b cdbc 3c0b dcbc c661 8e3c
000002c0: 57a6 be39 2d51 503d dcde a3bb 9778 bfbc
000002d0: 3972 7dbc eca2 a5bb cc66 823c f842 8ebd
000002e0: a383 9cbd 10d0 7a3d 15b5 41bd 255f 113d
000002f0: 8546 8ebb 7973 6dbc ad6c 86bd 615c 05bc
00000300: 1f94 b7bc 810e 8139 932d 953c 5bba 2a3c
00000310: b91a 3b3c 33af 113d 0edc 5a3c 228f 3b3d
00000320: b2e0 1cbd 3a90 533c 2a31 f13b e431 fbbb
00000330: 7724 cbbc 4905 d4bb 7877 ab3d 8d1d c7bc
00000340: 94b1 2aba 42db af3d 66bd b4bd ede2 273d
00000350: 0052 da3c e32f 813d 4d79 803d f317 05bc
00000360: 8365 32bd c754 a93c 5c48 dc3c 4846 363c
00000370: e8d9 25bd 9e1f 303d 8f54 163d 911b 14bd
00000380: d805 f3bc f288 43bd 5547 03bd 09ad 88bd
00000390: 43ca 093d 2ed9 dbbc c378 473d 5739 86bc
000003a0: 8358 56bd 30ea 18bd 49e0 79bd fa58 a53c
000003b0: a782 6a3d ecbc 633d 42bc 193b fb0f 0a3d
000003c0: 793f 553d 61e2 563d 1ba6 d03c 1a52 193c
000003d0: 4ba2 6bbd 42bf f9bb 21ef 563c e631 853d
000003e0: 9f98 803c 0b35 583c 4ebf 8fbc 8323 e03c
000003f0: 3f54 05bd b1f9 83bb f0b8 1d3d 9196 87bc
-0.00773749 -0.008814912 0.008702492 -0.031085609 0.07657189 0.005517016 -0.0059838076 -0.004500627
0.012852711 -0.022273265 0.011555049 -0.04641208 0.017534563 0.0065691657 -0.00447173 0.018920146
-0.06877972 -0.0038861064 -0.02998645 0.05730612 -0.06631085 -0.040365245 0.04838615 -0.01728331
-0.011768116 0.04221498 -0.035691444 0.0063988534 0.03264321 -0.0061431215 -0.042699836 -0.004326716
0.018033994 0.002170542 -0.013054164 -0.0019789522 -0.0038543504 -0.044379294 -0.02996329 -0.03249036
0.041014932 -0.009968756 0.0008603789 0.015015221 0.027185759 -0.030962756 0.0069958954 -0.023057122
-0.041122805 -0.027819348 -0.013962558 -0.024785606 -0.010440608 0.030473202 -0.019948723 0.018691527
0.0064057047 -0.069931366 0.04094722 -0.026149334 0.03869723 -0.010255005 0.07162248 -0.03806286
0.021275915 -0.0075726015 -0.01811199 -0.0025906214 0.015376796 -0.01694576 -0.055219244 -0.045868184
0.013568547 -0.020908339 0.017371653 0.056798536 -0.024986878 0.005023152 -0.04728937 0.021267463
-0.043006934 -0.03410828 0.049225412 0.006107492 -0.053404663 0.005470995 -0.054213658 0.031929646
-0.010412753 -0.07209304 -0.0118811475 -0.018591255 -0.014172255 0.039571047 -0.032127712 -0.018262701
-0.033453528 -0.0039949818 -0.016875982 0.004535479 -0.026092561 -0.005148412 -0.042019095 0.033491977
0.06647188 -0.027323755 0.019949948 0.0058135344 -0.044846207 0.005040078 0.027087944 -0.008474592
-0.01611637 -0.0783319 -0.00079026225 -0.030636089 0.016826699 -0.019786865 -0.012497416 -0.02293015
-0.023155117 0.0889289 -0.03629648 0.029051399 -0.005154401 -0.079629384 0.014419777 0.024703396
-0.047093946 0.0068364474 -0.023334997 0.0074091153 0.015560894 0.024500063 -0.036756575 -0.025987849
-0.07428624 -0.03725366 -0.077943094 0.07623571 -0.0057365154 -0.02464722 -0.047335047 -0.024618002
0.046451587 0.02374604 -0.05754363 0.015650596 0.049885172 0.072895475 0.011351236 0.032606974
-0.019965202 -0.019536197 0.044263527 -0.038837142 0.005924817 0.014416333 0.054603305 -0.013105321
0.042294044 0.018527078 -0.006152314 -0.021260913 -0.033363316 0.06773575 0.021034356 0.004045074
-0.0025763316 -0.04262043 0.00060186075 -0.05858776 -0.05599741 -0.02504492 -0.026860826 0.017380606
0.00036363557 0.050858665 -0.005000932 -0.023372931 -0.015469127 -0.005054822 0.015918158 -0.06946367
-0.07642295 0.06123358 -0.047291834 0.035491128 -0.0043419027 -0.014492863 -0.06563697 -0.008139701
-0.022409497 0.00024615604 0.018210208 0.010420407 0.011419945 0.035567474 0.013358129 0.0457908
-0.038300224 0.012912804 0.007360597 -0.0076658595 -0.024797661 -0.0064703566 0.08372396 -0.024306083
-0.00065114466 0.08586742 -0.088251874 0.040987898 0.026650429 0.06307962 0.06273136 -0.008123386
-0.04355384 0.020670308 0.026889972 0.011125155 -0.040491015 0.042998902 0.036701735 -0.036159102
-0.029665872 -0.047738023 -0.03205045 -0.06673629 0.033640157 -0.026836958 0.04869915 -0.016384764
-0.052330505 -0.037332714 -0.06100491 0.020184029 0.057253506 0.05560009 0.0023458158 0.033706646
0.052062485 0.052461985 0.02546983 0.009357953 -0.05752782 -0.0076216767 0.013118536 0.06503658
0.015697775 0.01319624 -0.017547276 0.027360683 -0.032551046 -0.0040275683 0.03850645 -0.016551288

action_model._discrete_distribution.branches.1.bias f4 [3]
00000000: 068a ccbc 9b41 033b e69a ad3c
-0.024968158 0.0020028118 0.021192025

action_model._discrete_distribution.branches.2.weight f4 [1, 128]
00000000: 1a1b 89bc 3900 1f3c 90c4 663c a58d 0f3c
00000010: 1e25 29ba 054f 73bc e756 3bbc 5eb5 063c
00000020: a0f8 ffbb d7fd 3ebc b650 bcb9 ed1b 86bb
00000030: b3a3 57bc fc2a bcbb ef25 c6bb e7ae 09bc
00000040: 03c6 643c 4ab2 cebb 7bdc 50bb d451 9c3b
00000050: 4753 813c b731 a6bc 82ba ef3a ba78 573b
00000060: 8a71 853b 3f48 53ba 6d02 013c 3f4d 293c
00000070: 43e2 8ebb 43a1 933c ca19 353a 2a1a 093c
00000080: 83be 8b3b bf04 423c 63fa 483c 87e5 4b3c
00000090: 64e1 83ba 9d61 553b 1e20 04bc 8b6e c3bb
000000a0: 1781 5b3c bf7b 663a 5cbe 28ba be6c 12bc
000000b0: 4372 15bc c855 7c3c 9727 73ba 83bd 5f39
000000c0: 674f 4dbc a653 443a 0338 433c 50ea c6ba
000000d0: 83bf 83bc de78 c13b 12ec 2a3b f7f7 8a3c
000000e0: 281e f1bb 264d 3d3c e60c 253c 3dbc 503c
000000f0: 86cb 253b 1534 a63b bfce 703b bb01 1b3b
00000100: fb52 293c 5f4b afbc f804 54bb 4365 39bc
00000110: b209 42bc edd2 243c 6547 d53a 3779 9f3b
00000120: 7272 313b 42a7 063c 8b2d c1bc 00f7 72bc
00000130: 58b5 e03b 22f6 80bc 23ba 8ebb c296 e5b7
00000140: 372c 2fbc 33b0 f4ba 9383 fd3a 3ce3 8e3b
00000150: fa17 2c3c fe7e aabc 5ed8 343c 82b9 ecbb
00000160: 672a b63b a2b2 0b3b 7c8b bd3b 0ec8 44bc
00000170: bd6f fbbb ef6d 123c fe91 3ebb 5c3a afbb
00000180: b55b e83a 436c 2e3b e117 0b3a 783d d93a
00000190: 16bc a5bc 8afb 923c bba9 c4bb cb7d 883c
000001a0: 37e9 9139 203a ffbb 587f 66bc a0bd ae3c
000001b0: b3e6 7e3c 2a2c cfbb 2b69 b73a a737 18bb
000001c0: 12ad 99bb d6c0 4c3c 6720 cbbb 46fa 033c
000001d0: 75ee 313c 2fd4 053c 4ab0 6dbb ad52 d13b
000001e0: c50e a6bc b8eb d6ba 7434 96ba 3463 2ebc
000001f0: 42b7 e0b9 0c69 89bc 5049 c039 97a6 693c
-0.016736556 0.009704643 0.01408495 0.008761798 -0.0006452369 -0.014850383 -0.011434293 0.008221952
-0.007811621 -0.0116572 -0.0003591829 -0.0040926845 -0.0131615875 -0.005742429 -0.0060470025 -0.008403516
0.013963225 -0.006307875 -0.0031869698 0.004770497 0.01578678 -0.020287378 0.0018289837 0.0032878355
0.004072373 -0.0008059777 0.0078741135 0.010333358 -0.0043604686 0.018021232 0.0006908445 0.008368054
0.004264654 0.011841952 0.012266728 0.01244486 -0.0010061678 0.0032559403 -0.008064298 -0.0059641055
0.013397477 0.00087922433 -0.0006437057 -0.008937059 -0.00912148 0.015401311 -0.00092756137 0.00021337536
-0.012531138 0.0007489271 0.01191521 -0.0015176032 -0.01608253 0.005904301 0.002608065 0.016963942
-0.0073583312 0.011554038 0.010073876 0.012740192 0.0025298311 0.0050721266 0.0036744324 0.0023652154
0.0103347255 -0.021398244 -0.0032351594 -0.011315647 -0.011843132 0.010060054 0.0016271888 0.004866745
0.0027076271 0.008218588 -0.023581287 -0.014829397 0.0068575554 -0.015742365 -0.0043556853 -2.736913e-05
-0.010691694 -0.0018668234 0.001934158 0.0043605845 0.010503763 -0.020812508 0.011037914 -0.0072242627
0.005559254 0.002131619 0.00578445 -0.012010587 -0.0076732324 0.008937343 -0.0029078717 -0.005347533
0.0017727526 0.0026614822 0.00053059874 0.0016574105 -0.020231288 0.017942209 -0.0060016788 0.016661545
0.00027830314 -0.0077889115 -0.014068447 0.021330655 0.015557933 -0.0063224034 0.0013993134 -0.002322653
-0.004689821 0.012497148 -0.006198931 0.008055275 0.010860075 0.008168264 -0.0036268407 0.0063880295
-0.020270715 -0.0016397154 -0.0011459724 -0.010643769 -0.00042861147 -0.016773723 0.00036675716 0.0142609095

onnx::Div_94 f4 [150]
00000000: 26d3 de3e f143 3d3e 54b1 033b 2fe1 7b3e
00000010: 54b1 033b 54b1 033b 31d8 dc3d 7f75 723e
00000020: fd20 fd3e ba36 d33e 0929 df3e 5c28 333e
00000030: 54b1 033b 43ed 7f3e 54b1 033b 54b1 033b
00000040: ef2b e43d 5f6c 6b3e ffdf fc3e 7f66 d33e
00000050: 58fb de3e 2755 3e3e 54b1 033b dbbf 663e
00000060: 54b1 033b 54b1 033b 5fd2 de3d 13cd 6f3e
00000070: 3931 fc3e c868 d13e 3c6d e03e 347a 313e
00000080: 54b1 033b 83b5 763e 54b1 033b 54b1 033b
00000090: 7536 ee3d e5b8 5c3e 8443 fc3e 57b9 d03e
000000a0: 008f df3e e457 3f3e 54b1 033b 4b3c 583e
000000b0: 54b1 033b 54b1 033b 67d0 e93d 3d55 6a3e
000000c0: 29a2 fb3e e98e cd3e b1b5 e23e 0f75 383e
000000d0: 54b1 033b 8703 683e 54b1 033b 54b1 033b
000000e0: 1aaa f63d 17fd 4a3e 0bf1 fb3e 7a61 cb3e
000000f0: 1a56 df3e 414d 453e 54b1 033b 2e10 4d3e
00000100: 54b1 033b 54b1 033b 8c71 f33d 2e17 5f3e
00000110: bddd fa3e f724 c73e 9af6 e23e 0d29 3a3e
00000120: 54b1 033b 0a10 4d3e 54b1 033b 54b1 033b
00000130: f3f9 fe3d 13e6 293e 9598 f93e 5a95 c13e
00000140: ba03 dd3e 8796 4e3e 54b1 033b ca43 313e
00000150: 54b1 033b 54b1 033b 95d0 fd3d 0fe8 443e
00000160: e5e4 f73e d47e ba3e 29ca db3e 38f3 3f3e
00000170: 54b1 033b 1f1a 333e 54b1 033b 54b1 033b
00000180: 3b77 0e3e c5bc 253e 7583 f53e 8f38 ae3e
00000190: a624 d13e 442d 533e 54b1 033b d42b 193e
000001a0: 54b1 033b 54b1 033b 3b4b 103e db49 333e
000001b0: 15ee f03e 5b91 a33e 4ad4 cb3e 3a3a 4b3e
000001c0: 54b1 033b 49b2 223e 54b1 033b 54b1 033b
000001d0: 3faa 0e3e 5105 253e 78ff ec3e 8249 9c3e
000001e0: a370 be3e ff75 563e 54b1 033b f8a9 0d3e
000001f0: 54b1 033b 54b1 033b 2599 0a3e d11a 2b3e
00000200: 0d93 e53e f663 8e3e e8cc c63e 1949 4c3e
00000210: 54b1 033b dd53 1a3e 54b1 033b 54b1 033b
00000220: c6bc 033e 6ef5 1e3e 47a1 e83e 68d4 923e
00000230: 1353 b83e cb75 563e 54b1 033b 9ef5 063e
00000240: 54b1 033b 54b1 033b 3b54 fd3d a053 1f3e
00000250: adbe df3e 214d 843e
0.43520468 0.18482949 0.002009471 0.2459762 0.002009471 0.002009471 0.10783423 0.23677634
0.4943923 0.4125269 0.43585995 0.17495865 0.002009471 0.24992852 0.002009471 0.002009471
0.11141192 0.22990559 0.49389645 0.41289136 0.43551135 0.1858717 0.002009471 0.22534125
0.002009471 0.002009471 0.10879969 0.23418073 0.49256304 0.40900254 0.4383334 0.17331773
0.002009471 0.24092679 0.002009471 0.002009471 0.116314806 0.21554907 0.4927026 0.40766403
0.43663788 0.18685871 0.002009471 0.2111675 0.002009471 0.002009471 0.11416703 0.22884078
0.49147156 0.40148094 0.44279245 0.18013404 0.002009471 0.22657596 0.002009471 0.002009471
0.12044163 0.19823109 0.4920734 0.39722806 0.43620378 0.19267751 0.002009471 0.20025703
0.002009471 0.002009471 0.11886892 0.21786186 0.48997298 0.3889539 0.44328767 0.18179722
0.002009471 0.2002565 0.002009471 0.002009471 0.12450018 0.16591673 0.48749223 0.3780926
0.43166906 0.20174609 0.002009471 0.17311016 0.002009471 0.002009471 0.123932995 0.19229148
0.4841682 0.36424887 0.42927673 0.18745124 0.002009471 0.17490433 0.002009471 0.002009471
0.1391267 0.16185291 0.47951856 0.34027526 0.40848273 0.20622736 0.002009471 0.14958125
0.002009471 0.002009471 0.14091198 0.17508642 0.47056642 0.31946835 0.398104 0.1984643
0.002009471 0.15888323 0.002009471 0.002009471 0.13932131 0.1611531 0.46288657 0.30524832
0.3719531 0.2094345 0.002009471 0.13834369 0.002009471 0.002009471 0.13534983 0.16709448
0.44838753 0.2781064 0.38828206 0.1994976 0.002009471 0.15071054 0.002009471 0.002009471
0.1286498 0.15523311 0.45435545 0.28677678 0.3600088 0.20943372 0.002009471 0.13179633
0.002009471 0.002009471 0.12369581 0.15559244 0.43700162 0.25840095

onnx::Div_97 f4 [6]
00000000: 429c 1643 88ed 2b42 066a 1643 1fee 2b42
00000010: 200d 1743 45ee 2b42
150.61038 42.981964 150.41415 42.98254 151.05127 42.982685
