Assets/Scene/FinalTest/ZooheimTest/Models/Model1/WolfBehavior.onnx (onnx, 312857 bytes, 14 tensors)

discrete_act_size_vector f4 [1, 3]
2.0 3.0 1.0
00000000: 0000 0040 0000 4040 0000 803f

network_body.observation_encoder.processors.0.normalizer.running_mean f4 [450]
0.14035827 0.04900515 0.0 0.09951071 0.0 0.0 0.018178793 0.020021847
0.6468053 0.7590076 0.13500492 0.04863994 0.0 0.102615476 0.0 0.0
0.019491557 0.019837286 0.64829576 0.7588622 0.1481034 0.04161077 0.0 0.086821266
0.0 0.0 0.020134794 0.020018587 0.6571854 0.7697115 0.13272068 0.0463834
0.0 0.0896563 0.0 0.0 0.02146376 0.018983845 0.66467655 0.7699178
0.15298145 0.04506419 0.0 0.07405412 0.0 0.0 0.021014601 0.021027295
0.6597361 0.776482 0.12765759 0.04454719 0.0 0.077546 0.0 0.0
0.022404479 0.018456923 0.68327165 0.7849095 0.15626413 0.047024183 0.0 0.057941686
0.0 0.0 0.020584164 0.020189958 0.6718727 0.7898078 0.123790614 0.045830566
0.0 0.06375398 0.0 0.0 0.022511084 0.019663025 0.69832397 0.80268294
0.16182707 0.04728832 0.0 0.045303512 0.0 0.0 0.018818967 0.019857185
0.6807792 0.8060302 0.11761128 0.046794955 0.0 0.046005506 0.0 0.0
0.0232936 0.018822296 0.72134763 0.8262369 0.1666111 0.045203287 0.0 0.033655394
0.0 0.0 0.017238155 0.019110084 0.69205946 0.826525 0.11130428 0.04376461
0.0 0.035905592 0.0 0.0 0.024366882 0.017380401 0.74116075 0.8458252
0.16462834 0.045568068 0.0 0.028123941 0.0 0.0 0.01824683 0.018476374
0.69883674 0.8408717 0.11254933 0.04812227 0.0 0.029723728 0.0 0.0
0.024997093 0.017373865 0.7411129 0.8518759 0.1610499 0.04822636 0.0 0.025601989
0.0 0.0 0.020206189 0.01826319 0.7005307 0.84648484 0.14054555 0.049024384
0.0 0.09959855 0.0 0.0 0.018573286 0.020054167 0.6475432 0.7598988
0.13515104 0.04867839 0.0 0.10271913 0.0 0.0 0.01988609 0.01987927
0.6490282 0.75972205 0.1482804 0.04163335 0.0 0.08692484 0.0 0.0
0.020497201 0.020060416 0.65793806 0.7706059 0.13284981 0.04643523 0.0 0.08974591
0.0 0.0 0.021835325 0.019009678 0.66546226 0.7708166 0.15318626 0.045089904
0.0 0.07411223 0.0 0.0 0.02137961 0.0210754 0.6604907 0.7773956
0.12779428 0.0445632 0.0 0.07761752 0.0 0.0 0.022766741 0.018489448
0.6841008 0.7858499 0.1564539 0.04707243 0.0 0.05799324 0.0 0.0
0.020891579 0.020225402 0.6726912 0.7907666 0.123916335 0.04586276 0.0 0.06380927
0.0 0.0 0.022857212 0.019676019 0.6992063 0.8036741 0.16203803 0.047346175
0.0 0.045338873 0.0 0.0 0.019061731 0.019905632 0.6816381 0.8070436
0.117757484 0.046840087 0.0 0.046028372 0.0 0.0 0.023600765 0.018845007
0.72225934 0.8272737 0.16686627 0.045242008 0.0 0.03367784 0.0 0.0
00000000: 14ba 0f3e a0b9 483d 0000 0000 45cc cb3d
00000010: 0000 0000 0000 0000 b1eb 943c db04 a43c
00000020: 0895 253f 524e 423f bb3e 0a3e ac3a 473d
00000030: 0000 0000 1028 d23d 0000 0000 0000 0000
00000040: c2ac 9f3c ce81 a23c b6f6 253f cb44 423f
00000050: 6ba8 173e 0e70 2a3d 0000 0000 59cf b13d
00000060: 0000 0000 0000 0000 b9f1 a43c 05fe a33c
00000070: 4d3d 283f d00b 453f eee7 073e 85fc 3d3d
00000080: 0000 0000 b99d b73d 0000 0000 0000 0000
00000090: c4d4 af3c 0284 9b3c 3e28 2a3f 5519 453f
000000a0: 2ba7 1c3e 3a95 383d 0000 0000 b0a9 973d
000000b0: 0000 0000 0000 0000 d026 ac3c 6f41 ac3c
000000c0: 77e4 283f 86c7 463f acb8 023e 1d77 363d
000000d0: 0000 0000 70d0 9e3d 0000 0000 0000 0000
000000e0: 9989 b73c f932 973c e4ea 2e3f d4ef 483f
000000f0: b403 203e 6e9c 403d 0000 0000 4354 6d3d
00000100: 0000 0000 0000 0000 1fa0 a83c 6965 a53c
00000110: d9ff 2b3f d830 4a3f ef85 fd3d d5b8 3b3d
00000120: 0000 0000 7291 823d 0000 0000 0000 0000
00000130: 2a69 b83c 5a14 a13c 5cc5 323f a17c 4d3f
00000140: ffb5 253e 66b1 413d 0000 0000 2d90 393d
00000150: 0000 0000 0000 0000 3c2a 9a3c 89ab a23c
00000160: 8c47 2e3f ff57 4e3f 2fde f03d 11ac 3f3d
00000170: 0000 0000 4570 3c3d 0000 0000 0000 0000
00000180: 38d2 be3c 3731 9a3c 3daa 383f 4384 533f
00000190: 1a9c 2a3e 1527 393d 0000 0000 3dda 093d
000001a0: 0000 0000 0000 0000 0837 8d3c c08c 9c3c
000001b0: cf2a 313f 2497 533f 80f3 e33d 8542 333d
000001c0: 0000 0000 be11 133d 0000 0000 0000 0000
000001d0: 0e9d c73c 5861 8e3c b6bc 3d3f 0088 583f
000001e0: 5594 283e 95a5 3a3d 0000 0000 2e64 e63c
000001f0: 0000 0000 0000 0000 607a 953c c45b 973c
00000200: f7e6 323f 5e43 573f 4380 e63d db1b 453d
00000210: 0000 0000 2d7f f33c 0000 0000 0000 0000
00000220: b4c6 cc3c a353 8e3c 93b9 3d3f 8a14 5a3f
00000230: 44ea 243e 0189 453d 0000 0000 43bb d13c
00000240: 0000 0000 0000 0000 7387 a53c af9c 953c
00000250: fb55 333f 3bb3 583f 2ceb 0f3e cbcd 483d
00000260: 0000 0000 53fa cb3d 0000 0000 0000 0000
00000270: 0127 983c a348 a43c 64c5 253f ba88 423f
00000280: 0965 0a3e fe62 473d 0000 0000 685e d23d
00000290: 0000 0000 0000 0000 27e8 a23c dad9 a23c
000002a0: b626 263f 257d 423f d1d6 173e bb87 2a3d
000002b0: 0000 0000 a705 b23d 0000 0000 0000 0000
000002c0: bfe9 a73c be55 a43c a16e 283f 6e46 453f
000002d0: c809 083e de32 3e3d 0000 0000 b4cc b73d
000002e0: 0000 0000 0000 0000 ffdf b23c 2fba 9b3c
000002f0: bc5b 2a3f 3d54 453f dcdc 1c3e 31b0 383d
00000300: 0000 0000 27c8 973d 0000 0000 0000 0000
00000310: 4b24 af3c 51a6 ac3c eb15 293f 6603 473f
00000320: 81dc 023e e787 363d 0000 0000 eff5 9e3d
00000330: 0000 0000 0000 0000 5181 ba3c 2f77 973c
00000340: 3b21 2f3f 762d 493f 7335 203e 05cf 403d
00000350: 0000 0000 528a 6d3d 0000 0000 0000 0000
00000360: d124 ab3c beaf a53c 7e35 2c3f ae6f 4a3f
00000370: d9c7 fd3d 97da 3b3d 0000 0000 6fae 823d
00000380: 0000 0000 0000 0000 0c3f bb3c 9a2f a13c
00000390: 2fff 323f 96bd 4d3f 4ced 253e 10ee 413d
000003a0: 0000 0000 41b5 393d 0000 0000 0000 0000
000003b0: 5927 9c3c 2311 a33c d67f 2e3f 699a 4e3f
000003c0: d62a f13d 64db 3f3d 0000 0000 3f88 3c3d
000003d0: 0000 0000 0000 0000 6456 c13c d860 9a3c
000003e0: fde5 383f 36c8 533f fede 2a3e af4f 393d
000003f0: 0000 0000 c6f1 093d 0000 0000 0000 0000

network_body.observation_encoder.processors.1.normalizer.running_mean f4 [6]
229.42047 20.777079 229.51476 20.800175 227.50755 20.846684
00000000: a46b 6543 7537 a641 c783 6543 c266 a641
00000010: ef81 6343 02c6 a641

network_body._body_endoder.seq_layers.0.weight f4 [128, 456]
0.049600583 0.015622981 0.019505829 -0.058555447 0.11894769 0.031713992 0.08570921 0.03244501
0.019737525 -0.0046412772 0.0041778637 -0.000861422 -0.04977809 -0.060592674 0.08718809 0.02520357
-0.0862393 -0.044828363 -0.085145906 -0.06881616 -0.026287233 -0.07228647 0.00858965 -0.18408696
-0.035751227 -0.01714348 -0.016762406 -0.0020096013 0.041167308 0.012789447 -0.06517283 -0.0072890734
0.0027726186 -0.07872951 -0.01856416 0.017594794 0.13071834 -0.055686317 -0.07605135 -0.059426658
-0.03337767 -0.048990127 0.006253241 0.11381352 0.009059802 -0.15883116 0.057516284 -0.053791422
-0.05088032 -0.080148615 -0.05394669 -0.061868466 0.11529918 -0.054695178 0.12762877 -0.046165485
0.046851818 -0.05602326 0.048859105 0.014791172 -0.08099304 0.08689924 -0.036112834 0.031852268
-0.033770118 -0.08105237 -0.011948445 0.08008341 -0.11787368 -0.019859426 0.007639769 0.010742108
-0.034195095 -0.052592468 0.03854887 -0.03507835 0.011475459 0.059772056 0.09636607 -0.034902215
0.003647067 -0.014199094 0.050492194 0.01659568 -0.030067602 0.041689433 0.060269736 -0.09348741
0.04513444 0.04115704 0.0066025704 0.04994877 0.013063197 -0.01902204 -0.045043748 0.04758492
-0.07222683 0.045194913 0.023628471 0.12439734 0.10819989 0.011584407 -0.011274666 -0.006016883
-0.025484163 -0.018986778 -0.0067646415 0.092061654 -0.026244555 -0.0379035 -0.0076065953 0.06489015
-0.010222793 0.001201831 -0.048168626 0.0057647796 -0.049025297 0.019044885 0.053354405 0.015856566
0.06044912 -0.01533823 0.059881043 -0.023838347 -0.021608965 0.037495017 -0.05224339 0.043768845
0.015614608 0.021995462 0.02649392 -0.031165386 -0.062985435 -0.036602896 0.019078631 0.039101336
-0.006108888 0.086716905 0.016345266 0.07047554 0.038668137 0.05404979 -0.064366624 0.028778387
-0.02987948 -0.016934391 0.06420921 0.022713382 0.055685792 0.012400922 -0.024807705 -0.040103607
-0.034923416 0.0036787807 0.017890414 -0.00983047 -0.0059226076 0.08654359 0.1006443 -0.009982408
0.12144158 -0.03111334 0.061272323 -0.049073864 0.07204191 -0.045466863 0.027387269 0.093830235
0.005428734 0.004356952 0.022947177 -0.004998148 0.007843541 0.01377101 0.034203365 -0.0012029518
-0.00018609487 -0.0791107 0.11001297 -0.013130107 -0.06831998 0.027377889 0.045510527 -0.08801407
0.0071080434 0.06755691 0.09675358 -0.059399396 -0.02258535 -0.053217627 0.011613067 0.10870435
-0.02282167 0.0065206257 -0.041112173 0.001479061 -0.04555328 -0.036297366 0.07220857 -0.0019657768
-0.040860962 0.04724716 -0.01409041 -0.13022591 0.014564516 -0.009844766 0.10122043 -0.1789952
0.032168068 -0.0033779975 0.014369864 0.10061457 -0.040225208 -0.022800663 0.004066035 0.0056622536
0.039270602 0.089600325 -0.04784114 -0.20365222 0.015777765 0.06819962 -0.010300797 0.031502113
0.038553916 -0.059591454 -0.059692517 -0.073545806 -0.04090911 -0.04552536 0.027410906 0.033014446
0.02068726 0.07450964 0.0230054 -0.08044418 0.001434989 0.03758892 -0.1710089 -0.11597267
0.04960598 -0.06430244 -0.0056811436 -0.11229511 -0.01666261 0.007703964 0.09109548 0.051696382
0.10773904 0.056266025 0.02362984 -0.06873138 -0.018675502 0.036672276 -0.024222773 0.044395313
00000000: fb29 4b3d 88f7 7f3c b0ca 9f3c d6d7 6fbd
00000010: d99a f33d 88e6 013d 4f88 af3d 0fe5 043d
00000020: 97b0 a13c db15 98bb 76e6 883b 0dd1 61ba
00000030: 1ce4 4bbd 0630 78bd ab8f b23d b877 ce3c
00000040: 3b9e b0bd f29d 37bd fa60 aebd 7def 8cbd
00000050: 5358 d7bc ee0a 94bd 9abb 0c3c 4b81 3cbe
00000060: e16f 12bd 7c70 8cbc 5051 89bc 84b3 03bb
00000070: 0d9f 283d d48a 513c 5579 85bd 2ed9 eebb
00000080: d2b4 353b f03c a1bd de13 98bc f522 903c
00000090: 07db 053e 5617 64bd cfc0 9bbd 5e69 73bd
000000a0: 06b7 08bd dfa9 48bd fde7 cc3b 1017 e93d
000000b0: 906f 143c a3a4 22be 3296 6b3d 6554 5cbd
000000c0: e267 50bd f524 a4bd 34f7 5cbd ca69 7dbd
000000d0: fa21 ec3d 0d08 60bd 1eb1 023e 0518 3dbd
000000e0: b1e7 3f3d a578 65bd 7c20 483d ac56 723c
000000f0: aedf a5bd 3bf8 b13d 0deb 13bd 8677 023d
00000100: 8952 0abd c9fe a5bd 69c3 43bc c502 a43d
00000110: c267 f1bd 3cb0 a2bc 0757 fa3b abff 2f3c
00000120: 2810 0cbd 336b 57bd 6be5 1d3d 51ae 0fbd
00000130: 9003 3c3c 8bd3 743d 935b c53d a0f5 0ebd
00000140: a103 6f3b 51a3 68bc e7d0 4e3d aaf3 873c
00000150: 5550 f6bc 8ac2 2a3d 66dd 763d 5476 bfbd
00000160: e4de 383d 4994 283d 605a d83b 1597 4c3d
00000170: 0507 563c 1cd4 9bbc cb7f 38bd 68e8 423d
00000180: a9eb 93bd 4d1e 393d 7f90 c13c 08c4 fe3d
00000190: e797 dd3d 86cc 3d3c 60b9 38bc 4629 c5bb
000001a0: 2ac4 d0bc 298a 9bbc eda9 ddbb d28a bc3d
000001b0: d2fe d6bc b340 1bbd bf40 f9bb 21e5 843d
000001c0: 807d 27bc c286 9d3a 774c 45bd 7ae6 bc3b
000001d0: c0ce 48bd 0504 9c3c 268a 5a3d a1e5 813c
000001e0: 7f99 773d 334d 7bbc d345 753d a348 c3bc
000001f0: 4905 b1bc 6094 193d 2afd 55bd f646 333d
00000200: 6ad4 7f3c d42f b43c c709 d93c 8d4e ffbc
00000210: 82fe 80bd ebec 15bd ca4a 9c3c b928 203d
00000220: 112d c8bb a298 b13d 82e6 853c 7b55 903d
00000230: 7b62 1e3d 5063 5d3d a6d2 83bd a7c0 eb3c
00000240: d0c5 f4bc feb9 8abc 1e80 833d 6a11 ba3c
00000250: c916 643d 3d2d 4b3c 8739 cbbc ae43 24bd
00000260: db0b 0fbd b317 713b eb8e 923c fb0f 21bc
00000270: 6f12 c2bb c43d b13d 991e ce3d 418d 23bc
00000280: 5db6 f83d 67e1 febc b0f8 7a3d ad01 49bd
00000290: b58a 933d 763b 3abd 445b e03c 112a c03d
000002a0: 85e3 b13b c3c4 8e3b b8fb bb3c 81c7 a3bb
000002b0: 3282 003c cd9f 613c d418 0c3d 5dac 9dba
000002c0: 7622 43b9 ca04 a2bd 7b4e e13d a91f 57bc
000002d0: 58eb 8bbd 9847 e03c 3f69 3a3d b940 b4bd
000002e0: 97ea e83b 475b 8a3d be26 c63d c84c 73bd
000002f0: e904 b9bc bafa 59bd bc44 3e3c 63a0 de3d
00000300: 83f4 babc f9aa d53b 3d65 28bd 0ddd c13a
00000310: 1396 3abd 8cac 14bd 16e2 933d 43d4 00bb
00000320: d35d 27bd 3d86 413d 77db 66bc f159 05be
00000330: 02a0 6e3c f14b 21bc a84c cf3d 854a 37be
00000340: aac2 033d 6561 5dbb 946f 6b3c 030f ce3d
00000350: 30c3 24bd 75c8 babc 603c 853b 6d8a b93b
00000360: 36da 203d 6080 b73d 12f5 43bd 358a 50be
00000370: 5f40 813c 3eac 8b3d adc4 28bc 5c08 013d
00000380: b6ea 1d3d 2b16 74bd 2480 74bd 2f9f 96bd
00000390: 5090 27bd cd78 3abd d68c e03c 283a 073d
000003a0: 5478 a93c 8398 983d d275 bc3c ebbf a4bd
000003b0: 3e16 bc3a d7f6 193d f51c 2fbe 1483 edbd
000003c0: a42f 4b3d ffb0 83bd e328 babb fbfa e5bd
000003d0: 0780 88bc 8971 fc3b 4490 ba3d 96bf 533d
000003e0: 49a6 dc3d 3477 663d 5e93 c13c 0ac3 8cbd
000003f0: 5efd 98bc ab35 163d d66e c6bc dcd7 353d

network_body._body_endoder.seq_layers.0.bias f4 [128]
-0.039104383 -0.03646226 -0.008871243 0.013466955 -0.012889207 0.0028421122 -0.05398699 -0.013615101
-0.021366892 -0.021145327 -0.004236504 0.027015401 -0.04120627 -0.019424407 -0.0077785947 -0.012325208
0.013860471 0.0072333757 0.011428158 -0.01624815 0.005739082 0.020300139 0.022334209 0.0046679457
-0.02506994 0.012280139 -0.034059215 0.0090759285 -0.009683826 -0.009740467 -0.014185076 -0.01798073
-0.004304864 0.013237503 -0.027979834 0.014577734 -0.0154230045 0.019876402 -0.03268727 0.005425769
-0.020889087 -0.013746736 -0.0023203646 0.031745225 -0.016871575 0.0038316983 -0.005188437 -0.058737367
0.01070992 -0.018388322 -0.001146954 0.0066824723 0.006984222 -0.018599529 -0.0019185098 -0.00086706056
-0.012956147 0.013194738 -0.0013275471 -0.030309927 0.021063391 -0.0059377532 -0.021540921 0.00096351793
-0.0148097575 -0.0040935106 0.0077016354 -0.012196276 -0.004664117 0.0102428375 -0.0029747328 -0.019592457
-0.027377225 -0.02269076 -0.0065634977 -0.0061942367 0.010544999 -0.016285654 0.007333332 0.017083298
-0.020127384 -0.0038837367 -0.032577347 -0.0147300195 -0.002467812 -0.020136183 -0.006787948 0.011733276
-0.033895187 -0.010549913 -4.4449684e-05 -0.011756208 -0.0048877676 -0.038790327 -0.036136728 0.027230062
-0.034051206 -0.015035247 0.0101592215 0.021381289 -0.0280861 0.0029818604 -0.0022923318 0.012094193
-0.03075371 -0.016465737 -0.0044771894 -0.009508823 -0.017250422 0.008682903 0.004352944 -0.016157169
0.0060823467 -0.016070262 -0.01483789 0.023998149 -0.009564142 0.007548302 -0.0028488357 -0.06041802
-0.016751256 -0.046422128 -0.0067653377 0.0031915647 -0.010705722 0.0067162523 -0.028312992 -0.0015377263
00000000: eb2b 20bd 7359 15bd b158 11bc 81a4 5c3c
00000010: 412d 53bc bb42 3a3b 7621 5dbd df11 5fbc
00000020: 9f09 afbc f738 adbc 5fd2 8abb 674f dd3c
00000030: e8c7 28bd ef1f 9fbc 95e3 febb abef 49bc
00000040: 0717 633c f405 ed3b 2b3d 3b3c d71a 85bc
00000050: e90e bc3b 7a4c a63c 3bf6 b63c 91f5 983b
00000060: 7a5f cdbc a332 493c ad81 0bbd 34b3 143c
00000070: e9a8 1ebc 7b96 1fbc 8568 68bc 534c 93bc
00000080: d10f 8dbb 1de2 583c f735 e5bc 73d7 6e3c
00000090: c5b0 7cbc d6d3 a23c 16e3 05bd a6ca b13b
000000a0: 971f abbc fd39 61bc 4211 18bb 4807 023d
000000b0: 4236 8abc 3b1d 7b3b c403 aabb 9896 70bd
000000c0: a978 2f3c 1ba3 96bc 6455 96ba a4f8 da3b
000000d0: e7db e43b 0a5e 98bc 8276 fbba 734b 63ba
000000e0: 0546 54bc be2e 583c 1701 aeba 864c f8bc
000000f0: 228d ac3c 7c91 c2bb 9676 b0bc 9894 7c3a
00000100: a0a4 72bc db22 86bb 005e fc3b e4d2 47bc
00000110: 73d5 98bb 93d1 273c bcf3 42bb 5c80 a0bc
00000120: 3446 e0bc f9e1 b9bc 9c12 d7bb 06f9 cabb
00000130: eec4 2c3c 7e69 85bc 734c f03b 46f2 8b3c
00000140: 2fe2 a4bc 4a86 7ebb d36f 05bd 2e56 71bc
00000150: 04bb 21bb a3f4 a4bc 6f6d debb ed3c 403c
00000160: aed5 0abd 8bd9 2cbc 7c6f 3ab8 1c9d 40bc
00000170: 9129 a0bb 9be2 1ebd 1b04 14bd 9411 df3c
00000180: 4779 0bbd 6656 76bc dd72 263c d027 af3c
00000190: d214 e6bc 516b 433b f23a 16bb b926 463c
000001a0: 34ef fbbc 27e3 86bc 63b5 92bb e5ca 1bbc
000001b0: c250 8dbc bc42 0e3c 24a3 8e3b 0a5c 84bc
000001c0: 6c4e c73b c8a5 83bc 9f1a 73bc c497 c43c
000001d0: ebb2 1cbc bf57 f73b 88b3 3abb e378 77bd
000001e0: ee39 89bc 2125 3ebd c4af ddbb 9229 513b
000001f0: 0d67 2fbc 0214 dc3b a6f0 e7bc 888d c9ba

network_body._body_endoder.seq_layers.2.weight f4 [128, 128]
-0.041456908 0.0256233 0.1882677 0.037557676 0.042439368 -0.07544116 -0.17829858 0.046530604
-0.05684267 -0.020614933 0.009517805 -0.0033237832 -0.054968048 0.051262643 -0.060868375 0.06612509
-0.053605773 -0.08453061 -0.06755277 0.014264599 -0.15706259 -0.063722655 -0.022347983 0.0028826923
-0.08667416 -0.050448216 0.059433717 -0.10930472 0.026605764 -0.20309402 -0.061290774 -0.054136638
0.16529639 -0.025691288 0.12800308 -0.10323982 0.06948639 0.03427598 0.023619005 -0.060646333
0.025013052 -0.008758465 -0.01664904 0.17714232 0.0206536 0.044882365 -0.0070511224 -0.023649564
0.17132625 0.10433781 0.08748413 -0.04752999 0.045180265 -0.08153441 0.20413813 -0.09934105
-0.090255 -0.026863612 -0.07650271 0.045883615 -0.023567311 0.010140422 0.06210611 -0.00076803175
-0.16056687 -0.198521 0.1102412 -0.12130036 -0.25823867 0.08733648 0.23802172 0.017254127
-0.04786588 -0.10375973 -0.028019065 0.09340043 0.18982406 -0.15076056 -0.06849583 0.3197454
-0.053419977 -0.1763447 0.02190306 -0.104055405 0.05534515 -0.048716415 -0.005354217 0.05526732
-0.057260115 -0.10674594 -0.055870358 0.105101354 0.16638342 0.04556685 -0.109932125 0.05416097
0.13887103 -0.08107531 0.1703126 0.10704702 -0.087877795 -0.01742804 0.1094356 0.03443268
-0.22358708 0.16342095 0.16899005 -0.07988615 -0.21126807 -0.034212407 -0.118399404 -0.1687882
-0.013251088 -0.08815158 -0.07488437 -0.13939998 -0.116603024 -0.13781776 0.038023405 0.014085323
0.09334042 0.027003076 0.0476747 0.1088093 -0.14419094 0.020352876 -0.11059815 0.06238887
0.014398829 0.021408664 0.096629806 -0.024956906 0.075641625 -0.01979782 0.097238205 0.04576764
0.101957686 0.022840729 0.021175327 0.08711498 0.093499646 -0.041954283 0.10516111 -0.05908217
-0.09276246 -0.039722525 -0.005737894 -0.055151254 -0.050085217 -0.15431459 0.03802481 0.06455688
0.088997856 0.00070632354 -0.045156017 -0.0038097813 0.09010057 0.17536132 0.034722786 0.04567338
0.05229227 0.04654879 -0.13156362 -0.011603168 0.012493694 0.118442126 -0.08669551 0.10817414
-0.07000405 0.14297377 -0.29438812 0.11023068 -0.19858986 -0.14161664 0.009561696 0.08961161
0.11853981 0.025691893 -0.13383517 -0.045113582 0.038622376 -0.065693766 -0.05374205 -0.18127209
-0.035074186 0.040338133 -0.016566042 -0.15331006 0.12568945 0.049011767 0.0062734205 -0.102337636
-0.035914864 0.03066478 0.0021365266 0.16944945 0.11386729 -0.04540566 -0.048535336 -0.04292759
0.06609215 0.02076605 0.00691617 -0.07329133 -0.014644142 0.017911265 -0.034757607 -0.016693547
0.033801075 -0.0852931 -0.02313094 0.002272773 0.13523804 -0.008614418 -0.1216783 0.040343225
0.0027633533 0.07704612 -0.052618027 0.043327775 0.030686054 0.10268777 -0.22388516 0.0072203963
-0.0017316765 0.04381943 0.042655572 0.10991013 -0.05760066 -0.060273822 -0.31092185 0.039732933
-0.04611145 0.008346909 -0.05103841 0.026976995 -0.08959147 -0.2871859 -0.01638832 0.21947049
-0.057867963 0.005407704 -0.11808801 0.016050426 0.052896816 -0.21735395 -0.14633872 -0.07024164
-0.08558235 0.014711234 0.049412295 -0.13250712 -0.09871041 -0.011782056 -0.13378793 -0.033500403
00000000: b8ce 29bd f4e7 d13c 3fc9 403e 14d6 193d
00000010: e7d4 2d3d e580 9abd e793 36be e096 3e3d
00000020: dcd3 68bd a6e0 a8bc 91f0 1b3c d4d3 59bb
00000030: 2d26 61bd c7f8 513d 1e51 79bd 976c 873d
00000040: ba91 5bbd 621e adbd 1b59 8abd 11b6 693c
00000050: 04d5 20be 0681 82bd 1e13 b7bc 8deb 3c3b
00000060: 3982 b1bd caa2 4ebd c570 733d 27db dfbd
00000070: 55f4 d93c e1f7 4fbe 090c 7bbd 61be 5dbd
00000080: 7543 293e 8976 d2bc 3d13 033e 666f d3bd
00000090: e14e 8e3d f864 0c3d a57c c13c 4a68 78bd
000000a0: 2ce8 cc3c aa7f 0fbc 9163 88bc cc64 353e
000000b0: bd31 a93c 92d6 373d 1a0d e7bb bbbc c1bc
000000c0: 2670 2f3e 10af d53d e12a b33d cfae 42bd
000000d0: f10e 393d 83fb a6bd 9609 513e 5273 cbbd
000000e0: 9dd7 b8bd 1411 dcbc 74ad 9cbd 75f0 3b3d
000000f0: 3c10 c1bc 0324 263c fa62 7e3d bd55 49ba
00000100: a46b 24be 1749 4bbe 23c6 e13d 536c f8bd
00000110: dc37 84be 78dd b23d f7bb 733e 8758 8d3c
00000120: 030f 44bd fb7f d4bd 3d88 e5bc ba48 bf3d
00000130: 3d61 423e fa60 1abe 8b47 8cbd abb5 a33e
00000140: e8ce 5abd b493 34be 0c6e b33c 001b d5bd
00000150: 99b1 623d dd8a 47bd 6d72 afbb fc5f 623d
00000160: 9589 6abd 9e9d dabd 51d8 64bd 613f d73d
00000170: 6a60 2a3e 4ea4 3a3d 1824 e1bd e5d7 5d3d
00000180: 3534 0e3e d00a a6bd 6d66 2e3e 783b db3d
00000190: 46f9 b3bd 40c5 8ebc c61f e03d 4809 0d3d
000001a0: 03f4 64be d257 273e ba0b 2d3e 5a9b a3bd
000001b0: a856 58be 4f22 0cbd 637b f2bd d0d6 2cbe
000001c0: 171b 59bc d188 b4bd fa5c 99bd debe 0ebe
000001d0: 91cd eebd 1920 0dbe 6ebe 1b3d 20c6 663c
000001e0: 4329 bf3d 8e35 dd3c 8c46 433d 69d7 de3d
000001f0: caa6 13be 13bb a63c 4881 e2bd 798b 7f3d
00000200: 11e9 6b3c 3961 af3c d9e5 c53d 6d72 ccbc
00000210: ffe9 9a3d 0a2f a2bc d324 c73d d976 3b3d
00000220: 31cf d03d 7b1c bb3c e177 ad3c 5769 b23d
00000230: be7c bf3d 41d8 2bbd b55e d73d 2500 72bd
00000240: 3ffa bdbd 16b4 22bd f204 bcbb 48e6 61bd
00000250: 2826 4dbd a504 1ebe e7bf 1b3d 6636 843d
00000260: 8244 b63d 9228 393a 84f5 38bd 86ad 79bb
00000270: a686 b83d eb91 333e 7b39 0e3d 0314 3b3d
00000280: 6b30 563d f2a9 3e3d 9db8 06be 371b 3ebc
00000290: 5ab2 4c3c c991 f23d 6a8d b1bd 678a dd3d
000002a0: 495e 8fbd b767 123e 0aba 96be 9fc0 e13d
000002b0: 245b 4bbe f403 11be a9a8 1c3c 4b86 b73d
000002c0: 00c5 f23d ce77 d23c 160c 09be 05c9 38bd
000002d0: 7f32 1e3d 748a 86bd a020 5cbd 649f 39be
000002e0: f3a9 0fbd 9939 253d 82b5 87bc 50fd 1cbe
000002f0: bcb4 003e 90c0 483d 4491 cd3b 6596 d1bd
00000300: 771b 13bd b434 fb3c f804 0c3b 2884 2d3e
00000310: 4133 e93d 49fb 39bd fdcc 46bd d7d4 2fbd
00000320: 525b 873d 901d aa3c 0aa1 e23b c419 96bd
00000330: fced 6fbc a5ba 923c fe5d 0ebd e8c0 88bc
00000340: ff72 0a3d 26ae aebd 197d bdbc cef2 143b
00000350: d77b 0a3e 7d23 0dbc 7932 f9bd f03e 253d
00000360: 6019 353b 5bca 9d3d 0086 57bd 7778 313d
00000370: 5261 fb3c f74d d23d 2742 65be 1399 ec3b
00000380: 6cf9 e2ba 017c 333d 9cb7 2e3d 9018 e13d
00000390: abee 6bbd afe1 76bd 2631 9fbe 00bf 223d
000003a0: 5cdf 3cbd 79c1 083c a70d 51bd dcfe dc3c
000003b0: bc7b b7bd 080a 93be cc40 86bc dfbc 603e
000003c0: f506 6dbd 1c33 b13b 20d8 f1bd 2f7c 833c
000003d0: 55aa 583d 0992 5ebe d1d9 15be d9da 8fbd
000003e0: cd45 afbd 6307 713c 8c64 4a3d f2af 07be
000003f0: af28 cabd 8609 41bc b4ff 08be b837 09bd

network_body._body_endoder.seq_layers.2.bias f4 [128]
0.0033025206 0.020585928 0.044470448 0.025345733 0.0067660105 -0.027712448 -0.026834505 0.0090311635
0.019455977 0.014539327 -0.005221193 -0.0065591973 0.008760107 -0.0047639254 -0.010297756 0.014496808
-0.0073353136 0.008198255 -0.02557123 -0.011858036 -0.012773309 -0.0016813276 -0.0320524 0.033228405
0.020957049 -0.01529494 0.012507396 0.018346582 0.0010890288 0.009589364 -0.020920739 0.006349395
-0.03267376 -0.011820916 0.024700753 -0.030559743 0.005914841 0.0035684742 0.03217097 -0.006604796
0.001752678 0.0032890881 -0.020803314 -0.010500593 0.029303188 0.013200402 0.009527333 0.02065974
0.006424684 0.0035125397 -0.0013637429 0.025032181 0.004333204 -0.031397082 -0.025646262 -0.0008275006
0.005077621 -0.00032402406 -0.012872519 -0.042657055 -0.01896695 0.008688439 0.02033418 -0.049987555
0.035755616 -0.003208193 0.0100833895 -0.016761536 0.026417287 0.016085079 0.0075568515 -0.03015254
0.009897087 -0.042794775 -0.01142892 -0.010061023 -0.04325164 0.011742909 0.003918568 0.0104116425
0.009400526 -0.00014191729 -0.0010349256 0.026914682 0.027866269 -0.00074044836 -0.021460691 -0.014510675
0.028919635 0.009515882 0.010810992 0.023425197 -0.026607065 0.006745399 -0.00650449 -0.00497645
0.0028178443 0.0009666965 0.014843052 -0.02263364 -0.030978376 0.012014359 0.023740437 -0.02177279
-0.027628237 0.0016548893 0.020441934 -0.008773501 -0.002516707 0.029605106 -0.036271676 -0.013614503
-0.013158459 -0.038819473 0.04462353 0.03001441 0.006594098 0.020981805 0.013093201 -0.0053016287
0.0033297264 -0.0026037612 -0.009522745 0.018315122 0.01257779 -0.017535845 -0.030209051 0.0020055093
00000000: 1a6f 583b d2a3 a83c a526 363d dba1 cf3c
00000010: 69b5 dd3b 3705 e3bc 09d4 dbbc 72f7 133c
00000020: 2462 9f3c 5b36 6e3c 8b16 abbb 89ee d6bb
00000030: 8d86 0f3c b41a 9cbb ebb7 28bc 0584 6d3c
00000040: 125d f0bb f951 063c c27a d1bc 3548 42bc
00000050: 2447 51bc fe5f dcba 6149 03bd 821a 083d
00000060: 1eae ab3c a197 7abc d2eb 4c3c 924b 963c
00000070: bebd 8e3a b51c 1d3c f861 abbc 960e d03b
00000080: ecd4 05bd 84ac 41bc 3c59 ca3c 6d58 fabc
00000090: 48d1 c13b 10dd 693b b5c5 033d 0b6d d8bb
000000a0: 1dba e53a be8d 573b b66b aabc ae0a 2cbc
000000b0: 3d0d f03c 8046 583c 8818 1c3c 9d3e a93c
000000c0: 2886 d23b a332 663b 9ebf b2ba 4a10 cd3c
000000d0: 8dfd 8d3b 3a9a 00bd 1c18 d2bc a0ec 58ba
000000e0: 2c62 a63b c6e1 a9b9 42e7 52bc 2ab9 2ebd
000000f0: 9460 9bbc f459 0e3c de93 a63c c0bf 4cbd
00000100: 7b74 123d 8c40 52bb cd34 253c 7d4f 89bc
00000110: 1169 d83c dbc4 833c 779f f73b 7602 f7bc
00000120: 6427 223c 9349 2fbd 5d40 3bbc fdd6 24bc
00000130: a228 31bd 5565 403c 5567 803b 9895 2a3c
00000140: aa04 1a3c a2cf 14b9 57a6 87ba 2e7c dc3c
00000150: cd47 e43c a61a 42ba 55ce afbc 2fbe 6dbc
00000160: dfe8 ec3c 80e8 1b3c 9620 313c 33e6 bf3c
00000170: 0ff7 d9bc 8208 dd3b 9e23 d5bb 7d11 a3bb
00000180: 95ab 383b e769 7d3a 4630 733c 2f6a b9bc
00000190: 5dc6 fdbc e0d7 443c 4e7b c23c da5c b2bc
000001a0: 9d54 e2bc dfe8 d83a d875 a73c bbbe 0fbc
000001b0: 56ef 24bb 6886 f23c 9c91 14bd 5d0f 5fbc
000001c0: 9496 57bc 2b01 1fbd 2ac7 363d c8e0 f53c
000001d0: 4e13 d83b 09e2 ab3c de84 563c 49b9 adbb
000001e0: 8a37 5a3b dda3 2abb 4a05 1cbc 9809 963c
000001f0: 1313 4e3c 55a7 8fbc f978 f7bc dd6e 033b

action_model._discrete_distribution.branches.0.weight f4 [2, 128]
-0.051455792 -0.02935328 -0.0058077956 0.010192018 -0.04218616 0.019142551 0.032073624 0.026130682
0.024394466 -0.014875166 -0.04401919 0.0540562 -0.023113206 0.008966854 0.0018079833 0.0034955514
0.06360806 0.04545767 0.007772725 0.027451904 -0.004927727 0.030409502 0.0024816664 0.047423374
-0.07956631 0.07562446 -0.06242609 -0.026261177 0.00017916193 0.07268271 0.043411624 -0.019376414
0.008902926 -0.017029226 -0.022139434 0.03258737 0.044271193 -0.010529785 -0.00774741 -0.041053537
0.012079893 -0.015805623 0.04722189 -0.0028961143 -0.0085769 0.06890952 0.07714871 -0.021927312
-0.0089908 0.02994606 0.05611073 -0.0408673 0.014006953 -0.0011553945 0.05085244 -0.041026656
0.049113344 0.042501263 0.018841403 -0.0014680241 0.017461486 -0.076333664 -0.026114197 0.022907302
0.028775666 -0.010204102 -0.024056667 0.01959895 -0.03367601 -0.043396894 0.034589313 -0.017556997
0.061353937 0.009008105 0.042025976 -0.013325394 0.023667172 0.021164205 -0.068339966 0.0043457635
-0.06867646 -0.017986514 -0.0024023394 0.010853637 0.020978015 0.002618189 0.0042387107 -0.013281833
0.009844147 0.03470843 -0.09512519 -0.018294882 0.028195908 0.005179293 -0.0027083703 0.027296474
0.021827023 -0.05450445 0.015813068 0.013117048 0.032272734 -0.019332321 -0.05408789 -0.027926523
0.008443087 0.021708185 0.05036526 0.094954625 0.0023963135 -0.057342526 0.057986986 0.0038676022
-0.0012791804 0.015261176 -0.007335653 -0.07826967 -0.059796847 0.011546182 -0.032666817 -0.0026873755
-0.041062616 0.0038313614 0.004894604 0.042951986 -0.034579415 0.012083733 0.021212563 0.045300063
0.074347936 0.036244407 0.03252839 -0.029775575 0.047144324 -0.005909863 -0.032453734 -0.010885731
-0.021854969 0.010960412 0.021547168 -0.06640032 0.0069094957 -0.011072027 -0.008474253 0.014612921
-0.053614035 -0.058930393 -0.013892714 -0.035862677 0.0013950742 -0.043177873 -0.027023664 -0.04765547
0.08145342 -0.0879475 0.055534635 0.033954605 0.0050181528 -0.06484084 -0.032619797 0.028802423
-0.018153576 0.01555163 0.005008652 -0.020759588 -0.047204312 0.021419616 0.002025639 0.016176559
-0.018474849 0.008139007 -0.049132433 -0.004333579 0.0045535667 -0.057606958 -0.064495176 0.001845372
0.026333485 -0.030991921 -0.04446912 0.036083374 0.0022179086 -0.0070812493 -0.037598606 0.032863773
-0.050324317 -0.043521613 -0.019612996 -0.0129558565 -0.022527497 0.068047576 0.058698263 -0.007275184
-0.027461318 0.008223257 0.024672389 -0.005297499 0.03536146 0.044744626 -0.029457659 0.0019831483
-0.045840207 -0.019321412 -0.037119195 0.0072670593 -0.019334741 -0.025739241 0.05268645 -0.013035546
0.06693816 0.02903391 -0.0048571923 0.0033513848 -0.028641788 -0.008538828 -0.0074924203 0.015758608
0.0064191944 -0.0427906 0.08286978 0.007890544 -0.01400549 -0.00076448807 0.013915491 -0.0506753
-0.01513092 0.043149773 -0.012655634 -0.006294716 -0.026102697 0.035868157 0.047238544 0.014989968
0.00468172 -0.026044598 -0.044192556 -0.09426861 0.0019629353 0.05302633 -0.04658059 0.015628872
0.004392158 0.0043920474 0.015778758 0.0666213 0.057523496 0.0005289386 0.03483969 0.010483333
0.042459823 -0.0014874517 -0.0069718547 -0.030111277 0.052343566 -0.011087892 -0.014195421 -0.04482943
00000000: 4fc3 52bd 4a76 f0bc 524f bebb 6cfc 263c
00000010: 65cb 2cbd d7d0 9c3c a25f 033d 0310 d63c
00000020: e7d6 c73c f8b6 73bc 774d 34bd 096a 5d3d
00000030: e857 bdbc b6e9 123c daf9 ec3a 9f15 653b
00000040: f144 823d d231 3a3d 58b2 fe3b d1e2 e03c
00000050: c578 a1bb 591d f93c 74a3 223b 033f 423d
00000060: a9f3 a2bd ffe0 9a3d 80b2 7fbd ae21 d7bc
00000070: 6add 3b39 acda 943d 63d0 313d 49bb 9ebc
00000080: 94dd 113c e080 8bbc c25d b5bc 567a 053d
00000090: b655 353d 1f85 2cbc fcdd fdbb c127 28bd
000000a0: beea 453c cb7a 81bc be6b 413d bccc 3dbb
000000b0: 2086 0cbc 6f20 8d3d 2500 9e3d e8a0 b3bc
000000c0: 264e 13bc 7151 f53c 5dd4 653d 7864 27bd
000000d0: 6b7d 653c 9b70 97ba a64a 503d 910b 28bd
000000e0: 132b 493d ce15 2e3d 4959 9a3c b76a c0ba
000000f0: 640b 8f3c d354 9cbd 71ed d5bc 18a8 bb3c
00000100: f2ba eb3c 1b2f 27bc 7d12 c5bc fa8d a03c
00000110: dbef 09bd f1c0 31bd 86ad 0d3d b1d3 8fbc
00000120: 444e 7b3d bb96 133c 6e23 2c3d c152 5abc
00000130: a8e1 c13c 8e60 ad3c d3f5 8bbd e866 8e3b
00000140: 3ea6 8cbd 7458 93bc 9170 1dbb 74d3 313c
00000150: 16da ab3c ec95 2b3b e2e4 8a3b 0c9c 59bc
00000160: 5849 213c 6d2a 0e3d ffd0 c2bd 26df 95bc
00000170: 1bfb e63c 0fb7 a93b ea7e 31bb db9c df3c
00000180: 96ce b23c 0f40 5fbd 688a 813c e3e8 563c
00000190: 6a30 043d d15e 9ebc 438b 5dbd 2ac6 e4bc
000001a0: e054 0a3c 5dd5 b13c ce4b 4e3d 9277 c23d
000001b0: 780b 1d3b ffdf 6abd c383 6d3d 9977 7d3b
000001c0: 2caa a7ba 030a 7a3c eb5f f0bb d94b a0bd
000001d0: 8aed 74bd 332c 3d3c a4cd 05bd ae1e 30bb
000001e0: 4631 28bd 9417 7b3b ea62 a03b 6cee 2f3d
000001f0: 25a3 0dbd dafa 453c f8c5 ad3c 8f8c 393d
00000200: bb43 983d 0475 143d 7d3c 053d e8eb f3bc
00000210: 681a 413d 86a7 c1bb 35ee 04bd 115a 32bc
00000220: 3109 b3bc 4d93 333c b083 b03c e4fc 87bd
00000230: 0d69 e23b 7267 35bc 98d7 0abc 086b 6f3c
00000240: 649a 5bbd ff60 71bd 449e 63bc bee4 12bd
00000250: ecda b63a 48db 30bd bb60 ddbc 6232 43bd
00000260: 0dd1 a63d d21d b4bd 4978 633d fc13 0b3d
00000270: 516f a43b 46cb 84bd 569c 05bd 0ff3 eb3c
00000280: cfb6 94bc 44cc 7e3c 9e1f a43b 0310 aabc
00000290: 4f59 41bd 3178 af3c 95c0 043b b484 843c
000002a0: 9158 97bc 7859 053c 173f 49bd b200 8ebb
000002b0: 1636 953b 46f5 6bbd 0c16 84bd 69e0 f13a
000002c0: 52b9 d73c c5e2 fdbc 4125 36bd 29cc 133d
000002d0: 555a 113b d309 e8bb ff00 1abd 2a9c 063d
000002e0: df20 4ebd b843 32bd 6fab a0bc cd44 54bc
000002f0: 968b b8bc 875c 8b3d 976d 703d ab64 eebb
00000300: 8ff6 e0bc d7ba 063c c01d ca3c a496 adbb
00000310: 2ed7 103d 2446 373d 3051 f1bc b5f7 013b
00000320: f1c2 3bbd f047 9ebc 4c0a 18bd 8320 ee3b
00000330: e463 9ebc 1adb d2bc bfcd 573d 0b93 55bc
00000340: e016 893d 86d8 ed3c 1529 9fbb e8a2 5b3b
00000350: 2fa2 eabc 71e6 0bbc fa82 f5bb 3218 813c
00000360: 1b58 d23b 3245 2fbd a2b7 a93d 5747 013c
00000370: 4877 65bc ed67 48ba cdfd 633c e790 4fbd
00000380: aee7 77bc d1bd 303d 9459 4fbc e843 cebb
00000390: 53d5 d5bc 7dea 123d 347d 413d 7c98 753c
000003a0: 1d69 993b 7b5b d5bc 4103 35bd e70f c1bd
000003b0: 97a4 003b 2332 593d 4acb 3ebd 1f08 803c
000003c0: 17ec 8f3b 2aeb 8f3b 7442 813c c070 883d
000003d0: c29d 6b3d 78a8 0a3a 10b4 0e3d 49c2 2b3c
000003e0: 5aea 2d3d 99f6 c2ba 2874 e4bb edab f6bc
000003f0: 3566 563d fda9 35bc e993 68bc 109f 37bd

action_model._discrete_distribution.branches.0.bias f4 [2]
-0.00996031 0.009960302
00000000: 9130 23bc 8930 233c

action_model._discrete_distribution.branches.1.weight f4 [3, 128]
-0.027588254 -0.0053751008 -0.066052295 -0.07231246 0.029579319 -0.0046375114 0.050795197 -0.005203958
-0.058021713 -0.054901198 0.03030056 -0.0010011711 0.0057945857 -0.033465825 0.005086939 0.096616305
0.061197054 0.04732183 0.009579902 0.02310765 0.03773727 -0.025441924 0.02644108 0.06418129
0.0048598326 0.010082279 0.030324206 -0.03836563 -0.047001224 0.009115502 0.019348467 0.020095808
-0.0052819615 0.038303096 -0.14570741 -0.014930028 0.061207898 0.06985363 0.018520176 0.017014947
0.005097861 -0.060986556 0.033864394 0.02511559 -0.08026387 -0.0081836 0.04537423 -0.03189858
0.047615536 -0.018379457 -0.021019455 0.0037594512 0.028609842 -0.0044515026 0.017312601 -0.0036367178
-0.041204546 0.055639412 -0.03419599 0.0015855802 0.040591262 -0.02046899 -0.0053538657 0.008395688
-0.0074208286 0.00024206263 -0.004522224 -0.0115388315 -0.048358273 0.039333988 -0.044775143 0.010112783
-0.031876717 0.03690269 0.014432109 -0.008888392 0.037871227 0.011723937 -0.0064772824 -0.041641295
0.081169814 -0.022104755 -0.044469457 0.03509031 -0.06316958 0.07129569 0.06099718 0.065864265
-0.034102023 -0.0012782904 0.043512203 -0.033932347 0.009800076 0.05123888 -0.03114868 0.025228482
0.03720208 0.0068810405 0.046522766 -0.022504356 0.02621365 -0.003082192 0.001144938 0.026135264
0.012679273 -0.04403075 0.03268876 0.022442583 0.03757609 -0.024371736 0.0031857607 0.0509793
0.03757272 0.014730586 -0.078082345 0.052405316 0.022327945 -0.026713409 0.087504394 0.0047529987
-0.00842895 0.0746222 0.053593487 -0.08641284 -0.027895715 0.039354026 0.023898322 0.01669051
0.043490164 -0.04787998 0.04137036 0.022187546 -0.055114288 0.0004135972 -0.02265453 0.059092607
0.028885908 0.09964781 -0.0028781858 0.009388333 -0.018391265 0.039576553 -0.030000702 -0.06873263
-0.010089535 -0.054515515 -0.039321836 -0.0013962295 -0.06485459 0.044476446 -0.019893927 -0.11460133
-0.027660199 0.021884896 0.020050107 0.023914076 0.03340196 -0.051771518 -0.0015017681 0.032899197
0.042479463 0.0037549792 0.09972855 0.025995146 0.011450958 -0.026140923 0.0501124 0.017599588
0.031855747 -0.0071529187 -0.004028572 -0.036737066 0.012268469 0.032651916 -0.062071692 0.10516994
0.012217664 0.041998867 0.020823952 -0.062522344 -0.091851406 0.028296024 0.040678527 0.01600548
0.05539948 0.019523852 0.04779309 0.021681003 -0.0013540287 0.040028147 0.008738403 0.0034788828
-0.08217763 0.04836501 0.04449812 0.039267976 0.024248937 -0.05192809 0.030112345 -0.022499343
0.030977258 -0.029410074 -0.0046511632 0.03790341 -0.025622789 -0.08293548 0.0065017343 -0.058141746
-0.026566733 -0.049733013 -0.018337945 -0.06969408 0.053225953 -0.07526261 -0.034560446 -0.01122837
0.09239174 -0.06792042 -0.014818008 0.09358239 0.013873237 -0.03399899 -0.04553189 0.02454321
-0.055340443 -0.059783068 0.038902972 0.012076744 -0.0055322754 0.053319383 -0.05483385 -0.0158791
-0.027113268 0.045954116 0.06160525 -0.037777837 0.045578197 -0.00906465 -0.007232357 -0.01599217
-0.03496737 -0.017138109 -0.0039928122 -0.052658223 0.013352177 -0.08768503 0.014996917 0.00088435947
-0.017966788 -0.051232044 0.021061448 0.0374586 0.043705914 -0.0601304 0.013776668 0.025599895
00000000: c300 e2bc 9d21 b0bb 6d46 87bd 8e18 94bd
00000010: 5450 f23c 44f6 97bb a00e 503d f785 aabb
00000020: 2da8 6dbd 14e0 60bd e138 f83c ba39 83ba
00000030: 82e0 bd3b 7613 09bd 56b0 a63b c5de c53d
00000040: c3a9 7a3d 89d4 413d 05f5 1c3c 414c bd3c
00000050: 6592 1a3d 956b d0bc f79a d83c 7b71 833d
00000060: 3b3f 9f3b 2530 253c 786a f83c 4725 1dbd
00000070: 5b84 40bd 3059 153c ad80 9e3c f79f a43c
00000080: 4e14 adbb b5e3 1c3d 5334 15be 139d 74bc
00000090: 22b5 7a3d 6c0f 8f3d a0b7 973c ee62 8b3c
000000a0: f50b a73b 0acd 79bd 64b5 0a3d 36bf cd3c
000000b0: 6261 a4bd 8214 06bc 54da 393d 16a8 02bd
000000c0: 8208 433d 8490 96bc fe30 acbc 2061 763b
000000d0: 305f ea3c e9dd 91bb 28d3 8d3c 0056 6ebb
000000e0: 19c6 28bd 27e6 633d 1811 0cbd 3ed3 cf3a
000000f0: 0643 263d 95ae a7bc 7b6f afbb 118e 093c
00000100: 6c2a f3bb 31d2 7d39 2a2f 94bb 5e0d 3dbc
00000110: 5313 46bd ad1c 213d 2466 37bd 16b0 253c
00000120: 2991 02bd 4627 173d a774 6c3c 9ea0 11bc
00000130: dc1e 1b3d c115 403c 623f d4bb 1090 2abd
00000140: 5c3c a63d 0815 b5bc 9b25 36bd dbba 0f3d
00000150: 0e5f 81bd 7a03 923d 2ed8 793d d8e3 863d
00000160: 90ae 0bbd 4f8c a7ba da39 323d a5fc 0abd
00000170: 7f90 203c dcdf 513d 842b ffbc f6ab ce3c
00000180: 3561 183d 5a7a e13b a88e 3e3d 0e5b b8bc
00000190: 02be d63c 9afe 49bb bf11 963a 9f19 d63c
000001a0: babc 4f3c 9659 34bd a6e4 053d 82d9 b73c
000001b0: 63e9 193d 3ca7 c7bc 32c8 503b accf 503d
000001c0: dae5 193d 8e58 713c a3e9 9fbd f5a6 563d
000001d0: 18e9 b63c 14d6 dabc 8135 b33d 0bbf 9b3b
000001e0: 9419 0abc 86d3 983d d884 5b3d 37f9 b0bd
000001f0: 8e85 e4bc b031 213d 6ac6 c33c 89ba 883c
00000200: be22 323d cc1d 44bd f773 293d a8c2 b53c
00000210: 85bf 61bd 14d8 d839 fe95 b9bc 170b 723d
00000220: 24a2 ec3c 2714 cc3d f29f 3cbb 86d1 193c
00000230: 47a9 96bc 061b 223d 08c4 f5bc b1c3 8cbd
00000240: 944e 25bc a94b 5fbd ef0f 21bd b001 b7ba
00000250: 7cd2 84bd ef2c 363d 97f8 a2bc 1ab4 eabd
00000260: a497 e2bc f447 b33c 1f40 a43c 74e7 c33c
00000270: 7ed0 083d 5f0e 54bd fad6 c4ba 4fc1 063d
00000280: f2fe 2d3d 1916 763b 7b3e cc3d c6f3 d43c
00000290: cd9c 3b3c 7d25 d6bc a942 4d3d 032d 903c
000002a0: 2c7b 023d 0863 eabb 1c02 84bb 9b79 16bd
000002b0: b001 493c 04be 053d e33e 7ebd 5663 d73d
000002c0: 992c 483c 0107 2c3d fe96 aa3c b70b 80bd
000002d0: 971c bcbd 10cd e73c 879e 263d ed1d 833c
000002e0: 91ea 623d 7cf0 9f3c b0c2 433d 5c9c b13c
000002f0: aa79 b1ba 8ef4 233d 852b 0f3c f8fd 633b
00000300: bf4c a8bd 641a 463d a943 363d 75d7 203d
00000310: b5a5 c63c 8db2 54bd 2aae f63c 8b50 b8bc
00000320: 05c4 fd3c 65ed f0bc c968 98bb 9b40 1b3d
00000330: e2e6 d1bc 14da a9bd 800c d53b 0a26 6ebd
00000340: 7aa2 d9bc d8b4 4bbd 7539 96bc c5bb 8ebd
00000350: 7503 5a3d 4923 9abd 418f 0dbd 32f7 37bc
00000360: e137 bd3d dc19 8bbd 3bc7 72bc 20a8 bf3d
00000370: 934c 633c 8642 0bbd a67f 3abd d80e c93c
00000380: a9ac 62bd 17df 74bd b958 1f3d 89dd 453c
00000390: 1748 b5bb 6d65 5a3d 7699 60bd e314 82bc
000003a0: a51c debc 623a 3c3d c955 7c3d efbc 1abd
000003b0: 34b0 3a3d e683 14bc 68fd ecbb 0302 83bc
000003c0: f239 0fbd 3865 8cbc 23d6 82bb 26b0 57bd
000003d0: 17c3 5a3c 3694 b3bd a1b5 753c 5cd4 673a
000003e0: 162f 93bc b1d8 51bd 0f89 ac3c 306e 193d
000003f0: f904 333d 4b4b 76bd 89b7 613c dfb6 d13c

action_model._discrete_distribution.branches.1.bias f4 [3]
-0.019265698 0.010234055 0.00888065
00000000: 19d3 9dbc bdac 273c 2580 113c

action_model._discrete_distribution.branches.2.weight f4 [1, 128]
0.010613707 -0.0010623882 0.024516901 -0.0063291737 -0.0070192027 0.0036847496 0.006819843 -0.0082958415
-0.013279689 0.009985698 0.0028396975 0.001736693 -0.02076122 -0.0017692357 -0.0036896248 -0.0043750764
0.015390806 0.009219872 0.0074061165 -0.0033386399 0.01258524 -0.008625965 -0.007287127 0.0014321082
0.008586052 -0.0041285376 0.00027196115 -0.0012682943 0.0063610426 0.000711028 0.0034336278 0.0080447905
-0.009929645 -0.016870728 -0.012547073 -0.0030179946 0.0011390791 -0.016061159 0.005155071 0.007985921
-0.014005995 -0.0043529593 0.015736459 -0.0047181672 -0.002756843 -0.003322997 0.005373972 0.015466489
0.0071437224 0.001290935 -0.0059028375 -0.013021466 0.0041963467 -0.0020898206 0.007271256 -0.01138699
-0.007101924 -0.015114856 7.180897e-05 -0.0012870905 -0.002134985 -0.01259125 0.014344104 0.008345092
0.0016801067 -0.0021898996 0.024632467 0.009151757 -0.012763562 -0.00495639 0.012087205 0.006045588
-0.007942229 -0.013118781 0.004903527 -0.00040650545 -0.01844069 -0.006172709 -0.006320979 0.004271039
0.00367763 -0.012851873 -0.0020599612 -0.0113035 -0.009492024 0.0063221813 0.00068447395 -0.00018530077
0.0008706683 0.00978136 -0.0033053532 0.008148969 0.004000488 -0.00281675 0.005453491 -0.0057571228
0.000119821205 -0.006522408 0.013311313 0.0049362085 -0.0032042868 -0.0055213724 0.01501242 -0.01002281
-0.011013956 0.0077142357 -0.0019406582 0.007947678 0.0011173016 0.016971955 0.010989124 -0.004150168
-0.011645087 -0.0013420036 0.014017621 -0.014257445 0.0015954124 -0.009044747 -0.0033285667 -0.012722415
0.0072474675 0.012853357 0.0011210468 0.009314119 0.011737639 -0.010942557 0.0048413393 -0.002657918
00000000: 1de5 2d3c d53f 8bba abd7 c83c f564 cfbb
00000010: 5701 e6bb d77b 713b fd78 df3b 48eb 07bc
00000020: 0d93 59bc 0e9b 233c 381a 3a3b bfa1 e33a
00000030: 6f13 aabc b3e5 e7ba a2cd 71bb cd5c 8fbb
00000040: b829 7c3c f20e 173c 02af f23b 15cd 5abb
00000050: 5332 4e3c eb53 0dbc dac8 eebb 94b5 bb3a
00000060: 83ac 0c3c af48 87bb 0296 8e39 e53c a6ba
00000070: 4b70 d03b 4864 3a3a b706 613b 4cce 033c
00000080: f3af 22bc 7b34 8abc 3d92 4dbc 8cc9 45bb
00000090: 274d 953a b192 83bc dfeb a83b 61d7 023c
000000a0: 6779 65bc 45a3 8ebb bfe9 803c db9a 9abb
000000b0: 27ac 34bb a3c6 59bb 2518 b03b 2867 7d3c
000000c0: e315 ea3b 9734 a93a 976c c1bb fd57 55bc
000000d0: 8281 893b 5ff5 08bb b743 ee3b 7f90 3abc
000000e0: 42b7 e8bb 4da4 77bc 2698 9638 97b3 a8ba
000000f0: 1beb 0bbb 884b 4ebc 8803 6b3c dab9 083c
00000100: 0737 dc3a 6b84 0fbb 07ca c93c 40f1 153c
00000110: 421e 51bc 3669 a2bb 6a09 463c 111a c63b
00000120: 1f20 02bc 28f0 56bc c4ad a03b 3d20 d5b9
00000130: ee10 97bc 7044 cabb 3720 cfbb 12f4 8b3b
00000140: 6504 713b aa90 52bc 6a00 07bb 5132 39bc
00000150: 6f84 1bbc 4d2a cf3b 456e 333a 4c4d 42b9
00000160: 8f3d 643a ff41 203c a09e 58bb 4183 053c
00000170: 8716 833b 3999 38bb 33b3 b23b 3fa6 bcbb
00000180: 8548 fb38 edb9 d5bb b217 5a3c ebbf a13b
00000190: 03ff 51bb a1ec b4bb a7f6 753c b636 24bc
000001a0: e173 34bc b3c7 fc3b af5d feba fa36 023c
000001b0: 6c72 923a c508 8b3c ba0b 343c 22fe 87bb
000001c0: 09cb 3ebc 2be6 afba 2aaa 653c 0f98 69bc
000001d0: 281d d13a 6b30 14bc 1524 5abb ad71 50bc
000001e0: 2a7c ed3b e396 523c 17f0 923a 3f9a 183c
000001f0: 3a4f 403c 6948 33bc 19a4 9e3b 7730 2ebb

onnx::Div_94 f4 [450]
0.34736437 0.21587928 0.0017980464 0.29935113 0.0017980464 0.0017980464 0.13361353 0.1400871
0.47797093 0.38206616 0.34174234 0.21511331 0.0017980464 0.30345452 0.0017980464 0.0017980464
0.13825847 0.13945432 0.4775103 0.38243583 0.35522285 0.1997111 0.0017980464 0.28158444
0.0017980464 0.0017980464 0.1404746 0.14007764 0.47464305 0.37588343 0.33926743 0.21031357
0.0017980464 0.2856985 0.0017980464 0.0017980464 0.14493704 0.13648373 0.47211498 0.37733126
0.35997498 0.20745677 0.0017980464 0.2618753 0.0017980464 0.0017980464 0.14344433 0.1434875
0.47380254 0.36946774 0.33370924 0.20631368 0.0017980464 0.2674575 0.0017980464 0.0017980464
0.14800616 0.1346147 0.46521103 0.3677064 0.36310083 0.21169598 0.0017980464 0.23364656
0.0017980464 0.0017980464 0.14200042 0.14066334 0.4695382 0.35845172 0.3293488 0.2091191
0.0017980464 0.24431847 0.0017980464 0.0017980464 0.14835024 0.1388545 0.45898753 0.3520992
0.36830166 0.2122583 0.0017980464 0.20797557 0.0017980464 0.0017980464 0.13590018 0.13952288
0.46617675 0.3421663 0.32215175 0.21119769 0.0017980464 0.20949878 0.0017980464 0.0017980464
0.15084398 0.13591397 0.44834265 0.32996166 0.3726286 0.20775884 0.0017980464 0.18034229
0.0017980464 0.0017980464 0.13017301 0.1369282 0.46164817 0.32042718 0.3145124 0.20457897
0.0017980464 0.18605281 0.0017980464 0.0017980464 0.15419278 0.13070293 0.43800223 0.3115734
0.37085798 0.20855278 0.0017980464 0.1653387 0.0017980464 0.0017980464 0.13385788 0.13468489
0.45876816 0.30401623 0.31604785 0.21402718 0.0017980464 0.16983321 0.0017980464 0.0017980464
0.15612356 0.13067946 0.4380287 0.30320427 0.36757562 0.21424234 0.0017980464 0.1579544
0.0017980464 0.0017980464 0.14071825 0.13392043 0.458028 0.2966389 0.34755775 0.21591978
0.0017980464 0.29946792 0.0017980464 0.0017980464 0.13502714 0.14019774 0.4777475 0.38138813
0.34189686 0.21519454 0.0017980464 0.30359006 0.0017980464 0.0017980464 0.1396231 0.13959874
0.4772825 0.38178667 0.3553943 0.19976293 0.0017980464 0.2817356 0.0017980464 0.0017980464
0.14170595 0.14022152 0.47440696 0.37517336 0.33940864 0.21042493 0.0017980464 0.2858282
0.0017980464 0.0017980464 0.14615823 0.13657477 0.47183922 0.37663 0.36017036 0.20751332
0.0017980464 0.26196986 0.0017980464 0.0017980464 0.14465867 0.14364909 0.47354898 0.36871132
0.3338595 0.20634921 0.0017980464 0.26756945 0.0017980464 0.0017980464 0.14916912 0.13473028
0.46487656 0.36691338 0.36328018 0.21179958 0.0017980464 0.23374444 0.0017980464 0.0017980464
0.14303315 0.1407845 0.46923172 0.35760725 0.32949215 0.20918922 0.0017980464 0.24441639
0.0017980464 0.0017980464 0.14945905 0.13889918 0.45860234 0.35119557 0.36849654 0.21238221
0.0017980464 0.20805328 0.0017980464 0.0017980464 0.13675557 0.1396895 0.4658395 0.34117502
0.32232365 0.21129483 0.0017980464 0.20954785 0.0017980464 0.0017980464 0.15181042 0.135994
0.4478862 0.32886204 0.37285712 0.20784365 0.0017980464 0.1804008 0.0017980464 0.0017980464
00000000: bed9 b13e 750f 5d3e 6dac eb3a 8d44 993e
00000010: 6dac eb3a 6dac eb3a fcd1 083e fe72 0f3e
00000020: 9bb8 f43e 2d9e c33e daf8 ae3e aa46 5c3e
00000030: 6dac eb3a 645e 9b3e 6dac eb3a 6dac eb3a
00000040: a193 0d3e 1dcd 0e3e 3b7c f43e a1ce c33e
00000050: c5df b53e 1181 4c3e 6dac eb3a d62b 903e
00000060: 6dac eb3a 6dac eb3a 93d8 0f3e 8370 0f3e
00000070: 6a04 f33e cb73 c03e 76b4 ad3e 715c 573e
00000080: 6dac eb3a 1347 923e 6dac eb3a 6dac eb3a
00000090: 606a 143e 64c2 0b3e 0eb9 f13e 9031 c13e
000000a0: a44e b83e 8c6f 543e 6dac eb3a 8514 863e
000000b0: 6dac eb3a 6dac eb3a 12e3 123e 63ee 123e
000000c0: 3f96 f23e e02a bd3e f0db aa3e e543 533e
000000d0: 6dac eb3a 30f0 883e 6dac eb3a 6dac eb3a
000000e0: ed8e 173e 70d8 093e 2430 ee3e 0344 bc3e
000000f0: 5ae8 b93e d5c6 583e 6dac eb3a 0b41 6f3e
00000100: 6dac eb3a 6dac eb3a 8f68 113e 0d0a 103e
00000110: 5067 f03e fc86 b73e 68a0 a83e 5123 563e
00000120: 6dac eb3a 9f2e 7a3e 6dac eb3a 6dac eb3a
00000130: 20e9 173e e02f 0e3e 6a00 eb3e 5946 b43e
00000140: 0992 bc3e 3d5a 593e 6dac eb3a 8cf7 543e
00000150: 6dac eb3a 6dac eb3a 6b29 0b3e 16df 0e3e
00000160: b8ae ee3e 6c30 af3e 13f1 a43e 3544 583e
00000170: 6dac eb3a d986 563e 6dac eb3a 6dac eb3a
00000180: d876 1a3e 082d 0b3e 2b8d e53e bcf0 a83e
00000190: 2dc9 be3e bcbe 543e 6dac eb3a a6ab 383e
000001a0: 6dac eb3a 6dac eb3a 134c 053e e836 0c3e
000001b0: 265d ec3e 080f a43e c507 a13e 267d 513e
000001c0: 6dac eb3a a184 3e3e 6dac eb3a 6dac eb3a
000001d0: b6e4 1d3e fdd6 053e d441 e03e 8c86 9f3e
000001e0: 19e1 bd3e dc8e 553e 6dac eb3a 8c4e 293e
000001f0: 6dac eb3a 6dac eb3a 0a12 093e d6ea 093e
00000200: a9e3 ea3e 04a8 9b3e 06d1 a13e f129 5b3e
00000210: 6dac eb3a c2e8 2d3e 6dac eb3a 6dac eb3a
00000220: dbde 1f3e d6d0 053e 4c45 e03e 973d 9b3e
00000230: df32 bc3e 5862 5b3e 6dac eb3a ccbe 213e
00000240: 6dac eb3a 6dac eb3a 7218 103e 7022 093e
00000250: a582 ea3e 0ee1 973e 17f3 b13e 131a 5d3e
00000260: 6dac eb3a dc53 993e 6dac eb3a 6dac eb3a
00000270: 8e44 0a3e ff8f 0f3e 529b f43e 4e45 c33e
00000280: 1b0d af3e f55b 5c3e 6dac eb3a 2870 9b3e
00000290: 6dac eb3a 6dac eb3a 5cf9 0e3e f9f2 0e3e
000002a0: 5f5e f43e 8b79 c33e 3ef6 b53e a78e 4c3e
000002b0: 6dac eb3a a63f 903e 6dac eb3a 6dac eb3a
000002c0: 5d1b 113e 3b96 0f3e 78e5 f23e b916 c03e
000002d0: f8c6 ad3e a279 573e 6dac eb3a 1358 923e
000002e0: 6dac eb3a 6dac eb3a 81aa 153e 42da 0b3e
000002f0: e994 f13e a6d5 c03e 4068 b83e 5f7e 543e
00000300: 6dac eb3a ea20 863e 6dac eb3a 6dac eb3a
00000310: 6721 143e bf18 133e 0375 f23e bbc7 bc3e
00000320: a2ef aa3e 354d 533e 6dac eb3a ddfe 883e
00000330: 6dac eb3a 6dac eb3a cabf 183e bcf6 093e
00000340: 4d04 ee3e 12dc bb3e dcff b93e fde1 583e
00000350: 6dac eb3a b45a 6f3e 6dac eb3a 6dac eb3a
00000360: 4877 123e d029 103e 243f f03e 4c18 b73e
00000370: 32b3 a83e b335 563e 6dac eb3a 4a48 7a3e
00000380: 6dac eb3a 6dac eb3a cb0b 193e 963b 0e3e
00000390: edcd ea3e e8cf b33e 94ab bc3e b97a 593e
000003a0: 6dac eb3a eb0b 553e 6dac eb3a 6dac eb3a
000003b0: a709 0c3e c40a 0f3e 8482 ee3e 7eae ae3e
000003c0: 9b07 a53e ac5d 583e 6dac eb3a b693 563e
000003d0: 6dac eb3a 6dac eb3a 3174 1b3e 0342 0b3e
000003e0: 5751 e53e 9b60 a83e 21e7 be3e f7d4 543e
000003f0: 6dac eb3a fdba 383e 6dac eb3a 6dac eb3a

onnx::Div_97 f4 [6]
81.79603 48.436157 81.692345 48.44854 89.1204 48.45619
00000000: 9197 a342 a0be 4142 7b62 a342 4ecb 4142
00000010: a53d b242 23d3 4142
